save_config_2/3/model_state.pth (torch, 28347 bytes, 13 tensors)

autoencoder.encoder.0.weight f4 [16, 1, 3, 3]
0.10361544 -0.07723029 0.032281827 -0.09921491 -0.118983336 0.12377497 0.4786453 0.6861305
0.78247654 0.44803196 -0.40868434 -0.45701113 0.50963575 -0.26094508 0.030143576 0.43988416
-0.8328857 -0.10910821 -0.33098602 0.914227 0.15980682 -0.19544114 0.5281261 -0.4264082
0.43121314 0.4544404 -0.32231668 0.075678214 0.22541909 0.8115305 -0.52265537 -0.14260578
0.22123882 -0.38963076 -0.42106524 -0.43252972 -0.23653553 -0.672985 -0.47075725 0.10737921
-0.16475403 -0.53671557 0.8757645 0.64901155 0.3404347 0.38611475 -0.012719983 -0.5420515
0.3833204 0.5446836 0.30272952 -0.641197 -0.14801455 0.48069704 0.349614 0.5614178
0.36521628 -0.23739876 -0.076884724 -0.15884201 -0.24146774 0.3180464 0.26911458 -0.29176876
-0.29967147 0.90899545 -0.5256485 -0.12217658 0.37588972 -0.45588246 -0.009090789 0.39381248
0.85542923 0.31581298 0.27059114 0.14092451 -0.09207658 -0.13785858 -0.039387755 -0.305457
-0.10389189 -0.5706656 -0.25792715 -0.5190617 -0.7568334 -0.0039402763 -0.36399415 -0.5304118
0.18995841 0.8758884 0.2922297 0.31466827 0.14630471 -0.018425623 0.26045394 0.10044577
-0.24558425 0.22196542 0.3327585 -0.42988294 -0.578337 -0.12884802 0.011865693 0.14778887
0.2440598 0.35660455 0.3997812 0.029025162 -0.054967575 -0.15931047 -0.099322975 0.0062743216
-0.10650556 0.048391934 -0.014618223 -0.15654369 0.25244644 -1.4007231 -0.6465114 -0.18246625
-0.12966466 -0.23704271 -0.37638417 -0.7111427 -0.18902424 -0.6859439 -0.026690636 -0.17165045
0.33278486 0.6008805 0.020842418 0.63192725 0.413463 -0.4749929 0.11362622 0.3411498
-0.12942243 -0.26871678 0.5126908 -0.12372767 -0.7411189 1.1960735 0.51028126 -0.22912918
00000000: 5534 d43d ea2a 9ebd f339 043d 3031 cbbd
00000010: 89ad f3bd bb7d fd3d ff10 f53e 40a6 2f3f
00000020: 6250 483f 7264 e53e 133f d1be 5dfd e9be
00000030: 7d77 023f 989a 85be a9ef f63c 7f38 e13e
00000040: ff37 55bf 2074 dfbd 0077 a9be c80a 6a3f
00000050: 66a4 233e b921 48be 4633 073f 2d52 dabe
00000060: f8c7 dc3e 69ac e83e b106 a5be 2efd 9a3d
00000070: 43d4 663e 76c0 4f3f becc 05bf 4007 12be
00000080: 6e8c 623e af7d c7be dd95 d7be 8974 ddbe
00000090: 5f36 72be bf48 2cbf 1807 f1be a2e9 db3d
000000a0: 48b5 28be 3166 09bf 1a32 603f 9f25 263f
000000b0: 754d ae3e d5b0 c53e 7a67 50bc e3c3 0abf
000000c0: 9242 c43e 6270 0b3f 5dff 9a3e 7d25 24bf
000000d0: 2091 17be ec1d f63e 9b00 b33e 14b9 0f3f
000000e0: a1fd ba3e a918 73be bd75 9dbd 7ba7 22be
000000f0: 5243 77be fad6 a23e 63c9 893e b762 95be
00000100: 8a6e 99be edb3 683f e690 06bf b737 fabd
00000110: 9e74 c03e 6d69 e9be 88f1 14bc caa1 c93e
00000120: 69fd 5a3f 3db2 a13e ec8a 8a3e 844e 103e
00000130: a592 bcbd cd2a 0dbe 0e55 21bd dc64 9cbe
00000140: 45c5 d4bd 2417 12bf 070f 84be 3ae1 04bf
00000150: d5bf 41bf 6f1d 81bb 715d babe 11c9 07bf
00000160: 7584 423e 393a 603f 229f 953e 331c a13e
00000170: e7d0 153e 55f1 96bc 385a 853e 83b6 cd3d
00000180: 707a 7bbe e74a 633e 525f aa3e 9e19 dcbe
00000190: e50d 14bf bcf0 03be 5368 423c f755 173e
000001a0: d0ea 793e df94 b63e 1fb0 cc3e 2dc6 ed3c
000001b0: ae25 61bd 4922 23be d869 cbbd d398 cd3b
000001c0: 961f dabd 9f36 463d 4581 6fbc fd4c 20be
000001d0: a940 813e e54a b3bf c581 25bf 6fd8 3abe
000001e0: d0c6 04be 53bb 72be 6db5 c0be 730d 36bf
000001f0: 928f 41be 059a 2fbf 52a6 dabc 23c5 2fbe
00000200: c762 aa3e 4ed3 193f b8bd aa3c fcc5 213f
00000210: 6cb1 d33e 4532 f3be ddb4 e83d 30ab ae3e
00000220: 5087 04be 3f95 89be b43f 033f ef64 fdbd
00000230: f8b9 3dbf f018 993f cba1 023f d7a0 6abe

autoencoder.encoder.0.bias f4 [16]
-0.15633321 -0.098662615 -0.17474964 0.62037826 -0.11014983 0.27310053 0.90735275 -0.10684789
-0.3516646 -0.17553802 -0.6988632 0.2810104 1.6999397 0.4320187 -0.10431153 0.056827113
00000000: d015 20be a00f cabd 92f1 32be 1cd1 1e3f
00000010: 3c96 e1bd d5d3 8b3e 4548 683f 11d3 dabd
00000020: 620d b4be 3dc0 33be b3e8 32bf 98e0 8f3e
00000030: a097 d93f 8e31 dd3e 49a1 d5bd 8cc3 683d

autoencoder.encoder.3.weight f4 [8, 16, 3, 3]
0.042301845 0.014748819 0.07003637 -0.3382651 0.024153633 -0.050536413 0.25136727 0.07713148
-0.07149165 -0.025788207 -0.19673866 0.07983887 -0.4381797 0.27774385 0.096555516 -0.01761363
0.02323362 -0.38855392 0.044869244 -0.17821701 -0.009512099 -0.33227596 0.09025097 0.026842464
0.14126368 0.19675766 -0.25041363 0.13524708 0.19432609 0.1305339 -0.14417657 -0.32464215
-0.19957224 0.25285494 0.07814738 0.4677114 -0.19156277 -0.10092576 0.059046008 0.34816208
-0.054517943 -0.16437283 -0.27167836 -0.12646252 0.109995194 -0.12844355 0.041475635 0.106092535
0.00076934387 -0.22216617 -0.107020795 -0.05628896 -0.19108142 0.19558294 0.027272461 0.14549634
-0.05749405 -0.14872251 -0.36563545 -0.3058983 -0.006487906 -0.10538839 0.48400953 -0.026425377
-0.01585392 -0.070400946 -0.46344492 0.19005986 0.0972167 -0.007768201 -0.15766235 -0.18276414
0.0059060636 -0.16897447 -0.036036823 0.433842 0.25494066 0.13542543 0.19345455 0.27343455
-0.18831767 -0.144952 -0.11683916 -0.07277847 0.4836356 0.28280643 0.10110452 -0.03373975
-0.15093522 -0.111963905 -0.13696368 -0.11645032 0.035672493 -0.32326695 0.22610354 0.07725354
0.13664229 0.22930862 0.023989705 -0.009002619 -0.19131278 -0.05989887 0.41975373 0.10347577
-0.20026517 0.007610478 -0.13397959 0.16000256 0.29756966 0.07502805 -0.117361866 -0.19716829
0.11072823 -0.23517205 -0.057880193 -0.41852185 0.6680804 -0.019845817 0.22047241 0.24586377
0.5489689 0.27810374 -0.04086157 -0.2091881 -0.02413831 -0.20164815 -0.00896717 -0.08094693
-0.11853785 0.2791928 -0.09327594 -0.21230246 0.10649176 0.06877686 0.16030067 -0.1152165
-0.001320014 0.12689328 -0.33493692 -0.09867481 0.03896133 0.14689282 -0.044860847 -0.021182211
0.115035646 0.049221497 0.066259876 0.030075008 0.1974254 -0.42045724 0.075098805 0.04485919
0.085895725 0.0124732815 -0.027442224 -0.004287726 -0.39971697 0.031049054 -0.24478512 0.041948047
0.11488016 0.07352715 0.046522867 0.11839828 0.0047514094 -0.15785718 0.014817181 -0.34273952
0.17426811 -0.0068930597 -0.030498067 0.25170797 0.18549402 0.14738016 -0.05258024 -0.19915351
-0.036102198 6.207395e-05 0.012150397 0.27018866 -0.17489481 -0.06141075 0.03865643 0.35077253
0.0050667604 0.22268613 0.12804867 0.3818387 0.116567664 -0.20591867 0.026698526 0.12229747
0.13253419 0.16346028 -0.061669648 0.12843603 0.12542449 0.057532653 0.058139928 0.14824179
0.29630634 -0.26185954 -0.10180599 -0.0404649 -0.039260104 0.06237117 -0.03888355 0.14941657
-0.11647869 0.12892926 -0.20955141 0.016800359 -0.20802526 0.22610968 -0.2882946 0.18027063
0.097359985 -0.0064008827 -0.07494409 -0.030455183 0.1341085 -0.05499902 0.018606503 -0.14074251
-0.29445308 -0.04505284 -0.32107255 -0.19974327 0.07267691 -0.08416851 -0.13630953 -0.0076156855
-0.12581214 -0.101892464 0.028824983 -0.054193027 -0.088137954 0.0043143914 0.12880926 -0.33857593
0.1755691 0.03732507 0.09090704 0.08653457 0.013184088 0.10796693 0.04620192 -0.13132298
0.023194907 0.0869888 0.002280999 0.1402506 0.024972368 0.18557645 0.3757373 -0.23627634
00000000: b344 2d3d 08a5 713c 3a6f 8f3d 1531 adbe
00000010: d7dd c53c 45ff 4ebd 36b3 803e 1cf7 9d3d
00000020: 376a 92bd ca41 d3bc dc75 49be 9082 a33d
00000030: 1759 e0be 7134 8e3e e6be c53d 764a 90bc
00000040: 6f54 be3c 8af0 c6be d0c8 373d 857e 36be
00000050: a3d8 1bbc 1320 aabe 80d5 b83d bae4 db3c
00000060: 6da7 103e d77a 493e 3736 80be 367e 0a3e
00000070: 6bfd 463e aeaa 053e 06a3 13be 7f37 a6be
00000080: aa5c 4cbe 3476 813e bc0b a03d de77 ef3e
00000090: 0829 44be 2ab2 cebd 3ada 713d 4d42 b23e
000000a0: 354e 5fbd 5a51 28be 6d19 8bbe 647f 01be
000000b0: 2945 e13d b586 03be 5be2 293d 0b47 d93d
000000c0: cbad 493a 877f 63be b82d dbbd 418f 66bd
000000d0: d9aa 43be e546 483e 7f6a df3c fefc 143e
000000e0: e27e 6bbd b74a 18be 9234 bbbe b49e 9cbe
000000f0: 8098 d4bb ded5 d7bd 19d0 f73e 087a d8bc
00000100: 14e0 81bc 5f2e 90bd a748 edbe 0d9f 423e
00000110: 8d19 c73d 658c febb 3d72 21be 8626 3bbe
00000120: a787 c13b a507 2dbe 599b 13bd 8a20 de3e
00000130: 9587 823e f7ac 0a3e f318 463e 9dff 8b3e
00000140: 59d6 40be 4c6e 14be 5f49 efbd e10c 95bd
00000150: 169f f73e 01cc 903e e30f cf3d b132 0abd
00000160: c38e 1abe 554d e5bd 3540 0cbe 817d eebd
00000170: 521d 123d 3f83 a5be b087 673e 1b37 9e3d
00000180: f5eb 0b3e e1cf 6a3e 0f86 c43c b97f 13bc
00000190: 7fe7 43be 8458 75bd f6e9 d63e 1beb d33d
000001a0: 5012 4dbe 5161 f93b f231 09be b6d7 233e
000001b0: 0d5b 983e 4ea8 993d 6b5b f0bd 7ce6 49be
000001c0: 7bc5 e23d f1d0 70be c813 6dbd 7f48 d6be
000001d0: 5107 2b3f b293 a2bc 85c3 613e b6c3 7b3e
000001e0: 3a89 0c3f 9d63 8e3e 765e 27bd 6835 56be
000001f0: b5bd c5bc da7c 4ebe 09eb 12bc 81c7 a5bd
00000200: f9c3 f2bd 5cf2 8e3e 7507 bfbd d165 59be
00000210: 5a18 da3d e2da 8c3d dc25 243e a1f6 ebbd
00000220: 5204 adba 50f0 013e da7c abbe 0516 cabd
00000230: ea95 1f3d 126b 163e 02c0 37bd 5186 adbc
00000240: cf97 eb3d 7b9c 493d 42b3 873d dd5f f63c
00000250: e229 4a3e 2c46 d7be 67cd 993d 45be 373d
00000260: 19ea af3d bc5c 4c3c 84ce e0bc 0d80 8cbb
00000270: b4a7 ccbe 965a fe3c f3a8 7abe b7d1 2b3d
00000280: 4a46 eb3d 6795 963d c38e 3e3d cc7a f23d
00000290: b6b1 9b3b 50a5 21be c3c3 723c 8e7b afbe
000002a0: 5773 323e 2ddf e1bb 15d7 f9bc dedf 803e
000002b0: 25f2 3d3e d3ea 163e 615e 57bd e6ee 4bbe
000002c0: e6df 13bd b32d 8238 7512 473c 2b56 8a3e
000002d0: a017 33be d789 7bbd 3456 1e3d 7598 b33e
000002e0: 1107 a63b d507 643e 311f 033e 5d80 c33e
000002f0: 07bb ee3d 58dc 52be deb6 da3c 1977 fa3d
00000300: 0bb7 073e 2262 273e 5099 7cbd bc84 033e
00000310: 476f 003e 5ca7 6b3d 2224 6e3d b2cc 173e
00000320: 77b5 973e 7412 86be a97f d0bd 86be 25bd
00000330: 34cf 20bd e978 7f3d 5b44 1fbd a800 193e
00000340: 618c eebd 0806 043e a594 56be e8a0 893c
00000350: 9304 55be 4c89 673e 5a9b 93be dd98 383e
00000360: ac64 c73d 7fbe d1bb 497c 99bd 267d f9bc
00000370: bd53 093e a746 61bd aa6c 983c ce1e 10be
00000380: 8ec2 96be 5489 38bd 9f63 a4be 8089 4cbe
00000390: a2d7 943d 8a60 acbd ba94 0bbe 008d f9bb
000003a0: e6d4 00be ffac d0bd 5f22 ec3c 82f9 5dbd
000003b0: ac81 b4bd bd5f 8d3b 93e6 033e d359 adbe
000003c0: 63c8 333e 2ce2 183d 782d ba3d 0939 b13d
000003d0: 1302 583c c41d dd3d 393e 3d3d 8879 06be
000003e0: 3f03 be3c 2f27 b23d d07c 153b da9d 0f3e
000003f0: da92 cc3c c107 3e3e a460 c03e 6df2 71be

autoencoder.encoder.3.bias f4 [8]
-0.05016183 -0.04116375 0.0020321894 -0.032615043 0.14018239 0.04499225 -0.021804044 -0.035088502
00000000: 7e76 4dbd 529b 28bd 7b2e 053b 5a97 05bd
00000010: f98b 0f3e cb49 383d 659e b2bc f6b8 0fbd

autoencoder.encoder.6.weight f4 [2, 8, 2, 2]
-0.06308455 -0.46536314 -0.6896987 -0.77218384 -0.2550295 -0.31992975 -0.8060961 -0.83796036
0.32612145 0.42484447 0.43092766 0.47492892 -0.04765305 0.05402785 0.09261382 0.1622557
-0.051445007 0.073231004 0.69422376 0.33633396 0.48639134 0.88833827 0.5905939 0.84960634
0.18557306 -0.8954077 0.80832916 -0.9938417 -0.06323212 0.27028996 0.08016658 0.3554888
0.04273046 -0.039791435 -1.0331786 -1.8343742 0.18366624 -0.26401255 0.042155545 -0.08665836
-0.1399447 0.051744726 -0.069653064 0.017657226 -0.86311495 -0.69417316 -0.95566887 -0.7660835
0.6295035 0.76273006 1.4133939 0.36648563 0.037509467 -0.11740778 -0.06757532 -0.11217394
0.039426945 -0.08469727 -1.272103 0.40046138 0.46474054 0.24393241 0.8229899 0.47788602
00000000: 7932 81bd 1444 eebe 1890 30bf d7ad 45bf
00000010: 3a93 82be d5cd a3be 505c 4ebf 9284 56bf
00000020: 64f9 a63e 3785 d93e 8da2 dc3e e229 f33e
00000030: d82f 43bd 4f4c 5d3d 51ac bd3d 5c26 263e
00000040: 00b8 52bd 23fa 953d a6b8 313f f733 ac3e
00000050: 4908 f93e 236a 633f 2931 173f cd7f 593f
00000060: dd06 3e3e 7039 65bf a9ee 4e3f 696c 7ebf
00000070: d77f 81bd 7263 8a3e 602e a43d a102 b63e
00000080: 2306 2f3d 58fc 22bd 323f 84bf c6cc eabf
00000090: 0113 3c3e a72c 87be 4bab 2c3d f079 b1bd
000000a0: aa4d 0fbe 47f2 533d 44a6 8ebd e3a5 903c
000000b0: 1af5 5cbf 55b5 31bf b7a6 74bf 0c1e 44bf
000000c0: 2427 213f 4742 433f 17ea b43f 01a4 bb3e
000000d0: 87a3 193d 7d73 f0bd ee64 8abd 73bb e5bd
000000e0: 267e 213d c375 adbd 45d4 a2bf 4609 cd3e
000000f0: 79f2 ed3e 6bc9 793e 77af 523f 7aad f43e

autoencoder.encoder.6.bias f4 [2]
0.0026904456 -0.022746595
00000000: 3052 303b 1157 babc

autoencoder.decoder.0.weight f4 [2, 8, 2, 2]
0.45531118 1.0933076 0.2919205 0.2901131 -0.34592167 0.12742199 -0.06796156 0.37496263
-0.06262167 0.2784305 0.8245614 0.31674933 0.3664697 -1.1473818 0.0398142 -0.20374529
-0.13134637 0.86991256 -0.573267 -1.0211996 -0.49742952 0.21068466 -0.78165925 -0.53416264
0.5270037 0.24126865 -0.098685995 -0.58403593 0.13978297 0.048388585 -1.2195978 0.2756059
0.22353035 0.8639507 0.12736554 1.8150519 -1.2211883 -0.12065075 0.032465592 0.397167
-0.75064844 -0.6009237 -0.48529747 -0.2043049 -0.05638095 0.5939372 -0.22232436 -0.42592382
-0.28382263 -0.34064013 -0.011168281 -0.9322792 -0.7884317 1.169954 0.65810704 -0.8847005
-0.2807086 -0.1157601 -1.5072341 0.4070075 0.4450024 -0.0703933 0.7754252 0.13990301
00000000: 8c1e e93e 81f1 8b3f 9b76 953e b489 943e
00000010: a51c b1be e97a 023e 6e2f 8bbd 1afb bf3e
00000020: ca3f 80bd 718e 8e3e 7516 533f f82c a23e
00000030: eba1 bb3e 68dd 92bf 3714 233d 9ba2 50be
00000040: aa7f 06be 97b2 5e3f a0c1 12bf abb6 82bf
00000050: 15af febe b8bd 573e d21a 48bf e2be 08bf
00000060: b7e9 063f 210f 773e e21b cabd 6183 15bf
00000070: 4423 0f3e 1c33 463d c81b 9cbf 371c 8d3e
00000080: 24e5 643e e02b 5d3f 1d6c 023e 9f53 e83f
00000090: e64f 9cbf be17 f7bd a4fa 043d 7959 cb3e
000000a0: 7f2a 40bf 23d6 19bf e978 f8be 4e35 51be
000000b0: b6ef 66bd 450c 183f ffa8 63be b012 dabe
000000c0: 3351 91be 6268 aebe 2afb 36bc daa9 6ebf
000000d0: a9d6 49bf 0dc1 953f b479 283f bb7b 62bf
000000e0: 0ab9 8fbe a213 edbd 0ced c0bf 4963 d03e
000000f0: 5bd7 e33e 5d2a 90bd 4482 463f bc42 0f3e

autoencoder.decoder.0.bias f4 [8]
-0.54896003 1.6414778 -2.4727626 1.6289729 -0.89705914 1.1222707 -0.4131474 1.6747605
00000000: a588 0cbf f21b d23f be41 1ec0 2f82 d03f
00000010: aba5 65bf 91a6 8f3f 0e88 d3be 8d5e d63f

autoencoder.decoder.2.weight f4 [8, 16, 3, 3]
-0.19212379 0.03269049 -0.0029554192 0.24655963 0.042831678 -0.16459738 -0.0023270447 0.064781204
0.016615242 0.09043908 -0.3600398 0.022513986 0.5954478 0.03730153 -0.06978297 -0.23493211
0.20692517 -0.11115049 0.17042743 -0.033182215 -0.10550822 -0.3100747 -0.09526018 0.004871192
-0.20731096 0.23786987 -0.124096096 -0.10068084 0.048849653 -0.10283926 -0.04044375 -0.031913273
-0.015183696 -0.16724119 -0.061291285 0.06214721 -0.10873596 -0.06879989 0.0036751933 0.026753187
0.11567328 0.06093256 0.100239076 -0.034621246 -0.022426954 -0.05664903 0.0482952 -0.049154688
-0.85104764 -0.20585825 -0.2869443 -0.1523812 0.22361167 0.042459458 0.036876697 -0.12442806
0.0033441382 0.11889571 -0.13231568 -0.046995807 -0.1265133 0.06778507 0.106127925 0.031457968
-0.06629787 0.2116638 -0.36502826 0.03010087 -0.16330019 -0.34553495 -0.19673036 0.03493756
0.03239087 -0.45984146 0.06938346 -0.1022081 -0.25480056 0.17021929 -0.1362913 0.38531065
-0.09440363 -0.089399 -0.031965062 0.11342966 -0.17825732 -0.32493356 -0.09566941 -0.3142333
0.20043318 -0.06055088 0.058703978 -0.0315914 -0.051216822 -0.28311065 -0.31463608 -0.042674653
0.11243538 -0.10821456 -0.018834332 -0.29976478 -0.052034564 0.05046509 -0.8850453 -0.28313962
-0.15635845 -0.30587432 0.19184801 -0.14898705 0.16483451 0.015524091 -0.040760145 -0.46710914
-0.30005005 -0.082454294 -0.10327747 -0.05565558 0.008133671 -0.12101642 -0.17928094 0.023823787
-0.34081897 -0.23434678 -0.03950399 -0.20197375 0.1463468 -0.18586604 -0.010263813 -0.16165729
0.031160824 -0.045193166 -0.0058285757 -0.20336702 -0.52905697 -0.07487315 -0.021319648 -0.059855178
-0.30442536 -0.060434356 -0.29780635 -0.07053719 -0.073381454 -0.813133 0.20356266 0.053824876
0.29989988 -0.11695857 0.059292883 -0.03694683 -0.19704503 0.43717036 -0.005820184 -0.056502286
-0.23334508 0.024817182 0.13337325 0.10106645 0.20096876 0.20938078 -0.054581907 -0.19628228
0.13949557 0.0661872 0.26791766 0.15471236 -0.016522683 -0.0035495511 -0.1726927 -0.5358045
0.15895444 -0.08487643 0.11351508 0.04203857 -0.07961264 0.16288799 -0.23707576 -0.0790766
0.16307177 0.11358316 -0.0029130357 0.14245918 0.2451735 0.6954845 0.0021579654 0.0921759
0.19464387 0.0054922327 0.038560446 0.08395316 0.014335574 -0.013863276 0.012078 0.048150953
-0.0783227 -0.036657337 0.32853952 0.12518089 0.120533474 0.1463647 0.018694531 -0.29498446
0.13551489 -0.11028893 -0.07170231 0.061558403 0.1399825 -0.055738438 0.088881716 0.46417043
-0.056131523 0.20970888 -0.670528 0.053639326 0.06569515 0.105804764 0.31018952 0.16715562
-0.011750129 0.07238544 -0.11358457 0.3563539 -0.16344805 0.2562518 0.08065376 -0.07754311
0.19785385 0.17449278 -0.14478426 -0.1590617 0.030710947 -0.23375371 0.25427476 0.1744249
0.13845171 0.09385578 0.04257486 0.01562716 -0.07821789 -0.12317924 0.01018677 -0.053013176
-0.018790055 0.30090737 0.2108748 -0.12415199 -0.16651592 -0.13191672 0.060409907 -0.23604083
-0.10961112 0.115780145 -0.18470924 0.06168259 0.17190832 0.1266699 0.32071647 -0.31285965
00000000: 19bc 44be 77e6 053d b5af 41bb 217a 7c3e
00000010: 4570 2f3d 378c 28be 5581 18bb 02ac 843d
00000020: b01c 883c 2038 b93d 2357 b8be 406f b83c
00000030: 446f 183f 7dc9 183d 60ea 8ebd 0b92 70be
00000040: 31e4 533e dea2 e3bd 8784 2e3e 13ea 07bd
00000050: b214 d8bd 1cc2 9ebe c517 c3bd 859e 9f3b
00000060: 5349 54be 2994 733e 1826 febd c231 cebd
00000070: 9316 483d 649d d2bd 58a8 25bd 7eb7 02bd
00000080: 09c5 78bc 4641 2bbe 920c 7bbd 138e 7e3d
00000090: f6b0 debd f5e6 8cbd 83db 703b 8029 db3c
000000a0: 1de6 ec3d 6c94 793d 254a cd3d 02cf 0dbd
000000b0: bbb8 b7bc d008 68bd 30d1 453d 6d56 49bd
000000c0: 42de 59bf 81cc 52be 5dea 92be d109 1cbe
000000d0: 75fa 643e f8e9 2d3d 050c 173d 24d4 febd
000000e0: 5429 5b3b 987f f33d c37d 07be ad7e 40bd
000000f0: b48c 01be e6d2 8a3d 9959 d93d 12da 003d
00000100: 2dc7 87bd 65be 583e fce4 babe 1a96 f63c
00000110: 2a38 27be f5e9 b0be af73 49be b01a 0f3d
00000120: 4aac 043d 5770 ebbe ea18 8e3d 7b52 d1bd
00000130: 3875 82be f74d 2e3e f28f 0bbe 7047 c53e
00000140: b156 c1bd d316 b7bd cced 02bd cf4d e83d
00000150: 1689 36be b15d a6be 53ee c3bd 30e3 a0be
00000160: 5b3e 4d3e 3304 78bd 9573 703d fc65 01bd
00000170: bbc8 51bd e1f3 90be fb17 a1be 9ecb 2ebd
00000180: 8544 e63d 989f ddbd 754a 9abc c57a 99be
00000190: 3222 55bd 7bb4 4e3d 5492 62bf adf7 90be
000001a0: 6e1c 20be 8f9b 9cbe ce73 443e 1090 18be
000001b0: 61ca 283e c258 7e3c 1cf4 26bd ee28 efbe
000001c0: 29a0 99be ccdd a8bd 2383 d3bd 1bf7 63bd
000001d0: 1743 053c 75d7 f7bd 6c95 37be 1a2a c33c
000001e0: d37f aebe 9af8 6fbe f0ce 21bd 35d2 4ebe
000001f0: efdb 153e ab53 3ebe 8d29 28bc 7d89 25be
00000200: fc44 ff3c 781c 39bd a3fd bebb 723f 50be
00000210: 4770 07bf 1857 99bd 8ba6 aebc b42a 75bd
00000220: a4dd 9bbe 048a 77bd 137a 98be cd75 90bd
00000230: 0449 96bd 7c29 50bf bb72 503e 7977 5c3d
00000240: 7a8c 993e fa87 efbd 18dd 723d 8f55 17bd
00000250: 2cc6 49be cbd4 df3e 3eb7 bebb f16e 67bd
00000260: 03f2 6ebe 674d cb3c ff92 083e edfb ce3d
00000270: c1ca 4d3e ea67 563e 4791 5fbd 39fe 48be
00000280: edd7 0e3e 288d 873d 812c 893e eb6c 1e3e
00000290: 945a 87bc 969f 68bb 5bd6 30be 7c2a 09bf
000002a0: f4c4 223e b2d3 adbd 987a e83d a330 2c3d
000002b0: f40b a3bd 1ccc 263e fdc3 72be eaf2 a1bd
000002c0: 49fc 263e 4a9e e83d a1e8 3ebb d2e0 113e
000002d0: c30e 7b3e 460b 323f a76c 0d3b b8c6 bc3d
000002e0: b950 473e 30f8 b33b 8ff1 1d3d a2ef ab3d
000002f0: c1df 6a3c cb22 63bc cee2 453c ef39 453d
00000300: a767 a0bd 0126 16bd 5536 a83e 6b2f 003e
00000310: 41da f63d a1e0 153e 4625 993c 3408 97be
00000320: 6ac4 0a3e 2adf e1bd a9d8 92bd aa24 7c3d
00000330: 9357 0f3e fd4d 64bd 9e07 b63d bfa7 ed3e
00000340: 2bea 65bd edbd 563e b9a7 2bbf e9b4 5b3d
00000350: 2e8b 863d 2bb0 d83d 29d1 9e3e d82a 2b3e
00000360: 9d83 40bc d13e 943d 079f e8bd 0574 b63e
00000370: ed5e 27be 7033 833e cc2d a53d ecce 9ebd
00000380: 339a 4a3e 3cae 323e 5342 14be 12e1 22be
00000390: 8695 fb3c 225d 6fbe 4d30 823e 719c 323e
000003a0: 49c6 0d3e 7637 c03d fa62 2e3d 8804 803c
000003b0: b330 a0bd 6645 fcbd 69e6 263c 5824 59bd
000003c0: 9aed 99bc 8810 9a3e 90ef 573e 6643 febd
000003d0: 2683 2abe 2d15 07be 6170 773d b0b4 71be
000003e0: cb7b e0bd 241e ed3d 6b24 3dbe e2a6 7c3d
000003f0: bc08 303e c1b5 013e f334 a43e 242f a0be

autoencoder.decoder.2.bias f4 [16]
0.00087588065 1.1123002 -0.3238182 -0.6319741 0.9445375 0.0722441 -0.2531932 0.3078035
-0.317549 -0.20356454 0.537175 -0.49410614 -0.07771155 -0.18365192 0.38345644 -0.27817336
00000000: 5b9b 653a da5f 8e3f 80cb a5be 0ec9 21bf
00000010: 36cd 713f b7f4 933d 8aa2 81be 6c98 9d3e
00000020: c895 a2be 3973 50be 4d84 093f 7bfb fcbe
00000030: 3c27 9fbd 400f 3cbe 6754 c43e bd6c 8ebe

autoencoder.decoder.4.weight f4 [16, 8, 5, 5]
0.11732534 -0.030327724 -0.07580218 0.12881383 0.078699246 0.06538983 -0.26818463 0.011535175
0.24413744 0.02141405 0.11196156 -0.19898503 0.0010193303 0.16402498 0.13372205 0.030851604
0.13487758 0.17119902 0.17489067 0.123041995 -0.14519775 0.09166779 0.13130641 0.18068086
0.09388835 0.09306191 0.17274569 0.101055704 0.07506371 0.068897106 0.20479268 -0.03589695
-0.20842126 0.15931268 0.21424066 0.1896491 -0.31445685 -0.24108255 0.25669828 0.33577386
0.009535619 0.19091927 0.3082282 0.47243193 0.299574 -0.04757933 -0.07679867 0.33309966
0.3631587 0.08540106 0.008221805 0.20948976 -0.0373571 -0.04749503 0.21368311 0.020236755
-0.02171999 -0.04342018 0.23966138 0.20077771 -0.36371303 -0.072544895 0.08512019 0.43530494
0.34245947 -0.055132262 -0.1069239 0.2881027 0.12696025 0.026533233 -0.04790278 0.05738126
0.122991905 0.2411254 0.038727522 -0.06674884 -0.113653876 -0.26224217 0.13769397 0.118439145
0.027092373 0.05489413 0.0539868 0.03425279 -0.05659669 0.34495664 0.28390396 0.27873284
0.22972275 0.01129694 0.08321459 -0.01491306 -0.04329392 0.19760285 0.115505375 -0.05944139
0.032002274 0.21091577 0.10007828 0.14267702 -0.0025374792 0.01465659 0.054599147 0.0163549
-0.019570392 0.11769435 0.06352837 0.11748782 -0.014125167 -0.21809044 0.028608032 0.08661754
0.019302314 -0.106194615 -0.21494623 -0.02434883 0.0004309296 -0.030129908 -0.13336352 -0.07237914
0.0102696 0.13149855 0.026329534 -0.010753229 -0.08155289 -0.04370799 0.23910792 0.069179595
0.019035121 0.11661115 -0.03311337 0.08361615 0.08548915 -0.05089825 -0.28962293 -0.1260034
0.09571934 -0.009561435 -0.01874047 -0.13133073 0.10370184 0.018421493 0.04306249 0.04573113
0.04994482 0.1008694 0.06294999 0.23073798 0.1374605 -0.052842714 -0.030054213 0.06093565
-0.038112354 -0.13321863 0.03418496 -0.094488665 -0.027437305 -0.10845184 0.09250504 0.13170223
-0.2008999 -0.09678245 -3.1687614e-05 0.24754572 0.25964895 -0.07738752 -0.06402196 0.15164621
0.22910325 0.08956554 -0.058291093 0.10930399 0.2368819 0.24729793 0.03511832 0.0474018
0.019888591 -0.14030674 -0.040405292 0.097408935 0.085641704 -0.11414364 -0.19693814 0.03794547
0.17883615 0.1619388 -0.115208656 -0.09024954 0.18483801 0.33147487 0.047252286 0.09106423
0.0038618138 0.2006769 0.31049865 -0.111085646 0.013802668 -0.04022722 0.1873519 0.1845849
-0.0069890805 -0.08631744 -0.018829286 -0.16196 -0.10780534 -0.13561055 -0.13132147 -0.22416066
-0.091055006 0.0009872129 -0.12790987 -0.29444548 -0.16940574 -0.11262771 0.06638399 -0.16412519
-0.29852298 -0.2119705 -0.079483695 0.045901485 -0.042362023 -0.19012934 -0.17984267 -0.0636026
0.046666328 -0.23970905 0.03163075 0.062595926 -0.07361722 -0.21875966 -0.25806206 -0.111709334
-0.31386915 -0.18363869 -0.13138367 -0.13435833 -0.3447806 -0.40085235 -0.5392476 -0.08835556
0.055949617 -0.19161665 -0.4108289 -0.2215634 0.060065404 0.020018408 -0.30962333 -0.16600095
-0.23638591 0.052689623 0.042893663 -0.092086814 -0.038179327 -0.2008431 -0.100008816 -0.15417032
00000000: 4548 f03d d971 f8bc 2c3e 9bbd c6e7 033e
00000010: 122d a13d 1aeb 853d 7f4f 89be 08fe 3c3c
00000020: 2aff 793e 856c af3c 1a4c e53d bbc2 4bbe
00000030: 0d9b 853a 2af6 273e 6fee 083e 81bc fc3c
00000040: 591d 0a3e cc4e 2f3e 8a16 333e 71fd fb3d
00000050: b8ae 14be 53bc bb3d 3075 063e 6704 393e
00000060: 8948 c03d 3e97 be3d 3fe4 303e 4bf6 ce3d
00000070: 01bb 993d ed19 8d3d 2cb5 513e ae08 13bd
00000080: 626c 55be dd22 233e e761 5b3e 6033 423e
00000090: 7d00 a1be 58de 76be f56d 833e 8dea ab3e
000000a0: 493b 1c3c 5780 433e 16d0 9d3e 99e2 f13e
000000b0: c361 993e 8be2 42bd 9f48 9dbd 0a8c aa3e
000000c0: f0ef b93e c0e6 ae3d c0b4 063c 7c84 563e
000000d0: c203 19bd 268a 42bd bfcf 5a3e 8dc7 a53c
000000e0: 1fee b1bc 5cd9 31bd cb69 753e ac98 4d3e
000000f0: 9838 babe 6b92 94bd 7f53 ae3d 4ae0 de3e
00000100: d956 af3e 5ed2 61bd ebfa dabd 3282 933e
00000110: de01 023e 395c d93c b535 44bd 9d08 6b3d
00000120: 2ee3 fb3d 94e9 763e c0a0 1e3d 9eb3 88bd
00000130: 5dc3 e8bd 9b44 86be a6ff 0c3e 3990 f23d
00000140: d3f0 dd3c abd8 603d 4321 5d3d a74c 0c3d
00000150: eed1 67bd 289e b03e dc5b 913e 12b6 8e3e
00000160: 713c 6b3e cd16 393c 696c aa3d e855 74bc
00000170: f754 31bd 6758 4a3e 158e ec3d d178 73bd
00000180: d114 033d 4efa 573e d7f5 cc3d ed19 123e
00000190: d64b 26bb 3222 703c 5ba3 5f3d b6fa 853c
000001a0: 1652 a0bc bc09 f13d 291b 823d 749d f03d
000001b0: 3f6d 67bc 1a53 5fbe 645b ea3c 8964 b13d
000001c0: e31f 9e3c 907c d9bd dd1a 5cbe 3377 c7bc
000001d0: 64ee e139 ffd2 f6bc 7290 08be 843b 94bd
000001e0: d341 283c 8ea7 063e 09b1 d73c 502e 30bc
000001f0: 3405 a7bd 2607 33bd b5d8 743e 08ae 8d3d
00000200: 8bef 9b3c d4d1 ee3d e3a1 07bd f23e ab3d
00000210: ef14 af3d af7a 50bd 7549 94be 0907 01be
00000220: 8008 c43d 91a7 1cbc 9d85 99bc 907b 06be
00000230: a161 d43d ace8 963c 4b62 303d 9150 3b3d
00000240: f192 4c3d 9e94 ce3d edeb 803d 9446 6c3e
00000250: 72c2 0c3e 9a71 58bd 4134 f6bc a997 793d
00000260: b31b 1cbd 776a 08be 8705 0c3d 4683 c1bd
00000270: 33c4 e0bc 001c debd 4873 bd3d f3dc 063e
00000280: b4b8 4dbe e135 c6bd 51e8 04b8 a07c 7d3e
00000290: b5f0 843e 597d 9ebd f21d 83bd 2549 1b3e
000002a0: 0b9a 6a3e 236e b73d a4c2 6ebd c5da df3d
000002b0: 2b91 723e ab3b 7d3e 3ad8 0f3d 6428 423d
000002c0: 66ed a23c 92ac 0fbe 0580 25bd 567e c73d
000002d0: eb64 af3d 24c4 e9bd 27aa 49be b66c 1b3d
000002e0: d320 373e 49d3 253e 84f2 ebbd c0d4 b8bd
000002f0: 2d46 3d3e 13b7 a93e 9d8b 413d e27f ba3d
00000300: 7c16 7d3b 3f7e 4d3e aef9 9e3e df80 e3bd
00000310: 9624 623c 4cc5 24bd 2dd9 3f3e d303 3d3e
00000320: a804 e5bb 33c7 b0bd e03f 9abc d8d8 25be
00000330: 0cc9 dcbd 7edd 0abe 2379 06be 5f8a 65be
00000340: 0c7b babd 5e65 813a cefa 02be 8fc1 96be
00000350: b378 2dbe 5ba9 e6bd 54f4 873d 6f10 28be
00000360: 01d8 98be cb0e 59be 59c8 a2bd 3203 3c3d
00000370: cd83 2dbd 44b1 42be ad28 38be 1442 82bd
00000380: 3125 3f3d 4a76 75be 3f8f 013d 4b32 803d
00000390: a0c4 96bd 8802 60be b620 84be ddc7 e4bd
000003a0: 75b3 a0be c80b 3cbe 7189 06be 3b95 09be
000003b0: 1587 b0be 853c cdbe 210c 0abf c3f3 b4bd
000003c0: 6d2b 653d 2837 44be 2a58 d2be 84e1 62be
000003d0: 2407 763d a5fd a33c f386 9ebe 27fc 29be
000003e0: 260f 72be 13d1 573d 44b1 2f3d 0398 bcbd
000003f0: ed61 1cbd d0a9 4dbe 6cd1 ccbd d3de 1dbe

autoencoder.decoder.4.bias f4 [8]
-0.7403995 -0.7056295 -0.46803257 -0.72161454 0.07900901 -0.9260976 -0.59629893 -0.71994746
00000000: d28a 3dbf 23a4 34bf f7a1 efbe bbbb 38bf
00000010: 7acf a13d bb14 6dbf 0ca7 18bf 7a4e 38bf

autoencoder.decoder.6.weight f4 [8, 1, 2, 2]
-0.8120816 -0.09442871 -0.61340266 0.10811632 0.6633038 0.5655049 0.47522044 0.37282616
0.18495685 0.27819353 0.5545217 0.64478153 0.40518606 0.4755727 0.5365652 0.5990384
0.15437183 0.11582458 0.13388395 0.0923242 -0.5579266 -0.58740026 -0.65290076 -0.65777385
0.4451689 0.33438373 -0.14608878 -0.265066 -0.04782112 -0.72265244 0.10413012 -0.5808703
00000000: 94e4 4fbf d763 c1bd f507 1dbf 176c dd3d
00000010: 47ce 293f eec4 103f 1850 f33e 12e3 be3e
00000020: 5465 3d3e 626f 8e3e 22f5 0d3f 6710 253f
00000030: 8c74 cf3e 447e f33e 565c 093f 955a 193f
00000040: a613 1e3e 7035 ed3d e018 093e 7814 bd3d
00000050: 47d4 0ebf dd5f 16bf 8124 27bf de63 28bf
00000060: 2eed e33e 5834 ab3e 4c98 15be bbb6 87be
00000070: 14e0 43bd c0ff 38bf 2c42 d53d eab3 14bf
