save_config_2/13/model_state.pth (torch, 28347 bytes, 13 tensors)

autoencoder.encoder.0.weight f4 [16, 1, 3, 3]
0.01771449 0.17943773 0.25463736 -0.013137459 0.1364708 0.26570338 0.3721641 0.44745845
0.5707076 0.5770384 -0.0026949334 -0.1494723 0.5660116 0.014635532 0.0029510697 0.8766289
0.2437951 0.008565932 -0.09999338 0.4999419 -0.2751638 0.034373656 0.24576429 -0.36362457
0.093810774 0.40036047 -0.4650303 0.07514822 0.48256773 0.3280241 -0.17601334 0.13938813
0.18519774 -0.6649243 -0.19114266 -0.19642062 0.10566427 -0.26530752 0.11515088 0.48451123
0.16616654 0.5597092 0.47791713 0.32610816 0.36548772 0.70444435 0.56751525 0.24609868
0.104562536 0.30156207 0.19327272 0.09989872 0.056529533 0.17186905 -0.54497445 -0.6569693
-0.6941857 -0.14061843 -0.16915482 -0.053359043 -0.026169803 0.058377314 0.04029397 -0.52726793
-0.4394119 -0.19061531 -0.45546365 -0.022224681 0.3649482 0.012287028 0.3438369 0.7377029
0.64445156 0.52238744 0.21647747 0.2854258 0.32768032 -0.09627578 0.048216477 0.22982104
-0.15148073 -0.7944323 -0.5222036 -0.055294044 -0.586821 -0.4489423 0.112808555 -1.0811166
-0.68606406 0.10443176 -0.073760085 0.29426476 0.11721136 -0.03824938 0.3947018 0.086516716
0.02545799 0.44035593 0.21594064 -0.06669254 -0.21480066 -0.018376723 0.04633793 0.055016574
0.037648186 0.22738849 0.18308292 -0.10657667 0.06675993 0.030417917 0.07607083 0.13622443
-0.016397972 0.037717868 0.031983614 -0.08043156 0.07236262 0.30597612 -0.08240318 -0.24386585
-0.105333 -0.2829812 -0.509032 -0.19833982 -0.1979894 -0.90236044 -0.27449462 0.2670701
0.9529369 0.10517933 0.34051025 0.6905084 0.02802938 -0.009496638 0.010968147 0.5474639
-0.045735832 -0.5670759 0.565324 -0.07962134 -0.4238989 0.5047067 -0.061213594 -0.45935094
00000000: fa1d 913c 86be 373e d45f 823e 7f3e 57bc
00000010: 00bf 0b3e 460a 883e 4b8c be3e 4619 e53e
00000020: e519 123f cab8 133f 7b9d 30bb 440f 19be
00000030: 23e6 103f dfc9 6f3c bc66 413b c06a 603f
00000040: 6ca5 793e 1f58 0c3c 54c9 ccbd 62f8 ff3e
00000050: 45e2 8cbe 64cb 0c3d a2a9 7b3e 002d babe
00000060: dd1f c03d 0cfc cc3e 7418 eebe 4fe7 993d
00000070: 1e13 f73e c6f2 a73e d73c 34be c3bb 0e3e
00000080: 7aa4 3d3e 7b38 2abf e7ba 43be 7d22 49be
00000090: 8266 d83d 63d6 87be 39d4 eb3d db11 f83e
000000a0: 9027 2a3e 1a49 0f3f 8eb1 f43e a6f7 a63e
000000b0: 3521 bb3e 7756 343f ae48 113f 4b01 7c3e
000000c0: e224 d63d 5866 9a3e 49e9 453e b397 cc3d
000000d0: 838b 673d 71fe 2f3e 7283 0bbf 242f 28bf
000000e0: 27b6 31bf 47fe 0fbe ec36 2dbe 038f 5abd
000000f0: 0e62 d6bc 0d1d 6f3d 4a0b 253d 08fb 06bf
00000100: 99fa e0be a930 43be 8832 e9be 8910 b6bc
00000110: 7eda ba3e 884f 493c 640b b03e 19da 3c3f
00000120: c7fa 243f 2fbb 053f 45ac 5d3e 5523 923e
00000130: b7c5 a73e 3c2c c5bd a47e 453d 3556 6b3e
00000140: c41d 1bbe ea5f 4bbf 23af 05bf 027c 62bd
00000150: e739 16bf c4db e5be 2c08 e73d 0762 8abf
00000160: e5a1 2fbf 52e0 d53d 870f 97bd dfa9 963e
00000170: 820c f03d 62ab 1cbd 5b16 ca3e ad2f b13d
00000180: 468d d03c 5576 e13e 8b1f 5d3e 1996 88bd
00000190: b4f4 5bbe c88a 96bc d7cc 3d3d 0f59 613d
000001a0: fc34 1a3d 87d8 683e 177a 3b3e df44 dabd
000001b0: 6eb9 883d ff2e f93c 06cb 9b3d 6b7e 0b3e
000001c0: 0a55 86bc 0d7e 1a3d 4001 033d 4db9 a4bd
000001d0: da32 943d e7a8 9c3e 00c3 a8bd f8b7 79be
000001e0: d4b8 d7bd e9e2 90be ec4f 02bf 9819 4bbe
000001f0: bcbd 4abe 1801 67bf 8f8a 8cbe 6abd 883e
00000200: acf3 733f 4368 d73d 5c57 ae3e 29c5 303f
00000210: df9d e53c c997 1bbc beb3 333c 9826 0c3f
00000220: 7f55 3bbd e32b 11bf 13b9 103f 8310 a3bd
00000230: 4709 d9be 7534 013f 1bbb 7abd 0c30 ebbe

autoencoder.encoder.0.bias f4 [16]
0.6733265 -0.12598339 0.54671615 0.7137306 -0.077371135 -0.13076885 1.5537828 -0.012102532
0.13645577 0.48830333 -0.9067671 1.1925042 1.695283 0.9912757 -0.102711216 0.55104506
00000000: 205f 2c3f ca01 01be 97f5 0b3f 0cb7 363f
00000010: c274 9ebd 45e8 05be 5be2 c63f b349 46bc
00000020: 10bb 0b3e e502 fa3e e321 68bf faa3 983f
00000030: 09ff d83f 3fc4 7d3f 425a d2bd 4a11 0d3f

autoencoder.encoder.3.weight f4 [8, 16, 3, 3]
0.10562172 -0.21131405 0.07847006 -0.043863848 -0.14187609 -0.38466415 -0.18243124 0.21578185
0.14360304 -0.014009483 -0.17619315 -0.03957779 0.19227937 0.08108644 -0.0039422265 -0.2540651
0.32315922 0.20204239 0.25643426 -0.080929354 -0.07689809 0.06740756 -0.10770952 -0.18135235
-0.13182987 0.062234476 -0.0105308695 -0.07084954 0.06221804 -0.037386406 0.10747884 -0.16331878
-0.11623888 0.3031073 -0.004582851 -0.032564666 0.21677507 -0.3017294 -0.029878272 0.09173681
0.023947712 -0.16279092 -0.21223283 0.24891464 0.16235986 0.14709939 -0.4498969 0.08001815
0.03485202 -0.09626871 -0.28875884 -0.24071673 0.26217878 0.14796682 0.7007251 0.10476138
0.29558426 -0.27759317 -0.086280674 -0.010082183 -0.041896038 -0.06327277 0.00908801 0.20116378
-0.18951969 -0.058829162 -0.03152027 0.104178436 -0.22164108 -0.027214587 0.21881688 0.13202783
-0.013204131 -0.36986214 0.016778776 0.12354378 -0.042285535 -0.394581 -0.1985308 0.29986072
0.11832453 -0.17375693 0.120398454 0.6083271 -0.07763116 -0.014215108 0.36447352 -0.19628803
0.015430955 -0.14788502 0.1795581 -0.22369897 0.103925556 0.124554835 -0.018423606 -0.07204214
-0.30895308 -0.021658303 0.0803147 -0.014764457 0.18970524 0.055299018 -0.11784474 -0.018823897
-0.22838822 0.065272965 0.19237012 0.18600339 -0.063635804 0.34941465 0.08095606 -0.04702014
-0.13692433 -0.37642625 0.06508254 0.27851945 0.05277895 0.34679374 -0.19297446 0.24535297
-0.4980111 0.0077994238 0.12393173 -0.28495866 -0.22990432 -0.46572915 0.3021313 -0.24884461
0.02474937 0.053821776 -0.26009655 -0.52429736 -0.17012618 0.08569186 0.039320525 0.1567618
0.12436999 0.044962272 0.0295549 -0.3853014 0.033089057 -0.16217354 0.057295464 -0.09655983
-0.2646327 -0.161139 0.17571402 -0.030915318 -0.11874311 0.107758544 -0.040495437 -0.027033009
-0.02479333 -0.534387 0.11619072 -0.07696154 0.2367607 0.19936065 0.012835239 -0.026693055
0.07555583 -0.083134145 -0.14275937 -0.23424001 0.13343003 0.03689449 0.090825275 -0.041161228
-0.067146204 -0.13372105 -0.1084551 -0.0583344 -0.16444503 -0.067853354 0.06532816 -0.004761
-0.018801294 0.18826748 0.115806654 0.20905171 -0.45284745 0.08477282 0.13102487 0.14309672
0.07583742 0.12849781 -0.053131003 0.04199283 -0.06204925 -0.4684761 0.072488844 -0.01620637
0.14143719 0.11526673 0.1952002 0.054099806 0.08801352 -0.08287831 0.07763634 0.15618388
-0.20337997 0.7948271 -0.40765253 -0.36778095 -0.11426911 0.15036522 0.05720896 0.19773868
0.1456202 0.06310728 0.23842359 0.102721356 0.0205267 -0.015320276 -0.011397643 0.07529786
-0.4533757 0.05798694 -0.02084742 0.07544552 0.053196043 0.067075774 -0.012588021 0.067945644
-0.12172361 0.12653394 0.29420015 -0.20611946 0.16884197 0.03439955 -0.16866858 -0.17923786
0.2888383 -0.15974897 -0.11740305 0.13165575 -0.11272356 -0.0021391988 0.25742814 -0.15039419
0.13715737 0.12030058 -0.1819276 -0.2811499 -0.023129899 0.15716119 0.17126547 -0.05712387
0.03351698 0.057200577 -0.15265927 0.0282127 -0.22323519 -0.2358319 0.12808745 -0.063428454
00000000: 3350 d83d b662 58be e9b4 a03d 94aa 33bd
00000010: f747 11be b3f2 c4be 41cf 3abe ebf5 5c3e
00000020: ad0c 133e 0888 65bc fa6b 34be 521c 22bd
00000030: e2e4 443e a610 a63d cb2d 81bb d214 82be
00000040: 2075 a53e 33e4 4e3e 5a4b 833e 4abe a5bd
00000050: bf7c 9dbd fa0c 8a3d cf96 dcbd 6eb4 39be
00000060: 69fe 06be 94e9 7e3d ab89 2cbc 9019 91bd
00000070: 58d8 7e3d 7d22 19bd de1d dc3d 0a3d 27be
00000080: a60e eebd e130 9b3e be2b 96bb 8762 05bd
00000090: 49fa 5d3e 477c 9abe 47c3 f4bc 82e0 bb3d
000000a0: fe2d c43c aab2 26be 9053 59be 7be3 7e3e
000000b0: aa41 263e 39a1 163e e358 e6be 8ee0 a33d
000000c0: fec0 0e3d 8828 c5bd 33d8 93be 727e 76be
000000d0: 4c3c 863e 9d84 173e b862 333f 228d d63d
000000e0: d256 973e b120 8ebe ecb3 b0bd be2f 25bc
000000f0: 2e9b 2bbd 2795 81bd e0e5 143c e1fd 4d3e
00000100: 7311 42be d9f6 70bd 661b 01bd 815b d53d
00000110: e1f5 62be 20f1 debc 8811 603e 4e32 073e
00000120: 2456 58bc 925e bdbe a573 893c 8504 fd3d
00000130: 9933 2dbd 8506 cabe a84b 4bbe 5887 993e
00000140: 2254 f23d 56ed 31be 7793 f63d 53bb 1b3f
00000150: 16fd 9ebd 7ce6 68bc 469c ba3e bbff 48be
00000160: 1ed2 7c3c 2c6f 17be 14de 373e 5811 65be
00000170: ecd6 d43d 9b16 ff3d 1aed 96bc d48a 93bd
00000180: 192f 9ebe c16c b1bc 097c a43d 9fe6 71bc
00000190: 1742 423e 3981 623d 9558 f1bd 9334 9abc
000001a0: 9ade 69be d5ad 853d acfc 443e ac77 3e3e
000001b0: 7d53 82bd 7ae6 b23e 4acc a53d 3198 40bd
000001c0: e435 0cbe f1ba c0be ff49 853d 1a9a 8e3e
000001d0: be2e 583d f38e b13e 199b 45be cf3d 7b3e
000001e0: 50fb febe 4f92 ff3b ebcf fd3d 1ae6 91be
000001f0: 0a6c 6bbe 0d74 eebe f4b0 9a3e 1fd1 7ebe
00000200: 31bf ca3c 3974 5c3d 602b 85be 5a38 06bf
00000210: 8f35 2ebe 377f af3d 8f0e 213d 2a86 203e
00000220: b1b5 fe3d 5c2a 383d 1e1d f23c 3a46 c5be
00000230: 6488 073d d210 26be a6ae 6a3d 29c1 c5bd
00000240: f07d 87be 9f01 25be 60ee 333e 1f42 fdbc
00000250: 962f f3bd 83b0 dc3d 8bde 25bd 5474 ddbc
00000260: 621b cbbc 96cd 08bf 66f5 ed3d 039e 9dbd
00000270: 6671 723e 3325 4c3e e54a 523c 65ab dabc
00000280: 04bd 9a3d 3c42 aabd 832f 12be 9ddc 6fbe
00000290: e2a1 083e ad1e 173d 9a02 ba3d ad98 28bd
000002a0: f383 89bd 2cee 08be b51d debd 0df0 6ebd
000002b0: 4764 28be b3f6 8abd c5ca 853d 2a02 9cbb
000002c0: 2c05 9abc 31c9 403e 0a2c ed3d a711 563e
000002d0: 9fdb e7be 5f9d ad3d 622b 063e f287 123e
000002e0: a650 9b3d ee94 033e e59f 59bd ac00 2c3d
000002f0: 5b27 7ebd 19dc efbe 0875 943d 39c3 84bc
00000300: e9d4 103e f710 ec3d 90e2 473e c297 5d3d
00000310: 6f40 b43d 1abc a9bd cdff 9e3d abee 1f3e
00000320: d742 50be ca79 4b3f d5b7 d0be c94d bcbe
00000330: ec05 eabd 57f9 193e f153 6a3d 027c 4a3e
00000340: 761d 153e 643e 813d 5025 743e 935f d23d
00000350: 9c27 a83c e501 7bbc 2ebd 3abc c435 9a3d
00000360: dc20 e8be b783 6d3d 35c8 aabc 2e83 9a3d
00000370: 18e4 593d 065f 893d fd3d 4ebc 1627 8b3d
00000380: 3a4a f9bd 1d92 013e 67a1 963e fb10 53be
00000390: e9e4 2c3e 8be6 0c3d 75b7 2cbe 218a 37be
000003a0: 9de2 933e 3c95 23be 0371 f0bd c4d0 063e
000003b0: 9cdb e6bd cd31 0cbb 9fcd 833e ef00 1abe
000003c0: fb72 0c3e 2760 f63d 3b4b 3abe e1f2 8fbe
000003d0: ea7a bdbc ddee 203e 3760 2f3e b8fa 69bd
000003e0: 1a49 093d 274b 6a3d b652 1cbe 521e e73c
000003f0: c497 64be eb7d 71be 5b29 033e c7e6 81bd

autoencoder.encoder.3.bias f4 [8]
-0.07239227 -0.34058866 0.102906 0.06927562 0.25545242 0.1737942 -0.17632982 0.2030985
00000000: 6642 94bd a361 aebe 62c0 d23d 60e0 8d3d
00000010: a9ca 823e 1bf7 313e ce8f 34be 0ef9 4f3e

autoencoder.encoder.6.weight f4 [2, 8, 2, 2]
0.2491572 0.24686556 0.11113675 -1.1587371 0.66040516 -0.27070105 0.38042477 -0.353385
-0.06204695 0.5309147 0.48532543 0.13185365 -0.3419936 0.48632556 0.85719264 1.1899546
-0.8479 0.2513763 -0.80799997 -0.37196273 0.55204815 0.53537583 0.3742395 0.5823333
0.7751405 -0.95210934 -0.22231324 -0.17470442 0.19426881 -0.3860441 1.2731862 -0.549545
0.84349775 0.16245781 0.2986883 -1.0181713 0.95017225 0.4093358 0.91317415 0.8477528
-0.9325638 0.70292276 -0.27843902 0.028015263 -0.97073734 0.49826786 -0.512726 0.20354623
-1.2418946 0.61844265 -0.011701664 0.6128987 -0.022582779 -0.17206037 -0.010853847 -0.17421104
-1.1007584 0.71802384 -0.936129 -0.2601729 1.2386714 0.098197035 0.26584125 -0.2685488
00000000: 1123 7f3e 53ca 7c3e aa9b e33d 7f51 94bf
00000010: 5010 293f 5499 8abe 09c7 c23e e1ee b4be
00000020: f124 7ebd 07ea 073f 937c f83e a504 073e
00000030: c919 afbe aaff f83e fa70 5b3f 6f50 983f
00000040: f90f 59bf 65b4 803e 16d9 4ebf e671 bebe
00000050: 0753 0d3f 640e 093f 529c bf3e cc13 153f
00000060: 9c6f 463f 70bd 73bf 15a6 63be b7e5 32be
00000070: 67ee 463e 93a7 c5be c4f7 a23f fbae 0cbf
00000080: 78ef 573f 575b 263e aced 983e 7053 82bf
00000090: 7d3e 733f 7694 d13e c8c5 693f 5406 593f
000000a0: 80bc 6ebf bff2 333f 8f8f 8ebe 4480 e53c
000000b0: 3e82 78bf f71c ff3e 0342 03bf 6c6e 503e
000000c0: 67f6 9ebf 4252 1e3f 56b8 3fbc eee6 1c3f
000000d0: 85ff b8bc 9830 30be 55d4 31bc 6164 32be
000000e0: a7e5 8cbf 69d0 373f 26a6 6fbf 6235 85be
000000f0: c98c 9e3f 871b c93d 581c 883e 3a7f 89be

autoencoder.encoder.6.bias f4 [2]
0.07890365 -0.14234284
00000000: 3d98 a13d 52c2 11be

autoencoder.decoder.0.weight f4 [2, 8, 2, 2]
0.27816373 0.67274827 -0.65429074 -0.32687953 0.01514211 0.34088913 0.26100877 0.6466902
0.14463416 0.25009987 0.75966597 0.5400032 0.22914565 -0.045971625 0.36998913 0.2666977
-0.0064721894 0.59678435 -0.16291174 -0.26152545 -1.1187662 -0.18741608 -1.0754491 -0.73056215
-0.1798413 0.37777847 -0.35505155 -1.9759201 -0.6223089 0.106577426 -0.4839611 0.36207855
-0.64498204 0.7543096 -0.03211743 -0.051532883 -0.88694185 -0.10959866 1.0590565 0.60311466
-0.38514632 -0.16683157 0.012090214 -0.19044349 -0.74981195 0.8922603 -0.57306564 -0.3818168
0.010075446 -0.7786511 0.0351415 -0.8930549 -0.5232734 -0.62627304 -0.5106195 -0.8192929
-0.80284756 0.098437436 -1.0612351 -0.15646522 -0.53678405 -0.15248759 1.1528794 -1.001182
00000000: 7a6b 8e3e 3b39 2c3f 997f 27bf c15c a7be
00000010: 9d16 783c 0589 ae3e f1a2 853e 7d8d 253f
00000020: fa1a 143e 170d 803e 7879 423f a63d 0a3f
00000030: 28a5 6a3e be4c 3cbd 376f bd3e 9a8c 883e
00000040: a914 d4bb dcc6 183f 56d2 26be aae6 85be
00000050: bb33 8fbf 00ea 3fbe 51a8 89bf 1f06 3bbf
00000060: 5128 38be 2e6c c13e 51c9 b5be f3ea fcbf
00000070: a34f 1fbf 4445 da3d c0c9 f7be 5c62 b93e
00000080: 8b1d 25bf 6f1a 413f 918d 03bd 2514 53bd
00000090: 9f0e 63bf 4375 e0bd 2a8f 873f b965 1a3f
000000a0: e631 c5be e5d5 2abe 0816 463c 9e03 43be
000000b0: adf3 3fbf 2c6b 643f 6eb4 12bf 7e7d c3be
000000c0: 7c13 253c ae55 47bf 89f0 0f3d 3f9f 64bf
000000d0: 3ff5 05bf 6e53 20bf f6b7 02bf 2ebd 51bf
000000e0: 6b87 4dbf 9199 c93d 8dd6 87bf 6b38 20be
000000f0: ae6a 09bf b525 1cbe 8d91 933f bb26 80bf

autoencoder.decoder.0.bias f4 [8]
-0.0439472 -0.81829697 -0.17162028 -0.28368777 -0.30946457 0.33915463 -0.38809446 0.2810496
00000000: fb01 34bd e97b 51bf 3abd 2fbe 863f 91be
00000010: 2472 9ebe ada5 ad3e 51b4 c6be bce5 8f3e

autoencoder.decoder.2.weight f4 [8, 16, 3, 3]
0.02678508 -0.089848734 0.09542336 -0.33126467 -0.01614097 0.17586575 0.16569106 -0.09799532
-0.17140546 0.1813945 -0.34937057 0.16847187 0.13980088 -0.11763426 -0.23635219 -0.26518962
-0.17614798 -0.011738981 0.1490683 -0.008085739 0.056927226 0.101918906 0.2032075 0.100538865
0.1435654 -0.097089745 0.06897276 0.026836917 -0.006367567 0.07277373 0.17934117 -0.024096346
-0.067842804 0.11027632 0.08594186 -0.16215655 -0.13808872 -0.21936153 0.23223771 -0.17101102
-0.009260569 0.026128879 -0.09387785 -0.24403392 0.3342206 0.11197815 -0.010889629 0.039934296
0.02088124 0.3266586 -0.0019619742 0.030894546 0.057133507 0.13640611 0.12824504 -0.15163402
0.06641768 0.215089 -0.0706707 -0.17279875 0.29552138 0.12073744 0.11271463 -0.363023
0.17125957 -0.26163742 0.1285206 0.11713401 -0.07218027 0.060318768 -0.011084753 -0.013174624
-0.1316256 0.032997273 0.151851 -0.047067158 0.14166096 0.14780468 -0.07529037 -0.066136405
0.0152571 0.0038971892 -0.14384691 0.0016119647 0.100373596 -0.32537717 -0.24195677 0.08151609
-0.0018564916 -0.16408995 -0.3192921 -0.18516439 -0.07039054 0.1726885 0.10333994 0.0049615237
0.17405641 0.021873774 0.115127675 -0.07947409 0.061409693 0.113848194 0.14169407 -0.44022778
-0.17680474 -0.09263726 0.13665812 -0.2215838 -0.055414274 0.04552121 0.13049895 -0.05190351
0.05464484 0.033904616 0.1551262 0.17429516 -0.06487701 -0.18833686 -0.07504363 0.041942917
0.25947216 0.4141773 0.29066196 -0.015163053 0.25625765 0.15950036 0.049340673 0.08063037
0.12891448 0.051396873 0.18221423 -0.8237858 0.13802093 -0.2508902 -0.33356386 -0.04468733
-0.540643 0.051867757 -0.14621416 -0.007168155 0.19815812 0.03636854 0.033494126 -0.13945168
-0.019981297 0.15242404 0.02201081 0.15527534 -0.12169491 -0.099997595 0.16276126 0.28991196
-0.11008496 -0.24902019 0.52821416 -0.23411019 0.020134257 0.11195271 0.22061047 0.035840463
0.41653422 0.072011486 -0.11694847 -0.11290049 -0.023223426 -0.1913125 0.074482076 -0.04074947
-0.08608177 0.020397965 -0.4496174 -0.07653878 0.05351179 0.031293795 0.10939804 0.16398087
-0.023718383 -0.10836822 -0.3599844 -0.18567596 0.25138962 -0.028521141 -0.3663863 0.084731676
0.1843803 0.17387109 -0.03447521 -0.030578658 0.0013619609 -0.07913315 -0.044494156 0.08592386
-0.053000044 -0.079838276 0.25443095 0.10405438 -0.3439644 -0.20157288 -0.14142057 0.106586225
-0.08209481 0.08718952 0.30429247 0.010162268 -0.20277306 -0.6695348 -0.43278491 -0.050035503
-0.084102795 0.28725958 0.24691737 0.119772404 0.11955041 0.013890514 -0.1606547 -0.34067222
-0.20053346 -0.102161765 0.036895584 -0.07383 -0.057244904 0.07690326 -0.17092821 -0.5852526
0.1906127 0.11938857 0.027712347 0.1112104 -0.1562596 0.33242652 0.23285367 0.145068
0.107115075 0.079971194 -0.12619202 -0.25514778 -0.15281375 -0.21379328 -0.21857487 0.041367777
-0.45618683 -0.017337574 -0.072143145 -0.08460618 0.027532235 0.2561547 -0.29261303 -0.29163763
0.12158132 -0.14333719 -0.10730784 -0.023683518 -0.092165716 -0.101637535 -0.08491897 0.010361781
00000000: 626c db3c 9d02 b8bd 536d c33d 869b a9be
00000010: 113a 84bc 2716 343e ebaa 293e c5b1 c8bd
00000020: ea84 2fbe 7bbf 393e b3e0 b2be e483 2c3e
00000030: f627 0f3e 3bea f0bd 4f06 72be efc6 87be
00000040: 2360 34be db54 40bc 5ca5 183e 0c7a 04bc
00000050: 862c 693d dcba d03d a015 503e 52e7 cd3d
00000060: cf02 133e fdd6 c6bd 9741 8d3d 18d9 db3c
00000070: 06a7 d0bb 650a 953d 36a5 373e b365 c5bc
00000080: 2bf1 8abd 8dd8 e13d 4902 b03d 5e0c 26be
00000090: 2167 0dbe 4fa0 60be b9cf 6d3e 831d 2fbe
000000a0: a4b9 17bc 3b0c d63c 0843 c0bd 07e4 79be
000000b0: f61e ab3e cd54 e53d 6a6a 32bc 2592 233d
000000c0: 220f ab3c cc3f a73e 7794 00bb 8f16 fd3c
000000d0: d304 6a3d 0bae 0b3e ab52 033e f345 1bbe
000000e0: fe05 883d 4a40 5c3e cdbb 90bd 28f2 30be
000000f0: 944e 973e 3145 f73d eed6 e63d 27de b9be
00000100: ab5e 2f3e 57f5 85be e79a 033e f5e3 ef3d
00000110: 40d3 93bd d010 773d d39c 35bc 61da 57bc
00000120: dcc8 06be 2628 073d d47e 1b3e 7ec9 40bd
00000130: 920f 113e 1c5a 173e d631 9abd 8672 87bd
00000140: eaf8 793c fc67 7f3b 9b4c 13be 8f48 d33a
00000150: ac90 cd3d d697 a6be 84c3 77be e8f1 a63d
00000160: 8555 f3ba 3207 28be 417a a3be bc9b 3dbe
00000170: ea28 90bd 41d5 303e e4a3 d33d 4794 a23b
00000180: d83b 323e a130 b33c 0fc8 eb3d 50c3 a2bd
00000190: bb88 7b3d 3e29 e93d 4018 113e 8965 e1be
000001a0: 4d0c 35be 9bb8 bdbd 1bf0 0b3e dde6 62be
000001b0: 14fa 62bd 7374 3a3d 84a1 053e c698 54bd
000001c0: 45d3 5f3d 91df 0a3d 67d9 1e3e 6e7a 323e
000001d0: 3dde 84bd 61db 40be 7ab0 99bd 56cc 2b3d
000001e0: 89d9 843e 0c0f d43e a5d1 943e 746e 78bc
000001f0: 3434 833e 1054 233e 7219 4a3d 8921 a53d
00000200: 2802 043e 8785 523d 5e96 3a3e a0e3 52bf
00000210: 5c55 0d3e ae74 80be e2c8 aabe 100a 37bd
00000220: 9467 0abf 4973 543d 2ab9 15be d8e2 eabb
00000230: f6e9 4a3e 2ef7 143d 2331 093d 6ccc 0ebe
00000240: d1af a3bc 0c15 1c3e 0450 b43c 8000 1f3e
00000250: 2e3b f9bd 8acb ccbd e3aa 263e 576f 943e
00000260: 3974 e1bd 26ff 7ebe 0b39 073f 95ba 6fbe
00000270: 99f0 a43c 7647 e53d b6e7 613e 73cd 123d
00000280: f943 d53e c27a 933d ae82 efbd 5f38 e7bd
00000290: 0e3f bebc 6de7 43be 0f8a 983d ebe8 26bd
000002a0: a44b b0bd a219 a73c 4034 e6be 5dc0 9cbd
000002b0: 2e2f 5b3d ec2d 003d 140c e03d 9aea 273e
000002c0: 0e4d c2bc 28f0 ddbd e04f b8be d721 3ebe
000002d0: 24b6 803e 2ba5 e9bc fc96 bbbe cd87 ad3d
000002e0: 30ce 3c3e 430b 323e e135 0dbd 1880 fabc
000002f0: d383 b23a 9010 a2bd 813f 36bd d9f8 af3d
00000300: 9316 59bd 4082 a3bd c644 823e 761a d53d
00000310: 1a1c b0be 1f69 4ebe 8ed0 10be e149 da3d
00000320: 5321 a8bd 6b90 b23d 39cc 9b3e a47f 263c
00000330: bea3 4fbe a266 2bbf fc95 ddbe 07f2 4cbd
00000340: 163e acbd b013 933e e8d7 7c3e 3c4b f53d
00000350: d8d6 f43d 0a95 633c aa82 24be 976c aebe
00000360: a558 4dbe 303a d1bd d31f 173d 2f34 97bd
00000370: a279 6abd 757f 9d3d ce07 2fbe 1dd3 15bf
00000380: fa2f 433e ff81 f43d 0105 e33c 47c2 e33d
00000390: 8402 20be cf33 aa3e 3171 6e3e b58c 143e
000003a0: 265f db3d f0c7 a33d 7b38 01be bba2 82be
000003b0: 357b 1cbe a0ec 5abe 17d2 5fbe 4271 293d
000003c0: 5291 e9be 8707 8ebc c9bf 93bd 0146 adbd
000003d0: 488b e13c b526 833e 60d1 95be 8751 95be
000003e0: a1ff f83d fcc6 12be 36c4 dbbd f003 c2bc
000003f0: 61c1 bcbd 5727 d0bd ffe9 adbd 76c4 293c

autoencoder.decoder.2.bias f4 [16]
-0.051219735 0.27248695 -0.2244761 -0.61627424 -0.08737585 -0.5764351 -0.4163762 0.39958495
-0.42569447 -0.41177732 0.35311985 0.019940315 -0.55902195 -0.6389777 -0.03852818 -0.04595467
00000000: c9cb 51bd 6983 8b3e 10dd 65be 26c4 1dbf
00000010: 1cf2 b2bd 4091 13bf 432f d5be 6696 cc3e
00000020: a0f4 d9be 7ad4 d2be 20cc b43e df59 a33c
00000030: 101c 0fbf 0b94 23bf bacf 1dbd f73a 3cbd

autoencoder.decoder.4.weight f4 [16, 8, 5, 5]
-0.10054741 -0.03219259 0.11863494 0.12405744 0.021718636 -0.0036710633 0.0099399295 0.045993257
0.000116751085 0.009936114 -0.08540192 0.019833734 -0.0789704 0.0065813093 -0.08376794 0.0621658
-0.118606925 -0.02656429 -0.11350051 0.07259091 -0.045110527 -0.1339722 0.027619397 0.055101216
0.052096233 -0.06620336 0.01518196 0.028592782 0.036160015 0.013975609 -0.081465356 0.033866975
0.17528775 0.1466853 0.0117517905 -0.051695388 0.053146664 0.3774943 0.28601718 0.0009915371
0.039033923 0.11054417 0.25375256 0.1683968 0.09367828 -0.013209524 -0.0044487403 0.090571545
0.030188285 0.0035471423 0.08409549 -0.0037814917 0.039360903 -0.15056464 0.12178793 0.030276207
-0.017753243 0.014778354 0.047016762 0.1153173 0.0859463 -0.13503471 0.10262682 0.048751894
0.010326309 -0.047571227 0.019283647 0.0424589 0.024302438 -0.006883205 -0.0005754587 0.027843442
-0.12408429 -0.11210834 0.05428781 -0.055023734 0.036382753 0.06817268 0.0065822797 -0.017592952
-0.018601596 0.16732834 0.1977692 0.114720225 0.06820854 0.06008809 0.29631948 0.34785998
0.16861066 0.0871182 0.06828464 0.14495799 0.19756258 0.08001884 0.034804832 -0.03487176
0.024718493 0.021935059 -0.014615463 -0.023174452 -0.020020872 0.03366454 -0.044092517 -0.117899716
0.011030687 0.02331314 0.018169936 -0.034043513 0.015349294 -0.030556941 0.12145219 -0.17211583
0.058584347 -0.076676466 -0.053461093 -0.13697985 -0.043636255 -0.050363008 -0.0370462 0.022443157
-0.008471014 0.0908669 -0.1775139 0.01882823 -0.010104665 -0.13912866 0.02561957 0.08383604
-0.073978014 0.08514917 0.0036153868 0.04998369 0.043326072 0.009668046 0.014883023 -0.046631176
-0.161503 0.07874301 0.11291333 -0.14735255 0.0076142494 -0.07226235 0.038802654 -0.10342074
0.17191881 -0.20343693 -0.054997932 -0.29167914 -0.109238066 0.011443107 -0.059012346 0.01606283
0.009414427 -0.027967613 -0.060049955 -0.015101043 0.1213731 0.10988135 0.037761565 0.015540042
0.0055261115 0.23607233 0.25839826 0.12639283 0.069246806 0.06320936 0.17514239 0.26135585
0.13604666 0.06659446 0.015970921 0.074100204 0.09090207 0.038528115 0.017391723 0.07982498
-0.036978133 0.074889 -0.041454878 -0.03852106 0.065912016 0.034565493 0.029138226 0.054530628
0.16944884 0.024155807 0.13923822 0.0076133143 0.07902 0.26107556 0.07740784 0.053515535
0.10484644 0.057113968 0.011088199 -0.03539283 0.07118985 -0.08118898 -0.08275184 0.11211165
0.118421584 0.028905451 0.0091154445 0.0345289 0.020701263 -0.03337117 0.09135912 0.030643228
-0.018871933 -0.026266936 0.061781105 0.07873694 0.074942306 0.051416017 -0.054457933 0.10919879
0.15987357 0.09319536 0.080882 0.005035975 0.070540756 0.070037045 -0.017444799 -0.016538015
-0.058608737 0.059496097 -0.088155754 -0.17014381 -0.14987902 -0.018472632 -0.011791716 -0.13496247
-0.36511993 -0.23740847 -0.060949326 -0.01563892 -0.04822968 -0.3934522 -0.3069855 -0.010074313
-0.034524743 -0.1279353 -0.31743103 -0.21450564 -0.05413999 0.029927112 0.03301464 -0.11441541
-0.09638873 0.019638464 -0.02357815 -0.024123514 -0.0024293836 0.048941016 -0.06839595 0.07080414
00000000: cdeb cdbd 61dc 03bd e0f6 f23d d411 fe3d
00000010: 48eb b13c 3996 70bb 16db 223c 6d63 3c3d
00000020: 43d8 f438 15cb 223c 34e7 aebd 5b7a a23c
00000030: 3cbb a1bd 06a8 d73b 878e abbd 91a1 7e3d
00000040: 30e8 f2bd 5b9d d9bc f572 e8bd 8baa 943d
00000050: d1c5 38bd 0230 09be 1342 e23c d0b1 613d
00000060: dc62 553d a195 87bd c1bd 783c 693b ea3c
00000070: 861c 143d f4f9 643c 4fd7 a6bd 19b8 0a3d
00000080: a27e 333e ac34 163e 958a 403c 8bbe 53bd
00000090: 51b0 593d ef46 c13e d870 923e 77f6 813a
000000a0: 09e2 1f3d fb64 e23d dbeb 813e 3670 2c3e
000000b0: 66da bf3d c26c 58bc bdc6 91bb 937d b93d
000000c0: 6c4d f73c 2c77 683b 423a ac3d e7d2 77bb
000000d0: e638 213d 9e2d 1abe f36b f93d cf05 f83c
000000e0: 406f 91bc e920 723c a694 403d 7a2b ec3d
000000f0: 9d04 b03d 8a46 0abe 032e d23d 11b0 473d
00000100: ae2f 293c 0cda 42bd bdf8 9d3c 62e9 2d3d
00000110: e815 c73c 828c e1bb 61da 16ba ee17 e43c
00000120: e71f febd 0f99 e5bd e55c 5e3d 9160 61bd
00000130: 1506 153d 1e9e 8b3d 2ab0 d73b 181f 90bc
00000140: 6062 98bc 1f58 2b3e 0284 4a3e 70f2 ea3d
00000150: ebb0 8b3d ee1e 763d 30b7 973e b41a b23e
00000160: 46a8 2c3e 076b b23d d1d8 8b3d de6f 143e
00000170: d84d 4a3e ebe0 a33d 838f 0e3d b1d5 0ebd
00000180: 707e ca3c 27b1 b33c b275 6fbc 59d8 bdbc
00000190: d002 a4bc d4e3 093d 5b9a 34bd 6875 f1bd
000001a0: 0eba 343c 33fb be3c 1ed9 943c 3671 0bbd
000001b0: 9b7b 7b3c 8d52 fabc edbb f83d 223f 30be
000001c0: 24f6 6f3d 8d08 9dbd 05fa 5abd 7244 0cbe
000001d0: eebb 32bd 7149 4ebd c2bd 17bd b6da b73c
000001e0: 02ca 0abc 6d18 ba3d 34c6 35be a93d 9a3c
000001f0: 098e 25bc be77 0ebe 22e0 d13c 3bb2 ab3d
00000200: c981 97bd b062 ae3d 20f0 6c3b b3bb 4c3d
00000210: ae76 313d b966 1e3c ecd7 733c 5500 3fbd
00000220: 0b61 25be 0444 a13d 1b3f e73d 96e3 16be
00000230: f480 f93b 48fe 93bd 88ef 1e3d 41ce d3bd
00000240: 7c0b 303e c551 50be 8345 61bd f856 95be
00000250: 35b8 dfbd df7b 3b3c eeb6 71bd 3296 833c
00000260: f83e 1a3c 561c e5bc f1f6 75bd 5d6a 77bc
00000270: 7692 f83d 7909 e13d dfab 1a3d a99b 7e3c
00000280: 6214 b53b f2bc 713e c74c 843e 1f6d 013e
00000290: 45d1 8d3d e973 813d 8758 333e 6fd0 853e
000002a0: d14f 0b3e ad62 883d 73d5 823c d9c1 973d
000002b0: dd2a ba3d a8cf 1d3d 1679 8e3c 477b a33d
000002c0: 6276 17bd 675f 993d 97cc 29bd 42c8 1dbd
000002d0: e1fc 863d 8c94 0d3d 4ab3 ee3c 825b 5f3d
000002e0: ff83 2d3e 66e2 c53c 7794 0e3e 1c79 f93b
000002f0: 3dd5 a13d b2ab 853e 0088 9e3d 1b33 5b3d
00000300: bbb9 d63d 56f0 693d 47ab 353c 12f8 10bd
00000310: fccb 913d 6846 a6bd cc79 a9bd cb9a e53d
00000320: 0487 f23d 20cb ec3c f258 153c 2d6e 0d3d
00000330: b295 a93c 35b0 08bd 7e1a bb3d 8207 fb3c
00000340: 5099 9abc c22d d7bc 2f0e 7d3d d540 a13d
00000350: 5a7b 993d 9a99 523d 480f 5fbd 9da3 df3d
00000360: e6b5 233e 35dd be3d 76a5 a53d d204 a53b
00000370: ac77 903d 956f 8f3d 65e8 8ebc bb7a 87bc
00000380: b70f 70bd 2eb2 733d 018b b4bd 2e3a 2ebe
00000390: e379 19be eb53 97bc 0b32 41bc 9a33 0abe
000003a0: 00f1 babe 351b 73be 00a6 79bd 311d 80bc
000003b0: 7c8c 45bd 9172 c9be 342d 9dbe bb0e 25bc
000003c0: d169 0dbd 7901 03be 5286 a2be 5ea7 5bbe
000003d0: e5c1 5dbd b429 f53c 5c3a 073d a052 eabd
000003e0: 7467 c5bd d8e0 a03c f726 c1bc ad9e c5bc
000003f0: 4b36 1fbb 6076 483d 2d13 8cbd c301 913d

autoencoder.decoder.4.bias f4 [8]
0.59081405 -0.65974814 -0.31287777 -0.66019136 0.03876076 -0.4254452 -0.64116466 -0.49292296
00000000: 973f 173f 41e5 28bf 8431 a0be 4d02 29bf
00000010: 9ac3 1e3d f4d3 d9be 5e23 24bf 6660 fcbe

autoencoder.decoder.6.weight f4 [8, 1, 2, 2]
0.19310437 0.19525321 0.1872803 0.18860164 0.47122163 0.11625511 0.46115103 0.100710556
-0.062018108 0.15058388 -0.07473388 0.14142562 -0.15725712 0.037480786 0.23932531 0.44131353
0.22928245 0.1170696 0.23226716 0.11683999 -0.19383447 -0.18499358 -0.19191857 -0.18027073
0.22342212 0.4442389 -0.17703156 0.040792592 0.23493789 8.5180545e-05 0.24165982 0.0027451317
00000000: 27bd 453e 75f0 473e 68c6 3f3e ca20 413e
00000010: f643 f13e 2917 ee3d fd1b ec3e 5641 ce3d
00000020: b306 7ebd a932 1a3e 140e 99bd e1d1 103e
00000030: 0308 21be 7485 193d b211 753e d9f3 e13e
00000040: 05c9 6a3e 30c2 ef3d 71d7 6d3e ce49 ef3d
00000050: 8b7c 46be f56e 3dbe 4d86 44be e498 38be
00000060: c5c8 643e 4873 e33e c347 35be 2216 273d
00000070: 8f93 703e f5a2 b238 ac75 773e abe7 333b
