test_runs/3/model_state.pth (torch, 881769 bytes, 20 tensors)

autoencoder.encoder.1.weight f4 [100, 784]
000000 2c ca 00 00 ce ca 0b 00 a2 e4 0b 00 c6 8c 0e 80
       7.2526e-41 1.082943e-39 1.092208e-39 -1.336197e-39
000010 dd 37 14 00 8e a5 13 80 75 a9 08 80 ea 88 0b 80
       1.85675e-39 -1.804264e-39 -7.95474e-40 -1.059306e-39
000020 79 71 02 80 e7 df 0b 80 cd ca 0b 00 c2 46 03 80
       -2.24377e-40 -1.090511e-39 1.082942e-39 -3.0089e-40
000030 94 8d 2e b1 94 c9 06 33 3a 78 88 b3 94 21 dd b0
       -2.540081e-09 3.138264e-08 -6.3548626e-08 -1.608941e-09
000040 4a 19 0c 00 4e a1 15 80 be 39 0c 80 f5 1c 0e 00
       1.111098e-39 -1.98641e-39 -1.12274e-39 1.296085e-39
000050 df 05 0b 00 5a 5f 11 80 a0 88 0f 80 80 03 11 80
       1.012297e-39 -1.595409e-39 -1.426544e-39 -1.562459e-39
000060 7c ff 10 80 03 83 04 80 22 4b 11 80 b9 b8 05 00
       -1.561018e-39 -4.1434e-40 -1.588156e-39 5.25443e-40
000070 57 51 02 00 07 bd 0b 00 91 25 11 80 75 c9 0b 00
       2.1285e-40 1.078e-39 -1.57468e-39 1.08246e-39
000080 13 cf bc 31 88 29 0b b8 24 d2 9a ba 1a 2e 03 bb
       5.4950617e-09 -3.317886e-05 -0.0011811894 -0.0020016492
000090 67 84 9b ba e8 28 8b ba ee 50 8d bb f5 b1 ba bb
       -0.001186502 -0.0010617049 -0.004312626 -0.0056974837
0000a0 8e 3d 3c bb b2 9d e4 bb a0 7d 9a bb d7 82 77 ba
       -0.0028723213 -0.0069768066 -0.0047146827 -0.0009441799
0000b0 4d ce 6b 39 10 1a 79 bb 14 ee af bb 97 17 2e ba
       0.000224882 -0.003800992 -0.0053689573 -0.00066410884
0000c0 3e bb 11 ba 2c 57 89 b7 2d 1a d3 33 d9 e1 54 a6
       -0.00055592123 -1.6372265e-05 9.8302145e-08 -7.3858356e-16
0000d0 e6 a1 09 00 bd c1 01 00 d7 81 0c 80 1b d5 10 80
       8.84598e-40 1.61336e-40 -1.148604e-39 -1.545816e-39
0000e0 3b 5c 08 80 ed d4 0b 80 94 50 6d 2c 9f cc c8 27
       -7.6777e-40 -1.086574e-39 3.3724456e-12 5.5733e-15
0000f0 3c bd 2b b6 d1 56 78 b8 d5 07 9c b9 b9 59 15 bb
       -2.5591135e-06 -5.920866e-05 -0.00029760474 -0.0022789075
000100 10 1a d5 3a 89 14 3e 3b 33 d1 00 3b 9b 8a 03 bc
       0.0016258378 0.002900394 0.0019655942 -0.008028652
000110 7c d7 ad bc 46 c2 8d bc ff 48 00 bc 71 76 75 ba
       -0.021220915 -0.01730455 -0.007829904 -0.00093636574
000120 84 3c e4 3b e4 4f 05 3c 26 67 29 3c 5a 9f 29 3c
       0.006965222 0.008136723 0.010339534 0.010352934
000130 34 d5 e1 ba 16 0a a2 bb c1 82 3c bb 34 48 ce ba
       -0.0017229677 -0.00494505 -0.002876446 -0.0015738071
000140 1d 1e 8e ba 2f 8f 82 b6 08 ac 13 00 41 7c 0e 00
       -0.0010842715 -3.8909707e-06 1.806588e-39 1.330271e-39
000150 6f fd 10 80 7f 23 00 00 56 63 f6 b5 14 2b 9e b7
       -1.560283e-39 1.2734e-41 -1.8357339e-06 -1.8855128e-05
000160 af b9 46 bb bb cf 8f bb f8 db 7a bb 5a 05 49 bc
       -0.0030323078 -0.004388777 -0.0038278084 -0.012269342
000170 f7 a9 36 bc 02 cd 11 bb ce 9a 12 bb e9 12 af bb
       -0.011148921 -0.0022247438 -0.0022370103 -0.0053428304
000180 86 cb 8b bc 8a 0e 53 bc c2 bc 2e bb 44 3f ac ba
       -0.017064821 -0.012881884 -0.0026662801 -0.0013141413
000190 c9 0a c4 3b c8 d8 99 3c 38 74 c7 3c 34 bf 94 3c
       0.005982731 0.018780127 0.02434741 0.018157579
0001a0 c2 4a 83 3b fd 21 20 bc 3d 57 47 bc 60 3a e8 bb
       0.0040067146 -0.009773728 -0.012166795 -0.007087037
0001b0 db 09 36 3b 57 2c 2f b7 22 55 89 b4 83 df 0a 80
       0.002777687 -1.04411365e-05 -2.558018e-07 -9.98536e-40
0001c0 5b d0 05 80 c2 fa a4 2c 60 5e ae b6 53 92 4a 39
       -5.33921e-40 4.689e-12 -5.196591e-06 0.00019318731
0001d0 28 15 10 bc 12 81 47 bc 33 23 13 bc f4 da ca bb
       -0.008794107 -0.012176769 -0.00898056 -0.006190652
0001e0 2f 5c 96 bb d6 a4 42 3b 29 ec fa 3b 28 52 bf 3b
       -0.004588626 0.00297003 0.007657547 0.005838651
0001f0 83 15 b8 3a 30 b2 d7 3b 02 4d 5a 3c 15 c9 80 3c
       0.0014044497 0.006582521 0.013324024 0.015720883
000200 11 c2 96 3c d1 f3 91 3c d0 ea 99 3c d4 07 6d 3c
       0.018403085 0.017816456 0.018788725 0.014467198
000210 73 3f b9 bb bf cb 19 bc 84 95 e9 bb 44 27 15 bc
       -0.0056533157 -0.009386956 -0.0071284194 -0.0091036
000220 f4 04 db 3a 60 11 47 38 c4 13 82 ba 65 e1 80 a7
       0.001670985 4.746148e-05 -0.0009924104 -3.577151e-15
000230 d9 e7 0a 00 c3 47 fb a8 82 a6 a7 b8 a7 4f 49 b6
       1.001526e-39 -2.789772e-14 -7.994195e-05 -2.9997698e-06
000240 e2 68 1d bc e4 7c 22 bc 2f 63 d9 bb 6e 1f 6e b9
       -0.009607526 -0.009917472 -0.006634138 -0.00022709157
000250 81 96 82 3b 62 82 8a 3c d7 b4 ed 3c 9b 46 86 3c
       0.0039852266 0.016907874 0.029016895 0.01639109
000260 ac 0e f3 3b e0 56 10 3c 1c 50 07 3c cd 54 ab 3b
       0.0074175205 0.008809775 0.008258846 0.005228615
000270 64 65 b3 3b c1 31 26 ba a1 27 64 3c a8 0e 3d 3c
       0.005474733 -0.00063398114 0.013925464 0.011539139
000280 93 e9 01 bc 84 33 45 bb 7e 87 de 3a 74 d5 af 3a
       -0.007929224 -0.003009052 0.0016977636 0.0013415054
000290 aa 21 46 3b 13 eb 40 3b c5 2d e3 3a e9 c7 f0 b8
       0.0030232468 0.002943699 0.0017332366 -0.00011481328
0002a0 e7 e9 0c 80 11 a3 f9 b0 db 92 67 39 89 a8 9a 39
       -1.185934e-39 -1.8163481e-09 0.00022084585 0.00029498737
0002b0 b4 09 08 bc 8d ab 31 bb 84 67 13 3b 79 a2 bc 3b
       -0.008303095 -0.002711031 0.002249212 0.005756673
0002c0 8c 43 25 3b 1d b5 f7 3b a8 07 91 3c b0 aa b4 3b
       0.0025217263 0.007559432 0.017703846 0.0055135116
0002d0 78 c4 af 3b 3e f4 34 3b 41 51 b0 bb b1 b4 5c bc
       0.005363997 0.00276114 -0.00538078 -0.013470815
0002e0 03 bb 5a bc a3 5b 3a bc 46 62 99 bb 53 ef 37 b9
       -0.013350251 -0.011374387 -0.0046809046 -0.00017541395
0002f0 8e 6f 4a bc 24 e2 8e bb 15 e6 5d 3b 82 ad b5 3b
       -0.012355698 -0.004360454 0.0033859063 0.0055443654
000300 0e 5c 7f 37 e7 6d cb 3a 41 bb b4 39 a6 69 9f b9
       1.5220618e-05 0.0015520424 0.0003447179 -0.00030405557
000310 88 58 82 a6 1a 48 a0 b8 50 e8 2b 3a ea 38 06 3b
       -9.044559e-16 -7.6428245e-05 0.00065577496 0.00204807
000320 d2 2c 9b 36 ea c5 f9 bb ce 8f 5d bc 74 5b 8b bc
       4.6245777e-06 -0.00762247 -0.013523055 -0.017011382
000330 b1 25 f6 bb bb b7 26 b9 be 32 04 3c 53 b9 25 3b
       -0.0075118174 -0.00015899439 0.0080687385 0.0025287464
000340 49 ba be 3a 6a 5c e5 bb 49 76 99 bc 3c cc 9c bc
       0.0014551367 -0.006999542 -0.01873316 -0.019140355
000350 21 bd cd bb 65 b9 97 bb 3c aa 98 bc cb ca 88 bc
       -0.0062786494 -0.004630255 -0.018635862 -0.016698262
000360 bf 18 2d bc 55 9e 53 bc 6e 5c e9 bb b1 3e 4c 3a
       -0.010564982 -0.012916167 -0.007121614 0.0007791324
000370 9a 67 cd ba 30 36 11 3a 4e af 6a ba ec c2 92 38
       -0.0015671134 0.00055393856 -0.0008952514 6.9981295e-05
000380 c5 df 9b b8 b4 4c 3d 36 d1 3f 74 38 24 ab a4 3b
       -7.432656e-05 2.8207842e-06 5.8233567e-05 0.0050252844
000390 40 38 c5 3b 88 f4 3e bc 23 93 ae bc e7 99 86 bc
       0.0060186684 -0.0116549805 -0.021310395 -0.016430808
0003a0 09 14 45 bb a2 47 e8 ba c4 80 02 3c 6f 7d 7a bb
       -0.0030071756 -0.0017721544 0.00796527 -0.0038221737
0003b0 3a 09 38 ba aa d3 bc bb 88 30 7f bc a6 63 b5 bc
       -0.0007020418 -0.005762537 -0.015575536 -0.022142243
0003c0 d5 c5 3d bc bd 9e 8c bc 22 07 b4 bc 6e 41 39 bc
       -0.011582811 -0.017165536 -0.021976057 -0.011307104
0003d0 55 33 32 bc 46 8c 4c bc 9e cd 22 bc 0d a1 b7 b9
       -0.010876496 -0.012484616 -0.009936718 -0.00035024472
0003e0 8b eb b9 3a a0 73 24 39 c5 38 15 39 1f b2 6b 39
       0.0014184577 0.00015683332 0.00014230896 0.00022477702
0003f0 20 1a fe ae 4f 7d 1a b9 ef 86 bc 39 12 2b ac 3b
       -1.15552234e-10 -0.00014733266 0.00035958688 0.005254158

autoencoder.encoder.1.bias f4 [100]
000000 46 b4 e0 3b fb 13 a9 bd 4e 31 a9 3a 38 7c 83 3d
       0.006857428 -0.08255764 0.0012908371 0.06420177
000010 3c c2 93 bb 80 48 0d 3e 55 c1 63 be 03 e8 96 bb
       -0.0045092385 0.13797188 -0.22241719 -0.0046052947
000020 8e 74 6e 3b 6c 20 d7 bb 13 0f 16 3e 06 83 7c 3d
       0.003638539 -0.0065651443 0.14654188 0.06164839
000030 90 e1 a6 bb cb f2 85 bc b9 a2 2a 3b 88 9d 17 bc
       -0.005092807 -0.016351124 0.0026036932 -0.009253867
000040 ed 3a 88 be 14 dd d1 bd 90 8b 44 bc 3f d0 94 be
       -0.26607457 -0.102472454 -0.011996165 -0.2906513
000050 12 43 1b be 56 60 64 3c f8 7e fa bd 07 d8 37 bd
       -0.15162304 0.013938984 -0.122312486 -0.044883754
000060 6b e5 90 3d e7 b5 aa 3e 13 44 44 bc 3f b8 20 39
       0.07075008 0.33341905 -0.011979121 0.00015327426
000070 df a9 97 bc a1 0c f2 3c 3f 9b a8 bd 43 ba 5d 3d
       -0.018513618 0.029547038 -0.08232736 0.05413271
000080 5d 44 30 be 28 4d df 3b 3f f2 75 39 c5 01 04 bb
       -0.17213579 0.0068146177 0.00023455264 -0.0020142656
000090 d9 9a 62 3e b7 b0 7f be ab db d0 3d 0c e8 41 3e
       0.22129382 -0.24969755 0.10198148 0.18936175
0000a0 82 91 ef 3c cf 7b b8 3e 4a 9b 0e bd ed cd ed bb
       0.029244188 0.36031958 -0.034816064 -0.0072572143
0000b0 dd ef 74 bd 79 db b5 bc 9c 28 8c bc c2 e7 9e 3c
       -0.059799064 -0.02219938 -0.017109208 0.01939762
0000c0 61 3c 15 be 19 9d 0c 3e 90 a0 e5 38 0f bf 10 bc
       -0.14573814 0.13731803 0.00010949478 -0.008834614
0000d0 03 48 61 bc 38 8c 65 bc 3b 48 a6 3b 76 0f aa 3d
       -0.013750079 -0.014010482 0.0050745285 0.0830373
0000e0 23 70 0e be 58 de 3a bd e1 5a 6e bd ee 5c f3 bd
       -0.13909964 -0.0456222 -0.058192138 -0.11882959
0000f0 66 87 1f bf 73 d5 d7 3c 58 28 71 bc 84 4f 53 3e
       -0.62315977 0.026346898 -0.014719091 0.20635802
000100 85 c6 58 3c 46 1d 8e be 7f 91 2d bb c3 e7 59 be
       0.0132309245 -0.2775671 -0.0026484428 -0.21279816
000110 fb 8d ee 3c 04 47 cb bc de 07 07 3c f6 2c 8a bc
       0.029120436 -0.024814136 0.008241622 -0.016867142
000120 f0 da 61 be f2 dc 8e bc d0 c3 52 3c 03 a1 16 bf
       -0.22056174 -0.01743934 0.012864068 -0.58839434
000130 6c 24 e9 ba c6 9e 58 3e 0a b8 54 bc 45 7d 8e 3e
       -0.0017787344 0.21154317 -0.012983331 0.27829948
000140 91 4a c6 be 2e 2e 8c 3d 32 48 ab bd 43 3b 3a ba
       -0.38728765 0.068447456 -0.083633795 -0.00071041676
000150 6a e3 03 be c1 14 14 bc a3 6d 93 bd c3 6d a1 bd
       -0.1287972 -0.009038151 -0.07198646 -0.078822635
000160 f0 85 bf 3d 43 13 2f 3c a2 fe ef 3e a9 fe 1b 3d
       0.093517184 0.010685745 0.46873957 0.03808466
000170 82 d7 ed ba ca 33 ef bd 4a 21 d4 bc ef c1 80 3e
       -0.0018145891 -0.116798 -0.02589478 0.2514796
000180 aa 80 cb 3b c3 cc 34 bc 23 31 55 3d 7a 61 22 bc
       0.0062104063 -0.011035147 0.052048814 -0.009910936

autoencoder.encoder.3.weight f4 [100, 100]
000000 e1 7a 23 3b a6 56 6b 3e dd 09 07 bc 85 9e 76 3e
       0.0024945068 0.22982273 -0.008242098 0.24083908
000010 9c 8c 07 3e f4 60 8a 3d 25 6d 46 bd 5f d9 1d bc
       0.13237232 0.067567736 -0.048443932 -0.009634345
000020 b8 df 8b 3c 1e f1 61 bc 77 48 fc bd b5 55 cf bd
       0.01707445 -0.013790397 -0.12318509 -0.10123769
000030 c7 23 99 bc 34 71 f5 3b 02 7d 94 bb 65 01 57 bc
       -0.018693818 0.0074903015 -0.0045315037 -0.013122891
000040 c5 8e 88 3b 9b 39 af bd e7 35 8d 3c cd a2 88 be
       0.00416741 -0.08555909 0.017237617 -0.26686707
000050 7d b6 af bd 47 2a 0e bc 13 c2 55 bd 3f 6b 12 be
       -0.08579729 -0.008677072 -0.052187037 -0.14298724
000060 ba 74 be bd 9c 34 4c 3e 06 21 23 bc c0 c4 34 3a
       -0.092996076 0.19941944 -0.009956604 0.0006895773
000070 19 ea 13 bd 9c 4b ef bb 7a a9 a4 ba cd df ff 3d
       -0.036111925 -0.0073027145 -0.0012562715 0.124938585
000080 a0 5c 29 3e ed df c1 3b 32 90 62 3b 35 93 12 3c
       0.1653924 0.0059165866 0.003457081 0.00894623
000090 cd 01 b7 bc 15 16 9a be dc 48 8e 3d 92 74 80 bc
       -0.022339726 -0.30094972 0.069474906 -0.015680585
0000a0 63 76 63 be d6 6f e9 3e 1b 52 c2 3d 2b 9c 89 bc
       -0.2221313 0.45593137 0.094883166 -0.0167981
0000b0 80 3e 92 be fb 52 13 be dc 78 b3 bb e9 5d 3d bd
       -0.2856331 -0.14387123 -0.005477054 -0.046232138
0000c0 2b 9c 27 be 97 52 29 3e fd e0 d7 3b 32 0e d5 bc
       -0.16368167 0.16535412 0.0065881 -0.026007745
0000d0 7e 69 5d bc af 35 ac bb e5 52 d0 b8 be fa e2 bc
       -0.013513921 -0.005255423 -9.933653e-05 -0.027707454
0000e0 49 98 e7 bd 7f 53 e7 bd c2 21 75 bc 64 3c d9 bd
       -0.11308343 -0.112952225 -0.014961662 -0.10607222
0000f0 a2 aa 86 be ef 12 ec bc 8b bd 84 3b 0a 5f 87 be
       -0.26302058 -0.028817622 0.0040509156 -0.26439697
000100 57 dd 06 3d 21 11 38 bc 1e a4 82 3a 1b 3f fc bd
       0.03292593 -0.011234553 0.0009967124 -0.12316724
000110 fc 9a 87 3e 81 c9 d1 bd df f7 7f bb 06 6b 9e bb
       0.2648543 -0.10243512 -0.0039057655 -0.0048345355
000120 c4 95 1f be 2d f0 b8 bc 32 6c 97 3c 95 99 c2 bd
       -0.15584475 -0.022575462 0.018484209 -0.0950195
000130 5b 2d e2 3b f5 54 88 3d 27 22 4d bc 4c e9 59 be
       0.0069023794 0.06656829 -0.01252035 -0.21280402
000140 d4 55 c2 bd 0a 85 b7 bc cf 5f 1b bd 03 d9 ad bc
       -0.09489027 -0.022402305 -0.037933167 -0.021221643
000150 a6 22 da bd 52 ad 7c 3e 4f eb cb 3c ce 11 3e 3d
       -0.1065114 0.24675491 0.024892477 0.0464037
000160 31 8b 58 bd 81 91 94 bc 39 89 cd 3e d6 0c 23 3d
       -0.05286712 -0.018135788 0.40143755 0.039807163
000170 2e e3 d4 3b 70 82 d8 3b 76 d0 7e bd aa a7 87 be
       0.0064968085 0.0066073462 -0.062210523 -0.26495105
000180 8b 41 1a bc 79 a0 cb 3b 77 61 bd be 8b 42 37 bb
       -0.009415041 0.006214198 -0.36988422 -0.0027963247
000190 56 14 10 3d c5 fc 80 bc c5 fb 38 3b d4 0f bd 3b
       0.035175644 -0.01574553 0.0028226238 0.005769709
0001a0 20 1e 37 3d a5 b3 99 bb a0 11 d2 bc 8b 97 2f 3c
       0.044706464 -0.0046906048 -0.02564317 0.010717283
0001b0 fa 54 86 3c c4 38 a3 3b bc ba e5 bc 40 ba e1 bc
       0.016397942 0.004981132 -0.028043143 -0.027554631
0001c0 40 0a b3 ba ad fc 94 3b 94 b5 ad 3c 91 c9 50 bb
       -0.0013659671 0.004546723 0.021204747 -0.0031858424
0001d0 a9 e7 7f be 54 4b 00 bd 15 50 9d 3c 2d f4 7c 3d
       -0.24990715 -0.03132184 0.019203225 0.0617563
0001e0 f9 33 c4 bd f8 0e 72 3b 4c fb e7 bc 64 dd 67 be
       -0.095802255 0.0036935192 -0.02831807 -0.22643048
0001f0 80 59 0b 3e 19 15 a1 bb 9c c8 03 3c 41 43 3f 3c
       0.1360836 -0.004915845 0.0080434345 0.011673749
000200 30 39 76 bc ec 46 2c bd 57 76 16 3e 9f f8 cd 3d
       -0.015028283 -0.042059824 0.1469358 0.10057186
000210 16 19 e5 3d 6f b3 a4 3b f1 77 38 3c ff d5 c7 3c
       0.111864254 0.005026273 0.011259065 0.024394033
000220 00 3a 7b 3d a3 ce b5 3d f6 1a 6b be 3a b6 13 be
       0.06133461 0.088773035 -0.22959504 -0.14424983
000230 60 ba cd bd 6e b7 86 bd 09 ec be 3d 35 bb 51 3c
       -0.10045314 -0.06577955 0.09322364 0.012800981
000240 ee c8 12 be e0 ee ad 3d 4b 7c 80 3c 5a b2 0d 3e
       -0.14334461 0.084928274 0.015684268 0.13837567
000250 fd 36 fd bd e5 d2 65 be bd 00 2c 3c 14 bf 21 bb
       -0.12364004 -0.22443731 0.010498223 -0.0024680542
000260 a6 c9 9c 3c 43 7c 9f 3b 6d ec 35 bd 41 41 e1 bd
       0.019139122 0.004867108 -0.044414926 -0.10998774
000270 fa ce 2f bd 5d 40 98 3e bd 4a 4e 3e bb ff 16 bd
       -0.042921998 0.29736605 0.20145698 -0.036864977
000280 73 d7 c8 bd c1 ba 67 bc da 2f ba bb b2 4f 0e be
       -0.09806719 -0.014143647 -0.005681974 -0.13897589
000290 7b 3b 35 3c 12 1a dd bd 0e 1f 9e ba 47 54 17 be
       0.0110615445 -0.10795988 -0.0012063698 -0.14778243
0002a0 70 b2 96 3d a9 49 97 bd 1e 98 30 3c 91 8c 31 3b
       0.07358253 -0.073870964 0.010778455 0.002709184
0002b0 67 2b 69 bd c6 52 a5 3d f6 c2 79 bb ce 5d ba 3c
       -0.056926157 0.080724284 -0.003811059 0.022749808
0002c0 fd 2a cb ba 54 1a b8 3d a6 fc 4e 3d d9 d9 73 3c
       -0.0015500482 0.08989397 0.050533913 0.014883482
0002d0 df df f6 bc bd 79 96 bd 9d 7f 0f bc a1 b4 0e ba
       -0.030136047 -0.073474385 -0.008758453 -0.0005443786
0002e0 be 66 25 bd 45 f1 16 3e a9 51 1a 3e cb 13 0f 3e
       -0.040381186 0.14740475 0.15070213 0.13972394
0002f0 48 6b 1b be d7 69 8f bb 87 b5 3b be 63 17 57 bd
       -0.15177643 -0.0043766308 -0.18330966 -0.052512538
000300 76 51 6c 3c 9d 9e 91 3d 16 51 be 3e 32 50 69 bd
       0.014423719 0.07110331 0.3717124 -0.056961246
000310 63 2b 03 3b 81 eb 18 bb 8c 72 f5 bd 32 2d 27 3c
       0.0020014874 -0.002333373 -0.11984739 0.0102036465
000320 80 be de ba da 62 01 bd da 66 58 bb 8c 1f e0 3d
       -0.0016994029 -0.031588413 -0.0033020289 0.10943517
000330 d6 0f 08 bc 4f 64 f6 bd 6b d5 46 3d 8c 52 71 3b
       -0.008304557 -0.12030851 0.048543375 0.0036822883
000340 71 34 9b 3b 9d 09 db 3b bf 4f 3a bd a9 74 86 3d
       0.004736476 0.0066844956 -0.045486208 0.0656522
000350 e1 1b 20 bc 93 e3 12 3c 4d 96 00 3c 7b 00 00 bc
       -0.009772272 0.008965391 0.0078483345 -0.007812615
000360 6b bd d3 3d 1a b6 a9 3c e9 2f 36 bb 85 a4 3a 3c
       0.10338863 0.020716716 -0.0027799553 0.011391764
000370 27 d7 78 bc f2 96 c9 3b e0 f5 c8 bd f5 4d 42 bd
       -0.015188015 0.0061520273 -0.09812522 -0.047437627
000380 b6 42 db 3c dc a2 74 bc cd 19 56 3c 9e 28 23 3b
       0.026765209 -0.014931407 0.013067675 0.0024896036
000390 df cb ec 3c 9a 71 f8 3d 3b b4 eb 3d 62 d1 1e be
       0.028905807 0.12131043 0.115089856 -0.1550956
0003a0 4c 20 a2 3b 3f 8d 13 3c bb c9 58 3b 7c f7 83 bb
       0.0049476977 0.009005844 0.0033079225 -0.004027305
0003b0 10 6b 5d bd 15 2b 16 3e 31 52 a4 3d d8 f8 c4 bc
       -0.05405718 0.14664872 0.08023489 -0.02404444
0003c0 da 9e 55 3e dc dd f5 3c 5b 85 83 bb ad ef 75 b9
       0.20861378 0.030013017 -0.0040137 -0.00023454307
0003d0 6b e1 70 3e 0f ac 94 3d c2 d7 d9 3b a7 34 ca bd
       0.2352349 0.0725938 0.006648035 -0.09873324
0003e0 9a 52 a2 bc 7d 9c f6 bd 57 66 83 bb 24 57 26 3c
       -0.019814778 -0.120415665 -0.0040100026 0.010152612
0003f0 6b 94 00 3b 05 df d8 b7 a3 0e 4b bd d7 d8 25 bb
       0.0019619714 -2.5853058e-05 -0.049574506 -0.0025306249

autoencoder.encoder.3.bias f4 [100]
000000 2a 60 0c 3e 8b fc 29 3d 5e 04 9e 3d 36 cb b3 bd
       0.13708559 0.04150061 0.07715677 -0.08778994
000010 8b 3d 40 be f1 8b 5e 3d 68 ef 89 39 c7 13 e5 bb
       -0.18773477 0.054332677 0.00026309048 -0.006990883
000020 c8 4b cb bd 56 9c cf 3b b1 d9 3b bc 6b 5f 15 bb
       -0.099265635 0.0063357754 -0.011465476 -0.002279247
000030 bf 73 fe ba 8a a7 db 3d 91 0e e5 3b d4 3b 92 bd
       -0.0019413157 0.10725315 0.006990262 -0.071403176
000040 b1 cb 5c 3e 30 16 f4 3a 0d 23 87 3d ff fa e9 3b
       0.21562077 0.0018622335 0.06598482 0.007140517
000050 9b 39 da 38 ea 97 ae bd 2c 55 b1 bd 04 22 bb be
       0.0001040578 -0.08525069 -0.08658823 -0.3654939
000060 00 4a 90 bc d9 5c e5 ba 22 82 be 3d 5e bb 39 be
       -0.017613411 -0.0017498984 0.093021646 -0.18137881
000070 9d de 90 be 54 f8 c0 3a 0f bf af 3a 67 d8 0f ba
       -0.2829484 0.0014722445 0.001340838 -0.00054872636
000080 6d d7 07 bb 82 ff 8d bb 74 f2 a4 3b 7a 91 8b bd
       -0.002072777 -0.0043334374 0.0050337855 -0.06814857
000090 0d ea 6c 3d bf 30 07 be 6c cc 90 3c d6 5a ce bd
       0.057840396 -0.13202189 0.017675601 -0.10075919
0000a0 dd 9e 05 be 58 83 3d bc ed 14 8b 3d 30 47 d3 3c
       -0.13048883 -0.011566959 0.06791101 0.02579078
0000b0 31 53 0d be d4 47 b5 bc 28 29 b9 bd fd 6e a1 bd
       -0.13801266 -0.022128977 -0.09041053 -0.078824975
0000c0 b5 fc 02 3d e3 2d 02 be 87 39 b3 b9 ac 31 70 3b
       0.03197928 -0.12712817 -0.00034184402 0.00366507
0000d0 fc aa fc 38 3a 93 12 ba dd cb d5 3a a0 80 84 3b
       0.00012048145 -0.00055913965 0.0016311366 0.0040436536
0000e0 5a f5 78 3c d5 8e 3c 3b 4d 95 10 3b 76 33 2a bc
       0.015195215 0.0028771658 0.0022061646 -0.010388246
0000f0 c8 ad 82 3d 6d c4 22 be 32 d0 27 ba 1c 27 33 3d
       0.063808024 -0.15895243 -0.0006401568 0.04373847
000100 17 28 33 3e 4f e2 06 3a e9 8e 0a 3b 32 90 8b 3d
       0.17495762 0.0005145417 0.002114231 0.068146124
000110 ad 38 a5 bc 62 59 6e 3d f1 0c d0 bc cc 01 82 bd
       -0.020168627 0.05819071 -0.025396796 -0.06347999
000120 3c 1d b9 3d d8 3f c9 bc 8b f0 ad bd 11 79 29 bb
       0.09038779 -0.024566576 -0.084931456 -0.0025859515
000130 b6 b9 35 b9 e4 ef 75 bc dd 42 2b bd 8a ec 09 3e
       -0.00017330688 -0.015010808 -0.041811813 0.13469139
000140 ad ad b5 bb d9 81 35 3b 35 92 29 be f6 6b 9e bc
       -0.0055443854 0.0027695803 -0.1655968 -0.01933859
000150 dd ff 10 bb b1 09 84 bd 16 55 8c bd a6 ad 99 ba
       -0.0022125163 -0.06447161 -0.06852166 -0.0011724725
000160 78 31 0a 3b 1d e3 08 3b c4 5a 07 bc f6 11 11 bb
       0.0021086615 0.0020887323 -0.008261386 -0.002213595
000170 70 6c 45 bd 11 ee 70 bd 99 56 ba ba 42 b2 8f bb
       -0.048199117 -0.058820788 -0.0014216482 -0.0043852637
000180 61 03 61 3b 84 53 1b be c7 ad 0e 3a b2 47 dc 3b
       0.003433429 -0.15168577 0.0005442765 0.006722414

autoencoder.encoder.5.weight f4 [100, 100]
000000 3e a7 1b bb ca ae ef ba a8 05 83 bb 45 6f 47 bb
       -0.0023750807 -0.0018286344 -0.003998477 -0.0030431312
000010 79 25 a1 bb 65 42 0a bb eb 5c 40 37 4a b1 98 3a
       -0.004917797 -0.0021096703 1.1465726e-05 0.0011649516
000020 ed be 60 3b 25 55 0d bb 6e 58 85 bb 48 fe 88 3a
       0.0034293488 -0.0021565643 -0.0040693795 0.0010451758
000030 c8 90 05 3c 3c 20 b6 3a d6 f9 21 bb 64 fb 56 ba
       0.008152194 0.0013895105 -0.0024715564 -0.0008200912
000040 86 d2 3b 3b 2e 58 40 b9 01 41 13 bb 21 25 c9 ba
       0.0028659417 -0.00018343396 -0.0022469165 -0.0015346148
000050 75 fc bf b9 99 a5 1d 3b 45 ba a1 3b 3b 45 11 3a
       -0.00036618454 0.0024055003 0.004935535 0.0005541627
000060 65 2c 1a 3b 76 a4 a6 3a 9b fd 8d ba c4 83 1f 3b
       0.0023524996 0.0012713808 -0.0010833027 0.0024340013
000070 07 05 64 ba 32 1f 5f b9 b4 62 62 b9 6d c1 4e b9
       -0.0008698259 -0.00021278558 -0.0002158981 -0.00019717748
000080 43 44 51 b7 9c 6a 28 3b 9d df 6f ba 0b 66 9c 3a
       -1.2473264e-05 0.002569831 -0.00091504474 0.0011932267
000090 d9 73 08 bc ef e6 50 bb 63 b9 d0 3a ec 3f e3 3b
       -0.0083284015 -0.0031875928 0.001592439 0.0069351103
0000a0 66 3b d5 3a 82 2a 8e 3b ca b5 57 3b 0a 00 f9 bb
       0.0016268312 0.0043385634 0.0032914751 -0.0075988816
0000b0 08 4d 58 bb bc d2 40 3b 77 b5 da ba 10 84 f6 3a
       -0.0033004899 0.0029422482 -0.0016686161 0.0018807668
0000c0 a7 8e 7a bb c1 bf ff 3a e3 a9 c8 b9 ad 5c 6b ba
       -0.0038232 0.0019512103 -0.00038273548 -0.00089783483
0000d0 1f 66 d8 b8 a3 8a 5a b9 07 ee ee b9 25 70 ac ba
       -0.00010318704 -0.00020841746 -0.00045572242 -0.001315598
0000e0 57 4d d5 38 b7 1a ea 38 af ed 80 b9 85 6d 93 bb
       0.00010171037 0.000111629655 -0.0002459115 -0.0044991397
0000f0 04 c7 ba 34 df 98 bb ba 1f 26 c7 37 f0 63 22 3a
       3.4790003e-07 -0.0014312527 2.37404e-05 0.00061947014
000100 01 03 cf ba 4a 43 c0 b9 1c fc 5d ba 90 d5 ad ba
       -0.0015793742 -0.00036671228 -0.0008468048 -0.0013262499
000110 4e 28 91 3a 19 94 d6 ba ba 58 2c 3c 1a 75 ca ba
       0.0011074634 -0.0016371041 0.010519201 -0.0015446276
000120 2b ba 24 3a 11 0b 0c ba be 76 5c bb d0 d2 c2 3a
       0.00062838447 -0.0005342225 -0.0033640112 0.0014863852
000130 a9 c5 59 38 91 b5 87 ba 29 7f e8 3a eb f1 05 ba
       5.1920917e-05 -0.0010353794 0.0017738092 -0.0005109596
000140 00 55 f0 bb 4e 8f f1 3a c4 76 a2 bb fa 7e 3f bb
       -0.0073343515 0.0018429549 -0.0049580056 -0.002921997
000150 0b a3 77 3a 3c 6d 90 b9 ea f8 c9 bb 11 61 91 b8
       0.00094465975 -0.00027547206 -0.006163706 -6.932219e-05
000160 8c 9d 83 39 82 00 46 b9 52 c9 66 39 aa e5 86 39
       0.0002510365 -0.0001888294 0.00022009507 0.00025729585
000170 4b 64 02 bb f8 96 f9 3a 5d 7e bb 39 81 58 06 bb
       -0.0019896205 0.0019042185 0.00035761567 -0.002049953
000180 4d 6e 51 3b 4d f9 60 3b 69 e4 b7 b9 27 7e 91 ba
       0.0031956614 0.0034328282 -0.0003507466 -0.0011100218
000190 a2 99 2d be 90 4a 8f 3d ba 30 de 3e 89 46 49 be
       -0.16953138 0.069966435 0.4339655 -0.19655813
0001a0 ad 99 a7 3d 5a 2b 99 3b 15 72 f2 ba 69 99 92 3b
       0.08183608 0.0046743574 -0.0018497134 0.0044738543
0001b0 31 20 70 be dd e2 ad bb 23 cd 65 be d2 c9 b0 3b
       -0.2344978 -0.005306585 -0.22441535 0.0053951526
0001c0 c5 54 41 3e 65 5f 62 be bd 02 01 3b 67 59 08 bd
       0.18879993 -0.22106703 0.001968547 -0.033288386
0001d0 f4 ba 7d 3d 1e 77 bf 3a 77 4f 30 3e ac 1c 63 bc
       0.06194587 0.0014607643 0.17217813 -0.013861816
0001e0 57 99 ff ba fa 58 82 3c 67 7c 3f bc 48 49 04 be
       -0.0019500655 0.015911568 -0.011687375 -0.1291858
0001f0 3a 1f 24 bd f5 ff 0d bc fc 1d f3 bd 7f 5a 51 3e
       -0.040068842 -0.008666982 -0.118709534 0.20444678
000200 97 97 4a 3d 7b 78 b2 bb 35 6d b1 3a db bf 04 bb
       0.049460974 -0.0054464913 0.0013536575 -0.0020255956
000210 68 8d 02 3c 54 c9 9c 3b 07 2e 0c bc 5e 05 59 3d
       0.007968284 0.0047847424 -0.008555896 0.052983634
000220 a1 3e fc bd e6 cf 51 bd e2 e7 d3 3d e7 28 ed bc
       -0.12316633 -0.051223658 0.103469625 -0.028950168
000230 7c 14 da 3c 2d c0 39 bd 8d 95 a6 bc 4d 18 9a 3e
       0.026621096 -0.04534929 -0.020334983 0.30096665
000240 ee bf e7 bb 83 5a 12 be a9 36 cb bc c8 26 fd 3d
       -0.0070724403 -0.1429234 -0.024806337 0.123609126
000250 2e e9 50 3e 28 77 6f 3c bc 1a f0 ba c8 92 03 bb
       0.20401451 0.014615811 -0.0018318514 -0.0020076502
000260 6b 80 d6 ba 67 78 03 bb d5 15 86 b9 4a 09 10 bb
       -0.0016365176 -0.002006078 -0.00025574738 -0.0021978193
000270 98 7f 84 3a e6 14 b9 3a a1 0a ae 39 91 20 20 bc
       0.0010108827 0.0014120608 0.00033195785 -0.009773389
000280 f0 9c 84 bd d4 11 31 be 71 63 07 bb 0f b5 22 bd
       -0.06475246 -0.17291957 -0.0020658637 -0.039723452
000290 74 de 50 bd 95 9d 31 bb df 43 4d bb 4d 5c 9d bd
       -0.050993398 -0.0027101983 -0.0031320972 -0.076836206
0002a0 8c 90 8e 3d 5d c5 90 ba 59 60 1c 3e 0e 9d 17 3d
       0.06961164 -0.0011045147 0.15271129 0.037015013
0002b0 e9 9e 97 3e 0d 47 ab 3d bd 67 27 3e ee b2 17 bd
       0.29613426 0.08363161 0.16348167 -0.037035875
0002c0 cd ff b3 bb 57 36 86 3e 59 1f 12 bd c4 79 2a bb
       -0.0054931403 0.26213333 -0.035674427 -0.002601252
0002d0 c9 9e 90 be 4e 3f 10 3d bc cb 5a 3d 75 87 03 3e
       -0.28246143 0.035216622 0.053416952 0.12844642
0002e0 02 c1 ab 3b 38 95 34 bd 4b a3 76 bd a0 d3 da ba
       0.005241514 -0.04408762 -0.060214322 -0.0016695149
0002f0 1b ee cb 3a a9 73 24 3b e9 cc 0a 3e c8 70 2a 3a
       0.0015558632 0.0025093353 0.1355473 0.0006501791
000300 14 a2 a7 3e 63 41 c7 bd 47 95 7c ba c4 bd e8 bd
       0.32740843 -0.097292684 -0.0009635281 -0.1136432
000310 d5 f0 59 3d 2e 1c 8a bd 13 f2 16 bb 31 bb bd bb
       0.05320819 -0.06743656 -0.002303247 -0.005790137
000320 d4 66 57 3d 96 d3 18 3c 9f 72 8d bc b0 c4 83 bd
       0.0525883 0.00932779 -0.01726657 -0.064339995
000330 ed ca db bb 68 9f a8 bb 81 e5 4e b9 37 86 f4 ba
       -0.0067075402 -0.005145956 -0.00019731188 -0.0018655722
000340 4b 2d c7 3c 93 71 8e bb 59 00 5f 3c cb ac 69 3b
       0.02431359 -0.004347035 0.013610923 0.003565597
000350 40 72 af 3c ff a0 7e 3a 47 41 a2 bc 6b 0f 17 3c
       0.021416783 0.00097133213 -0.019806517 0.0092199845
000360 40 05 9d bb 7e 7a 5a 3a b5 aa 41 bc bd 9d cc bb
       -0.0047918856 0.0008334293 -0.011820485 -0.00624439
000370 a5 9e df ba e9 be 64 3c 21 2b 78 3d b1 5c f0 bb
       -0.001706083 0.013961532 0.060588006 -0.0073352684
000380 57 d6 69 bb 30 83 65 ba 50 7b 34 bd dd 6f 12 bd
       -0.0035680735 -0.0008755205 -0.044062912 -0.035751212
000390 66 b7 a1 3b 90 f4 c8 ba 8b 89 3c ba ec 66 97 ba
       0.004935193 -0.0015331674 -0.00071921264 -0.0011551059
0003a0 06 b2 8a 3a d2 3b 0b 3b a3 00 93 bb 7e b2 ae bc
       0.001058162 0.0021245372 -0.00448616 -0.021325346
0003b0 90 6c 7b bc 87 a9 1a bd dc e1 02 3d 18 93 94 bd
       -0.015345708 -0.03775933 0.031953678 -0.072546184
0003c0 07 a4 ea bc 24 5b 8f 3d 32 35 78 3d 55 a2 f1 bc
       -0.028642667 0.069998056 0.060597606 -0.029496351
0003d0 53 00 fb bc f2 18 96 bc 6c 85 c4 3c 00 6b 10 3d
       -0.030639803 -0.018322442 0.023989402 0.035258293
0003e0 0d a4 99 3c 2b 4a d4 bc 86 64 85 ba c3 1e 86 bb
       0.018754983 -0.025914272 -0.0010177053 -0.0040930226
0003f0 a0 57 bd ba c6 b7 a2 ba ba 6a 34 bb eb e5 75 bb
       -0.001444567 -0.0012414388 -0.0027529434 -0.0037521075

autoencoder.encoder.5.bias f4 [100]
000000 f7 ae 56 3a f1 5e 2d bc 4b f4 ae 3b 79 c9 5f 3b
       0.0008189524 -0.010581718 0.0053391806 0.0034147187
000010 10 41 3f 3d 56 6d 15 3b 03 4e cd 3a 54 eb d2 3c
       0.046692908 0.0022800765 0.0015663508 0.025746979
000020 9d 17 96 3a 65 27 f4 3d c0 c2 96 3a 74 88 b9 3c
       0.0011451129 0.119215764 0.0011502132 0.022648074
000030 52 d6 9f 3d 27 6b 62 3d e8 86 69 3a a2 6c 84 bd
       0.0780455 0.05527797 0.0008908347 -0.064660326
000040 1f da 32 3a 4f 00 be 3d e5 3e 2b 3d 82 41 f7 38
       0.00068226637 0.092774026 0.041808028 0.000117900796
000050 1c b6 09 bc 70 6a 50 3b 2b 40 2b 3d 3d 97 7d 3c
       -0.008405235 0.0031801723 0.041809242 0.015477953
000060 bf 8f 56 38 cc 69 2a bd b7 f8 11 bb 8a f9 b7 3d
       5.115545e-05 -0.041604802 -0.002227349 0.08983143
000070 d1 ea 4e 3a a3 a6 0d 39 5b 17 f8 bb de 17 38 3c
       0.0007893267 0.00013508885 -0.0075711436 0.011236159
000080 ba c3 7f bd c1 2a 40 ba f9 3c e1 ba 5f 73 bf 3a
       -0.06244252 -0.00073305896 -0.0017184309 0.0014606527
000090 bd b6 19 ba fa 79 96 3a 1e e5 c3 37 81 da cb bb
       -0.0005863717 0.0011480444 2.3352502e-05 -0.006221116
0000a0 cf 24 ee 3a 68 4b 46 bc 9f 95 4b 3a 93 07 74 bb
       0.0018168929 -0.012102939 0.0007766131 -0.003723596
0000b0 2b b7 e9 b9 b1 83 23 3e 51 12 5e bb 80 0d ec 39
       -0.00044577694 0.15968205 -0.003388543 0.00045023486
0000c0 43 3b e7 ba 14 b7 4b bb a1 b9 fb 3a 35 04 e9 3d
       -0.0017641563 -0.0031084465 0.0019205102 0.113777556
0000d0 a6 ce 4a 39 ff c3 c2 3d 85 a5 59 3a ec 56 e2 3a
       0.00019341204 0.095100395 0.00083025574 0.0017268336
0000e0 34 be 0c bd fe 33 18 3a fd d8 29 3b 91 7c 3c 3b
       -0.03436108 0.0005806087 0.0025916689 0.002876077
0000f0 46 67 18 be ca 88 d7 3d 10 00 96 bd e2 30 90 3a
       -0.14883146 0.10524137 -0.07324231 0.0011000896
000100 9f 97 e6 3d 0a 59 e6 3a 2d 05 60 ba 21 57 d1 3a
       0.11259388 0.0017574143 -0.0008545693 0.0015971401
000110 d6 d9 8a 39 9f 74 84 bd 08 67 af 3d f6 4d 04 bb
       0.00026483712 -0.06467556 0.085645735 -0.002018807
000120 4d 83 29 3e 47 3e c3 3a 7b 9b e2 3d 7e 79 a7 ba
       0.16553994 0.001489588 0.11064812 -0.0012777296
000130 b0 8b cf ba ec b0 ae 3a e8 b6 01 3b d2 9d 07 3e
       -0.0015834477 0.0013327873 0.0019792859 0.13243797
000140 fd 7f ab 39 85 d1 d8 3d 76 ab 1c be 8d 6f d5 3d
       0.0003271102 0.10586838 -0.15299782 0.10421667
000150 b8 c3 f4 3a b6 0a d0 bd ba 08 1e 3b bf 3a db bd
       0.0018674051 -0.10158293 0.0024114088 -0.10704564
000160 31 7a 35 ba 15 22 27 bb 0e 90 13 3a 25 59 bd bc
       -0.000692281 -0.0025502492 0.0005629071 -0.023113796
000170 b0 2d 59 38 93 b7 63 3a 43 51 3e 3a 60 87 22 3b
       5.177938e-05 0.00086867175 0.0007260034 0.0024799928
000180 ed 0d c0 ba c9 08 4c 39 84 ae c7 3d c1 73 6d 3d
       -0.0014652588 0.00019458229 0.09750083 0.05797172

autoencoder.encoder.7.weight f4 [100, 100]
000000 a7 1f 87 ba 7c 0b 96 3d 69 71 34 3c 31 fc 8c bb
       -0.0010309116 0.07326409 0.011013367 -0.0043025245
000010 76 fc 52 be f3 10 30 bb 8a a1 d3 ba d4 1b 4d bc
       -0.20604119 -0.0026865571 -0.0016146165 -0.012518842
000020 c6 13 34 bb c1 2c 95 bc f1 0d 08 bb 8d fd 97 3c
       -0.0027477606 -0.018209817 -0.0020760263 0.01855352
000030 9a 92 d5 3b a2 3d 99 bd dd 37 31 bb 27 00 05 3d
       0.0065177204 -0.07482459 -0.0027041354 0.03247085
000040 78 0f d7 ba ad 7b 8f 3c 6a 27 14 be bc c6 08 ba
       -0.0016407808 0.017515028 -0.1446816 -0.0005217602
000050 ca d4 ef 3c ba 13 99 bb 0e eb 11 3d 4d 99 2f 3b
       0.02927627 -0.004671541 0.035624556 0.0026794255
000060 8d ca 60 3b 9b db 0b 3d 53 da ca 3b 2e c2 d3 bd
       0.0034300417 0.03414498 0.006190577 -0.10339771
000070 eb 7b b2 bb a6 65 8c 3b ff 05 2f 3d a0 b8 a9 3b
       -0.005446901 0.0042845784 0.042730328 0.0051794797
000080 5a 34 96 3c 3f 07 f7 bc 59 48 bf 3b bd 8b 52 3a
       0.01833551 -0.030154822 0.005837482 0.0008031687
000090 9d b1 c6 3a ff 4d b2 bb 2f c9 b7 b9 fe 43 a9 3b
       0.0015159134 -0.0054414268 -0.00035054373 0.005165576
0000a0 89 02 98 bb d1 aa ce bb 8d 29 ec ba d5 ee c0 38
       -0.004638974 -0.006306984 -0.0018017754 9.1997594e-05
0000b0 e3 62 fd 3a 36 41 64 bd c0 7b d0 3b 56 6d 3c 3b
       0.0019331839 -0.055726252 0.0063624084 0.0028751693
0000c0 79 03 d5 3b 91 7c f0 ba 53 3b 29 bb 6f 28 d0 3c
       0.006500658 -0.001834767 -0.0025822714 0.025409905
0000d0 e3 95 1b bb 28 95 d5 3c f1 b3 30 bb 97 19 2b bb
       -0.0023740462 0.0260721 -0.0026962722 -0.0026107782
0000e0 7d 1d 00 3b 6d 92 39 3b 6e 64 60 bb f8 b6 69 bb
       0.0019548826 0.0028316036 -0.0034239548 -0.0035662036
0000f0 d2 30 3a 3a 34 7e 03 3d 5d 5b b3 3d 01 1d 0d bb
       0.00071026117 0.03210278 0.087576605 -0.002153218
000100 92 7a b3 bd 56 cf 1c bb 8d ce ab ba 14 c5 06 3b
       -0.08763613 -0.0023927293 -0.0013107822 0.0020564245
000110 bf 91 5c 3a 84 e0 4a be f2 23 ac 3c 32 eb 72 3b
       0.0008414052 -0.19812208 0.021013234 0.0037066457
000120 b9 e9 b0 bc 07 4e d3 ba c9 0d c7 bb 24 cd 40 3a
       -0.021595823 -0.0016121276 -0.0060746414 0.0007354787
000130 4a af 5f 3c 3d 8d 85 38 db 57 d5 3a 89 70 40 bc
       0.013652632 6.368242e-05 0.0016276793 -0.0117455805
000140 5d 23 11 ba 26 d7 42 bb 90 a1 88 bc 97 c5 ad bd
       -0.00055365806 -0.002973029 -0.016678602 -0.08484953
000150 35 3d f2 ba 07 bd 1c bd 38 5a 42 bb c5 87 44 3d
       -0.0018481376 -0.038266208 -0.0029655825 0.047981042
000160 27 3e 94 bb f8 05 9e bb e6 6f a0 bb b0 45 e6 bc
       -0.0045240107 -0.004822489 -0.004896152 -0.028109401
000170 bd f0 e4 3b 0c 77 b0 bb 6a 68 5e 3a fc ae f8 3a
       0.006986706 -0.0053852852 0.0008484187 0.0018973048
000180 b5 cd 8e 3b aa 21 ce 3b 85 de fd 3c 7a 22 31 be
       0.0043580183 0.006290634 0.030989895 -0.17298308
000190 61 8e 72 3a f8 1e b5 bc 74 23 b0 3b 9b 21 7e bb
       0.00092527835 -0.022109494 0.00537532 -0.0038777355
0001a0 f3 be 67 bd d5 18 86 bb 34 d7 75 bb b6 3b 6c bb
       -0.056578588 -0.0040923157 -0.0037512304 -0.0036046333
0001b0 33 f6 81 bb cb ad 0e 3d 6b 02 73 bb fd 89 9e bc
       -0.003966117 0.03483371 -0.0037080299 -0.019352907
0001c0 36 64 7e 3d 3c 43 a1 bd 47 7f 65 bb 3a 1c c2 3c
       0.062107287 -0.07874152 -0.003501849 0.0236951
0001d0 f1 75 6b bb af 09 0f bd 0b 0d 96 bc 27 cf 31 3b
       -0.0035928453 -0.034921344 -0.018316766 0.002713153
0001e0 0c b2 e4 3c cf 19 9c bb 24 92 d6 b9 fc 6e a1 bd
       0.02791693 -0.004763819 -0.00040926144 -0.07882497
0001f0 32 0c 63 3a 4a f9 d0 3c 10 10 79 3b 00 14 80 bd
       0.000866118 0.025509495 0.0038003959 -0.06253815
000200 d1 6d 5f bb 1c 56 cd 38 78 28 7e 3a 90 96 c4 bb
       -0.0034092555 9.791201e-05 0.00096953614 -0.0059993938
000210 af 26 5b 3c f1 1f 31 bd 00 6e be 3a bc fd 9d 3a
       0.013375922 -0.043243352 0.0014528632 0.0012053768
000220 38 f1 4e 3b 4b bb 60 bb 1a 25 ea ba 25 f4 2a 3b
       0.0031576883 -0.0034291323 -0.001786384 0.0026085463
000230 af f7 e6 ba bd c6 3f 3d 3d a2 49 bb 39 92 1e 3b
       -0.0017621423 0.04682039 -0.0030766868 0.0024196042
000240 fd 99 99 3a 27 07 0d be f7 2d 73 3b 82 5e 46 3b
       0.0011718866 -0.1377226 0.0037106255 0.0030268733
000250 51 2c 08 3b 42 77 67 bb 99 d6 2c ba 12 e5 2f bc
       0.0020778368 -0.0035318886 -0.0006593257 -0.010735767
000260 21 86 64 bb d5 4c 61 bd a4 fe 6a bb 00 7a 23 bb
       -0.0034869986 -0.055004913 -0.0035857344 -0.0024944544
000270 96 5a 54 3c 5a b8 f0 3a 9f f1 46 bb e9 a8 40 bb
       0.0129610505 0.0018365488 -0.003035642 -0.0029397553
000280 29 a1 9e 3d 88 71 03 bd 0f ef 46 bc 45 97 77 bb
       0.077455826 -0.032090694 -0.012141957 -0.0037779373
000290 7b 72 cd bd a9 27 0b bb d1 82 5e bb 1e 24 29 3b
       -0.10031601 -0.0021233356 -0.0033952484 0.002580888
0002a0 91 fd a7 3a 26 e6 dc bd dd d2 7d bc 28 c3 89 3a
       0.0012816658 -0.10786085 -0.015492168 0.0010510432
0002b0 07 87 e2 bd c5 79 76 bb 9d 55 13 3c 28 62 65 3b
       -0.11060911 -0.0037609201 0.00899258 0.0035001133
0002c0 80 5f 50 3c 22 6c fb 3a 5d 5a 28 3b 4d ca 0a bc
       0.0127180815 0.0019182006 0.0025688626 -0.008471084
0002d0 4c a7 29 3b 13 8c 9f 3d c0 35 97 bb 80 4b 67 bd
       0.002588707 0.07790389 -0.004614562 -0.056468487
0002e0 90 b5 1f ba 69 1e b2 3d e5 5d 88 ba d3 34 02 3d
       -0.00060924236 0.086972065 -0.0010403959 0.03178866
0002f0 93 38 fc ba 1c 0a 09 bb 34 cf 9c bb 2d 28 80 bc
       -0.0019242935 -0.0020910567 -0.0047854427 -0.015644157
000300 c7 85 41 3a f3 ed d8 ba c4 ff 3b 3b 60 d5 fe 3a
       0.00073823 -0.0016550407 0.0028686384 0.0019442253
000310 f4 02 f5 3a ee 1c 7b 3a be 61 6a bc 8e 37 9c bd
       0.0018692897 0.0009579201 -0.01430553 -0.07627784
000320 0d bd 82 3a 96 56 0c bd c4 7c 75 bc 91 e0 67 3b
       0.0009974554 -0.034262262 -0.01498336 0.0035381655
000330 bb c5 c6 3c 51 c4 c0 3a 80 64 8b 3a cc 10 7d bc
       0.024264207 0.0014706944 0.001063481 -0.015445899
000340 24 db f8 39 d7 55 bf 3d 62 f4 3a 3a a5 ab 4d bd
       0.0004746552 0.093425445 0.0007131753 -0.05021252
000350 63 96 d0 3d 33 ef 90 bc 0e 94 bf 3a 07 ac 12 bd
       0.10184934 -0.017692184 0.0014616267 -0.03580859
000360 b1 6a 17 3a 69 d9 24 3d e0 9e e1 3c 7a b1 8a b9
       0.0005776091 0.0402464 0.027541578 -0.00026453641
000370 22 6c 05 bd d4 d4 60 3b ad 17 30 bd 5e 3f 16 3e
       -0.032573827 0.0034306543 -0.04299133 0.1467261
000380 0e 93 de 39 38 46 80 3d 62 b5 0f 38 7d c9 1f be
       0.00042452704 0.06263393 3.4262783e-05 -0.15604205
000390 c6 2c 0c 3b 16 b1 9b ba f4 ed 42 bd 50 64 9f bc
       0.0021388992 -0.0011878337 -0.04759021 -0.019457012
0003a0 d8 18 0e bc 1d a5 2e bd ae c4 ff ba e7 aa 04 3a
       -0.008672915 -0.042637933 -0.0019513571 0.0005060867
0003b0 91 26 b6 b7 19 da 66 3b f0 d2 0d b9 d9 26 9a 3c
       -2.171405e-05 0.0035225211 -0.00013525388 0.018817352
0003c0 91 0e 62 3b d3 c2 67 bd 12 7b 08 b9 82 75 74 bb
       0.0034493546 -0.056582283 -0.00013015818 -0.0037301485
0003d0 ab fd d8 b9 1d d1 da 3b eb cc 2c bb ef 88 33 b9
       -0.00041387728 0.0066777603 -0.0026367258 -0.00017121782
0003e0 2d ff 2b ba e9 b4 12 ba b2 c4 e8 3a 60 30 f4 3c
       -0.00065611565 -0.0005596416 0.0017758815 0.029808223
0003f0 97 29 a0 3a 2e d9 2b 3d c2 a9 d3 3a 90 af 2f 3b
       0.0012219426 0.041955166 0.0016148614 0.0026807524

autoencoder.encoder.7.bias f4 [100]
000000 b4 69 46 bd 09 c8 a1 bd c0 14 3c 3d ce 07 05 be
       -0.04844065 -0.07899482 0.045918226 -0.12991259
000010 29 99 c8 b8 11 40 55 bd 7f 0d ae 3d ea 3e b4 3c
       -9.5652715e-05 -0.05206305 0.08498668 0.022002656
000020 93 43 3e 3d 1c a1 2d ba 1b 1c 24 3a 0d c9 36 3d
       0.046451163 -0.00066234334 0.00062602916 0.04462533
000030 47 c4 80 3c 04 34 80 bd 96 db 63 ba 73 05 52 bd
       0.015718592 -0.06259921 -0.00086920836 -0.051274728
000040 2a 11 44 bd ce 7b ed 39 b1 fa 9d 39 81 f8 32 39
       -0.04786793 0.00045296404 0.00030132153 0.00017067978
000050 6f ed de b9 47 67 f7 bb b6 34 f7 3c 09 99 bc 3a
       -0.00042520041 -0.0075501534 0.030176502 0.001438887
000060 d4 b9 54 b9 ac 59 04 be a6 9f 3b bd ea 5a 9d bd
       -0.00020287122 -0.12924832 -0.04580655 -0.07683356
000070 df 4a 0f 3e ef b0 7f ba 9b ec 0f bd ea cb e9 bd
       0.13993405 -0.0009753843 -0.035137754 -0.11415847
000080 bf 5e 99 bd 14 88 b9 3c a2 f6 ea bc a4 5d 90 3c
       -0.074887745 0.022647895 -0.028682057 0.017622776
000090 fa 16 1a bd b9 81 b1 3d fb b6 2c 3d 04 6e 4c ba
       -0.03761957 0.08667321 0.04216669 -0.0007798376
0000a0 0d e1 f1 3c e0 24 35 3d f0 20 68 b9 aa 6f 63 3a
       0.029526258 0.04422462 -0.00022137514 0.0008676002
0000b0 08 70 8b bc cf 63 75 bd 7a da 2e 38 98 a1 84 3d
       -0.017021194 -0.059909638 4.1688305e-05 0.06476134
0000c0 64 6e fd 39 1e 99 37 b9 ae 6f 07 3d 1e 12 03 bd
       0.00048338168 -0.0001750928 0.03306549 -0.0319997
0000d0 82 5c 09 3e 92 96 c2 3d 90 76 9c bd 74 3b 8e bd
       0.13414195 0.09501375 -0.076398015 -0.069449335
0000e0 ad d0 91 bd e3 d4 e8 bd 0f b2 9b 3d 41 13 9f bc
       -0.0711988 -0.1136873 0.07602321 -0.01941836
0000f0 a2 2f d9 3d ca 9b 20 bd fc 76 06 3d e0 17 8a b9
       0.10604788 -0.039211072 0.032828316 -0.000263392
000100 f6 d2 f9 bc 0f 08 8c bd 7b 68 51 bd 2d 83 99 bd
       -0.030496102 -0.068374746 -0.05112503 -0.07495723
000110 3b 84 02 bd 93 55 61 3d d2 3b d6 b9 f4 0e 8e bd
       -0.031864386 0.05501325 -0.0004086183 -0.06936446
000120 4b c4 06 3a 26 04 99 3c 80 4a 96 bd 07 44 bc 3c
       0.0005140944 0.018678736 -0.073384285 0.022981657
000130 10 59 94 bd 66 5d 96 3c e7 3c 18 3d 24 f3 d2 b9
       -0.0724355 0.018355083 0.037167456 -0.00040235475
000140 0b 94 8b 3d c7 80 21 bc 86 d3 c4 bd c3 99 32 3a
       0.06815346 -0.009857363 -0.096106574 0.00068130734
000150 cf ac 7b 3d cc 3f 4f b9 67 da a9 3c 04 16 c3 3b
       0.0614441 -0.00019764825 0.020734025 0.005953552
000160 6b 46 ae 39 d9 c6 98 bd 83 c2 8e bc e4 a8 58 bd
       0.00033240332 -0.07459802 -0.017426735 -0.05289544
000170 80 4e 95 3a 06 ae 94 3d 6a ed 0d 3d 7d 8f 2c bd
       0.0011391193 0.07259755 0.034650244 -0.04212903
000180 35 83 86 ba d1 eb 0f 3e f3 b8 c0 39 bf de ae bd
       -0.0010262491 0.140548 0.00036758892 -0.08538579

autoencoder.encoder.9.weight f4 [2, 100]
000000 aa 89 a5 bd 5e 38 6a be bb 30 4b 3e d9 1a b4 be
       -0.08082898 -0.22873065 0.19842808 -0.35176733
000010 4b c3 84 38 83 e4 d1 bd 54 26 22 3e ad 59 94 3e
       6.330627e-05 -0.10248663 0.15834934 0.28974667
000020 ed c1 88 3e 28 19 07 3a 2b d3 96 ba 6b 30 a3 3e
       0.26710454 0.000515359 -0.0011507025 0.31872877
000030 3f 2b 11 3e 98 13 2f be 7d ec 03 3b e8 1d b4 bd
       0.14176653 -0.17097318 0.0020129972 -0.08794767
000040 e2 5a 9e bd 8d 6e 9f ba 5a 19 57 b9 7d 82 1c ba
       -0.07732178 -0.0012163684 -0.00020513442 -0.0005970372
000050 7d 09 84 b9 38 89 a3 3c c1 49 ac 3d cd 1e 56 bb
       -0.0002518407 0.019962892 0.08412505 -0.0032672167
000060 90 64 4e ba 91 b3 28 3e 78 8d 73 be 18 6c 68 be
       -0.00078732613 0.16474749 -0.23784435 -0.22697484
000070 05 fd 31 3e 6f f4 67 3b 37 4f 17 bd 5c f7 31 be
       0.17381676 0.0035393497 -0.03694078 -0.17379516
000080 02 06 6e be 2d 08 36 3d a0 57 cc bc 90 7a 9b 3b
       -0.2324448 0.04444139 -0.024944127 0.004744835
000090 ef 52 33 bd bb ee 13 3e 02 0a a1 3c 6f 0f 68 ba
       -0.043780264 0.14446537 0.019658092 -0.00088523974
0000a0 28 0f 1f bc cc 6d ad b9 f1 d5 e7 3a c6 61 ac ba
       -0.009708203 -0.00033078936 0.0017687661 -0.0013151697
0000b0 c8 8b 8f 3c 9d 5a 05 be a3 0a d9 b6 53 9c 1c 3f
       0.017522708 -0.13022847 -6.4683422e-06 0.6117603
0000c0 f8 65 3d bb 5e 1d 1c bb 18 1d 16 3e 20 4f dc bc
       -0.002889989 -0.0023821215 0.14659536 -0.026893198
0000d0 52 8a 80 3e aa f8 2c bf a4 52 88 be 10 9f 3b be
       0.2510553 -0.6756693 -0.2662555 -0.18322396
0000e0 65 28 51 be 73 80 f6 be 29 52 93 3e 3d 69 64 3c
       -0.20425566 -0.48144874 0.2877362 0.013941106
0000f0 2c f5 36 3f f4 15 5f bd e3 3b 25 3e 12 62 78 3b
       0.7146785 -0.054464296 0.16136126 0.0037900251
000100 f8 e0 a9 bc 73 4d 37 be 48 97 a7 bd 15 00 94 be
       -0.020737156 -0.17900638 -0.081831515 -0.28906313
000110 5a 2b 70 bd b4 29 05 3d 1c 9c db ba 85 a4 40 be
       -0.058635093 0.032510474 -0.0016754898 -0.18812759
000120 48 09 04 ba 8b 5f be 3d 9b 13 9c be 66 cb 8e 3d
       -0.00050367834 0.09295567 -0.30483708 0.06972389
000130 e3 90 55 be 5b 0c 9a 3d 8a df 1d 3e 74 25 59 ba
       -0.20856051 0.07521888 0.15417305 -0.0008283474
000140 3f c1 ac 3e 3f 75 2f bc 1a 69 73 be e9 97 7e ba
       0.33741185 -0.010709106 -0.23770562 -0.00097119674
000150 f7 d9 20 3d 8f 8a 3e 3b 49 06 c9 3d 18 82 b8 3d
       0.039270367 0.0029074287 0.09815652 0.090091884
000160 34 aa 30 38 fb 1b 67 be 8b db 29 bc dc 18 b9 bd
       4.2120184e-05 -0.22569267 -0.0103672845 -0.09037945
000170 8f 41 d8 ba 1d 38 1a 3e 94 88 6d 3d 04 f3 9a bd
       -0.001649903 0.15060468 0.05799158 -0.07565883
000180 81 33 8f 3b 32 eb 6e 3f 4c 8c 49 39 0e f7 80 be
       0.0043701534 0.9332763 0.00019221118 -0.25188488
000190 dc be 8a be 28 d1 b7 bc 35 51 80 3d 02 71 7b bd
       -0.2709874 -0.0224386 0.06265489 -0.06138707
0001a0 de bb 77 b9 f1 5e 15 be f5 48 ef 3c 17 b0 b4 3e
       -0.00023625742 -0.14586999 0.029209593 0.35290596
0001b0 35 ad ba 3e 03 62 2b bb f2 76 e8 3a 6f 9d 7d 3e
       0.3646027 -0.0026150949 0.0017735644 0.24767087
0001c0 f9 20 e1 bd ba 6a 47 be 09 12 27 bb cc 79 83 be
       -0.10992617 -0.19474307 -0.0025492928 -0.2567886
0001d0 d8 6b a7 bd 1a 59 c9 3a f5 68 75 ba 11 dc c2 3a
       -0.081748664 0.0015361637 -0.0009361648 0.001486661
0001e0 dc 71 79 3a 19 6e 3f bd f6 10 8e 3d f8 03 dd 39
       0.00095155626 -0.046735857 0.06936829 0.00042155362
0001f0 25 f5 43 bb 54 be 26 3f fe 0e 6a 3d 04 30 bc bd
       -0.0029900756 0.6513417 0.057143204 -0.09188846
000200 1a c5 e2 be bd c9 3a bb b5 40 20 be af be ae be
       -0.44291002 -0.0028501593 -0.15649684 -0.34129855
000210 5f 31 82 bd 06 16 3b bc 6b 0f 84 bd 2e ca 99 be
       -0.06357073 -0.011418825 -0.06448253 -0.30037063
000220 b9 87 32 be 7f db 75 3f 5e d2 07 3e be c9 97 ba
       -0.17434587 0.9603805 0.13263842 -0.001158051
000230 07 98 4c 3e 24 45 83 be e3 16 b7 bb b6 e6 f9 3a
       0.19979869 -0.25638688 -0.005587445 0.001906595
000240 d8 f8 1d 3f b5 74 e0 bd a6 79 a5 ba fa 4f fb bd
       0.6170783 -0.1095976 -0.0012624755 -0.12271114
000250 20 e9 47 bb b7 c5 0f bb a9 dd 92 3e d9 6d b0 bd
       -0.0030503944 -0.0021937916 0.28684738 -0.08614702
000260 42 57 33 3d c1 f1 8d bd 1d a5 dc bd 3e 97 17 bd
       0.043784387 -0.069308765 -0.1077368 -0.03700947
000270 4b 4a 13 be fc 8f 45 3d 20 67 0e be d8 14 dd bd
       -0.1438381 0.048233017 -0.13906527 -0.10794991
000280 5a 69 fb 3d 5f 69 46 be 64 5b 0f 3e 65 04 8c bb
       0.122759536 -0.19376133 0.13999707 -0.004272985
000290 d7 dd 0a 3e f1 0e f5 bd a1 7f 64 be 55 42 dc 3c
       0.13561188 -0.119657405 -0.22314312 0.026887098
0002a0 d7 c7 10 3d 6e 6a df 3d 8b 47 94 ba 2c cc 07 be
       0.035346832 0.10908972 -0.0011312825 -0.13261479
0002b0 79 47 ab ba fa fd 9c 3c 6a 93 a3 bb 0f 9b 3a 3d
       -0.0013067565 0.019164074 -0.0049919384 0.04555803
0002c0 f1 11 29 bd d7 f8 dd be d7 18 72 3e ff e5 f1 38
       -0.041276876 -0.43353912 0.23642288 0.000115346156
0002d0 b6 86 d0 3e a3 37 a7 be fe 16 f5 3d bd f9 b6 3a
       0.40727776 -0.32659635 0.11967276 0.0013959926
0002e0 8e fc ea be 5f b6 8c bb 61 cb ab 3c 40 df 65 bd
       -0.4589581 -0.0042942013 0.020971002 -0.05612111
0002f0 53 99 b5 b9 11 42 b4 bd 78 23 2f bd 20 30 19 be
       -0.00034637246 -0.08801664 -0.042758435 -0.14959764
000300 01 e4 08 3b 0f 90 21 3f d4 fc 2c 3e cb 35 49 be
       0.0020887854 0.6311044 0.16893321 -0.19649427
000310 40 43 93 bb 6f e5 9f bc 0a b9 b3 ba ea 03 60 bc
       -0.004494101 -0.019518582 -0.0013711762 -0.013672808

autoencoder.encoder.9.bias f4 [2]
000000 57 18 63 3e 1e 0d d5 3d
       0.22177254 0.104028925
