save_config_2/11/model_state.pth (torch, 28347 bytes, 13 tensors)

autoencoder.encoder.0.weight f4 [16, 1, 3, 3]
000000 d4 ec a4 be 6c b0 18 3e 2a fd c9 3d a2 aa a9 be
       -0.32211936 0.1491105 0.0986274 -0.33137995
000010 92 45 a2 3d 38 82 8a bd bc fb 12 bf ee 7d 00 bd
       0.07923426 -0.067631185 -0.57415366 -0.031370096
000020 ce ed ac bd 9f 70 47 3f 35 98 2a 3e 81 3e e0 3d
       -0.08443795 0.7790622 0.16659625 0.10949422
000030 9d 7f 5e 3e fd d8 c1 bd d2 27 62 bd ba ca ca 3e
       0.21728368 -0.09465215 -0.055213757 0.39607793
000040 13 ff bb 3d bb f7 2f be 82 9f f5 3d ea 2c 70 3b
       0.09179511 -0.17184345 0.11993314 0.0036647865
000050 d5 e1 98 be da ed a9 bd 4d 87 87 be f6 6f 59 be
       -0.29859796 -0.0829732 -0.26470414 -0.21234116
000060 b0 61 3a bd 48 c0 97 be 6a 64 6c be a3 72 f8 3e
       -0.04550332 -0.29638886 -0.2308518 0.4852496
000070 d6 43 27 3e f2 f9 e0 3d 57 3d b5 3e 17 d8 94 3d
       0.16334471 0.10985173 0.3539836 0.07267778
000080 e9 59 1f 3e a1 eb d0 3e 74 0a 60 3c 81 2c bd 3e
       0.15561642 0.4080477 0.013674367 0.36948016
000090 77 f9 38 bf 06 18 8b be 32 80 79 3e 77 ed 27 bf
       -0.72255653 -0.27166766 0.24365309 -0.6559672
0000a0 db a7 46 be 74 ac d5 3d 34 0c e1 be a6 5c d3 be
       -0.1939997 0.104332834 -0.43954623 -0.41281623
0000b0 0f 11 a5 3e fb 4c 5b 3e 5a f0 04 3f 0c e9 8e 3e
       0.32239577 0.21416084 0.5192925 0.27912176
0000c0 13 a1 96 3e 87 2c c0 3e 3a 50 01 3e 79 73 9d 3e
       0.29419765 0.37533972 0.1262826 0.3075216
0000d0 d7 a5 fc 3e 41 80 63 3c a6 a3 12 bf 8b af 2b be
       0.49345276 0.013885559 -0.5728096 -0.16766183
0000e0 3d 3c d9 be 16 51 e0 bc 25 91 08 3b 36 9f 9b 3d
       -0.4242877 -0.027382415 0.0020838466 0.075987265
0000f0 de 7d f2 bd 33 c4 16 bc 7d b4 96 3b e8 0a f1 3d
       -0.118404135 -0.009202051 0.0045991526 0.11769658
000100 05 ec 81 be 13 b3 87 be 4e 72 8e be 4d c9 bb be
       -0.2537538 -0.2650381 -0.27821583 -0.36677018
000110 52 94 e3 be 03 7d 8b be 91 b8 88 be 02 71 18 bf
       -0.44449097 -0.27243814 -0.26703313 -0.59547436
000120 d3 f6 9e 3e cb f5 8f 3e cd 83 01 bf e6 a4 b1 3e
       0.31047687 0.28117213 -0.5059174 0.3469612
000130 1a 0b 10 3d ef 90 14 bf e2 f1 fa 3e c4 80 4a bd
       0.035166837 -0.5803365 0.49012667 -0.049439207
000140 6e f9 87 be 5c 21 42 be 4e e3 98 be 7b 80 07 be
       -0.26557487 -0.18958038 -0.2986092 -0.13232605
000150 0b 26 28 be 68 8a 6a be ec 57 1a be e4 68 76 bd
       -0.16420762 -0.2290436 -0.15072602 -0.060158625
000160 77 cd 90 be 45 c7 3b be c5 ba c9 3e b1 db ed 3e
       -0.28281757 -0.18337734 0.39400306 0.46456674
000170 e0 72 ee 3e 12 e8 ae 3d d3 fb d8 3e a8 e0 92 3e
       0.46572018 0.08540358 0.42379627 0.28687024
000180 b9 86 86 3e 43 5b 24 bd 3c 33 a2 3b 56 07 3d bf
       0.2627466 -0.040126096 0.0049499553 -0.7383932
000190 dd 8e e5 be c1 24 46 be af 37 69 be a9 33 6a bd
       -0.4483556 -0.19349958 -0.22775148 -0.057178173
0001a0 e9 53 a0 bd fb 3b b9 3e 6f cb 02 3f 2b ef 70 3e
       -0.078285046 0.36178574 0.51091665 0.23528735
0001b0 13 14 b7 bc d0 6a d6 bd 24 cc 89 3e 32 42 dd 3e
       -0.02234844 -0.104695916 0.2691356 0.43214566
0001c0 71 87 cc 3e 59 53 03 3f c6 43 b5 3e e7 b1 cd 3e
       0.39947084 0.51299053 0.3540327 0.4017479
0001d0 c1 df f3 3e 5b db d8 be 32 a6 15 3e d1 bb 0d 3f
       0.47631648 -0.42354855 0.1461418 0.5536471
0001e0 5e ab 52 be 18 66 65 3d 3d a4 37 3f 25 d4 9b be
       -0.20573184 0.056005567 0.7173498 -0.3043529
0001f0 32 05 8c 3e 67 7b 16 3f 5d c8 8c be 59 52 70 bd
       0.27347714 0.5878205 -0.27496615 -0.058672283
000200 11 1d 93 3d 5d 8f 30 3e 16 7b e2 3d dc ee 7b 3e
       0.07183278 0.17242189 0.11058633 0.24602836
000210 9e 14 02 3f 88 fb c9 3e b6 67 2f 3e fd 9c 7c bd
       0.5081271 0.39449716 0.17129406 -0.061673153
000220 2b 7e a7 be 2d db dc bd 09 eb de bd 94 bf 26 be
       -0.32713446 -0.10783992 -0.10884673 -0.16284019
000230 59 56 3f be ad fa 90 be f6 1c 99 be b0 19 ef be
       -0.18685283 -0.2831625 -0.29904908 -0.46699286

autoencoder.encoder.0.bias f4 [16]
000000 df 67 40 3f 6f c0 c1 3d ed 64 85 3f c8 dd 26 3e
       0.75158495 0.09460532 1.0421425 0.1629554
000010 7f be 01 be 41 f7 ea be 00 80 2c 3f e6 fc dd 3c
       -0.12670325 -0.45891765 0.6738281 0.02709813
000020 cd e9 68 3f 84 f3 c5 be 03 eb cd 3e 89 96 c7 3e
       0.9098175 -0.3866235 0.40218362 0.38982037
000030 ce d2 90 bd f9 90 39 3e 68 45 fd 3e fb b9 cc 3e
       -0.07071458 0.18121709 0.49467015 0.39985642

autoencoder.encoder.3.weight f4 [8, 16, 3, 3]
000000 33 6f 64 3e 8b 05 39 be cc 22 05 be 3c ec 9f 3d
       0.22308044 -0.1806852 -0.13001555 0.0780873
000010 a0 5b a4 bd b4 e2 16 bd a2 e6 1e be 17 4f c6 be
       -0.080252886 -0.036837295 -0.15517667 -0.38732216
000020 00 59 26 3d 10 d3 70 3e 04 09 36 3d cc 38 0c 3d
       0.04061222 0.23518014 0.04444219 0.034233853
000030 cb 57 d9 bd 21 ff 98 3d f9 e1 15 3d 94 53 87 3c
       -0.10612448 0.07470537 0.036592457 0.016519345
000040 53 36 00 bd 4d 79 f0 bb a3 03 9e 3c 84 90 c4 3d
       -0.031301808 -0.007338679 0.019288843 0.09597877
000050 ac 13 06 3e ac 21 46 3e 56 6d 6e bd 99 13 67 bb
       0.13093442 0.19348782 -0.05820974 -0.0035259484
000060 c1 e7 00 be 30 dc 5a be 21 40 b4 3b 0f e3 06 3e
       -0.12588407 -0.21373057 0.005500809 0.13172553
000070 2c a9 e7 3d e7 6c f5 3b ea 58 58 bd 45 ce 8e 3d
       0.11311564 0.007489789 -0.05281917 0.069729365
000080 88 82 4a 3d 84 9c f9 3c cb f1 a1 3d e8 1f a0 bd
       0.04944089 0.03047014 0.079074465 -0.07818586
000090 71 95 31 3e ee 83 fd 3c 52 8e bd be 7a e8 64 be
       0.17342164 0.030946698 -0.37022644 -0.22354308
0000a0 59 b8 86 bd b3 2f 31 be 7b a4 32 be d1 2e 91 be
       -0.0657813 -0.17303352 -0.17445557 -0.2835603
0000b0 e8 01 c5 3d 6d 94 d3 bc ba 78 1b bd 97 ee c0 bd
       0.09619504 -0.02582761 -0.03795693 -0.094205074
0000c0 e0 23 89 be d5 0c 13 bc 44 d5 60 bd 24 e4 22 3c
       -0.26785183 -0.008975227 -0.054890886 0.009942088
0000d0 d7 83 fb 3d 85 61 fc bb a3 b5 f3 39 e6 0d 82 3d
       0.12281006 -0.007702055 0.00046483902 0.06350307
0000e0 dd ce b3 be 9d 84 43 be a6 b4 16 3d 97 ac 68 be
       -0.35118762 -0.19093557 0.036793374 -0.22722088
0000f0 48 cf d5 bd 4a 35 59 be d9 98 18 be 7f 52 83 be
       -0.104399264 -0.21211734 -0.14902057 -0.25648877
000100 97 85 7b bd fd 39 84 be 19 7e c2 3c 04 12 c8 bd
       -0.061406698 -0.25825492 0.023741769 -0.09769061
000110 4e 0d 99 be 35 55 05 be 17 ce b5 bd 66 4a 1f be
       -0.29892963 -0.13020785 -0.08877199 -0.15555725
000120 47 5d 23 3e 46 5d c9 3d 83 3b c0 3d e1 e7 c9 3d
       0.15953551 0.098322436 0.09386351 0.098586805
000130 49 f4 e2 bd 4b 58 1d bc fa 6d e8 3d 42 b3 10 be
       -0.1108175 -0.00960357 0.11349101 -0.14130881
000140 0d 10 4e 3d 1d 8e 4b be 88 33 16 3d d0 fd 9c be
       0.050308276 -0.1987843 0.036670238 -0.30662394
000150 7b bf 10 be 95 7f f8 3b d1 1b 33 be 46 ca a2 bd
       -0.14135544 0.0075835683 -0.1749108 -0.07948737
000160 94 bb f2 bc 00 c0 c3 bd c3 bc cd 3c f0 7c a4 3d
       -0.02963046 -0.095581055 0.025114423 0.080316424
000170 9d d3 1c 3e 30 a2 21 be c2 a0 03 3e 26 8b 87 bd
       0.15315099 -0.15784526 0.12854293 -0.06618337
000180 11 2f 21 3d 9e c0 04 3e d0 3d 83 3d 2f c4 b6 3e
       0.039351527 0.12964103 0.06408274 0.3569655
000190 e4 f9 1b be a7 70 0b 3e a7 21 f9 bd 11 35 d6 3d
       -0.15232044 0.13617192 -0.12164622 0.1045934
0001a0 ec c1 3d be 86 75 69 3e a5 a4 29 be 99 87 15 3e
       -0.18531007 0.22798738 -0.16566713 0.14602508
0001b0 36 b9 c3 3d 2c d9 b5 bc 38 3d 09 3d e4 b3 d8 bc
       0.095568106 -0.022198282 0.03350565 -0.026452966
0001c0 6d 36 99 3d e0 f2 69 3d 68 dc bd 3c cb 17 33 3e
       0.07481084 0.05711639 0.023176387 0.17489545
0001d0 bf c6 3a bd 9e b3 6e bd 68 8c be 3d 03 d2 3e 3e
       -0.045599695 -0.058276765 0.09304124 0.186348
0001e0 1e cb 8b bd 61 c7 50 bd 74 61 4b 3e c0 7e 57 bd
       -0.06825851 -0.050971393 0.19861394 -0.052611113
0001f0 bb 54 b3 3c 1f aa 11 3e fe 54 ec 3c 5d 9d 48 3d
       0.021890989 0.14225052 0.028849121 0.0489782
000200 ad 38 36 bc 63 32 5d bd 07 24 a0 3d 56 a9 07 3d
       -0.011121911 -0.05400313 0.07819372 0.033120476
000210 3a ad 85 3d 58 a6 18 3d 23 1c ba 3c cf a0 36 be
       0.06527181 0.037268013 0.022718495 -0.17834781
000220 66 f8 2e 3c 3c 4a 77 bd 47 12 cf 3d c2 03 94 3c
       0.01067934 -0.06037353 0.10110908 0.018068198
000230 20 ea a7 be fd 44 87 be 30 76 88 bd b1 75 31 be
       -0.3279581 -0.2641982 -0.066631675 -0.17330052
000240 af 9c e4 bd e7 2e 9c bd 88 8c c5 bc cf d3 08 3e
       -0.111626975 -0.076261334 -0.024114862 0.13362049
000250 a6 62 ba ba e8 23 46 3e 97 ca c6 3d cd bb 98 bd
       -0.0014220073 0.19349635 0.0970661 -0.07457695
000260 95 ec 92 bc 21 40 8f 3e 0a e7 4d 3d 73 c0 89 3d
       -0.017935077 0.27978614 0.050269164 0.0672616
000270 e5 cc 1c be d2 80 60 bc d5 4c 40 3d 90 09 9a 3d
       -0.15312536 -0.013702588 0.046948273 0.07521355
000280 39 e0 ae bb 6f 75 37 bc e5 7d d6 bd 31 3f 65 bc
       -0.005336788 -0.011197432 -0.10473231 -0.013992117
000290 f3 91 d5 bd 6f 0f c3 3d cf 7d 92 3d 0f ee 8f 3e
       -0.10428228 0.09524428 0.07152902 0.28111312
0002a0 6f ae a4 3d 8a dc 62 3d 9d af 87 3e d3 f6 7f 3e
       0.08041083 0.055386104 0.2650117 0.249965
0002b0 0d 8c 65 3c 48 70 8f 3d 74 31 18 bd ce cd c0 3d
       0.0140104415 0.07003838 -0.037156537 0.09414254
0002c0 2d 36 40 3d dc c3 ca 3d a4 30 90 bc 4c 8b 3b 3d
       0.046926666 0.099006385 -0.017601319 0.04578714
0002d0 01 2d 5b be f8 e4 10 3d 09 a9 6d be 14 98 e7 bd
       -0.21403886 0.03537461 -0.23209013 -0.113083035
0002e0 17 c5 8f 3d 32 31 d7 bd 98 1a ac 3a bd a0 81 be
       0.07020014 -0.1050743 0.0013130484 -0.25317946
0002f0 cf da 6b bd a8 6d 7d 3c 23 1d 18 bd f3 d5 9b 3d
       -0.05758172 0.015468039 -0.037137162 0.07609167
000300 7d 35 ec bd d4 e2 4f bc 81 fd 5a 3d 6b 91 5d bd
       -0.115336396 -0.012688357 0.053464416 -0.05409376
000310 6c ab 50 bd 5b 97 75 3b 7f 88 83 be ae 8f f6 3c
       -0.05094473 0.0037474248 -0.25690076 0.030097809
000320 73 87 92 be d3 8a 98 be 0b e4 16 3e b8 44 01 be
       -0.28618965 -0.29793414 0.14735429 -0.1262387
000330 63 bf 2d 3e 5b aa c3 39 88 75 0a 3e 1b a3 d0 be
       0.1696754 0.00037320223 0.13521397 -0.4074944
000340 51 4e 2a be b2 fd c1 be 80 c0 e0 3c b9 e1 24 3d
       -0.16631438 -0.37888867 0.027435541 0.04025433
000350 eb 9b e7 bd 7b 4b 81 be 8f 3e ae bd 85 4a c7 bd
       -0.11309036 -0.252529 -0.08508026 -0.0973101
000360 05 b4 48 3e 47 dc 0c 3e bc 6c 43 bd 2b b6 0e 3e
       0.19599922 0.13755904 -0.04771112 0.13936679
000370 95 93 d5 3c 5e 03 5a 3e 02 e8 8b 3e 84 f3 7a 3c
       0.02607135 0.21290347 0.27325445 0.015316848
000380 76 26 0f 3e 3a fb 95 be 12 0b d3 bd 34 a5 90 be
       0.13979515 -0.29293233 -0.10304846 -0.2825104
000390 94 ac ea bd d7 54 ea bb d0 74 01 be e8 11 07 be
       -0.11458698 -0.007151227 -0.12642217 -0.13190424
0003a0 0b b6 0e be e3 30 6a bd ba 89 00 3e 4b d1 55 3d
       -0.13936631 -0.05717553 0.12552539 0.05220155
0003b0 b1 2f d3 3d b2 26 c1 bd 8d fc c2 3d e3 2e ed ba
       0.10311831 -0.09431209 0.095208265 -0.0018095638
0003c0 8d 99 5c 3d 5a 1b 34 3d c4 6f 0a 3d ec 1c a3 bd
       0.053857375 0.043971397 0.033797994 -0.07964501
0003d0 3c 13 63 3d e8 24 21 3e 41 b0 d1 be 4e 1d 29 3e
       0.055438265 0.15736735 -0.40954784 0.16515085
0003e0 fa 6d 9d bd 58 02 13 3e f6 49 b3 3d 4c 6d 81 3d
       -0.07686992 0.14356363 0.08754341 0.06319675
0003f0 48 5c 0a 3e 7c ab 88 bd fb 5f 84 3d ed ae 94 ba
       0.13511765 -0.06673333 0.06463619 -0.0011343636

autoencoder.encoder.3.bias f4 [8]
000000 e4 01 4e 3d 1f 57 f8 3c 17 e3 be 3d 6d d2 aa bc
       0.05029477 0.03031498 0.09320658 -0.020852292
000010 5c f8 1c bd 43 d8 5d 3a db ae 11 be 69 4e cc 3a
       -0.03832279 0.00084627065 -0.14226858 0.0015587333

autoencoder.encoder.6.weight f4 [2, 8, 2, 2]
000000 0f 11 d4 3e a6 9f d1 3e 39 7f 8a 3e 80 68 82 3e
       0.41419265 0.40942115 0.27050188 0.25470352
000010 f7 22 0d 3e 41 39 98 3e 71 27 22 3e 53 94 6f 3d
       0.1378287 0.2973118 0.15835358 0.058491062
000020 3f 16 1e be bd 74 9d 3d a7 d6 65 be 22 3c 8f be
       -0.15438174 0.07688282 -0.22445165 -0.27975565
000030 87 fe da bd ab 85 11 be 39 ea b9 be 17 e5 b7 be
       -0.106930785 -0.14211147 -0.3631151 -0.3591697
000040 d5 21 91 3d 94 fa 3f be b6 70 6f 3e ed 2f 50 be
       0.07086531 -0.18747932 0.2338284 -0.20330782
000050 b6 cc 29 3e 2e 0c 3e 3f 86 65 d9 3e 2a f2 71 3f
       0.16581997 0.74237335 0.4246027 0.9451014
000060 a6 8b 0e 3f 27 e3 36 3f 38 d3 9d 3e 20 3f d6 3e
       0.55681837 0.71440357 0.3082521 0.41845036
000070 60 ae 25 3e 14 e4 f0 3d 8f 0d df 3e fc 37 cb 3e
       0.161798 0.117622524 0.43565032 0.3969115
000080 77 85 e2 bd 1c 9f 09 be 34 8b f4 3d 97 37 cc bb
       -0.11060613 -0.13439602 0.119406134 -0.0062322128
000090 2e e3 a2 3e a9 6d 50 3d ee 1d b0 3e 6a 13 5e 3e
       0.3181395 0.05088583 0.34397835 0.21687093
0000a0 23 4a 92 3e 79 6b a8 3e b1 20 57 3e a3 e1 8b 3e
       0.28572187 0.32894495 0.21008565 0.27320585
0000b0 ab 1a 27 3f 0c 30 3d 3f 6d 26 9a 3e e0 13 e9 3e
       0.6527507 0.7390144 0.30107442 0.45522976
0000c0 53 85 a0 be a0 78 d4 be 52 29 e9 bd 7a 7e d9 be
       -0.31351718 -0.4149828 -0.11384834 -0.42479306
0000d0 71 7c bc be 57 78 a8 bf 48 96 30 bf f0 4b 64 bf
       -0.3681369 -1.3161725 -0.6897931 -0.8917837
0000e0 61 39 2d 3f 36 7d a1 3e 88 93 ee 3e 33 3d bc 3d
       0.6766568 0.3154084 0.46596932 0.0919136
0000f0 36 f5 c7 3e 21 e4 ad 3e 6d f2 8a 3e 73 89 94 3e
       0.3905427 0.3396311 0.2713808 0.29011115

autoencoder.encoder.6.bias f4 [2]
000000 d3 4c 07 3e 45 64 ab 3c
       0.132129 0.020921836

autoencoder.decoder.0.weight f4 [2, 8, 2, 2]
000000 57 da 3d be 4e 20 1f 3e a2 36 c0 bd f0 39 a8 3e
       -0.18540321 0.15539667 -0.093854204 0.32856703
000010 78 92 53 3d 52 18 c8 3d be 17 9e 3e f2 d3 a0 bd
       0.051653355 0.09770264 0.3087749 -0.07852925
000020 9f 06 7e be e9 02 11 3e 31 f8 f9 3a d5 77 2a 3b
       -0.24807213 0.14161266 0.0019071159 0.0026011367
000030 36 2c f0 be f4 b4 4b 3e a8 a6 f3 be 43 6a 19 bf
       -0.4690873 0.19893247 -0.47588086 -0.5992777
000040 9b 9b 2d 3e e0 09 12 bd df 2e e0 3c cf da 16 3e
       0.1695389 -0.03565395 0.0273661 0.14731906
000050 f0 09 6f 3e cf 4c c0 be 11 00 69 3e 09 05 0e be
       0.23343635 -0.375586 0.22753932 -0.13869108
000060 21 32 23 be a4 3f cd 3e 1d dd 3a bf 84 9b 3b bf
       -0.15937091 0.40087616 -0.7299364 -0.73284173
000070 9d 7b 10 be ab db 8e 3e c7 3d c3 3e 93 6a b7 3e
       -0.14109655 0.27901968 0.3813307 0.35823497
000080 1d de 09 bf 40 61 16 3e 3e 8b b1 3e fa 11 b9 3e
       -0.5385454 0.14685535 0.34676546 0.36146528
000090 b3 65 18 3f 58 71 a0 3e 5a 20 d3 3e ef 26 64 3e
       0.5953018 0.31336474 0.4123562 0.22280477
0000a0 90 8e 99 be 90 c9 6b bf f8 2c 37 bd a5 1a 81 bd
       -0.2999158 -0.92104435 -0.04472062 -0.0630391
0000b0 2d 6b 2e 3e 09 aa 3c be cc 8e 00 3f 6c 25 88 3d
       0.17033072 -0.18424238 0.5021789 0.06647763
0000c0 67 f8 bb 3e 39 df 2b be 16 9f 7b bd 70 ef 0e bc
       0.36712953 -0.16784371 -0.061431013 -0.008724079
0000d0 c1 53 d3 bc a7 91 88 3e ea 90 bc bc 8e c8 08 3f
       -0.025796773 0.26673624 -0.02301832 0.5343102
0000e0 ce 0c b5 3b 81 e0 b7 bc 7a 5a c5 bd 26 f9 c0 be
       0.005525208 -0.022445919 -0.09636398 -0.37690085
0000f0 5c 7a 32 3b 08 9a a7 bd 42 4b 38 3d 65 09 49 be
       0.0027233576 -0.08183676 0.044993646 -0.1963249

autoencoder.decoder.0.bias f4 [8]
000000 67 0a d7 bb 61 1b 75 3e 18 40 1d 3c 5d 4f a3 be
       -0.0065625194 0.23936225 0.009597801 -0.31896487
000010 e8 d5 7d 3e 9c f2 5d 3d 72 17 d2 be af 7f 38 3d
       0.2478863 0.05418645 -0.41033512 0.045043644

autoencoder.decoder.2.weight f4 [8, 16, 3, 3]
000000 49 80 62 bc 58 1f 2c bc b9 ba 75 3d 62 fc ed 3b
       -0.013824531 -0.01050552 0.059992526 0.0072627524
000010 8c c7 a1 bd 8e 86 15 3e 31 4f b1 bd 13 4f 9d 3b
       -0.07899389 0.1460211 -0.08657683 0.004800686
000020 a3 22 a9 bd cc 9d 13 bc 5e c8 6b 3d 4c 70 2d 3e
       -0.082585596 -0.00900979 0.057564132 0.16937369
000030 8c 8e b3 ba 13 57 07 3d 9a 42 0b 3e de 4b 7b 3d
       -0.0013699098 0.033042025 0.13599625 0.06135165
000040 1b b0 0f be dc 94 86 3c ad e7 85 bc d6 7a ac 3c
       -0.14032023 0.016428404 -0.016345823 0.021054666
000050 75 bb 38 be b0 b5 3c be 8f 84 4c bd 96 8a 31 bf
       -0.18040259 -0.18428683 -0.049931105 -0.6935209
000060 34 20 ca bd a2 5d 0a 3d 45 b7 b1 bb 59 3e 33 bd
       -0.098694235 0.0337807 -0.0054234588 -0.04376063
000070 07 cd 6a bd ef 68 31 bd 19 61 a2 bc ae 08 05 be
       -0.057324436 -0.043312963 -0.01982169 -0.12991592
000080 0f 9d 85 bd a0 7b 05 3e fc c3 18 3e be dc 05 3e
       -0.06524097 0.1303544 0.14918512 0.13072488
000090 86 47 43 be 57 a9 87 bc 1e 41 99 bd a5 4f da bd
       -0.19070253 -0.01656024 -0.07483123 -0.10659722
0000a0 eb 43 95 3d 76 8b 8e bd 15 f8 b0 bd 99 bb 2c 3e
       0.07288345 -0.06960194 -0.08641068 0.16868438
0000b0 24 96 b7 3d 0f d9 a0 bd 48 52 c4 bc bc 8f a8 be
       0.08964184 -0.07853901 -0.023965016 -0.3292216
0000c0 c3 da 04 be 9f 3d a8 bb af 5e b5 bd 53 8a 17 3e
       -0.12974076 -0.005134299 -0.0885595 0.1479886
0000d0 0d a9 0e 3e 2a 35 07 bc d5 f3 61 bd 52 39 98 3d
       0.13931675 -0.008252421 -0.055164177 0.07432808
0000e0 ef 82 40 3d ec bf 97 be 25 0e fa 3d e7 b2 12 3e
       0.046999868 -0.29638612 0.12209729 0.14326058
0000f0 9f d7 95 3c fa ef 93 3d 94 1b 3e 3e e1 f2 65 bc
       0.018291293 0.07223506 0.18565208 -0.014034958
000100 bf fc 76 bd 07 0c 21 be 10 dd 20 be 41 23 26 3e
       -0.06029963 -0.15727244 -0.15709329 0.16224386
000110 35 d9 43 bc f5 e1 95 bd cf 9d 4d be 61 e6 72 bd
       -0.011953642 -0.073184885 -0.2007973 -0.059301738
000120 43 2b b2 bd 59 8f b5 3c 06 3f 99 be f5 e9 93 be
       -0.08699658 0.02216308 -0.29930896 -0.28889433
000130 19 17 d5 bc f2 61 1b bb 59 21 22 3e 3c cb 36 be
       -0.02601199 -0.0023709503 0.15833034 -0.17850965
000140 2a 53 97 bd 0f 87 8f bb b9 bb ec bd b8 37 22 3e
       -0.07388909 -0.004380114 -0.11559243 0.15841568
000150 db 3e 56 be d7 db 22 3e a6 80 e5 3c df 0d 2d be
       -0.20922415 0.15904175 0.028015446 -0.16899823
000160 dd 74 39 be 76 62 99 bd 3f ec ff bd 31 6e 0e be
       -0.18110986 -0.07489483 -0.12496232 -0.13909222
000170 28 26 cc bd e7 32 c4 bd 66 63 32 be ae 3a 02 bd
       -0.09968215 -0.09580021 -0.1742073 -0.031794243
000180 55 89 0d bd b6 18 0f 3e 81 78 77 3c 98 84 74 bd
       -0.0345548 0.1397427 0.015104414 -0.059696764
000190 fe 3b 18 bd 8e 7d a2 bd 23 3c 5a bc ad 1f 9d 3b
       -0.037166588 -0.07934104 -0.013320002 0.004795036
0001a0 ba 3b 80 bd f0 81 03 3b f6 7b 32 bc 3b 9b 4d 3d
       -0.06261392 0.0020066462 -0.010893812 0.050196867
0001b0 dc 77 89 bd d8 96 26 3e 68 4f c0 3d bf bd be 3c
       -0.067123145 0.1626848 0.093901455 0.023283837
0001c0 40 0a 10 3e ee b6 0b 3d 13 24 0b 3c fa 42 a0 3d
       0.1406641 0.034110002 0.0084924875 0.07825275
0001d0 ef 38 19 3b 00 e8 96 bc 01 28 f0 bc b8 ef 13 be
       0.0023379882 -0.018421173 -0.02931595 -0.14446914
0001e0 05 1f b0 bd 17 d7 e5 3d e5 1b 65 3d 7a 9f 2e be
       -0.085996665 0.11222666 0.055934805 -0.17053023
0001f0 25 d4 bd bb c7 68 06 3d 50 98 96 3d dd b6 9b 3d
       -0.005793112 0.032814767 0.0735327 0.07603238
000200 c2 36 9f 3d 6c ae 05 3d b6 c5 e8 bc 70 43 53 3e
       0.07774116 0.032637045 -0.028414588 0.20631194
000210 51 42 06 be 6e 7f d4 bc 93 63 42 3e c0 c2 5c bd
       -0.13111235 -0.02593967 0.18983297 -0.053896666
000220 d1 76 ed 3d 43 ab 68 bd 3a 4e b1 bd 1f ee 22 3d
       0.11594928 -0.056803953 -0.08657499 0.03977787
000230 3b fe 1c 3e 9d db 01 be aa 41 cf 3c a0 6b b5 3d
       0.15331356 -0.12681432 0.025299866 0.088584185
000240 d4 ff 01 bb d2 15 d2 3a 49 df 15 3e 43 33 4c 3d
       -0.0019836323 0.0016028231 0.14635958 0.049853574
000250 7d bc c0 bd 79 16 d3 3d ed 20 fd 3d cd f5 52 bd
       -0.09410951 0.10307021 0.12359796 -0.051503945
000260 43 4c b1 3d 85 ac 33 3d 93 bd a5 3d f7 06 e4 3d
       0.08657124 0.0438657 0.08092799 0.11134141
000270 8f da 50 bc 41 76 82 3d c2 1d 9e 3d 0f 48 78 3d
       -0.012747421 0.063702114 0.077205196 0.060615595
000280 e5 af 98 be dc 9a 28 3d ae 80 9b bd 4f f9 bf bc
       -0.29821697 0.04116331 -0.07592903 -0.02343431
000290 cc 6d ad 3d 01 06 fc 3c bb ab ce 3d 96 cf a4 be
       0.08468208 0.030764582 0.10091349 -0.32189626
0002a0 87 98 88 3c 74 90 ac 3d 5b 79 65 bd d5 04 24 3c
       0.016674293 0.0842599 -0.056023937 0.010010918
0002b0 f6 97 9e 3d 4b 40 b6 bc 2a 38 2e bd 35 d6 6f bd
       0.07743828 -0.022247454 -0.04253403 -0.058553893
0002c0 92 d8 81 bd 39 78 14 bd d7 f7 2b bb dd a3 c7 3d
       -0.06340136 -0.036247466 -0.0026240253 0.09748051
0002d0 13 e4 3c bd 86 be 61 3c c8 ef 0b 3e ea 2e b7 bd
       -0.046115946 0.0137783345 0.13665688 -0.08944495
0002e0 a5 8b 24 bd a0 4e c3 3c e3 d0 b1 bd 73 3a 88 3d
       -0.040172238 0.023841202 -0.0868242 0.06651773
0002f0 3b 51 ef 3d f4 6d 06 bc 5a 48 e0 3d 9e 94 24 bd
       0.11685415 -0.008204926 0.109513 -0.040180795
000300 c1 47 f1 bd 8e c4 fc 3c c4 b2 2e bd 90 49 38 bd
       -0.11781264 0.030855443 -0.042650953 -0.04499203
000310 0b 55 25 3e 84 b4 6f 3d 27 d1 42 bd d3 22 90 3d
       0.16145723 0.058521762 -0.047562744 0.07037892
000320 b9 05 8f bd 85 d7 84 bd 75 c8 b9 3c 3a 61 d9 bd
       -0.069835134 -0.064864196 0.022678593 -0.106142476
000330 2c a1 2d be 41 d3 e5 3d 67 0e 19 be b7 b1 ba 3b
       -0.16956013 0.11221934 -0.149469 0.005697455
000340 d5 46 04 bc c2 5f 98 be 8c ac 44 3d 8f fe 62 be
       -0.008073528 -0.29760557 0.048016116 -0.22167419
000350 48 1c a8 bd 37 ce 14 3e 80 ce f9 bd fd 74 47 be
       -0.08208519 0.1453179 -0.1219759 -0.19478221
000360 6c 24 7e be e6 e0 b0 bc ca 67 81 be 4b 2a 10 be
       -0.24818581 -0.021591615 -0.25274497 -0.14078633
000370 7a fc 70 be 5c d5 ce bd 37 d3 ad be 49 58 3c bf
       -0.23533812 -0.10099289 -0.33950207 -0.7357221
000380 22 f2 33 be c7 15 78 3d e4 8b 40 3c dc 5c 62 3d
       -0.17572835 0.060567643 0.0117521025 0.05526434
000390 bc 73 2d 3d 17 63 54 3d d4 8d f0 bd 0d da 74 bd
       0.0423467 0.051852312 -0.117458016 -0.059778262
0003a0 ce 25 67 be 9d 3a 3d 3e 04 2e 47 be aa 2e 34 3d
       -0.22573015 0.1847939 -0.19451147 0.043989815
0003b0 78 ed ba bd e9 ee 09 bf ec 78 d7 bc f8 ac c3 be
       -0.09127325 -0.5388017 -0.026302777 -0.38217902
0003c0 37 9e d2 be 5a 02 8e bd ea 6f 10 3d 9b 86 e7 3d
       -0.41136333 -0.06934042 0.03526298 0.11304971
0003d0 fa 9a 75 3d 42 ad 2a 3e e9 07 1b bd fa ad aa bc
       0.05996225 0.16667655 -0.03784934 -0.020834912
0003e0 3b ca 78 3d 1c 67 0f be d2 77 0a 3d cc 47 75 3d
       0.060739737 -0.14004177 0.033805676 0.059882924
0003f0 26 ee 1c 3d 3b 61 55 3d b9 d1 96 3d f3 74 0d bb
       0.038313054 0.05209468 0.0736422 -0.00215846

autoencoder.decoder.2.bias f4 [16]
000000 97 97 8e bd 95 e4 14 be bb 8e 49 be 4e 58 4b be
       -0.06962507 -0.14540322 -0.19683354 -0.19857904
000010 dd ef c8 bd 12 66 82 be 1b c1 15 be 3a 30 78 bd
       -0.09811375 -0.25468498 -0.14624445 -0.060592867
000020 44 61 84 be 7e a8 0a be 83 73 a3 be 62 a0 94 bc
       -0.25855458 -0.13540837 -0.31924066 -0.018142883
000030 08 e8 af bd 2e 5b 0e bc 74 48 76 bd 77 58 4f bc
       -0.08589178 -0.008688731 -0.06012769 -0.012655369

autoencoder.decoder.4.weight f4 [16, 8, 5, 5]
000000 41 49 1a bc 58 e2 e2 bc a1 c2 3a 3c 36 37 d3 bc
       -0.009416879 -0.02769582 0.011398942 -0.025783163
000010 e4 19 85 bd ee 0a 73 bc f6 1a d9 3c 25 c1 33 be
       -0.06499079 -0.014834149 0.026502114 -0.17554148
000020 4c 84 88 bd cd 37 63 3d 50 e3 ee bc e4 64 3c 3d
       -0.066658586 0.055473138 -0.029161125 0.045994654
000030 81 cb 0c 3d 20 04 4f be d7 19 4c 3d 32 5d 57 3c
       0.034373764 -0.20216417 0.04982933 0.013144778
000040 d2 98 76 bc 65 90 58 be a1 db 69 bd 6f fa 21 3d
       -0.015051084 -0.21148832 -0.05709422 0.039545473
000050 c5 6e 9a bd 13 6f 91 3c 4c da 3a bb d2 ab cc bc
       -0.07540659 0.01775316 -0.0028511463 -0.024984274
000060 94 6f 01 bc f6 06 29 3c fd 69 e7 ba 0a e0 62 bd
       -0.007900137 0.010316601 -0.0017655488 -0.05538944
000070 d3 ef 13 bc 25 5d fa 3c 53 a4 4c 3d 5b 6d a0 bd
       -0.0090293465 0.030561993 0.0499614 -0.07833358
000080 74 06 b1 bd be c4 16 bd 56 d7 69 bd e0 ba f3 3c
       -0.08643809 -0.03680872 -0.057090126 0.029752195
000090 0c 3d 0c 3c 7c 12 5d bd aa c8 ca bd 35 44 85 3d
       0.008559477 -0.053972706 -0.09901555 0.0650715
0000a0 a6 ee 1b 3d 21 b5 b1 bc 02 b5 83 bd e1 ea 6e 3c
       0.03806939 -0.021692814 -0.06431009 0.014582367
0000b0 9c 02 9d 3d f6 88 fe 3c f4 bf c0 3b ea 17 9b bd
       0.07666513 0.031071167 0.0058822576 -0.075729206
0000c0 d6 bf a3 b8 3a b4 15 3d da c0 0e be 63 81 69 3d
       -7.808178e-05 0.03654883 -0.13940755 0.05700816
0000d0 29 0e 3c be 07 e0 0a bc b6 19 ef 3d df 0d ce bd
       -0.18364777 -0.008476264 0.11674826 -0.100612395
0000e0 a8 34 5c bd b5 ea 07 be 44 84 cb bc 7f b1 a9 ba
       -0.053761154 -0.13273127 -0.024843343 -0.0012946575
0000f0 05 64 1a bd 02 6d ad bd e4 dd 63 be 62 33 29 3d
       -0.037693042 -0.08468057 -0.22252613 0.041308768
000100 69 c6 82 3d 5a 85 84 bd 08 52 29 bd e8 b5 6a bd
       0.063855 -0.06470747 -0.041337997 -0.057302386
000110 4e 29 05 bd 3f 9c 0e bd 84 6f 3e 3d 9b fe df bb
       -0.032510094 -0.034816977 0.04649307 -0.0068357713
000120 b0 ca 1e be 66 bd 99 bc 58 30 de 3b 14 e1 33 3d
       -0.15507007 -0.01876707 0.0067806654 0.043915823
000130 88 15 8d bd 69 c1 06 be 18 43 f7 ba 32 42 47 bd
       -0.068888724 -0.13159718 -0.00188646 -0.048647113
000140 95 22 5e 3c d3 35 70 bd 8a b3 26 be 19 56 05 3c
       0.01355805 -0.05864508 -0.16279426 0.008138203
000150 cd 9e 00 3d 66 e2 d5 bc ef 4b 83 3d 95 8c a0 bd
       0.031401444 -0.026108932 0.064109676 -0.07839314
000160 15 50 ac 3c d0 17 a4 3d 59 53 ae 3c 58 a4 15 3d
       0.02103428 0.080123544 0.021279978 0.036533684
000170 bf fc df bd 4a ec 1c 3d 67 32 94 bc ff 3c b7 bc
       -0.10936879 0.03831128 -0.01809044 -0.022367952
000180 f0 2e 2a bc 00 1f 58 3c 33 b8 a8 3d f9 50 a1 bd
       -0.010387167 0.013190985 0.08238258 -0.078767724
000190 dc f6 03 3e 49 b5 6a bd 19 60 35 bc af 47 b9 ba
       0.12887138 -0.057301793 -0.011070275 -0.0014135743
0001a0 e3 da a7 3c b0 6c a5 3d da 28 74 bc 10 8c 82 bd
       0.020490116 0.08077371 -0.014902318 -0.06374371
0001b0 79 cd 10 bc ff 87 3c 3c 4c 83 80 3d a4 30 f8 bc
       -0.008838051 0.011507033 0.06275043 -0.030296631
0001c0 18 63 6c bd 2d 14 1c 3c f1 c6 8a bd 2a d0 03 3e
       -0.05771169 0.009526295 -0.06776226 0.12872377
0001d0 a0 b8 08 bb 21 97 5f bd 53 60 d8 3c e6 d8 f9 3b
       -0.0020861998 -0.054587487 0.026413118 0.0076247333
0001e0 46 0a ca 3b 68 66 63 bd 8a 25 44 bd 46 78 16 ba
       0.0061657755 -0.055517584 -0.047887363 -0.0005739968
0001f0 0e 96 2b 3d 7a 42 04 3c e8 ea d3 bc a2 1f 92 bd
       0.04189115 0.00807249 -0.025868848 -0.0713494
000200 57 2b da 3c 34 65 a4 bb 0e 81 ab 3c 25 8c 44 bc
       0.026631994 -0.005016947 0.020935562 -0.011996304
000210 74 03 aa bc d8 f5 5e bc 3a 78 2b bd 23 16 1b 3d
       -0.0207536 -0.013608418 -0.041862704 0.037862908
000220 da 34 8a 3d fd 8c b2 3c 13 61 21 3c 40 cf 39 3d
       0.06748362 0.021795744 0.009849804 0.045363665
000230 ab 42 49 3d 2b a0 dd 3c 63 7a 94 bc e9 9b 67 3d
       0.049135845 0.027053913 -0.018124765 0.056545172
000240 c2 eb 5a 3d 04 91 fe 3c 87 7a aa 3c ed e2 2d bd
       0.053447492 0.031075008 0.020810379 -0.04245274
000250 01 1c 8f bc 6d 1a f5 3c dd 91 1d bd eb 6b 7d 3c
       -0.017469408 0.029919827 -0.038469184 0.015467624
000260 ed 14 6c bd ca c0 dc bd 36 83 55 3d 97 d7 f6 3d
       -0.057637144 -0.10778959 0.052127086 0.12052839
000270 69 8d 08 3e 2a fe 34 3d df ce 60 bd 19 be 1b 3d
       0.13335194 0.044187702 -0.054884788 0.038023088
000280 d9 70 11 3e 7d 0e 6c 3e 6d b4 56 3c a0 d6 9d bd
       0.14203204 0.23052402 0.01310454 -0.07706952
000290 3a 26 67 3b 23 dd 9a 3d 7d 02 e7 3d db 83 da 3c
       0.0035270588 0.0756171 0.112797715 0.026674202
0002a0 71 43 c4 bd e2 e9 96 bc 65 26 1e 3d 01 36 3f 3d
       -0.09583176 -0.01842207 0.038610835 0.04668236
0002b0 bb 8f 1a 3d 0c b7 db bd 16 50 f3 bc bc 99 15 bd
       0.03773473 -0.10728273 -0.029701274 -0.036523566
0002c0 3f 99 81 ba e8 f0 87 bc f1 24 dc 3d a7 18 a7 bd
       -0.000988759 -0.016594365 0.107492335 -0.08158999
0002d0 b3 96 5d 3d fc a5 b1 3d aa 44 3a bc fa f6 96 3d
       0.054098796 0.08674237 -0.01136891 0.07371326
0002e0 b3 1d a2 bd 8b de 5c bd 63 24 e9 3d 03 2c 63 3d
       -0.07915821 -0.05392317 0.11383893 0.055461895
0002f0 6a 6c 64 3c 88 82 69 bd 17 2e b3 bc 6f 03 c1 3c
       0.013941864 -0.05700925 -0.021872563 0.023561208
000300 dd 8f be bc e9 a7 42 3d 87 21 11 bd 7b b9 a7 bc
       -0.023261959 0.047523413 -0.035432365 -0.020474186
000310 30 b3 6f 3d 3e 46 54 bd dd 25 b8 3c ac 5c 88 bc
       0.058520496 -0.0518248 0.022478992 -0.016645752
000320 d1 78 2d bd 12 af 27 3d 4c 77 37 3b 52 fe be 3d
       -0.042351548 0.040938444 0.002799469 0.093258515
000330 90 ac 7c 3d 09 0c 6d bd 64 81 cb bd 92 37 5c 3d
       0.061688006 -0.057872806 -0.09936789 0.053763933
000340 82 f7 34 3d 50 1a e3 bd 16 ab 95 bd 82 e0 0d be
       0.044181354 -0.11089003 -0.07308023 -0.13855174
000350 98 69 5f 3d b4 da 8d 3d fd df 3f 3d d3 7c 81 bd
       0.05454406 0.0692648 0.04684447 -0.063226365
000360 7b 7d 9b 3c 72 02 04 bd 97 f2 1b 3d db 0c 8d 3c
       0.018980732 -0.032228895 0.03807315 0.017218044
000370 24 24 cd bd ac 94 5a bc 07 35 06 be 07 2a ed bd
       -0.10016659 -0.01334111 -0.13106166 -0.11580282
000380 31 6b 3f 3d 12 ae d9 bc 74 90 9f bc d7 1f 13 bd
       0.046733085 -0.026572261 -0.01947806 -0.035919037
000390 1a e7 93 3d c2 9f 43 bd cf 34 d7 bd ef b6 1b bd
       0.072218135 -0.04775978 -0.10508119 -0.038016256
0003a0 7b f7 e9 3b ae 9f c2 3d 51 dc 50 3d 54 83 36 bd
       0.0071400977 0.09503113 0.05099136 -0.044558838
0003b0 c3 c8 d5 bd 2b df 21 3b b1 b0 52 3d 62 b1 4f 3d
       -0.10438683 0.002469967 0.051438037 0.050706275
0003c0 e9 96 b8 bd 85 65 00 bd 94 2f bd bd 0d 77 b2 3c
       -0.09013159 -0.031346817 -0.092375904 0.021785283
0003d0 e8 cc 09 3c 7a c2 5f bd 66 07 73 bd c0 14 65 bd
       0.00841067 -0.054628827 -0.059333228 -0.055927992
0003e0 c7 f3 3b bc 69 72 12 3d 6f 21 87 bb 72 d5 ca bb
       -0.011471695 0.03575364 -0.0041238586 -0.0061899954
0003f0 b9 a4 2c bc b9 ea 17 be fd 7a 7a 3d 73 6e e5 3b
       -0.01053732 -0.14835633 0.061152447 0.007001692

autoencoder.decoder.4.bias f4 [8]
000000 e2 9a f8 bd c7 0b 36 bd 76 b5 31 bd d7 8e 34 bd
       -0.121389166 -0.044444826 -0.043385945 -0.044081535
000010 c2 45 40 bc ea 3e fb bc 77 63 60 bc a8 b5 ad bc
       -0.011735382 -0.030669648 -0.013695589 -0.021204785

autoencoder.decoder.6.weight f4 [8, 1, 2, 2]
000000 3a b6 b2 be 6b fb 49 be 62 7c 4f be 93 a7 0a be
       -0.34904653 -0.19724815 -0.20262292 -0.13540487
000010 1a 22 3c be 39 d0 6c be 34 72 85 be 9a 6d dd 3d
       -0.18372384 -0.23126306 -0.26063693 0.108119205
000020 d4 bc 81 be ca ab c5 be df 3d 4a be 1c 66 ca be
       -0.25339377 -0.38607627 -0.19750164 -0.39531028
000030 54 d2 50 3e 28 c7 0c be b9 70 f6 bc d4 94 9d be
       0.20392734 -0.13747847 -0.030083047 -0.3077761
000040 51 85 ba be 41 c2 4d be e7 ff ba bd 04 54 41 bd
       -0.36429837 -0.20093633 -0.09130841 -0.047199264
000050 a6 3c b6 3c 8d 05 c2 3e 95 a9 38 be 31 70 57 be
       0.022245716 0.3789486 -0.1803344 -0.21038891
000060 bf bb 75 3e 9b d6 ba 3e 70 1e 6e 3e 56 e4 c8 3e
       0.239974 0.36491856 0.23253798 0.39236706
000070 09 dc 8f 3e db ac ca bd c0 bf d0 3e 2d 4c ac 3d
       0.2809756 -0.09896251 0.40771294 0.08412967
