save_config_2/11/model_state.pth (torch, 28347 bytes, 13 tensors)

autoencoder.encoder.0.weight f4 [16, 1, 3, 3]
000000 79 cd cc be fc a6 00 3d 75 9d 84 3e a7 26 e3 be
       -0.40000513 0.03140925 0.2590138 -0.44365427
000010 2d 68 1a 3d ea 7f 22 3e 58 9d 3d bf 03 23 9b be
       0.037697006 0.15869108 -0.7406821 -0.3030015
000020 5b 36 60 be 82 b2 7e 3f 70 9f 41 3e d0 61 02 bd
       -0.21895735 0.9949113 0.18908477 -0.031831563
000030 54 5b 47 3f 7c 31 f4 3d 47 de 34 3d 95 b4 ed 3e
       0.7787373 0.11923501 0.044157293 0.46426836
000040 c3 39 7f bd 6b 06 cc bd ef 68 2f 3e de 15 b9 bd
       -0.062310945 -0.09962162 0.17129873 -0.09037374
000050 0d 2d 8f be 53 fb 86 3d a8 0e a5 be 02 c1 c2 be
       -0.2796406 0.06590905 -0.32237744 -0.38037878
000060 7b 86 16 be d3 18 c6 be 4c 15 b4 be 87 c6 87 3e
       -0.14699738 -0.38690814 -0.35172498 0.26518652
000070 65 ef 22 be 1a c7 8b 3e 6f d2 8e 3e 3b 15 17 be
       -0.15911634 0.2730034 0.27894923 -0.14754193
000080 a8 5b 3b 3e a9 81 89 3e ae 3a 71 be 60 34 a1 3d
       0.18296683 0.26856735 -0.23557541 0.07871318
000090 30 ad 4b bf d4 d7 3c bf 3a b3 d6 bd 0c 5c 18 bf
       -0.7956114 -0.7376683 -0.104834035 -0.5951545
0000a0 84 f8 d7 be e0 25 ea 3d e5 88 81 be 3e 56 9d be
       -0.4218179 0.11433005 -0.25299755 -0.3072986
0000b0 8c 07 4e 3d 2f 6b 88 3d c8 0d 0b 3f 51 d9 24 3e
       0.050300166 0.06661069 0.54317904 0.16098525
0000c0 b4 f1 39 3e 78 0a f5 3e f1 8c c6 3c 71 70 be 3e
       0.18158609 0.4785955 0.024237128 0.3719516
0000d0 36 6f 37 3f 92 de bc 3d 62 b8 ed be 5f b3 cd be
       0.7165407 0.092221394 -0.46429735 -0.40175912
0000e0 dc 12 2b bf 20 d5 90 be 6f 30 32 bd 17 4d f6 3c
       -0.6682565 -0.282876 -0.04350322 0.030066056
0000f0 4f 93 45 bd 16 f2 3a 3c cc 31 c6 3d 4d 1b 65 bd
       -0.048236188 0.011410257 0.09677467 -0.05593424
000100 56 74 43 bf 67 a5 fe be 2e 8f 89 3e 92 20 c4 be
       -0.7634939 -0.49735567 0.2686705 -0.383061
000110 48 a9 d3 be ef 2f c7 3d 8a d9 2b bf aa 03 5b bf
       -0.4134009 0.097259395 -0.67128813 -0.85552466
000120 b9 cb 28 3e 9f e2 b0 3d 84 19 0c bf 86 83 14 3e
       0.16483964 0.086369745 -0.54726434 0.14503297
000130 1d 74 11 3e f8 18 ad be bb d1 c9 3e 52 da d9 3e
       0.1420445 -0.33808112 0.39417824 0.42549378
000140 17 44 cb be 72 79 16 be c9 bb 8e be 84 27 34 bf
       -0.39700386 -0.14694765 -0.27877644 -0.70372796
000150 29 59 16 3c 9f d9 b6 3d e2 c5 67 be 6a 7e 0c 3e
       0.009176531 0.08928227 -0.2263408 0.13720098
000160 3b c5 49 3e 81 a7 a9 be 59 57 b9 3e 42 1f db 3e
       0.19704144 -0.33135608 0.36199453 0.42797285
000170 c7 64 0f 3f 2b 2c ae bd 67 64 07 3e 30 e5 00 3e
       0.5601315 -0.08504518 0.13221894 0.12587428
000180 3e c8 7f be 3b 54 82 3d 08 61 9d 3d b7 85 b1 be
       -0.2497873 0.06363722 0.07684523 -0.3467233
000190 20 a2 16 bf de ee 12 bf d0 36 57 bc f6 22 b9 3d
       -0.58841133 -0.5739573 -0.013135627 0.090398714
0001a0 c5 f3 6c 3e 88 4c ea 3e c0 54 eb 3e 80 6f 83 3e
       0.23139866 0.45761514 0.45963097 0.25671005
0001b0 52 ed 12 be c5 7a 7b bd d6 37 8b 3e d1 1f 50 3e
       -0.14348343 -0.06139638 0.27191037 0.20324637
0001c0 f7 28 86 3e 94 19 3e 3f 25 aa e1 3e d7 e2 ab 3e
       0.2620313 0.7425778 0.44075122 0.33571503
0001d0 48 f5 22 3f f7 cb 1c bf b9 e0 4b 3e cd 2a b6 3e
       0.6365552 -0.61248726 0.19909944 0.3557953
0001e0 3f da 08 bf 7f c9 12 3e a3 74 c3 3e 21 2b 20 bf
       -0.5345802 0.14334677 0.38174924 -0.6256581
0001f0 a0 f0 e9 3d a8 4a 08 3f 8e 50 7e be 66 19 17 be
       0.11422849 0.53238916 -0.24835417 -0.14755782
000200 cc 35 46 3e 37 9a 55 3d 08 d0 3c 3d d5 ad 93 3d
       0.1935646 0.052149024 0.04609683 0.0721089
000210 d3 e2 94 3e f7 b5 08 3e 81 ac 30 be 3f db 71 3c
       0.29079303 0.13350664 -0.17253305 0.014761745
000220 57 2b 59 3e 30 82 8b be e7 1d d6 be fe 3a 9d be
       0.21207939 -0.27247763 -0.4181969 -0.3070907
000230 aa 68 00 bf e7 de 8b bf 29 66 19 bf 5a 06 46 bf
       -0.50159705 -1.0927399 -0.5992151 -0.7735344

autoencoder.encoder.0.bias f4 [16]
000000 13 65 9c 3f c9 86 07 be f0 5b a6 3f 66 fe c8 3e
       1.2218345 -0.1323501 1.2996807 0.3925659
000010 4b da ce 3e af 6c fc be de 1f 9e 3f c4 d8 8a 3e
       0.4040092 -0.4930167 1.2353475 0.27118504
000020 4b 3e 84 3f 8c 89 9b be a7 87 2e 3f 1a 44 2b 3e
       1.033151 -0.30378377 0.6817574 0.16725197
000030 55 27 d5 bd 02 47 8b be 53 a8 9c 3f f9 2c c0 3e
       -0.104078926 -0.27202612 1.2238868 0.3753431

autoencoder.encoder.3.weight f4 [8, 16, 3, 3]
000000 ad a2 4c 3e 8c 44 ea bd bc dc 65 be 57 de 7e 3e
       0.19983931 -0.114388555 -0.22447485 0.24889503
000010 ca 51 f6 3d 17 02 2c be b7 c6 9b 3d b0 a0 23 3e
       0.12027319 -0.16797672 0.07606261 0.15979266
000020 04 81 99 bd e0 90 bb bc 8a f1 44 3e 72 33 e8 bd
       -0.07495311 -0.02289623 0.19232765 -0.113379374
000030 bd 45 8a be 9c 55 69 3d d2 a3 90 b7 98 c2 9f 3e
       -0.2700633 0.05696641 -1.7242422e-05 0.3120315
000040 c5 97 45 bb c4 30 1c bd d1 a7 f4 3d 08 07 0c be
       -0.0030150276 -0.038132444 0.11946071 -0.13674557
000050 22 53 78 bd a6 7e de 3c e6 7b 03 be 3e c1 1f bd
       -0.060626157 0.02716 -0.12840232 -0.03900265
000060 92 8d 27 be 4c 7d fb bc 7d 06 10 3e 05 e1 77 bd
       -0.16362599 -0.030699395 0.14064975 -0.06051733
000070 3d 10 a3 3d 69 1d 30 bb c8 ae da bd b4 b8 13 3c
       0.079620816 -0.0026872999 -0.10677868 0.009016205
000080 90 91 38 3d 07 07 84 3c 04 05 e9 3b 89 2a 85 3d
       0.045060694 0.016116632 0.0071111936 0.065022536
000090 2b aa 59 3e a7 f3 b5 3c 91 ad 4d 3e 7a 9c 5d be
       0.2125632 0.022210909 0.20085742 -0.21641722
0000a0 2b c8 59 be 8d d8 bc be 3d 66 b7 bc 19 58 e0 3d
       -0.21267764 -0.36883965 -0.022387618 0.10954303
0000b0 d8 38 97 bd f0 9f d9 3c 71 c4 0b 3e bf 20 e1 bb
       -0.07383889 0.026565522 0.13649155 -0.0068703587
0000c0 72 cf 29 be 6c 66 f7 3c 43 16 7c bd 12 bc 29 bd
       -0.1658304 0.030200206 -0.061544668 -0.041439123
0000d0 a9 4c e7 3d 30 16 3a 3b 94 1d df 3d 51 24 d8 b9
       0.11293919 0.0028394572 0.108943135 -0.00041225788
0000e0 78 89 e2 bd 3a 4b 7c be 44 0f 14 bd 0a 95 19 be
       -0.11061376 -0.24638072 -0.03614737 -0.1499826
0000f0 4c 84 58 3d 43 10 0e be e8 3c 4b be 0a b6 9f 3d
       0.052860543 -0.13873391 -0.19847453 0.07798393
000100 28 15 f5 bd 3e b3 58 3d 40 63 87 3e 13 96 99 be
       -0.11966926 0.052905314 0.2644291 -0.2999731
000110 38 83 92 be 0e 70 9a 3d 95 af 6f 3d 9c f4 c4 bd
       -0.28615737 0.07540904 0.058517057 -0.09616968
000120 f7 cf fa bc 45 75 07 bd a5 c0 ec 3b f8 44 68 3e
       -0.030616743 -0.03307082 0.0072251135 0.2268256
000130 c6 da cd bd c4 52 ec 3d 89 0c 29 3d 4f b3 89 bd
       -0.10051493 0.11539224 0.04127172 -0.067236535
000140 cb b9 e5 bd 52 5a d9 bb 84 69 47 bd cc 1a 95 bd
       -0.11217078 -0.0066330815 -0.048684612 -0.07280502
000150 94 07 88 3b 33 6b 10 3d ae 3b 25 3d 95 ed 03 3e
       0.004151294 0.035258483 0.040340118 0.12883599
000160 5f d0 c1 3d 9d 8a 71 3c ac ec ec bd 2d 5f b8 3d
       0.09463572 0.014742521 -0.11568579 0.09002528
000170 ce 7d 5b 3e 43 1d c0 be d8 25 b7 3c e9 1b 75 3b
       0.2143471 -0.37522325 0.022356912 0.003740067
000180 34 d9 7e be 2d 0b 18 3d b9 b7 02 3d f6 b7 21 be
       -0.24887544 0.037120033 0.031913493 -0.15792832
000190 4a 9b a3 bd 0b ce 07 3d 59 a5 81 be 60 55 61 bd
       -0.079886034 0.033155482 -0.25321463 -0.05501306
0001a0 7a d7 33 bc 7f 92 bb 3d 92 e5 c2 3d a2 7c b4 3c
       -0.010976667 0.09158801 0.09516443 0.022032086
0001b0 c1 72 91 bc df 87 83 3d c8 a2 1a 3e b0 be 86 3d
       -0.017754914 0.064224 0.15101159 0.065793395
0001c0 eb 6e d7 bc 6b 25 21 3c 9d 83 65 be 68 bf 6a 3e
       -0.026298007 0.009835581 -0.22413488 0.22924578
0001d0 72 43 b3 bb d0 f2 9b bd 54 40 06 3e 9b 6e 94 bd
       -0.0054706866 -0.07614672 0.13110477 -0.07247659
0001e0 23 6c 37 3e 2b 8c 0b 3e 82 17 a6 3d a6 89 09 3d
       0.17912345 0.13627689 0.081099525 0.033578537
0001f0 8a cf c2 3e 87 a4 5c 3e 10 09 a5 3d 56 2d 82 3c
       0.38048965 0.21547137 0.08058369 0.015890758
000200 24 6b fe 3d 85 d4 10 be 73 ed 25 3b 64 b8 4a bd
       0.12422779 -0.1414357 0.0025318533 -0.049492255
000210 6c 22 00 be b7 e4 9b 3c 1b 59 59 3c 12 87 64 3d
       -0.12513131 0.019029958 0.013265873 0.055792876
000220 b7 d6 a8 be aa e0 b7 3d 26 03 c2 bc 0c 63 96 bd
       -0.32976314 0.08978398 -0.023683142 -0.073431104
000230 51 6f 3a be 9a 04 50 be 5e 71 6e 3d a1 6d 39 be
       -0.18206526 -0.20314255 0.058213584 -0.18108226
000240 ef a1 54 3e fe bc 92 bd 41 1c f8 3c 31 4f 65 3d
       0.20764898 -0.07164954 0.03028691 0.055983726
000250 4b d1 0f 3e 61 48 d9 bb b1 2d bd bc 69 94 e6 bc
       0.14044683 -0.0066309427 -0.023093076 -0.02814694
000260 7f ff 4d 3d 98 1a c7 3e c4 7e 51 3d 8a e9 b3 3c
       0.05029249 0.38887477 0.051146284 0.021961946
000270 6f 7c 1e be a6 00 a1 3d 0a d1 32 bd 1c 48 1a 3e
       -0.15477155 0.07861452 -0.043656386 0.1506657
000280 ee 66 d4 3d 72 95 d4 bd 29 cb 55 be de af 0d 3e
       0.10371195 -0.10380067 -0.2087828 0.1383662
000290 48 e1 16 be 34 74 85 3e 8f df de bc e1 fa ec 3a
       -0.14734375 0.26065218 -0.02720621 0.0018080139
0002a0 b8 98 d7 3d 88 97 e3 ba 12 72 3b 3e d3 7c 66 3e
       0.10527176 -0.0017363885 0.18305233 0.22508554
0002b0 e1 a0 a1 bd 2f a8 aa 3d 55 11 3f bd 61 ad db 3c
       -0.07892013 0.0833286 -0.04664739 0.026816072
0002c0 e2 99 49 3d 10 7c 8b 3d dd 1f 23 bc d4 a2 cd 3d
       0.04921902 0.068107724 -0.009956327 0.100408226
0002d0 a6 42 4d 3e 3a d3 b3 3e e8 c0 e9 bd 45 cc c9 ba
       0.20044956 0.3512209 -0.11413747 -0.001539596
0002e0 31 2a be 3d 53 a2 17 be c0 00 41 bd 76 e6 99 3d
       0.09285391 -0.14808016 -0.047119856 0.0751466
0002f0 b5 91 86 3d f4 3d c1 bc 33 92 c0 bd d9 93 a4 3b
       0.0657076 -0.023589112 -0.09402885 0.0050225076
000300 62 2f 17 bd 94 89 12 3d fb 28 96 3d 68 34 fe 3d
       -0.036910422 0.035775736 0.07332035 0.124123394
000310 e1 5b b5 3d 34 d6 bd 3b cc 56 58 be f0 1e 11 3e
       0.08855415 0.0057933573 -0.2112686 0.14171958
000320 89 ea 45 be b3 91 93 be 1d 1a 8f bd de e2 6e 3d
       -0.1932775 -0.28822097 -0.069874026 0.058321826
000330 84 e7 60 bd ee ea 3d 3d a1 cf 9a 3d 03 2e c7 be
       -0.05490829 0.046366625 0.07559133 -0.38902292
000340 19 e1 28 3c 78 ee c1 be b5 98 61 3e a4 cf 1d be
       0.010307574 -0.3787725 0.2203091 -0.1541124
000350 0f 8d cc bd 56 29 1a bd 55 cd 42 3e 7d 27 ab 3e
       -0.09987842 -0.037637077 0.1902364 0.33428565
000360 e9 fb 7a 3d ce 35 07 be 01 61 31 be 56 4a 5f 3e
       0.061275396 -0.13204119 -0.1732216 0.218057
000370 12 1b 0e bc aa 08 59 bd a9 87 5e bc e9 93 04 be
       -0.008673446 -0.05298678 -0.013582149 -0.12947048
000380 7a ed ad bd c8 9d f4 bd c5 86 08 3e 63 8f f4 bc
       -0.08492561 -0.11944157 0.1333266 -0.029853528
000390 bf ea e1 bd fb fa 36 bd e6 19 83 be 04 1e 83 be
       -0.110311024 -0.044672947 -0.25605696 -0.25608838
0003a0 07 f8 65 3d 48 3d 8b bd 60 db 20 3c 30 6b 9d bd
       0.05614474 -0.06798798 0.009817928 -0.0768646
0003b0 a8 a0 89 3e ad 95 25 bd 77 d1 54 3c 54 0f 9e 3d
       0.26880383 -0.040425945 0.012989393 0.07717767
0003c0 8c 90 87 3d 7f b5 14 3e 6d a0 f4 3c 2a d0 d0 bd
       0.06619367 0.1452236 0.029861653 -0.10195954
0003d0 b7 d3 f0 3d 7a 25 c1 3d fc 0a 38 bd 8a 0e 41 bd
       0.117591314 0.09430976 -0.04493235 -0.047133006
0003e0 b4 60 e8 bd f2 2b 65 3c 5c 1d b7 3d 01 62 10 be
       -0.1134657 0.013987528 0.08941147 -0.14099886
0003f0 f3 ef 02 bd a0 72 89 3d 2b 52 3d 3e 0d 90 63 3d
       -0.031967115 0.06711316 0.18488376 0.0555573

autoencoder.encoder.3.bias f4 [8]
000000 78 09 f6 bd 7a 04 89 bd 16 57 7e 3d 50 35 16 be
       -0.12013525 -0.06690307 0.06209477 -0.14668775
000010 ba 44 8e bc b6 1e a5 3d 0a 6c 10 3c e8 86 08 be
       -0.017366756 0.08062498 0.008814821 -0.13332713

autoencoder.encoder.6.weight f4 [2, 8, 2, 2]
000000 37 a2 00 3f bc 30 97 3e 29 f2 59 3f 5f 10 23 3f
       0.5024752 0.2952937 0.8513513 0.63696855
000010 a6 3e 95 3e ea 2d 96 3e 1d 72 cb 3e cb f5 d2 3e
       0.2914936 0.29331905 0.397355 0.4120315
000020 07 eb a5 bd 61 f7 35 3e 36 1e f2 bd 60 0c aa be
       -0.081014685 0.17770149 -0.118221685 -0.33212566
000030 80 a6 ed be 7b 47 23 bf cf ee d7 be 66 87 b3 bf
       -0.46416092 -0.63780946 -0.42174384 -1.4025695
000040 27 d9 f9 3e 11 07 10 bf 13 cd 03 3e 76 17 64 bd
       0.48798487 -0.5626078 0.12871198 -0.055686437
000050 24 78 47 be 27 5d 1d 3f a8 8a 92 3e 69 ab ba 3f
       -0.19479424 0.61470264 0.2862141 1.458356
000060 1a 72 b9 3e c9 92 17 3f bf 06 e8 3e c9 39 27 3f
       0.36219865 0.5920835 0.45317647 0.6532255
000070 83 58 b6 3e a5 e1 da 3e 91 63 5c 3f 0c f3 55 3f
       0.35614404 0.42750278 0.86089426 0.83573985
000080 07 88 eb 3c bf 7e a0 bc 1b 66 08 3e 68 b2 38 be
       0.028751386 -0.019591687 0.133202 -0.18036807
000090 20 07 e5 3e 9a 77 9d 3e a1 58 08 3f 8e f8 ce 3e
       0.44731998 0.3075531 0.53260237 0.40424007
0000a0 30 5d e6 3e 64 d9 1e 3f 8f 6e b4 3e 21 f0 52 3f
       0.4499297 0.6205046 0.352406 0.8239766
0000b0 38 9f 09 3f 81 8a 33 3e 48 94 2c bd 65 9a 92 3f
       0.53758574 0.17533304 -0.0421336 1.1453367
0000c0 8f 64 88 bf e2 c6 4a 3d 49 78 7a bf a3 b0 58 be
       -1.0655688 0.049506076 -0.9783979 -0.21161132
0000d0 71 59 ec be 19 36 ca bf 7b d3 27 bf bf 55 6b bf
       -0.46161988 -1.5797759 -0.6555707 -0.91927713
0000e0 00 95 bf 3f 96 ec 5b be 6b 3d 71 3f 24 a0 a5 be
       1.4967346 -0.21476969 0.9423434 -0.3234874
0000f0 51 bf 4d 3f 0c 10 32 3e 60 3c 43 3e e8 5f 47 3e
       0.8037005 0.17388934 0.19066 0.19470179

autoencoder.encoder.6.bias f4 [2]
000000 e7 a4 81 3c 68 bd e0 bc
       0.015825702 -0.027434066

autoencoder.decoder.0.weight f4 [2, 8, 2, 2]
000000 4e 02 04 be 57 6d 4b 3d 97 b4 bf be ef 9c f7 3e
       -0.12891504 0.04966482 -0.37442467 0.48361918
000010 22 17 d7 bd 65 07 c4 be 58 27 2e 3f 20 66 9c be
       -0.10502459 -0.38286892 0.68028784 -0.30546665
000020 0f 08 dd be f6 69 7f 3e e1 1b b8 3d 06 a7 56 3d
       -0.4317021 0.24942765 0.089896925 0.05240538
000030 15 5a 93 bf 68 26 a0 3e 35 c4 78 bf 62 e1 86 bf
       -1.1511866 0.31279302 -0.9717439 -1.0537531
000040 d0 f1 63 3e 6a cf 06 bc 29 d3 79 bd 84 83 6d 3e
       0.22260213 -0.008228162 -0.060992394 0.231947
000050 12 2e fa 3e da 5b 15 bf cb 14 c4 3e d9 68 9e be
       0.48863274 -0.5834328 0.38297114 -0.30939367
000060 ff c2 9e be 14 39 28 3f 3c 6d 98 bf 43 c0 50 bf
       -0.31008145 0.65712094 -1.1908336 -0.8154337
000070 4c 6b e7 bd 63 64 80 3e 0b 43 71 3f 35 c9 1c 3f
       -0.11299762 0.2507659 0.94242924 0.6124452
000080 65 0c 66 bf 29 27 9f 3e a5 c1 9e 3f f9 28 2b 3f
       -0.8986266 0.31084564 1.2402846 0.66859394
000090 b3 ef 5c 3f 5f 10 32 3f 4c 2c 86 3f 3c f3 0e 3f
       0.8630325 0.6955623 1.0482268 0.55839896
0000a0 87 81 1f bf 67 d7 d4 bf 8e cd 07 be 9e 3f d8 be
       -0.6230702 -1.6628236 -0.13262007 -0.42236036
0000b0 e6 64 df 3e a0 0b 7a be bf f9 8b 3f 61 cf b6 bc
       0.43631667 -0.24418497 1.0935591 -0.022315683
0000c0 4c 33 fd 3e 5d 3d 41 be f5 53 47 3d 8e 29 56 3e
       0.494532 -0.18871064 0.048664052 0.2091429
0000d0 91 f0 80 be 8a c4 be 3e 5e 41 bf 3d d7 d2 9b 3f
       -0.25183538 0.37259322 0.0933864 1.2173718
0000e0 3e 3c 48 3e 7d 5e 93 3a f8 10 ae be d2 7b cf be
       0.1955423 0.001124337 -0.3399732 -0.40524155
0000f0 1f bb a8 bd 6d 4d bf bd cb 07 75 3e c7 9f 81 be
       -0.082388155 -0.0934094 0.23928754 -0.25317213

autoencoder.decoder.0.bias f4 [8]
000000 9e 01 07 3e c0 84 2c 3e 88 41 a3 3e db 85 05 bf
       0.1318421 0.16847515 0.31885934 -0.5215737
000010 60 42 89 3f ee bc 81 3e 71 f2 3a 3e ba d9 08 3f
       1.0723381 0.25339454 0.18256547 0.53457224

autoencoder.decoder.2.weight f4 [8, 16, 3, 3]
000000 5f 5b ba 3d e1 c4 cd bd 78 03 8c 3e f3 c3 0a bd
       0.09099459 -0.10047317 0.27346396 -0.033878278
000010 29 dd 3b be f0 02 58 3e bf 15 86 3d 2b 91 71 3d
       -0.18346085 0.2109487 0.065471165 0.058976334
000020 bc 78 a1 bd ed 61 8c bd 6e 94 0f 3d 0f 0f 11 3e
       -0.078843564 -0.06854615 0.035053663 0.141659
000030 ff 69 ea bd b7 7b 29 bd 56 ae 85 3d 32 52 a6 3d
       -0.114459984 -0.04137775 0.065273926 0.08121146
000040 4a e2 c4 3d f9 eb 72 bc 80 8b 81 3c 0d 35 b0 bd
       0.09613474 -0.014826768 0.01581359 -0.08603869
000050 0e 2f 94 be fa b5 aa be ac cc a9 bd ae fa 4e bf
       -0.2894215 -0.33341962 -0.08290991 -0.80851257
000060 2b 19 df 3d 53 40 4d 3d 0b 34 95 3d de 7f 53 bd
       0.10893472 0.050110172 0.07285317 -0.051635616
000070 18 7e d0 bd 80 a9 5f 3d 6a ee c2 bd 93 bc 8b be
       -0.101803005 0.054605007 -0.0951813 -0.27292308
000080 e9 c7 fb bd fb 51 96 3d 61 6e aa bd 65 a7 ae 3d
       -0.12293989 0.07339855 -0.08321834 0.08528022
000090 83 79 61 bd 4a 9d 05 3e 56 a9 02 3e ca 0b 3f be
       -0.055047523 0.13048282 0.12759909 -0.18656841
0000a0 e1 be 68 3d 58 67 ba bd 22 da 3a be e7 cf 96 3e
       0.05682266 -0.091017425 -0.18247274 0.29455492
0000b0 dd e2 16 3d 67 72 89 bd 92 bb b2 bc 5f b5 dc be
       0.036837447 -0.06711274 -0.021817956 -0.43107125
0000c0 4b b0 d4 bd f7 10 d7 bb f2 2e 69 3c 85 35 09 3e
       -0.10385188 -0.0065633017 0.014232384 0.13399322
0000d0 ce ed db 3d aa eb 4e bd 77 15 92 3c e6 e5 66 3d
       0.10738717 -0.050517716 0.0178325 0.056371592
0000e0 47 7e 9d 3d 36 6f d3 bd ca 06 20 bd e2 67 50 3e
       0.07690101 -0.10323946 -0.039068975 0.20352128
0000f0 f5 b1 81 3e 5c 50 3b 3e de 8a 2a 3e 67 a5 2f 3d
       0.25331083 0.18292373 0.16654536 0.04288235
000100 08 14 bf 3c 24 0c 10 bf 2b fc 16 3c 80 70 8e bd
       0.023324981 -0.56268525 0.009215395 -0.069550514
000110 5f 62 7e bd 96 68 1b 3d d4 ff 81 bf 32 d8 fb be
       -0.062105533 0.037941538 -1.0156198 -0.4918838
000120 df 76 2d 3d a0 ad cb 3d 25 b5 4c be c3 69 07 bf
       0.042349692 0.09945226 -0.19990976 -0.52895755
000130 eb 8d d8 3d bf b5 51 3e b3 7d 13 3e d3 b3 e9 be
       0.10573944 0.20479487 0.14403419 -0.45645007
000140 1e b1 7e bc c6 25 43 3e 9a bf fa bd 8c d4 28 3e
       -0.015545158 0.19057378 -0.12243576 0.1648733
000150 ce 98 86 bd fd d9 c2 3e 44 bb 26 be 4e b1 02 3e
       -0.06572114 0.38056937 -0.16282374 0.12762949
000160 81 d7 42 be 25 82 a2 bd a9 88 8f be 32 32 81 be
       -0.1902752 -0.07934979 -0.2803395 -0.25233608
000170 19 15 f0 bc c4 b6 36 be c2 6f 94 3d 69 b3 bb bb
       -0.029306935 -0.17843157 0.072478786 -0.0057281745
000180 d7 3f 81 3d 12 ae 40 3e 39 da 33 ba c9 29 3d be
       0.063110046 0.18816403 -0.0006860826 -0.18472971
000190 27 89 6f 3d 00 2d 7e 3d af 49 58 bd ca 2c 60 be
       0.058480408 0.062054634 -0.052804645 -0.21892086
0001a0 35 fa 70 bd 0c 4b dd bd cd 03 fa bd 8d e5 c3 3d
       -0.058832366 -0.1080533 -0.12207756 0.09565268
0001b0 19 6a e5 3d 1b 59 f1 3c b9 19 8d 3d f3 19 42 3e
       0.11201877 0.029461434 0.06889672 0.18955211
0001c0 f0 3d e0 bd 6a 1e 18 be 0f 57 8d 3d 0a 78 12 be
       -0.10949314 -0.14855352 0.06901371 -0.14303604
0001d0 1a da 76 bd a0 98 9a bd 9a 6e 0e 3e 44 c0 4e be
       -0.06026659 -0.07548642 0.13909379 -0.20190531
0001e0 8b 73 19 be 6f 44 9e 3e 9d ca 08 3e 87 88 ce bd
       -0.14985482 0.30911586 0.13358541 -0.10084634
0001f0 29 ea 2f be b2 55 dd 3d f2 8e a3 bc 7d 30 45 bd
       -0.17179169 0.10807361 -0.019965623 -0.048141945
000200 79 3a 25 3e 6e 94 1b 3e 7a 33 ca bd 05 51 b7 3d
       0.16135587 0.1519334 -0.098730996 0.08951
000210 a3 c9 6c be 13 f1 fd bd 9e 3f 8d 3e 5a 3f a3 bd
       -0.23123793 -0.12399497 0.275876 -0.07971068
000220 6e a4 1c 3d 94 54 8d bd f3 38 26 be e8 68 21 be
       0.03824275 -0.069008976 -0.16232662 -0.15762675
000230 4c 46 5b 3e b2 6e 16 be 2c a6 d6 3c 18 33 fa 3d
       0.21413535 -0.14690664 0.026202284 0.122167766
000240 b9 41 3a 3d 1b 1e 35 be e3 d2 d9 bc f6 93 23 3e
       0.045472834 -0.17687266 -0.026589816 0.15974411
000250 b6 40 19 3d d7 a0 15 3e 05 1e e6 bd 15 2d 59 be
       0.03741523 0.14612137 -0.112361945 -0.21208604
000260 1e 39 4a 3d 91 44 d0 3d f5 c0 bd 3b 19 1c 29 3e
       0.049370877 0.10169328 0.0057908245 0.16514625
000270 53 b5 8d bd 36 4b 41 3e d1 f8 fd 3d 5a 7c d0 3d
       -0.069193505 0.18876347 0.124009736 0.10179968
000280 f9 a5 19 bf a3 15 92 3d d9 52 5d bc 15 1a 00 3d
       -0.6001888 0.07133033 -0.013508522 0.031274874
000290 bd f6 a3 bd 19 ae a4 3e 4a bd c4 3d 13 dd c5 be
       -0.08006046 0.32164076 0.096064165 -0.3864523
0002a0 58 1a bc bc a3 25 85 3d 6e 19 1c be 9a 64 3c 3c
       -0.02296178 0.06501319 -0.15244076 0.011498595
0002b0 a6 20 8c 3e 42 61 73 bd 99 ac 95 bd a8 f5 45 3e
       0.2736866 -0.059418924 -0.07308311 0.19331992
0002c0 74 66 6e be 64 81 4f bd 23 5e 0e 3e de eb 16 3d
       -0.2328127 -0.050660506 0.13903098 0.036846034
0002d0 ed 0e 02 bd 77 fc 20 bc 72 44 2c 3e 45 16 1f be
       -0.031752516 -0.009825817 0.16822985 -0.15535839
0002e0 89 b9 92 bd 4e bf c8 3d 59 b0 ef 3d 21 7f cc bc
       -0.07164294 0.098021135 0.117035575 -0.024962964
0002f0 e4 a4 27 bc 47 07 37 3d 93 81 d2 3b 06 2b 5a bd
       -0.010232184 0.044684675 0.006424138 -0.053263687
000300 32 45 45 be 02 cd 41 3d bc 38 60 be ac 8f bc bd
       -0.19264677 0.04731465 -0.21896642 -0.09207091
000310 fb 80 a8 bc eb 50 5c bb 56 24 0a bd 35 d1 73 3d
       -0.020569315 -0.0033617567 -0.03372606 0.059525687
000320 76 71 be bd 1d ea 2f 3d ae 52 5c bc 8a 1f 43 be
       -0.09298985 0.042947877 -0.013447447 -0.19055
000330 a6 97 18 bf 75 de b0 3d 72 d6 ce be be 5a 1e 3d
       -0.596064 0.0863618 -0.40397984 0.038660757
000340 82 e1 04 bc bc b4 04 bf 3d 16 d2 bc 87 8b b0 be
       -0.008110406 -0.5183828 -0.02564537 -0.3448145
000350 ce 15 01 be 57 3b 0f 3d a4 a9 1b bc 6e c4 f9 bd
       -0.12605974 0.0349687 -0.009500895 -0.12195669
000360 95 2f 31 bd 56 8c d7 3d 08 37 a5 be 6c 88 7b be
       -0.04325827 0.10524814 -0.32268548 -0.2456376
000370 58 60 91 bd 0b 2b 07 be 94 b7 29 bf 18 56 a4 bf
       -0.07098454 -0.13200013 -0.66295743 -1.2838774
000380 0a ae fa bd 68 b5 c0 3d c4 6b 62 3d 72 bb ae 3d
       -0.122402266 0.094096005 0.055278555 0.08531846
000390 2c c7 17 3e 20 ea f0 bc 46 8c 49 3e 14 05 40 3d
       0.14822072 -0.029408514 0.19682416 0.046879843
0003a0 33 2b 64 be 03 29 60 3e 65 5e a6 be e1 3c fe 3c
       -0.22282104 0.21890645 -0.32493892 0.031034889
0003b0 d9 8f c4 bd 64 46 06 bf 59 50 11 3d 9c a3 89 be
       -0.09597749 -0.5245116 0.035477016 -0.26882637
0003c0 61 d0 04 bf 0b 79 ae bc 5a 0c 2b 3e ad ed 0a 3e
       -0.5188046 -0.021297952 0.1670393 0.13567229
0003d0 8f 8c 3b bc 7e c8 f4 3d 86 8a 0a be 08 ab cc bd
       -0.011447086 0.11952303 -0.13529405 -0.09993559
0003e0 67 d3 bc 3d 36 c1 29 3c 44 6d f7 bd 53 7d 22 bd
       0.09220009 0.0103610065 -0.12081388 -0.0396703
0003f0 2f 4a 1e 3c 9b 3c 08 be 86 33 84 bc 0e 5e b1 3b
       0.009661241 -0.13304369 -0.01613785 0.0054128235

autoencoder.decoder.2.bias f4 [16]
000000 eb df 40 3e 31 f8 fd 3d eb 59 93 be 7c ee a9 be
       0.18835418 0.124008544 -0.2877954 -0.33189762
000010 22 80 c8 ba 42 72 33 bf bc 3b fc be a5 f5 09 be
       -0.0015296976 -0.7009622 -0.49264324 -0.13472612
000020 df bd f7 be 0d 47 7b 3c 39 5c 80 be d5 04 61 be
       -0.48387048 0.015336764 -0.2507036 -0.219745
000030 70 f9 c2 be 2b 1b ae be f5 e5 d7 3d b3 60 c5 3d
       -0.3808093 -0.34005103 0.10541908 0.096375845

autoencoder.decoder.4.weight f4 [16, 8, 5, 5]
000000 bd 30 8d bd c5 dc 7e bd df 52 27 be 9c af 00 3d
       -0.06894062 -0.06222226 -0.16340207 0.031417474
000010 79 3a 2b bd a2 f3 f9 bc 80 00 c9 bc df 32 26 be
       -0.04180381 -0.030511681 -0.024536371 -0.16230343
000020 25 b7 4e bd 3b a5 9e bd 11 30 3f 3e 18 0c a3 3c
       -0.05046763 -0.07746359 0.1867068 0.019903228
000030 31 57 f9 bc a0 77 cd be 5f d4 1a be 00 85 12 bd
       -0.030437084 -0.4013033 -0.15120076 -0.03577137
000040 e3 21 f0 bc d9 55 4c be 91 89 a1 be b8 a9 17 bc
       -0.029313033 -0.19954623 -0.31550267 -0.009256773
000050 5c f8 b5 3d a5 bb 92 bd 92 6c 01 bc cd 05 80 be
       0.088852614 -0.071646966 -0.00789942 -0.25004426
000060 0d e1 52 3d 19 f7 77 3b 34 15 3b 3e 9c b1 51 3d
       0.051484156 0.003783649 0.18269807 0.051194772
000070 46 10 3a bd c9 4d d6 bc 43 60 dd 3d c4 af e3 bc
       -0.045425676 -0.026160138 0.10809376 -0.027793773
000080 d7 8f a7 bd 34 cf 34 be ab 05 18 bd 19 1b 4c 3d
       -0.08181732 -0.17657167 -0.03711478 0.04983053
000090 fc 00 56 3d c2 27 3b be 37 dd 49 be 45 64 98 bd
       0.052247033 -0.18276885 -0.19713293 -0.07441
0000a0 b3 94 d4 3d 77 ca 54 3d ca ed d4 bd 10 ce 7d be
       0.103799246 0.051950898 -0.10396917 -0.24785638
0000b0 5d 9b 97 bd 84 b0 d2 3d 57 0a d0 3d f5 90 7b bd
       -0.0740268 0.10287574 0.10158222 -0.06141754
0000c0 53 5d b5 bd 8f 20 45 bd 05 3b 58 3d 91 28 c5 3d
       -0.08855691 -0.048126753 0.05279066 0.09626878
0000d0 84 77 3d bd 64 be 4b 3d cf 6a 3b 3d be 8a b7 bb
       -0.046256557 0.049742118 0.045756157 -0.005601256
0000e0 ca a2 3f 3d fa b1 51 be 78 22 4b be 16 b1 1c bc
       0.046786107 -0.20478049 -0.19837368 -0.009563705
0000f0 e3 31 2a 3d 96 f3 f8 bc 90 77 9d bd cb b8 5e be
       0.041551482 -0.030389588 -0.0768882 -0.2175018
000100 1c 7f 83 bd 9b 77 6d bd 27 c5 f1 bd 5d c0 7b be
       -0.064207286 -0.057975393 -0.11805182 -0.245851
000110 66 35 09 be 40 93 3e be 5c 4d 41 3c ef fd 62 3d
       -0.13399276 -0.18610859 0.011798229 0.05541795
000120 3a 4e 9a bd 60 8c 4c 3c 41 42 01 be 14 7f 96 bd
       -0.07534452 0.01248464 -0.1262293 -0.07348457
000130 c0 e8 b8 3c 9d 59 19 bd 99 13 ba 3d 6e b0 4d bd
       0.022571921 -0.037438978 0.09085769 -0.050217085
000140 6d 56 79 3c 04 74 64 bd be 35 de bd 94 e5 52 bd
       0.015218359 -0.055774704 -0.10850094 -0.051488474
000150 a4 d7 c8 3b e3 84 0f 3d f2 62 b6 3d 3d 13 08 be
       0.006129222 0.03503884 0.08905591 -0.13288589
000160 ae 13 83 bd cc c7 10 bc 39 c3 ef bc a5 18 5c 3d
       -0.06400238 -0.008836698 -0.029267894 0.05373444
000170 3f 06 82 3b df c7 dd bd bd dc 7c bd f3 b8 5f bd
       0.0039680297 -0.10829138 -0.06173395 -0.05461974
000180 40 8a 2e 3d 64 cd 1f 3c 4e 07 c3 bd 45 ce 33 bd
       0.042612314 0.009753559 -0.09522878 -0.043897886
000190 75 36 c3 bd b8 f5 ba bd b2 ff e5 bc e0 01 8b bd
       -0.09531871 -0.091288984 -0.028076027 -0.06787467
0001a0 2f 88 fc 3c 12 b7 9e 3d 59 01 7b bc 06 cd df bd
       0.030826656 0.07749762 -0.0153201455 -0.10927777
0001b0 3c c1 52 bd 1c 98 64 be 1f 9d 35 bd a1 ce 3c bd
       -0.051453814 -0.2232365 -0.044339295 -0.046095494
0001c0 b0 ea ac bd d8 5b e1 bd 9d 0d cf bd 5e 74 ca 3d
       -0.084432006 -0.11003846 -0.101100184 0.098854765
0001d0 00 23 93 bd 4b fa b6 3c d5 dc 84 bd 0e 6c e2 bd
       -0.0718441 0.022336146 -0.06487433 -0.11055766
0001e0 26 d7 6f bd 9f d8 d7 bd 90 89 af bc ba b4 09 be
       -0.05855479 -0.10539364 -0.0214279 -0.13447848
0001f0 0d ab 15 be 18 e7 1c bc 1b e6 0a 3d 43 aa a4 3c
       -0.14616032 -0.009576581 0.033910852 0.020100718
000200 0f 41 ca bd f1 d1 cc 3c 7c b3 03 3e f3 8f f2 3d
       -0.0987569 0.025002452 0.12861437 0.118438624
000210 c4 d2 00 bc 61 7f bf bd 2a c9 3e be e0 5e 8a 3d
       -0.00786275 -0.093504675 -0.18631425 0.06756377
000220 52 b6 bd 3d 81 6c dd 3d 16 13 d5 bd bf c5 40 be
       0.092632905 0.10811711 -0.10404031 -0.18825434
000230 a7 53 eb 3d 12 02 b7 bc 02 54 18 bc bf cc 95 bd
       0.11490565 -0.022339854 -0.009297373 -0.07314443
000240 6c e1 74 bd 47 88 96 3d 09 8e 8a 3c d9 02 e4 bc
       -0.05978529 0.073502116 0.01691343 -0.02783339
000250 70 96 8e bd 46 4b 0b be 5a 1e ff 3a fd e4 42 3d
       -0.069622874 -0.13602933 0.0019464002 0.04758166
000260 fb 2d 78 bb e1 3f 9e 3d e9 b7 d4 bc 60 42 b8 3c
       -0.0037869203 0.07727028 -0.025966601 0.022492588
000270 a5 f2 a4 3d 11 8d 69 3c dc bd a8 bd 09 78 7b 3c
       0.08054093 0.014254824 -0.08239338 0.015348443
000280 a2 f9 46 3e 26 fa 58 3e c0 02 ef 3d 35 21 4f be
       0.19431165 0.21189174 0.116704464 -0.20227511
000290 36 fb 1e bd 7b ec 1e bd ce 55 e1 3d 2f e2 56 3d
       -0.038813792 -0.038799744 0.11002694 0.0524618
0002a0 f9 56 eb bd bd 3e 9c bd 1b 69 85 bc 43 e1 7f 3d
       -0.11491198 -0.07629154 -0.01628547 0.062470686
0002b0 f4 f2 89 3c a2 a6 31 be 01 72 be bd 08 4a 84 3d
       0.016839482 -0.17348722 -0.09299088 0.06459433
0002c0 bd fa be 3d 37 5c c5 3d d3 72 c7 bd be 0a 7a bc
       0.09325168 0.09636729 -0.09738698 -0.01526135
0002d0 98 19 1d 3e 99 e6 32 3e e2 12 0f 3d 34 db 96 bb
       0.15341794 0.17470779 0.034930117 -0.004603768
0002e0 6f 6b 68 be ba 6e 39 3d 11 e5 a2 3d f0 91 eb 3d
       -0.22697233 0.045271613 0.07953847 0.11502445
0002f0 43 41 b0 bd f4 4d 6f be 64 c4 f2 3d 89 b1 2e bc
       -0.08606198 -0.2336958 0.11853865 -0.010662445
000300 fd 84 b1 bd 22 e9 98 bd 53 91 ce bd 69 05 bc 3d
       -0.086679436 -0.074663416 -0.10086312 0.091807194
000310 93 a2 1f bd 0b 41 92 bd 4f 87 05 bd 1c da 10 be
       -0.038973402 -0.07141312 -0.032599743 -0.14145702
000320 55 22 1f bd 94 6c d7 3a 44 56 e2 3d 66 3b 35 bd
       -0.0388511 0.0016435557 0.1105161 -0.0442461
000330 13 37 57 3d 36 ec 6e bd 2a 48 61 be 5f 07 1a be
       0.052542757 -0.058330737 -0.22000185 -0.15041874
000340 f4 93 0c bd d3 ea 25 3c 85 49 b1 bd 8d 12 35 be
       -0.034320787 0.010126787 -0.08656601 -0.17682858
000350 07 aa 0e be e8 5e ae bd c3 e6 ec bb 0d 1b 94 be
       -0.13932048 -0.08514196 -0.0072296574 -0.28926888
000360 32 c7 95 3c 76 5f dc bd 31 bc 58 be 03 0f 93 bd
       0.01828346 -0.10760395 -0.2116554 -0.07180598
000370 83 f9 72 bd 86 9a 53 3d 8b 34 98 bd 58 1b 05 bd
       -0.059319984 0.051661037 -0.07431897 -0.03249678
000380 a2 3e 8e 3c 2c b7 c7 bd 2a d2 ba bd f4 89 65 be
       0.01736385 -0.09751734 -0.09122117 -0.22415906
000390 45 68 3d bc 4b 00 a5 bd b7 90 4a bd fa 7e b5 bc
       -0.011560504 -0.080566965 -0.049454417 -0.022155274
0003a0 8a 29 e3 bd b2 10 12 3d 1c 49 69 bd a5 7e d0 3c
       -0.11091907 0.035660453 -0.05695449 0.025451014
0003b0 34 28 92 be ab 99 2d 3d a0 96 93 bd a9 72 44 bb
       -0.28546298 0.042382877 -0.07206464 -0.002997557
0003c0 b8 25 81 bd 6b 73 95 bb e8 5e 1e be 14 54 50 3a
       -0.063060224 -0.004560878 -0.15465891 0.0007947099
0003d0 72 e1 cd bd b7 90 56 bb e4 fb 43 be 6a 2c 02 bd
       -0.10052766 -0.0032740065 -0.19139057 -0.031780638
0003e0 61 a0 9f bc 41 43 a9 bd 98 a2 cb bc 3f c2 cf 3c
       -0.019485654 -0.08264781 -0.024857804 0.025361178
0003f0 99 f2 13 be 54 e1 20 be bd 4a f2 3c 70 be dc 3c
       -0.14448012 -0.15710956 0.029576654 0.026946276

autoencoder.decoder.4.bias f4 [8]
000000 da 28 38 bf 68 4a 42 bf b8 35 17 bf ea e8 2b bf
       -0.71937335 -0.75894785 -0.59066343 -0.67152274
000010 c8 09 0c bf 0b 09 0f bf 76 fd 08 bf ef a0 0e bf
       -0.54702425 -0.55873173 -0.5351175 -0.55714315

autoencoder.decoder.6.weight f4 [8, 1, 2, 2]
000000 74 b7 8e be db a5 82 be 3e 0a 8b be 3a 15 7f be
       -0.2787434 -0.25517163 -0.27156252 -0.24910441
000010 ff 09 26 be 00 30 2d 3e 13 41 d3 bd b5 50 71 3e
       -0.1621475 0.16912842 -0.10315146 0.23565944
000020 60 84 50 be 8d bc 8f be 3d b8 51 be 86 6b 91 be
       -0.20362997 -0.2807354 -0.20480438 -0.28402346
000030 6e cc 79 3e b0 1b 32 be d5 31 6e 3e 95 42 40 be
       0.2439439 -0.17393374 0.23261197 -0.18775399
000040 ee 85 8c be 3f 2a 27 be 76 89 86 be 89 1d 1c be
       -0.2744593 -0.1632471 -0.2627675 -0.15245642
000050 82 3f 81 3e 63 20 73 3e 49 5c 88 bd cd 69 b0 bd
       0.25243765 0.23742823 -0.06658227 -0.0861393
000060 79 43 52 3e f9 05 d5 3e 26 5a 54 3e 21 b9 d7 3e
       0.20533551 0.4160612 0.20737514 0.4213343
000070 41 54 2e 3e ca 2c 71 bb 7d 36 d8 3e ed 8d 7b 3e
       0.17024328 -0.0036800378 0.4222907 0.24565859
