save_config_3/5/model_state.pth (torch, 28664 bytes, 13 tensors)

autoencoder.encoder.0.weight f4 [16, 1, 3, 3]
0	0x3d0882e6	0.03332796
1	0x3ee99a3a	0.45625478
2	0x3f28535d	0.657522
3	0xbe997a01	-0.29975894
4	0xbe30d5bf	-0.17269038
5	0xbeb2dec1	-0.34935573
6	0xbebe9129	-0.37220123
7	0xbde6aa72	-0.112629786
8	0xbf0777cf	-0.5291719
9	0xbee30cc9	-0.44345692
10	0xbe8b7b80	-0.2724266
11	0xbe9f5661	-0.3112059
12	0xbd326068	-0.04354897
13	0xbe58e185	-0.21179779
14	0xbe8c366d	-0.27385274
15	0x3f3a8765	0.72862846
16	0x3ee0c9b7	0.43903896
17	0x3dedc760	0.116102934
18	0xbf1ef342	-0.6208993
19	0xbe7dd7b7	-0.2478932
20	0xbece5f49	-0.40307072
21	0xbed55011	-0.41662648
22	0x3d512d7f	0.05106878
23	0xbe4ed060	-0.20196676
24	0xbf1cbc74	-0.61225057
25	0x3dd2bc90	0.10289872
26	0x3f14d2ac	0.5813396
27	0x3f0db23f	0.55350107
28	0xbc3c60e9	-0.011497715
29	0xbca4e81c	-0.02013021
30	0x3f14f0eb	0.5818011
31	0xbd0abcd9	-0.033871505
32	0x3daaf793	0.08348002
33	0x3e51ad4c	0.20476264
34	0xbe64da9d	-0.2234902
35	0x3c4aa45c	0.012368288
36	0x3f3d5594	0.73958707
37	0xbe24fd4d	-0.16112252
38	0xbe78c47f	-0.24293707
39	0x3e24fb21	0.16111423
40	0xbe60b04f	-0.21942256
41	0xbde355ad	-0.11100326
42	0xbec2f3e4	-0.380767
43	0xbf0824f3	-0.5318138
44	0xbe11e226	-0.14246425
45	0xbcfbf2ed	-0.030755484
46	0xbea44175	-0.3208119
47	0x3d93e1a9	0.07220776
48	0xbe19be25	-0.1501394
49	0xbe0eb8d4	-0.13937694
50	0x3e73e527	0.23817883
51	0x3e1b174b	0.15145604
52	0xbbfea3c1	-0.007770986
53	0x3ecc333a	0.39882833
54	0xbe33dc1a	-0.17564431
55	0x3f46f9b9	0.77724797
56	0x3e8711c3	0.2638074
57	0xbdf58ddb	-0.119899474
58	0x3e545336	0.20734867
59	0xbf079b2d	-0.52971154
60	0x3e23b324	0.15986305
61	0x3e41a5e8	0.18910944
62	0xbe48c5c7	-0.19606696
63	0x3c8b23f4	0.016984917
64	0x3e4e640e	0.20155355
65	0x3f1ce97a	0.61293757
66	0xbd87cfd7	-0.06631439
67	0xbd702be6	-0.058635615
68	0x3dc30885	0.09523109
69	0xbd69dc50	-0.057094872
70	0x3e967014	0.29382384
71	0x3e9e3fa4	0.3090793
72	0x3e7e0e1d	0.24810071
73	0x3dc927ee	0.09822069
74	0xbd548f09	-0.05189422
75	0x3e8e08d6	0.27741116
76	0x3e7ab266	0.24482116
77	0x3f1451ed	0.5793751
78	0xbeac407d	-0.3364295
79	0xbee46b38	-0.4461305
80	0x3d3c153a	0.04591868
81	0xbe6d52c8	-0.2317611
82	0xbc8d6e30	-0.017264456
83	0x3ea945e6	0.3306114
84	0xbebd52b8	-0.36977172
85	0x3d759702	0.059958465
86	0xbd95e36c	-0.07318768
87	0x3dd43d61	0.103632696
88	0x3f3702d1	0.7148867
89	0x3ccf4787	0.025302662
90	0xbe659d72	-0.22423342
91	0xbdf9cd20	-0.121973276
92	0x3e0d2c56	0.13786444
93	0x3e9ed4e4	0.31021798
94	0x3d65c494	0.056095675
95	0x3de2ccc4	0.11074212
96	0x3f0ae629	0.54257447
97	0xbcca2ace	-0.024678614
98	0xbe0a8afa	-0.13529578
99	0x3da8ab54	0.08235803
100	0x3e52fc6f	0.20604108
101	0x3d76a8d4	0.0602196
102	0x3e0bdb56	0.13657889
103	0x3e0ac623	0.13552146
104	0xbd98eb13	-0.07466712
105	0x3ed33604	0.41252148
106	0x3ec871fa	0.39149457
107	0x3ef24719	0.47319868
108	0x3d9268fc	0.071489304
109	0xbc0180a5	-0.007904206
110	0x3f1ac450	0.604558
111	0xbebb1159	-0.36536673
112	0xbea90b46	-0.33016413
113	0x3e88a3f9	0.266876
114	0xbd70d6e5	-0.05879869
115	0xbeed6fa2	-0.46374232
116	0x3e9da28a	0.3078807
117	0xbf5d6102	-0.8647615
118	0xbe8fb76f	-0.28069636
119	0xbefbf28f	-0.49208495
120	0x3def6eb4	0.11691037
121	0x3e3f327b	0.186716
122	0xbe9cfa04	-0.30659497
123	0xbecb1949	-0.3966773
124	0xbd11fbed	-0.035640646
125	0xbf461219	-0.77371365
126	0x3d6d591e	0.057946317
127	0xbce0a1c4	-0.027420886
128	0xbe90e105	-0.28296676
129	0x3e6f0e7c	0.23345369
130	0xbe64c533	-0.2234085
131	0xbeada444	-0.33914387
132	0x3f501825	0.8128684
133	0x3dbd65bc	0.0924792
134	0xbe89db2a	-0.2692502
135	0x3e787fd0	0.24267507
136	0xbe0735f3	-0.13204174
137	0xbeec8097	-0.46191856
138	0x3e82ebe7	0.25570604
139	0x3ea1df4d	0.31615677
140	0xbcbadfdf	-0.022811828
141	0xbedc0fd8	-0.42980838
142	0x3e8732fd	0.26406088
143	0x3ed27d6a	0.41111308

autoencoder.encoder.0.bias f4 [16]
0	0x3d344316	0.04400929
1	0xbe00c45a	-0.12574902
2	0xbcd53ee1	-0.02603096
3	0xbe67bb78	-0.22630107
4	0xbe09d539	-0.13460244
5	0x3f80a937	1.005164
6	0xbe89ae03	-0.26890573
7	0x3f47e529	0.78084046
8	0xbe950670	-0.29106474
9	0xbefcd764	-0.4938308
10	0x3f2f4422	0.6846334
11	0xbed9fc54	-0.42575324
12	0xbe52307f	-0.20526312
13	0x3e7b193f	0.2452135
14	0x3c5a60a8	0.013328709
15	0x3d2262b9	0.03964493

autoencoder.encoder.3.weight f4 [8, 16, 3, 3]
0	0x3e194637	0.14968191
1	0x3db7cf50	0.089750886
2	0x3af766d3	0.0018875248
3	0x3ec9022d	0.39259472
4	0xbe411c4f	-0.18858455
5	0xbe121055	-0.14264043
6	0x3e0d7494	0.13814002
7	0x3d003258	0.03129801
8	0x3ea90444	0.33011067
9	0xbdd42fe1	-0.10360695
10	0xbe3a5cfc	-0.18199533
11	0xbde2f3f5	-0.11081687
12	0x3ea9e7db	0.33184704
13	0xbd8305bf	-0.0639758
14	0xbd9ae680	-0.07563496
15	0xbe811a08	-0.25215173
16	0xbe0db6e8	-0.13839304
17	0x3e3e95b6	0.18611798
18	0xbe0638b4	-0.13107568
19	0xbdb80ed5	-0.08987204
20	0xbd96148c	-0.07328138
21	0x3e846002	0.25854498
22	0x3e8790bd	0.26477614
23	0x3dbe01a4	0.09277657
24	0xbd11f9c0	-0.03563857
25	0xbdd959f0	-0.10612857
26	0xbacf7743	-0.001582839
27	0xbdb63301	-0.08896447
28	0xbe535482	-0.20637706
29	0xbd362d1e	-0.04447662
30	0x3db09067	0.086212926
31	0x3e9c8825	0.3057262
32	0x3dcdd9d1	0.10051311
33	0xbcc40106	-0.02392627
34	0x3e441126	0.19147167
35	0xbdbdbc52	-0.09264435
36	0xbc85b1e6	-0.01632018
37	0xbc6f306a	-0.014598945
38	0x3b165e15	0.002294426
39	0xbb8cbbdc	-0.0042948555
40	0x3d9a177a	0.07524009
41	0x3d9ae315	0.07562844
42	0xbb886d09	-0.0041633886
43	0x3e4ab75c	0.19796509
44	0xbe859964	-0.2609359
45	0x3e7c36b3	0.24630241
46	0xbd4c5441	-0.04988504
47	0x3d2c3a88	0.042048007
48	0x3e046a21	0.1293111
49	0x3e15481b	0.14578287
50	0xbe05fa60	-0.13083792
51	0x3e22683b	0.15860073
52	0xbe5e90e8	-0.21734965
53	0x3ec6f73c	0.388605
54	0xbd7a1e76	-0.061064206
55	0xbd04de80	-0.032438755
56	0xbcf227c3	-0.029559975
57	0xbe8980d5	-0.26856104
58	0x3d4f7679	0.050650094
59	0x3e0d2e1f	0.13787125
60	0xbbf4f517	-0.007475506
61	0x3e0671c1	0.13129331
62	0xbea131a2	-0.3148318
63	0x3e124567	0.14284287
64	0x3ded25d5	0.115794815
65	0x3d3f5fad	0.046722103
66	0x3c299d70	0.010352477
67	0xbd2d583a	-0.042320468
68	0xbe88d131	-0.267221
69	0xbd2e2d89	-0.042523894
70	0x3e06ac3e	0.13151643
71	0x3eb66356	0.35622662
72	0xbd978de1	-0.07400108
73	0xbc2d1aa5	-0.010565435
74	0x3ced34c3	0.028955823
75	0xbd31c079	-0.043396447
76	0xbdb25553	-0.087076806
77	0xbe101848	-0.14071763
78	0x3d9c5112	0.076326504
79	0x3df5aff1	0.11996449
80	0x3e0284db	0.12745993
81	0xbda87d6a	-0.08227046
82	0xbdf0b58f	-0.117533796
83	0xbd8217cc	-0.06352195
84	0xbe67cf84	-0.22637755
85	0x3c89dea5	0.016829798
86	0x3e2a8177	0.1665095
87	0x3db34f1e	0.08755325
88	0x3d828965	0.06373862
89	0xbec11e52	-0.37718445
90	0x3e17bd55	0.14818318
91	0xbe0bca0a	-0.1365129
92	0x3d848817	0.064712696
93	0x3e85edbc	0.2615794
94	0xbe21bd26	-0.1579481
95	0xbebee892	-0.37286812
96	0x3d556725	0.05210032
97	0xbddae4e2	-0.10688187
98	0x3e56beee	0.20971271
99	0xbe3840bc	-0.17993444
100	0x3d2bd171	0.041947786
101	0x3d5ee0a8	0.054413468
102	0xbe98da18	-0.29853892
103	0x3cbb14be	0.02283704
104	0xbd956ce5	-0.072961606
105	0x3daca5a7	0.08430033
106	0x3e3e3557	0.18575035
107	0xbdd20c3e	-0.10256241
108	0xbe1b8411	-0.15187098
109	0x3dc3ac94	0.09554401
110	0x3c8bfdf0	0.01708886
111	0xbf0d2218	-0.5513015
112	0x3bd9df62	0.0066489438
113	0xbd35225b	-0.044222217
114	0xbd9f4182	-0.077761665
115	0x3d0eba9d	0.034845937
116	0xbd69ad5e	-0.0570501
117	0x3d97d71d	0.074140765
118	0x3e444fef	0.19171117
119	0x3d29c4c8	0.04144743
120	0x3eb84e2b	0.35997137
121	0x3d3d5f07	0.046233203
122	0xbddbf22e	-0.107395515
123	0xbdb24ca7	-0.087060265
124	0x3dc83136	0.09775011
125	0xbe08f52c	-0.13374776
126	0x3c4ff8ca	0.012693593
127	0x3c5190d8	0.012790881
128	0x3e120bb6	0.1426228
129	0xbecaaed0	-0.39586496
130	0xbd2a205c	-0.041534767
131	0xbe297e97	-0.16552196
132	0xbd45c0f7	-0.04827973
133	0xbbfd0b84	-0.00772232
134	0xbdef5de6	-0.116878316
135	0xbd6088f2	-0.0548181
136	0xbc8ca69e	-0.017169293
137	0x3c7fdf22	0.015617164
138	0xbda3d40d	-0.0799943
139	0xbe581b37	-0.21104132
140	0xbe9dbf20	-0.3080988
141	0xbe169ccf	-0.14708255
142	0xbe34c997	-0.17655025
143	0x3e1b37ca	0.15158
144	0xbda8ab23	-0.08235767
145	0xbeb0b831	-0.34515527
146	0x3d6adb5f	0.057338115
147	0xbeae7c5c	-0.34079254
148	0xbc753037	-0.014965109
149	0x3e00df7f	0.12585257
150	0xbe6208fc	-0.2207374
151	0x3d9c7dda	0.07641192
152	0xbd859900	-0.06523323
153	0xbdd2ec5a	-0.10298987
154	0xbe465934	-0.19369966
155	0x3d64b1d1	0.05583364
156	0xbe151af5	-0.14561065
157	0xbeb54791	-0.35406163
158	0x3e817276	0.2528264
159	0x3d447f65	0.047973055
160	0x3ea4871e	0.32134336
161	0x3df6eb0c	0.120565504
162	0xbcdad6bf	-0.026713727
163	0xbca201e4	-0.019776292
164	0xbe29ab33	-0.16569214
165	0x3ba7128d	0.005098647
166	0x3d1aeb1c	0.037821874
167	0xbd06eab2	-0.032938667
168	0xbdb93e0d	-0.09045038
169	0x3e7aa4fc	0.24476999
170	0x3ea0d7da	0.31414682
171	0xbcf6bd74	-0.030119635
172	0x3dac374c	0.084089845
173	0x3dd8934c	0.1057497
174	0x3e16d30e	0.14728948
175	0x3dc64f24	0.096830636
176	0xbda184de	-0.078866705
177	0xbd0af4dc	-0.033924922
178	0x3ca44789	0.020053642
179	0x3eb1f3c4	0.3475629
180	0xbd6e8171	-0.058228914
181	0x3e112190	0.1417296
182	0x3de17427	0.110084824
183	0xbe3ebfd6	-0.18627867
184	0x3e8f6bbe	0.28011888
185	0xbeb3af48	-0.35094666
186	0xbe2d0c43	-0.16899209
187	0xbd88e9e6	-0.066852376
188	0x3d522e24	0.051313534
189	0xbe92d83e	-0.28680605
190	0x3e3badf0	0.1832807
191	0x3d45dce9	0.04830638
192	0xba4fbf06	-0.0007924888
193	0xbe4d246d	-0.20033427
194	0xbdc3f8b6	-0.09568922
195	0xbd12f0f9	-0.03587434
196	0x3d88cc62	0.06679608
197	0x3e924738	0.2856996
198	0x3dc47bf2	0.09593953
199	0x3e636860	0.22207785
200	0x3dfe4b92	0.12416758
201	0x3e958a87	0.2920725
202	0x3e8734e7	0.2640755
203	0xbeb7a55f	-0.35868356
204	0xbe0d6a33	-0.13810043
205	0xbe101b61	-0.14072944
206	0x3e4c0257	0.19922768
207	0xbeb4a5b6	-0.35282677
208	0xbe2936e7	-0.1652485
209	0x3c7245e0	0.014787167
210	0xbd4f9616	-0.050680242
211	0xbeea614c	-0.45777357
212	0xbcbd3835	-0.02309809
213	0x3e4e5be8	0.20152247
214	0x3d1a3bd1	0.0376547
215	0x3e42364c	0.18966025
216	0x3d46ea76	0.048563443
217	0xbeac01fb	-0.3359526
218	0x3df84668	0.12122804
219	0xbe4354c3	-0.19075303
220	0xbe1b8082	-0.1518574
221	0x3eb87a60	0.36030865
222	0x3e5b68ae	0.21426651
223	0x3dbf8e3c	0.09353301
224	0x3e076c50	0.13224912
225	0x3e678005	0.2260743
226	0x3e7ff104	0.24994284
227	0xbc26c0a0	-0.010177761
228	0x3ea74d56	0.3267619
229	0x3d62742d	0.055286575
230	0x395f56c3	0.00021299259
231	0x3d43d88e	0.047813945
232	0xbca67ca1	-0.0203231
233	0x3ea683ee	0.3252253
234	0xbe7e697a	-0.24844924
235	0x3dec8539	0.11548848
236	0x3dfdc621	0.12391306
237	0xbe189989	-0.14902319
238	0xbe3cb1bf	-0.1842718
239	0xbcf90bc3	-0.030401116
240	0xbdc3fbff	-0.09569549
241	0x3e1ea416	0.15492281
242	0x3e816b4e	0.2527718
243	0x3e6fb0e2	0.23407319
244	0xbe35affe	-0.17742917
245	0xbc727ac6	-0.014799779
246	0x3da6be0d	0.08141718
247	0x3de066b6	0.109570906
248	0x3dcd1829	0.10014374
249	0x3f13c505	0.577225
250	0xbd05d6a9	-0.03267542
251	0x3e9366e1	0.28789428
252	0x3e594eff	0.21221541
253	0xbe8b990d	-0.27265206
254	0x3d64cb05	0.055857677
255	0x3e802d40	0.25034523

autoencoder.encoder.3.bias f4 [8]
0	0x3b8dbe7e	0.004325687
1	0xbe8725d6	-0.26396054
2	0xbe19e538	-0.15028846
3	0x3d644b4d	0.055735875
4	0xbe3e0576	-0.1855677
5	0xbe076f5c	-0.13226074
6	0xbe49d670	-0.19710708
7	0xbe6e58f1	-0.23276116

autoencoder.encoder.6.weight f4 [2, 8, 2, 2]
0	0xbed8da7d	-0.42354193
1	0xbe2474aa	-0.16060129
2	0xbef0d6e3	-0.47038946
3	0xbfacb220	-1.349186
4	0xbbaa7595	-0.005202005
5	0xbe852364	-0.26003563
6	0xbf85a040	-1.043953
7	0x3f3244cd	0.6963623
8	0xbeb291f0	-0.34876966
9	0x3f407404	0.75177026
10	0xbd8db298	-0.0691883
11	0x3f25902f	0.6467313
12	0x3e3e4cab	0.18583934
13	0x3eeb55bf	0.45963857
14	0x3f73fb06	0.95304906
15	0x3dcb6164	0.09930685
16	0xbe658c4e	-0.22416803
17	0xbdf8a1ae	-0.12140213
18	0xbe93f2c5	-0.28896156
19	0xbed5362e	-0.41642898
20	0x3eae7fa7	0.34081766
21	0x3ee0bf86	0.4389612
22	0x3f22b3d6	0.6355566
23	0x3ed14d6d	0.40879384
24	0x3e84a4ae	0.2590689
25	0x3eb09c10	0.34494066
26	0x3e315ee0	0.17321348
27	0x3f08f331	0.5349608
28	0xbee38be3	-0.44442663
29	0xbe4d0ae6	-0.20023689
30	0xbc23625e	-0.009972183
31	0xbd8bd5a4	-0.06827858
32	0x3dddbb16	0.108266994
33	0x3d4f3316	0.05058583
34	0x3e9acfa6	0.30236548
35	0xbee84e43	-0.4537221
36	0x3f4830b5	0.7819932
37	0x3f894b75	1.0726153
38	0xbf4984dd	-0.7871836
39	0xbe9c8974	-0.30573618
40	0x3ef2aeee	0.47399086
41	0xbee0a3fa	-0.43875104
42	0x3e686845	0.22696026
43	0xbf18f7ef	-0.59753317
44	0x3e1bf4ba	0.15230075
45	0x3f841fe7	1.0322236
46	0x3f41b0c6	0.7566036
47	0xbf31ffcb	-0.69530934
48	0xbea14515	-0.31498018
49	0xbeb2fa80	-0.3495674
50	0xbea5384c	-0.32269514
51	0xbf019baf	-0.5062818
52	0x3e01582e	0.12631294
53	0xbcea9813	-0.028636968
54	0x3b821ed5	0.0039709606
55	0xbe2b065b	-0.16701643
56	0xbf85fee3	-1.046841
57	0xbf1eeeec	-0.62083316
58	0xbada7638	-0.0016667312
59	0xbe312bdb	-0.17301886
60	0xbf64f6b8	-0.8943896
61	0xbeca821b	-0.39552388
62	0xbf1f34d2	-0.6218997
63	0xbe8bb3e1	-0.27285674

autoencoder.encoder.6.bias f4 [2]
0	0xbdba77ce	-0.09104882
1	0x3e4f5794	0.20248252

autoencoder.decoder.0.weight f4 [2, 8, 2, 2]
0	0xbed0aadb	-0.40755352
1	0x3e2c619f	0.16834114
2	0xbefb57ce	-0.49090427
3	0xbfb789bf	-1.4338912
4	0x3da443f9	0.08020777
5	0x3ecea306	0.40358752
6	0xbda47505	-0.08030132
7	0x3e137f24	0.14403969
8	0xbf326cef	-0.6969747
9	0x3e526538	0.20546424
10	0xbf2855a2	-0.65755665
11	0x3d00ac2c	0.031414196
12	0x3d294ad7	0.04133114
13	0x3d098261	0.033571605
14	0xbdf59741	-0.1199174
15	0xbe30d325	-0.17268045
16	0x3e9a373c	0.30120265
17	0xbe172c72	-0.14763048
18	0x3e690c8d	0.22758694
19	0x3dfdf30f	0.123998754
20	0x3fa3e996	1.280566
21	0x3e8288a9	0.25494888
22	0x3d5d19cd	0.053979684
23	0xbe52bde0	-0.20580244
24	0x3f606966	0.87660825
25	0x3ec795a6	0.3898136
26	0x3ed33622	0.41252238
27	0x3e555a90	0.20835328
28	0x3e32527c	0.17414278
29	0xbf491718	-0.78550863
30	0xbe428281	-0.18995096
31	0xbd7485de	-0.05969798
32	0x3f268bea	0.6505724
33	0xbc3c6549	-0.011498758
34	0x3d1efa7e	0.038813107
35	0xbd69803e	-0.057007067
36	0xbd8f0bde	-0.06984685
37	0xbf2d4be7	-0.6769394
38	0x3ec2e6c0	0.38066673
39	0xbeba2fa3	-0.3636447
40	0x3f4fc322	0.81157124
41	0xbdf72749	-0.1206804
42	0xbec7e369	-0.39040688
43	0xbd0b655f	-0.034032222
44	0xbde73a66	-0.112904355
45	0x3e62576c	0.22103661
46	0xbf7ca669	-0.9869142
47	0x3f761ba0	0.961359
48	0xbf1ee376	-0.6206583
49	0x3e62dc3b	0.22154324
50	0x3f22f2b8	0.6365161
51	0x3e1d4337	0.15357672
52	0x3df0ec9a	0.11763878
53	0xbdb7bc61	-0.08971477
54	0x3f1978ca	0.59949934
55	0xbc42465f	-0.011857598
56	0x3ee68624	0.45024216
57	0xbe62dfe1	-0.22155716
58	0x3e04a110	0.12952065
59	0xbd5e6183	-0.054292213
60	0x3ec22e4d	0.3792595
61	0xbf140a70	-0.57828426
62	0x3ee7be9a	0.45262605
63	0xbeadb8d9	-0.3393009

autoencoder.decoder.0.bias f4 [8]
0	0x3fac2a9f	1.3450507
1	0xbfe83e79	-1.8144065
2	0x3f9909a7	1.1956071
3	0x3d5ade7a	0.053434826
4	0x3fc305c3	1.5236133
5	0xbfa54a9e	-1.2913396
6	0x3fbbd330	1.4673824
7	0xbf7aabb3	-0.9791824

autoencoder.decoder.2.weight f4 [8, 16, 3, 3]
0	0xbe3ad36d	-0.18244715
1	0xbe17de2c	-0.14830846
2	0xbd522fc3	-0.05131508
3	0x3e6237a3	0.22091536
4	0xbe10d199	-0.14142455
5	0xbe90c6d8	-0.28276706
6	0xbe21d480	-0.15803719
7	0xbddd44bf	-0.10804128
8	0x3dad163f	0.08451509
9	0xbe1fddf2	-0.15612009
10	0xbe457911	-0.19284464
11	0x3b4d6c56	0.003134509
12	0xbea20185	-0.31641784
13	0xbf48aadd	-0.78385717
14	0xbef7e634	-0.4841782
15	0x3e37fb45	0.17966945
16	0x3dee3a3b	0.116322
17	0x3d287775	0.041129548
18	0x3de167aa	0.110061005
19	0x3df180f5	0.11792175
20	0xbe7c8a56	-0.24662146
21	0x3e552370	0.208143
22	0x3af8ea7c	0.001899078
23	0xbe37db94	-0.17954856
24	0xbe7db97c	-0.24777788
25	0xbe80eac1	-0.25179103
26	0x3cd36b63	0.025808042
27	0xbe27049b	-0.1631035
28	0xbe82f8bb	-0.2558039
29	0x3e09e6e8	0.1346699
30	0xbcc9a5ef	-0.024615256
31	0x3cccc9f1	0.024998637
32	0x3d7b1e6b	0.061308306
33	0xbe857f8e	-0.2607388
34	0x3db7dd1e	0.08977722
35	0xbe6f73a0	-0.23383951
36	0x3e829347	0.2550299
37	0xbf288193	-0.65822715
38	0xbd5424a8	-0.05179277
39	0xbebaab1e	-0.36458677
40	0x3e381ce9	0.17979778
41	0xbeac36a7	-0.33635446
42	0xbe8f3077	-0.27966663
43	0x3e0b5dbb	0.13609974
44	0x3e3902fd	0.18067546
45	0x3eaf17cb	0.3419784
46	0xbe28638c	-0.16444224
47	0x3d785d52	0.060635872
48	0x3e0e017b	0.13867752
49	0x3daaa615	0.08332459
50	0x3df984a6	0.12183504
51	0x3e43eebd	0.1913404
52	0x3c3fef9b	0.011714841
53	0xbdf87b2e	-0.1213287
54	0xbee6d529	-0.45084503
55	0xbee30e64	-0.44346917
56	0xbd66b68f	-0.056326445
57	0x3ea4ef82	0.3221398
58	0xbe31dbcc	-0.17369002
59	0x3d952d5e	0.07284044
60	0xbf10b33a	-0.5652348
61	0x3d9c2c52	0.07625641
62	0x3d04efdf	0.03245532
63	0xbefa8f9b	-0.48937687
64	0x3ce0c7f1	0.02743909
65	0xbdcd3b69	-0.10021097
66	0xb9d0654a	-0.00039748318
67	0xbf163295	-0.5867093
68	0xbf2b3294	-0.6687405
69	0x3d9e2fa5	0.07723931
70	0x3bad699b	0.00529213
71	0x3d3d6709	0.04624084
72	0xbd0995f4	-0.033590272
73	0x3ea0a636	0.3137681
74	0xbdc7686a	-0.09736712
75	0xbe3d762f	-0.18502115
76	0xbdb60f88	-0.08889681
77	0x3e11c5ff	0.14235686
78	0xbd8214aa	-0.063515976
79	0xbe44b8b0	-0.19211078
80	0xbd41a93d	-0.04728054
81	0xbd69a489	-0.05704168
82	0xbece4be3	-0.40292272
83	0xbccaba88	-0.024747148
84	0x3c9329c4	0.017964251
85	0xbf0b49e0	-0.544096
86	0xbc64b7e6	-0.01395986
87	0x3e4a40de	0.19751307
88	0x3e00c156	0.12573752
89	0xbe47c501	-0.19508745
90	0xbbf10883	-0.007355751
91	0xbd7fb0d2	-0.06242449
92	0x3d4ba334	0.04971619
93	0x3dceee3c	0.10104033
94	0x3c365061	0.011127562
95	0xbefc54cd	-0.49283448
96	0x3b80f12d	0.0039350004
97	0xbaffb487	-0.0019508757
98	0x3de406d6	0.11134116
99	0xbe16f2ff	-0.14741133
100	0xbe2be40e	-0.16786215
101	0xbe1addfa	-0.1512374
102	0xbf3e6505	-0.74372894
103	0xbd9e4264	-0.07727507
104	0xbd8205fb	-0.06348797
105	0xbe34d15c	-0.1765799
106	0x3e59a248	0.21253312
107	0x3dbde5cb	0.09272345
108	0x3e4e9280	0.20173073
109	0xbcb66669	-0.02226563
110	0x3d19bc4d	0.037533093
111	0xbd0d659b	-0.034520727
112	0x3da7e729	0.08198387
113	0xbcbcf998	-0.023068234
114	0xbd792212	-0.060823508
115	0xbd640688	-0.05567029
116	0x3ceef49a	0.02916937
117	0xbd845eda	-0.06463404
118	0xbe15bad0	-0.14622045
119	0xbd9ad560	-0.07560229
120	0x3e98fbd4	0.2987963
121	0xbacaf474	-0.001548423
122	0x3e089232	0.13337019
123	0x3d88ffdf	0.066894285
124	0x3e2adc8f	0.16685699
125	0xbd78b239	-0.06071684
126	0xbe00e0cf	-0.12585758
127	0xbe6b9c51	-0.23008849
128	0xbc3280f3	-0.010895002
129	0xbcbc348e	-0.022974279
130	0xbed45fdc	-0.41479385
131	0xbe2c36e8	-0.1681782
132	0xbca60556	-0.020266216
133	0x3c0ee69b	0.008721973
134	0x3cbc62de	0.022996362
135	0xbf0139ad	-0.5047863
136	0xbd6ae257	-0.05734476
137	0xbd1d3751	-0.038382832
138	0xbea291aa	-0.31751758
139	0xbe9823a8	-0.29714704
140	0xbe1f6b24	-0.15568215
141	0xbaeb2f17	-0.0017943111
142	0x3e2366d0	0.15957189
143	0x3e326976	0.17423043
144	0x3e2b5f79	0.16735639
145	0x3df8244f	0.121163
146	0xbe0a9238	-0.1353234
147	0xbe015d89	-0.12633337
148	0x3ea677d4	0.32513297
149	0x3be03d4a	0.0068432437
150	0x3ddafdb7	0.106929235
151	0x3ce1b51d	0.027552182
152	0xbe227829	-0.1586615
153	0xbcb705e2	-0.022341672
154	0xbc830dc2	-0.015997771
155	0xbe4106cd	-0.1885025
156	0x3d7347bd	0.059394587
157	0xbf4ff4c7	-0.81232876
158	0xbcdd2240	-0.02699387
159	0xbe1c3df7	-0.15258013
160	0xbe99e7e0	-0.3005972
161	0xbdc56be2	-0.09639718
162	0x3ecc32f5	0.39882627
163	0xbede2b3a	-0.43392354
164	0x3e991311	0.2989736
165	0xbe7ac2a9	-0.2448832
166	0x3db7fe88	0.08984095
167	0x3df60ea2	0.1201451
168	0x3f1ef805	0.620972
169	0x3d75fbcb	0.06005458
170	0x3da66133	0.08124008
171	0xbe0c2e0c	-0.1368944
172	0xbd851952	-0.0649897
173	0xbdc11d2d	-0.09429393
174	0x3f0381f9	0.513702
175	0x3ead8ae9	0.33895043
176	0x3e6e2926	0.23257884
177	0xbecbce03	-0.39805612
178	0x3cdcb2b7	0.026940687
179	0x3b90bc10	0.00441695
180	0x3d93bd80	0.07213879
181	0xbe14cd2b	-0.1453139
182	0x3e05771e	0.13033721
183	0xbec9ecbb	-0.39438424
184	0xbd5996e8	-0.05312243
185	0xbdff98b0	-0.12480295
186	0x3ec53757	0.38518783
187	0x3eac5990	0.3366208
188	0x3bcc1fb6	0.006229366
189	0xbe8f71bb	-0.28016457
190	0x3dc2ee11	0.09518064
191	0xbbadc071	-0.005302482
192	0x3eebcf04	0.46056378
193	0xbd74aed9	-0.05973706
194	0xbc4d38bb	-0.012525733
195	0xbe711203	-0.23542027
196	0x3d4be7a3	0.049781453
197	0xbdeb6727	-0.11494284
198	0x3e241ad9	0.16025867
199	0x3c322c13	0.010874766
200	0x3d5cec8d	0.05393653
201	0x3e9e4a95	0.30916277
202	0x3e720ccf	0.23637699
203	0x3bae1daa	0.005313595
204	0xbf245a05	-0.6419986
205	0x3db0df5d	0.08636353
206	0x3e088b54	0.133344
207	0x3e5c156f	0.21492551
208	0xbee27195	-0.4422728
209	0x3e2a9a3e	0.16660401
210	0x3f122718	0.570909
211	0xbde1193e	-0.10991143
212	0x3d018312	0.03161914
213	0x3ebcf267	0.36903688
214	0xbf1413c8	-0.57842684
215	0x3e1f2cbb	0.15544407
216	0x3e54f442	0.20796302
217	0x3ebe0d1d	0.3711938
218	0x3e131af0	0.14365745
219	0x3ed9d9ab	0.4254888
220	0x3ea4e73c	0.32207668
221	0x3ca2c311	0.019868406
222	0x3d1f40c0	0.03888011
223	0x3efcfff5	0.4941403
224	0x3da67d30	0.08129346
225	0xbdd286db	-0.10279628
226	0x3e3807b3	0.17971687
227	0xbe1a6e05	-0.15081032
228	0xbf24e349	-0.6440931
229	0xbe1a330e	-0.15058538
230	0xbdadc8c8	-0.084855616
231	0x3ea4d43c	0.32193172
232	0x3ec306a2	0.38090998
233	0x3d6d4798	0.057929605
234	0x3de1ad82	0.11019422
235	0xbe2e4f32	-0.17022398
236	0x3d9f4994	0.07777706
237	0xbd7a493f	-0.06110501
238	0xbf3aa713	-0.72911185
239	0xbea6150f	-0.3243794
240	0xbe42747e	-0.1898975
241	0xbea04ae9	-0.31307152
242	0x3c34b466	0.011029338
243	0xbdb948f0	-0.09047115
244	0x3e0268df	0.12735318
245	0xbcf3e1f7	-0.029770834
246	0xbe22c7ed	-0.15896578
247	0x3eddb6f1	0.43303636
248	0xbdacd3b0	-0.08438814
249	0x3c85ca25	0.016331742
250	0x3e89e678	0.26933646
251	0x3e414798	0.18874967
252	0x3d501b0c	0.050807044
253	0xbd5d430b	-0.054019015
254	0x3cd94990	0.026524335
255	0xbf2fef87	-0.68724865

autoencoder.decoder.2.bias f4 [16]
0	0xbe5d8974	-0.21634465
1	0xbe020996	-0.12698969
2	0xbee7c449	-0.4526694
3	0xbf3891ed	-0.72097665
4	0xbd42b6ef	-0.04753774
5	0xbd4be270	-0.049776495
6	0xbf1bab51	-0.60808283
7	0xbe85a8b2	-0.26105267
8	0xbf1ed771	-0.6204749
9	0xbe951cd8	-0.2912357
10	0x3df5f90f	0.12010395
11	0xbe8a3da3	-0.2700015
12	0xbe981854	-0.2970606
13	0x3e90cfc3	0.2828351
14	0x3edc5979	0.43037012
15	0xbdc095a9	-0.094035454

autoencoder.decoder.4.weight f4 [16, 8, 5, 5]
0	0x3d00661b	0.031347375
1	0x3d1bc883	0.03803302
2	0x3ced566e	0.028971877
3	0x3bee3ac3	0.0072701885
4	0x3db604cd	0.088876344
5	0x3ddae9da	0.10689135
6	0x3e759fce	0.23986742
7	0xbd3f9360	-0.046771407
8	0x3e29af49	0.16570772
9	0x3e025474	0.12727529
10	0x3e4668f5	0.19375975
11	0xba83a101	-0.001004249
12	0x3e06d766	0.13168105
13	0x3b09c300	0.002102077
14	0x3e0720fa	0.13196173
15	0x3d619d35	0.055081565
16	0x3dfe89cd	0.12428627
17	0x3e54afb8	0.20770156
18	0x3e0a8ef8	0.13531101
19	0x3d66bb7b	0.05633114
20	0xbd244424	-0.040104046
21	0x3de9f9df	0.11424612
22	0xbd2790a0	-0.04090941
23	0x3d555bdb	0.052089553
24	0x3dca7ebc	0.09887454
25	0x3d3a460e	0.045476966
26	0x3a277ca9	0.000638912
27	0xbd15191d	-0.036400903
28	0x3d6d174b	0.057883542
29	0x3ddae03a	0.10687299
30	0x3c6e5440	0.014546454
31	0x3cbe2e3a	0.023215402
32	0xbec68706	-0.3877489
33	0x3e4464b8	0.19179046
34	0x3e6644be	0.2248716
35	0xbdca11a7	-0.09866648
36	0xbe44730b	-0.1918451
37	0x3c4e8ef0	0.012607321
38	0x3d407593	0.046987128
39	0x3e096873	0.1341875
40	0xbc6de99e	-0.014521031
41	0x3e3e2be1	0.18571426
42	0x3ba40ded	0.005006543
43	0x3d7795c5	0.060445566
44	0xbdcb9703	-0.099409126
45	0xbe313ff8	-0.17309558
46	0x3e0d32a7	0.13788854
47	0xbd6be13e	-0.057587855
48	0xbc158437	-0.009125761
49	0xbe18df87	-0.14929019
50	0xbd962686	-0.073315665
51	0xbe07a840	-0.13247776
52	0xbe3d65aa	-0.18495813
53	0xbdf55561	-0.11979175
54	0x3cf7f594	0.030268468
55	0xbe1a62a2	-0.15076688
56	0xbdf48485	-0.119393386
57	0xbed2cc1f	-0.41171357
58	0xbdb7fc33	-0.0898365
59	0x3d2773ff	0.040882107
60	0xbdfbf328	-0.12302238
61	0x3c58733d	0.013211069
62	0x3e207d22	0.15672734
63	0x3d98abfe	0.0745468
64	0xbd3e0cc4	-0.046398893
65	0x3cefe400	0.029283524
66	0xbddb2639	-0.1070065
67	0xbcf53b82	-0.029935602
68	0xbe622c3c	-0.22087187
69	0xbdee89ce	-0.11647378
70	0xbd9f2527	-0.07770758
71	0x3e24d995	0.16098626
72	0x3e4a36c7	0.19747458
73	0x3d1f4353	0.038882565
74	0x3cf32bd3	0.029683983
75	0x3d2af85f	0.04174077
76	0xbe0385fa	-0.12844077
77	0xbeb0249e	-0.34402937
78	0xbe34280a	-0.17593399
79	0x3e22f1f6	0.15912613
80	0xbe2f84f3	-0.1714056
81	0x3c205396	0.009785553
82	0xbe952606	-0.29130572
83	0xbda8f1bf	-0.082492344
84	0xbdfd6f26	-0.123747155
85	0x3e205c4c	0.15660208
86	0x3ddaea07	0.106891684
87	0x3d5211f2	0.051286645
88	0xbd633dbe	-0.055478804
89	0x3df1fa21	0.118152864
90	0x3db9a5df	0.090648405
91	0x3d1f8f55	0.03895505
92	0xbe9310fb	-0.28723893
93	0xbd601aba	-0.05471299
94	0xbdef6ae9	-0.11690313
95	0xbcab59ee	-0.020916905
96	0x3db2b6d2	0.087262765
97	0xbba6be8f	-0.0050886343
98	0x3d2b4b3a	0.04181979
99	0x3e803577	0.2504079
100	0x3ce66238	0.028123006
101	0xbce71005	-0.02820588
102	0xbbd97616	-0.0066363914
103	0x3d4bd07d	0.049759377
104	0x3e02d0d4	0.12774974
105	0x3d8e9b28	0.069631875
106	0x3e94bf96	0.29052418
107	0x3d4bca3e	0.04975342
108	0x3d609587	0.0548301
109	0x3e03c587	0.1286832
110	0x3e03ef70	0.12884307
111	0x3ccdea2d	0.025136078
112	0x3db77cd9	0.0895936
113	0x3de67e97	0.11254614
114	0x3e7adb16	0.24497637
115	0x3d80bb3b	0.062857114
116	0x3e1e7191	0.1547301
117	0xbdbcd050	-0.0921942
118	0x3d9714de	0.07377027
119	0xbd50e8a1	-0.051003102
120	0x3cfabe85	0.030608425
121	0xbb795643	-0.00380458
122	0xbe0e52ac	-0.13898724
123	0x3dce9a98	0.1008808
124	0x3d99dd92	0.07512964
125	0xbe067581	-0.13130762
126	0xbdfbf428	-0.123024285
127	0xbe3c5a64	-0.18393856
128	0xbda2bbc1	-0.079459675
129	0x3d32cb15	0.043650705
130	0xbdec3a88	-0.115346014
131	0x3db9e27d	0.09076402
132	0x3dd16446	0.10224204
133	0x3cebe1b0	0.02879414
134	0x3d96324a	0.073338106
135	0xbc68dc12	-0.014212625
136	0x3dc5ac72	0.09652032
137	0x3db2acec	0.087243885
138	0x3e3e4417	0.18580662
139	0x3e842a0d	0.25813332
140	0xbdb44a55	-0.0880324
141	0x3e18ea40	0.1493311
142	0xbdc6361b	-0.096782885
143	0x3e142533	0.14467315
144	0xbcd84340	-0.026399255
145	0xbb5ccbad	-0.0033690736
146	0xbd10ef88	-0.035384685
147	0xbc014ca8	-0.007891811
148	0xbde9b816	-0.11412065
149	0x3c9a8ff7	0.018867476
150	0xbe07e391	-0.13270403
151	0xbc993497	-0.018701835
152	0xbd84d3f8	-0.06485742
153	0xbe16ccd6	-0.14726576
154	0xbd81a5ce	-0.06330453
155	0xbd83e08f	-0.064393155
156	0x3e148389	0.14503302
157	0x3e27c70e	0.16384527
158	0x3dfb30a4	0.12265137
159	0xbd321442	-0.04347635
160	0x3d3c26ed	0.04593556
161	0x3e4e1ea6	0.20128879
162	0x3df8901a	0.1213686
163	0x3d5f0f5f	0.05445802
164	0x3e083294	0.13300544
165	0xbd85b337	-0.06528323
166	0x3e1539d6	0.14572844
167	0x3da0a8ae	0.07844673
168	0x3e06ce08	0.13164532
169	0x3d9ced3b	0.076624356
170	0x3d3465d4	0.044042423
171	0xb97496ca	-0.00023325827
172	0xbd65650e	-0.056004576
173	0xbe068f6f	-0.13140653
174	0x3c698f75	0.014255394
175	0xbd082511	-0.033238474
176	0x3d0366aa	0.03208033
177	0xbca8f5c0	-0.020624995
178	0xbd98f205	-0.074680366
179	0x3d7ebc50	0.062191308
180	0xbcbcacf4	-0.02303169
181	0x3ca0d15b	0.019631078
182	0x3e44cab2	0.19217947
183	0x3e04499b	0.12918703
184	0x3d4c04c6	0.04980924
185	0xbc8a0447	-0.016847743
186	0x3dd89dfd	0.10577009
187	0x3d112478	0.03543517
188	0xbc654f6b	-0.0139959855
189	0x3de9c26a	0.11414035
190	0xbd1cb11a	-0.038254835
191	0x3bbae388	0.0057033934
192	0xbd296d41	-0.04136396
193	0x3cfd6626	0.030932497
194	0x3c05ed67	0.008174277
195	0x3d7caac1	0.06168628
196	0xbd283482	-0.0410657
197	0xbace3a9e	-0.0015734022
198	0xbdae59d3	-0.08513226
199	0x3d4c7824	0.049919263
200	0x3db3767a	0.08762832
201	0x3d1fd0b1	0.039017383
202	0xbca2316c	-0.019798957
203	0xbc943ed2	-0.018096361
204	0xbd1315c0	-0.035909414
205	0xbc684ac7	-0.014177985
206	0xbd6e4178	-0.058167905
207	0xbe96310b	-0.29334292
208	0x3d634bb1	0.055492107
209	0x3df3f96e	0.11912809
210	0xbe27d556	-0.16389975
211	0x3b84dad6	0.0040544076
212	0xbe8b697f	-0.27228925
213	0xbde781dc	-0.113040656
214	0x3d16e161	0.03683603
215	0x3df41799	0.119185634
216	0xbdb5dd55	-0.08880106
217	0xbec53ff8	-0.38525367
218	0x3e12a670	0.14321303
219	0x3d1e5fe6	0.038665675
220	0xbdb524ea	-0.088449314
221	0xbde4d78f	-0.11173927
222	0xbcd7f646	-0.02636255
223	0x3d4bb0cb	0.04972915
224	0x3d8b4ff1	0.06802357
225	0x3bdb070c	0.0066841897
226	0xbe9d1a72	-0.3068424
227	0xbd9b87c3	-0.07594254
228	0xbd1eb4b7	-0.03874656
229	0xbd24c572	-0.04022736
230	0x3c4df835	0.012571384
231	0xbe935339	-0.2877443
232	0xbe14f7c4	-0.1454764
233	0xbdaaa30a	-0.083318785
234	0x3e9985b3	0.29984817
235	0x3d6b6f77	0.057479348
236	0xbd06eb58	-0.032939285
237	0x3d3915f6	0.04518696
238	0xbde207d6	-0.11036651
239	0xbd831be7	-0.06401806
240	0xbe925203	-0.28578195
241	0xbdd2a909	-0.10286147
242	0xbeb22580	-0.34794235
243	0x3cc2ab97	0.023763461
244	0x3dfa83c9	0.12232167
245	0xbe5338c2	-0.2062712
246	0x3e43fd89	0.19139685
247	0xbc872a57	-0.016499681
248	0xbe7e4926	-0.24832591
249	0x3d2a4a40	0.041574717
250	0xbd96892d	-0.07350383
251	0xbc939a2f	-0.018017856
252	0x3d807126	0.06271581
253	0x3ea4a771	0.32158998
254	0x3e1b2927	0.15152417
255	0x3d395382	0.045245655

autoencoder.decoder.4.bias f4 [8]
0	0x3e279b7b	0.16367905
1	0xbf3bd507	-0.7337193
2	0x3e22a46f	0.15883039
3	0xbea4637c	-0.3210715
4	0x3e07aedd	0.13250299
5	0xbf46e7bd	-0.77697355
6	0xbf329a92	-0.69767106
7	0xbf348019	-0.7050796

autoencoder.decoder.6.weight f4 [8, 1, 2, 2]
0	0x3f2b1335	0.6682618
1	0x3e958e0a	0.2920993
2	0x3f00b6e7	0.50279087
3	0x3ddc0ad9	0.107442565
4	0xbf39a136	-0.72511613
5	0xbf15c00f	-0.58496183
6	0xbf23dcdb	-0.64008874
7	0xbefd94f4	-0.49527705
8	0x3ef9e7a2	0.48809534
9	0x3ef1db6e	0.47237724
10	0x3f03a47b	0.5142285
11	0x3efd8ccf	0.4952149
12	0xbf12c25b	-0.5732781
13	0xbf0a3371	-0.53984743
14	0xbf1ae25b	-0.6050164
15	0xbf11a21c	-0.56887984
16	0x3e363071	0.17791916
17	0x3ef17a1e	0.4716348
18	0x3ecc3a67	0.39888307
19	0x3f35cf57	0.710195
20	0x3f435534	0.76301885
21	0x3bca6fb6	0.0061778678
22	0x3e88ab3f	0.2669315
23	0xbefc8b55	-0.49325052
24	0xbd80a67b	-0.06281754
25	0x3f2c5407	0.67315716
26	0xbe54c996	-0.20780024
27	0x3f080c56	0.53143823
28	0xbe231b81	-0.1592846
29	0xbe917423	-0.28408918
30	0x3ee6a6a4	0.45049012
31	0x3e9f5354	0.31118262
