test_runs/12/model_state.pth (torch, 882022 bytes, 20 tensors)

autoencoder.encoder.1.weight f4 [100, 784]
000000 4e f1 0c 00 38 c2 01 00 00 b2 08 00 94 d0 0b 00
       1.18859e-39 1.61508e-40 7.98538e-40 1.085014e-39
000010 35 82 12 00 86 fa 01 00 80 90 0a 80 93 c6 0b 80
       1.699748e-39 1.81706e-40 -9.70192e-40 -1.081425e-39
000020 4a 20 0c 80 10 b2 0b 00 c1 a4 0b 00 ac a8 13 80
       -1.113609e-39 1.074067e-39 1.069293e-39 -1.805382e-39
000030 69 94 be 32 65 9e 21 33 4c 6e 95 2a 3c fb b5 a8
       2.21864e-08 3.7629793e-08 2.654425e-13 -2.0203992e-14
000040 ad 42 11 00 7d 94 08 00 1a 3a 0c 80 f9 34 06 80
       1.585122e-39 7.87952e-40 -1.122869e-39 -5.70016e-40
000050 09 a5 14 00 b3 c3 14 00 de 92 0f 80 53 bf 09 80
       1.895913e-39 1.906914e-39 -1.430218e-39 -8.95154e-40
000060 3c 44 15 80 9c cd 01 00 2d 65 08 80 2b 95 0c 00
       -1.953023e-39 1.65594e-40 -7.70979e-40 1.155537e-39
000070 d6 40 11 00 30 64 11 80 ec 03 10 80 68 2c 13 80
       1.584462e-39 -1.597144e-39 -1.470775e-39 -1.760804e-39
000080 1a 37 83 29 90 46 cb b1 22 c8 90 35 e4 6b 05 39
       5.827127e-14 -5.9160996e-09 1.0787082e-06 0.00012724061
000090 d9 8c a9 3b a5 3b 9f ba bc f0 a0 3b d5 57 2d 3c
       0.005174261 -0.0012148513 0.0049115103 0.010580023
0000a0 91 08 c9 39 56 21 ac b9 02 cc af ba 6a 16 95 bb
       0.0003834409 -0.00032831234 -0.001341224 -0.004549791
0000b0 c8 02 b5 ba b8 03 aa 3a 1d ff fd 3b ee ee ea 3b
       -0.0013810033 0.0012971079 0.007751359 0.007169596
0000c0 a2 a3 97 3b 56 25 38 39 6a 1a 9a 35 0c e9 f3 32
       0.004627661 0.00017561516 1.1481582e-06 2.83949e-08
0000d0 0e c0 0e 80 cf 9c 10 80 a7 a3 13 00 95 9b 04 80
       -1.354593e-39 -1.52562e-39 1.803582e-39 -4.23154e-40
0000e0 65 72 0c 80 a9 83 0c 80 57 cd 6a 26 e4 25 41 38
       -1.143063e-39 -1.149257e-39 8.1463346e-16 4.6050074e-05
0000f0 51 df d7 b6 3e e3 92 36 f0 b7 6a 3a 82 12 87 3a
       -6.4334968e-06 4.3775935e-06 0.00089538004 0.0010305198
000100 01 03 c5 3b 34 50 0d 3c 09 94 14 3c a6 b8 9e b9
       0.006012321 0.008625079 0.009068497 -0.00030273682
000110 01 63 8d bb 12 a8 89 bc 52 b6 ff bc 7f 9c f5 bc
       -0.0043147807 -0.016803775 -0.031214867 -0.02998185
000120 54 3f aa bc a2 d6 5a bc b8 e3 ab bb ee 25 7d 3b
       -0.02078215 -0.0133568365 -0.005245652 0.0038627344
000130 d8 4a 15 3c a9 b2 26 3c 5c 1c 0d 3c 13 41 97 3b
       0.009112082 0.010174432 0.008612718 0.0046159117
000140 cb ae d6 b9 bd fd c0 ba 7f af 11 80 85 e6 11 00
       -0.00040947492 -0.0014724057 -1.62416e-39 1.643898e-39
000150 d5 36 03 80 81 36 0b 80 50 ba ad b5 75 41 07 ba
       -2.95177e-40 -1.029743e-39 -1.2943729e-06 -0.0005159595
000160 c4 e8 e6 b9 23 3e 26 3a 17 8b 01 3c df 1f 3a 3c
       -0.00044042442 0.00063416566 0.007906697 0.011360138
000170 74 e6 a7 3c 31 f4 99 3c 0d 3c d7 bb db 0a 94 bc
       0.02049563 0.018793197 -0.006568438 -0.018071583
000180 51 da c8 bb 64 98 83 bb 6f 69 71 bc e0 39 56 bc
       -0.006129541 -0.004015969 -0.01473461 -0.013075322
000190 cd 53 28 3b 5a 2a f2 bb 91 70 93 bc c7 06 9b bb
       0.0025684715 -0.0073903026 -0.017998012 -0.0047310325
0001a0 cf 69 58 bc 63 82 5b 3a f7 92 1e 3c 32 40 99 3b
       -0.0132088205 0.0008373616 0.009678594 0.004676842
0001b0 64 a1 2d 39 3f bc 05 b8 a8 53 18 3b cb 86 12 80
       0.00016558688 -3.188499e-05 0.0023243222 -1.701394e-39
0001c0 2e b6 14 80 a1 d2 8c 37 9a 5d 07 b7 5e 48 76 36
       -1.902064e-39 1.6787382e-05 -8.06842e-06 3.669898e-06
0001d0 28 37 05 ba 52 d2 17 3c 5d 5a 84 3c 4e d6 c4 3c
       -0.0005081766 0.009266453 0.01615637 0.02402797
0001e0 e1 fe 06 3d d7 5e 0b 3d 4c 92 b9 3c a0 f9 98 3c
       0.032957915 0.034025993 0.022652768 0.018673718
0001f0 82 0d 48 bc 9d 30 06 bd 31 7e ed bc 4e 51 1a bd
       -0.012210252 -0.032761205 -0.028990837 -0.037675194
000200 6e 89 b0 bc 1d fe f5 bc 27 16 0c bd 5f b4 b7 bc
       -0.021549907 -0.030028397 -0.034200814 -0.022424875
000210 87 7a 71 bc 16 dc 82 bc 94 74 20 bc 31 0b 73 3b
       -0.014738685 -0.015974086 -0.009793419 0.0037085528
000220 8c 59 0e bb 21 e6 8c 3b 9e 4c 3e 3a 82 49 8d 39
       -0.0021720855 0.0042998944 0.00072593417 0.00026948383
000230 b5 08 03 80 4a f1 62 aa fb c5 ef b5 cc da 8d b9
       -2.7863e-40 -2.0156546e-13 -1.7864508e-06 -0.00027056632
000240 cc 40 46 ba 6f b6 6e 3b fb 6a cc 3a c7 65 98 3c
       -0.0007562756 0.0036424657 0.0015595848 0.018603219
000250 01 53 23 3d 57 6d 8f 3c 4b b1 96 3b 1b f7 07 bc
       0.03987408 0.017508192 0.0045987717 -0.008298661
000260 6d 9a c4 bc d9 a2 1a bd 3b cf 28 bd 20 ab d1 bc
       -0.023999417 -0.03775296 -0.041213255 -0.025594294
000270 52 13 09 bc 5c 85 fb bc 04 80 12 bd 2f a9 82 bc
       -0.008366423 -0.03070324 -0.035766616 -0.015949814
000280 4c d8 94 bb 29 33 e2 ba f1 e2 a0 3a 91 b4 10 3c
       -0.004542386 -0.0017257679 0.0012274665 0.008832113
000290 4c 86 39 3c e3 9a 8b 3b d4 d5 a8 3a 9d 17 80 ab
       0.011323523 0.0042604073 0.0012881109 -9.101501e-13
0002a0 41 10 00 00 33 d4 b2 b0 0d 7a 8e ba e8 97 5d 3b
       5.831e-42 -1.3011515e-09 -0.0010870114 0.0033812467
0002b0 5a 7c 43 3b 87 de 07 3c ae 99 20 3c 0a 2f 18 3d
       0.0029828758 0.008292801 0.009802265 0.037154235
0002c0 a4 2b 26 3d 0f d0 d0 3b e3 9a 86 3b c1 a1 da bc
       0.040568963 0.0063724588 0.0041078194 -0.026688458
0002d0 ec ca 18 bd a1 6c 17 bd 32 a2 86 bb 86 bb 17 3c
       -0.037302896 -0.03696883 -0.0041086907 0.009261018
0002e0 cf a3 02 3d 4b d7 25 3c fb 70 9e bc ce 14 cb bb
       0.0318945 0.010122131 -0.019340983 -0.0061975485
0002f0 fd c7 10 bc be de 98 bb fa 31 0d bb 3b 5d 5d bb
       -0.008836743 -0.004665225 -0.002154468 -0.0033777494
000300 18 a7 7e bb b2 c8 85 ba 3c ce ac bb 21 4d 8c ba
       -0.003885692 -0.0010206907 -0.0052736085 -0.0010704139
000310 97 9d 3a 39 b0 75 42 b7 41 97 33 ba c8 01 6c 3c
       0.00017797049 -1.1590702e-05 -0.00068508467 0.014404722
000320 66 28 5a 3c 48 55 e0 3c e6 ab 1c 3d 12 e3 41 3d
       0.013315296 0.027384415 0.038249873 0.04733569
000330 03 d8 20 3c 2f d8 9b 3c 27 32 25 bb 3b a7 dd bc
       0.009817126 0.019023983 -0.0025206895 -0.02705728
000340 33 b5 c5 bc 99 ac 0a bc 55 e1 e1 bb ce f7 ba 3b
       -0.024134254 -0.008464002 -0.0068933167 0.00570581
000350 7a bf 68 3c a4 76 73 3b 52 fd 15 bc a5 07 0a bd
       0.014205808 0.0037149573 -0.009154635 -0.033698697
000360 41 92 10 bd 57 14 c5 bc 1f 46 d8 bc b2 bc 06 bd
       -0.03529573 -0.02405755 -0.026400624 -0.032894798
000370 97 6e 22 bd 04 b9 97 bc eb 40 a9 ba 5c 04 25 bb
       -0.039656248 -0.01852084 -0.0012913024 -0.00251796
000380 53 46 40 ba f8 10 9e ba 08 84 a4 3a 53 d0 4b 3c
       -0.0007334698 -0.00120595 0.0012551555 0.012439805
000390 d4 eb b3 3c 3f e1 35 3d 25 b4 3d 3d 74 8c 48 3d
       0.021963038 0.044404265 0.046314377 0.04896207
0003a0 d1 09 41 3c 1c bc 89 bb 6e 12 85 bc 62 aa 58 bb
       0.011782126 -0.0042033326 -0.01624414 -0.003306054
0003b0 69 66 37 3c 19 a1 20 3c 30 a1 02 3b d5 44 3a 3b
       0.01119385 0.009804034 0.00199325 0.0028422375
0003c0 fd 63 2d 3c d5 65 97 bc 33 7f 53 bc da 1d c8 bc
       0.010582921 -0.018481174 -0.012908745 -0.024428297
0003d0 e7 f1 6c bc d2 ae 38 3c 40 52 3b bc c9 af f4 bc
       -0.014461971 0.011272149 -0.011433184 -0.029868977
0003e0 e7 66 d0 bc bf e5 94 bc 5e 57 73 3a ff 45 82 bb
       -0.025439693 -0.018175958 0.0009282733 -0.0039756293
0003f0 e1 de ee 39 3a 88 32 b9 77 28 20 3b d0 eb 0a 3c
       0.00045560955 -0.00017026151 0.0024438181 0.008479074

autoencoder.encoder.1.bias f4 [100]
000000 29 3b 57 bd 24 fb 1d bf 9a a4 56 3c 5f 76 04 3d
       -0.052546654 -0.61711335 0.0131007675 0.03233945
000010 a1 8c af 3d 95 21 f9 bd f3 63 2c bc ef d4 09 be
       0.08571745 -0.121646084 -0.010521877 -0.13460134
000020 09 23 c2 3d 55 9a 5a 3c 27 04 e9 3d 38 51 22 ba
       0.09479339 0.01334246 0.11377745 -0.0006191912
000030 05 cc be bc 49 e1 43 be b0 ed 9e 3c fe 3a e1 3b
       -0.023290643 -0.19128908 0.019400448 0.0068734875
000040 d5 7b 9f 3e e1 75 17 3d 6e 9e 84 bc 82 2d f6 3c
       0.31149164 0.036977652 -0.016188826 0.030050997
000050 04 f3 99 3a cd d2 11 be 04 57 ad 3d 82 44 91 be
       0.0011745398 -0.1424057 0.084638625 -0.2837258
000060 7c 56 39 be 9c 58 95 be d4 a3 7c 3d eb 49 14 3e
       -0.18099397 -0.29169166 0.061679676 0.14481322
000070 78 3a 41 bd 3c af 97 3d 19 88 6b 3e 4f d6 f9 3d
       -0.0471749 0.0740647 0.23001136 0.12199079
000080 dc d4 d1 ba 94 07 43 3d c1 6b ef bb 67 34 03 bf
       -0.0016008872 0.04761465 -0.0073065464 -0.51251835
000090 0b 34 2f 3c e7 19 f4 3a 1d 5a 88 bd 51 66 52 bb
       0.01069356 0.0018623442 -0.06657813 -0.0032104442
0000a0 20 8c 2d 3e f0 fd 6b b9 1d c6 6b 3c 64 0e 45 ba
       0.16947985 -0.00022505946 0.014390496 -0.0007517098
0000b0 96 06 94 ba 2c e4 79 39 a1 3c 70 bc 6e d5 52 3e
       -0.0011293467 0.00023831491 -0.014662893 0.2058923
0000c0 11 32 d1 3d 8e 7c a7 be ed dd 6a 3d c4 46 92 bd
       0.102146275 -0.32712215 0.05734055 -0.07142404
0000d0 5c af 51 bd 14 f4 12 3c f7 b5 0d bf cc be 3a 3c
       -0.051192626 0.008969326 -0.5535578 0.011398029
0000e0 e7 21 e7 3b 3f 8c 23 bd d6 32 fc bc a7 70 a8 be
       0.007053602 -0.03992867 -0.03078596 -0.32898447
0000f0 c2 c0 67 be d6 80 5e 3c dd 52 b6 bd 82 fb 94 3c
       -0.22632125 0.013580522 -0.08902524 0.018186335
000100 08 2a 9a 3c b5 31 6d bd 0f 47 9f bc 35 20 de bd
       0.01881887 -0.057908732 -0.019443063 -0.10845987
000110 d9 9b 90 be 9c 85 93 be 70 3d 95 be 06 c8 64 bb
       -0.28243902 -0.28812873 -0.29148436 -0.0034909262
000120 85 c0 16 3c aa 80 01 3c 08 ea 86 3b 6c db 0a be
       0.009201174 0.007904211 0.004117254 -0.13560265
000130 c1 75 da 3d 29 ca 17 3e ad 20 95 be d9 1b b1 be
       0.10666991 0.14823212 -0.29126492 -0.3459156
000140 a5 fe 2e 3e 06 0e c5 3d c7 a6 74 bc f6 e6 18 be
       0.17089327 0.096218154 -0.014932341 -0.14931855
000150 74 04 37 be 21 51 c0 3c 68 0e 0a ba 99 79 8e 3d
       -0.17872792 0.023476185 -0.0005266429 0.06956787
000160 cd 34 f8 be c5 6f c3 be 29 3b 7a 3d 24 fc 07 3c
       -0.48477784 -0.3817121 0.061091576 0.008299861
000170 9b b8 59 3c 4c 18 13 3b b8 42 7f 3e 65 4b 90 bc
       0.013288642 0.0022444902 0.24927795 -0.017614076
000180 44 f6 24 be a5 dc 98 bd 3f 67 1b 3e 77 ae 08 bf
       -0.16109568 -0.074639596 0.15176104 -0.5339121

autoencoder.encoder.3.weight f4 [100, 100]
000000 b4 95 06 3c 70 cb 18 bc 4f e4 30 3c 27 0a ad 3b
       0.008214403 -0.009325847 0.0107966205 0.0052807513
000010 d7 ba 05 ba eb 27 79 ba 77 33 66 38 74 db 8e bb
       -0.00051013887 -0.00095045444 5.4884204e-05 -0.004359657
000020 8b cd db 3a 64 64 07 3c 6b 70 3a bc 87 50 1c 3b
       0.0016769631 0.008263681 -0.011379342 0.002385171
000030 5d a2 26 bb 27 49 ac bb ad 47 c0 3b f6 d0 76 3b
       -0.0025426366 -0.005257744 0.0058679194 0.0037661172
000040 c7 94 f4 bb 09 a5 e8 3b 8e 8c 67 3b 0f f2 3f 3c
       -0.0074640247 0.007099752 0.003533158 0.011715426
000050 dc 0e 25 3c 59 9d f5 bb 33 34 c0 3b 0a f4 f8 3b
       0.0100743435 -0.007495564 0.0058655976 0.007597451
000060 a9 a5 e2 bb bc c9 9c ba 36 67 92 3a 45 a2 3f bc
       -0.006916721 -0.0011961977 0.0011169675 -0.011696403
000070 d8 f7 b7 3b 0a 81 03 3c e8 86 7c 3b 6c 56 41 3b
       0.005614262 0.008026371 0.0038532559 0.0029500974
000080 87 66 19 3c 33 cc c3 3a ab e4 19 bb ab 26 8e ba
       0.009362823 0.0014938175 -0.0023482244 -0.0010845264
000090 e6 b5 fe 3b 39 7a a5 3b 52 82 e5 3b 50 98 09 3c
       0.007773149 0.0050499705 0.007004061 0.008398131
0000a0 79 4e 34 3b ae 2a c2 3b 7f 8c 4a 3c 3c 32 63 3b
       0.0027512594 0.005925498 0.012362598 0.0034667393
0000b0 67 76 d3 b9 56 76 46 3b 63 56 4f ba 32 22 7b bb
       -0.00040333273 0.0030282936 -0.0007909296 -0.0038319943
0000c0 81 73 ae bb 58 83 d9 bb 6e c8 c4 3b 16 98 cb bb
       -0.0053238277 -0.006637972 0.0060053384 -0.0062131984
0000d0 ee 1b e0 ba bd c3 08 3c 2d da 28 bc 7a a9 00 3b
       -0.0017098167 0.008347449 -0.010305923 0.0019632266
0000e0 96 bf f8 3b 76 e8 ce b9 6a 96 19 3b 36 82 48 bb
       0.007591198 -0.0003946458 0.00234356 -0.003059519
0000f0 d4 ef b2 3a 96 17 89 3b 2a 5b a0 3b f9 f9 03 3c
       0.0013651797 0.00418372 0.00489368 0.008055204
000100 58 ee c0 3b ca e0 c8 bb 99 41 3c bb c5 12 fe 3b
       0.005887788 -0.0061303126 -0.0028725623 0.0077537023
000110 fc ee 68 3a 28 73 43 bc 3c b2 44 ba 3f 53 bb 3a
       0.0008885709 -0.011929311 -0.00075033656 0.0014291777
000120 d0 c6 9b 3b ad 9f fe 3b c5 74 36 3c a7 15 a8 3b
       0.004753925 0.0077704997 0.011136238 0.0051295343
000130 28 60 97 bb 62 ab 07 bc ab bb b0 3c c4 b0 3c 3c
       -0.004619617 -0.008280607 0.021573862 0.011516754
000140 33 11 30 bb e4 bf a1 3b 86 e6 09 3b 56 ef ef bb
       -0.002686572 0.004936205 0.0021041944 -0.0073222322
000150 60 96 53 3c 16 04 0b 3c a4 97 f7 3a de ff 91 bb
       0.01291427 0.008484861 0.0018889797 -0.0044555506
000160 a5 9f 00 bb 0d 34 51 ba 75 e5 27 ba b5 6b a3 3b
       -0.0019626406 -0.00079804735 -0.0006404736 0.004987205
000170 50 b6 00 3c 99 ae a3 3b 26 38 c5 ba 4c 0d 0b bb
       0.007855967 0.004995179 -0.0015046641 -0.0021217642
000180 1c 74 85 3c 22 00 19 3b 8d 40 27 3c 8e 9e 4d 3a
       0.016290717 0.0023346026 0.010208261 0.0007843756
000190 10 89 0f bc 91 9b 22 3d c2 de c5 bb c0 cf 03 bb
       -0.008760706 0.03969914 -0.0060385177 -0.0020112842
0001a0 b3 56 10 bd c3 f6 5b bd ad 3a 24 bc 5a 4c 80 3d
       -0.035238933 -0.053702127 -0.010023755 0.06264563
0001b0 54 7f 95 3d 99 1f 2a 3c 11 62 a0 3d 17 f4 19 bc
       0.072996765 0.01038351 0.07831205 -0.009396574
0001c0 cf cd 9a 3c d6 a1 b6 3d b1 1f 91 3c bb 3d 4f 3b
       0.018896965 0.089175865 0.017715307 0.0031622488
0001d0 00 de 8f bd ba 7f 74 3d f1 a0 f7 bb 29 66 62 3d
       -0.07024765 0.059692122 -0.0075570275 0.05527321
0001e0 72 2b 8e bb 6a 7d 41 bd ba 0f f6 bb 90 33 3d 3d
       -0.004338675 -0.047238745 -0.007509199 0.046191752
0001f0 2e ab 7a bd 2e a8 f0 3d 6a 1d 58 3d 59 07 e3 3d
       -0.061198406 0.11750828 0.052762426 0.11085386
000200 d1 f0 64 bb 88 12 f2 3c ec 05 2c 3d 02 1b 39 3d
       -0.0034933577 0.029549852 0.041997835 0.045191772
000210 a9 0e 74 3c 63 19 d4 3d df 04 21 3c b7 70 24 3c
       0.014896073 0.10356405 0.0098278215 0.010036639
000220 e0 e8 0c 3c 40 ee 88 3b 82 2d f7 bc a9 7d 1b 3c
       0.008600444 0.0041787922 -0.030173067 0.009490409
000230 fb 98 ed bb 87 7f 90 3c d1 92 ad 3b 5a 03 12 3c
       -0.0072509027 0.017638935 0.005297043 0.008911932
000240 7a f3 d4 bb 73 c1 0c 3c b5 6c 29 3c 62 44 91 3d
       -0.006498751 0.008591044 0.010340859 0.07093121
000250 89 45 48 bd 45 44 fc bc 47 36 55 bd 66 3f 71 3d
       -0.04889444 -0.030794272 -0.052053716 0.058898352
000260 2b 9c e4 ba 2c c0 8f 3c b5 47 8b bd de 04 f3 bb
       -0.0017441561 0.01754769 -0.068007864 -0.0074163517
000270 70 5d 10 3c b3 d6 4d bd 42 53 b5 bc ca 70 a6 bd
       0.00881134 -0.05025358 -0.022134427 -0.081269816
000280 56 18 2e bc 94 84 18 bb 97 ee 49 bc ee 1f 3b 3c
       -0.010625919 -0.0023272382 -0.012324951 0.011421187
000290 47 69 13 3c d0 6c 4b 3b 10 27 36 3b 1c 93 50 bc
       0.008997268 0.00310402 0.002779428 -0.012730386
0002a0 8c fd 2e 3c 53 0b d4 3c c6 d6 2c bd 61 6a 97 bb
       0.0106805675 0.025884306 -0.04219701 -0.0046208357
0002b0 2f 74 67 3c 99 61 b1 bd 69 3b ee 3b 1a 23 53 3d
       0.014126821 -0.086611934 0.007270266 0.051547147
0002c0 56 54 a3 bd 8f e4 83 3c 3b 2e 84 3d 76 e3 f9 39
       -0.0797507 0.016100196 0.0645413 0.00047662453
0002d0 59 79 8b 3d eb 49 2d 3d 56 e1 6f bc 83 a9 5c 3d
       0.068102546 0.04230682 -0.014641127 0.053872596
0002e0 5e 2d ed bc d4 86 b2 bb 2f a5 2b bc 4a 17 f1 3d
       -0.028952297 -0.0054482017 -0.010476395 0.1177202
0002f0 75 71 64 bd 6c f9 1d 3d 04 74 7a 3d af aa 08 3c
       -0.055772264 0.038567945 0.061145797 0.008341475
000300 01 7a 4a 3b 63 6e 4a 3c 2e f3 14 3d 1f 6a 45 bc
       0.0030895474 0.01235542 0.036364727 -0.012049227
000310 d8 95 cb bc a4 fd 0f 3c d1 40 a2 3c 4a 4a 3e bd
       -0.024851725 0.0087885 0.019806297 -0.046457566
000320 93 bc b8 bc dd f4 44 bd bd ba 51 3c 08 2f 76 3d
       -0.022550857 -0.048085082 0.0128008695 0.060103446
000330 f8 cf 08 3b a8 6b d5 bd 11 ed ae bc 7e e8 04 bc
       0.0020875912 -0.104209244 -0.021353276 -0.008112071
000340 33 ad ae 3e bc c7 9e 3c 52 51 38 39 16 03 49 bc
       0.34116516 0.01938235 0.00017577902 -0.012268802
000350 54 3f a3 bc 2c c1 78 be 85 b1 bd bb 8f 8a 96 3c
       -0.019927658 -0.24292439 -0.0057889842 0.018376617
000360 e2 a8 2c bd dd a6 8a bd 0b 21 70 3d 50 c1 c8 bb
       -0.042153247 -0.06770108 0.058625262 -0.0061265603
000370 3b eb 8c 3c df de f3 bc e7 14 77 bd 8a 99 17 be
       0.01720201 -0.02976936 -0.06032267 -0.14804664
000380 86 98 06 bd c8 4e 56 3d ef b9 80 bd 60 ca 86 3e
       -0.0328603 0.052321225 -0.06285464 0.26326275
000390 8c 45 39 3c 66 eb c1 bb 00 20 e7 3d ec 0f de bd
       0.011308085 -0.0059179543 0.112854004 -0.108428806
0003a0 43 66 91 3b b9 57 56 bd 87 8c 7f 3d 24 5f ad bb
       0.0044372394 -0.052329753 0.062389877 -0.0052908827
0003b0 0d 30 3a 3c 96 13 2d 3a 4f fa aa 3e cf 1b 74 3c
       0.011363995 0.0006602345 0.33394095 0.014899208
0003c0 33 61 d2 3d ab 97 27 3c 0f 99 ac 3c de d9 96 3c
       0.102724455 0.010229032 0.021069078 0.018414434
0003d0 0b 86 81 3a 1a c9 db 3b bf 30 37 bc 39 14 8a 3e
       0.0009881867 0.006707323 -0.011181056 0.26968554
0003e0 2d 21 73 3d 41 11 83 be e0 a1 42 bd 60 a5 db bc
       0.05935781 -0.255991 -0.047517657 -0.026812255
0003f0 cb ec 0f 3e 0a 48 98 3c 81 7b 82 bd ef 7f d4 ba
       0.14055173 0.018589038 -0.06371213 -0.0016212444

autoencoder.encoder.3.bias f4 [100]
000000 37 0b c5 ba 0e cb 2b bd df 07 b8 3d 3d 23 c2 3d
       -0.001503325 -0.041941695 0.08985876 0.094793774
000010 cb 43 2f bd c1 56 23 be d6 ca 33 bb ef bd 4a ba
       -0.04278926 -0.15951063 -0.0027434132 -0.0007733991
000020 c2 f2 f6 3d 95 5f 46 3a e1 d8 a4 3d e7 4e 81 3c
       0.12058021 0.00075673434 0.08049179 0.015784694
000030 3e 7a 89 bd 32 0f 67 3a 91 e8 90 3b 89 42 05 bb
       -0.06712769 0.0008814215 0.0044222553 -0.0020333847
000040 ef 3a 0e 3d 92 56 8e 3d 0b 9d 4d 3d 69 1e 1b be
       0.034724172 0.06950106 0.050198596 -0.1514832
000050 bf 5a 14 3e 3a 30 b7 3a 0b 12 d6 ba f0 4b 27 3d
       0.14487742 0.0013976165 -0.0016332282 0.040843904
000060 4f e2 d7 3a 04 9b c8 bb 26 16 3c 3b 1d ce 41 bb
       0.0016470643 -0.006121995 0.0028699725 -0.0029572316
000070 7f 0c e4 ba c9 c0 8e 3c df ca 69 bb fa 02 27 3b
       -0.0017398744 0.017425912 -0.00356739 0.0025483952
000080 b9 48 f6 3d 0e 2c d7 3d 3e 3b 11 bb b2 f4 83 3d
       0.120255895 0.1050645 -0.0022160555 0.06443156
000090 ad 4c 2b be 2a d2 34 ba fe 65 95 39 6a a6 25 ba
       -0.16728468 -0.0006897772 0.00028495485 -0.0006319048
0000a0 b6 ea 16 be dc 59 d1 ba 39 73 1a 3d 3c 69 f2 ba
       -0.14737973 -0.0015972215 0.03770754 -0.0018494497
0000b0 a9 40 58 3c 54 10 22 bc c6 22 cb 3b 09 f9 00 bb
       0.01319901 -0.009891588 0.0061992137 -0.0019679687
0000c0 3e 0b 9e 39 a5 36 9a bd 11 0e 9b bc ff 16 f9 ba
       0.00030144484 -0.07529954 -0.018927606 -0.0019004046
0000d0 8d e4 49 bd 5a 40 16 bd 01 4f 0f 3e 04 99 01 3d
       -0.04929023 -0.036682464 0.13994981 0.031640068
0000e0 17 62 83 bd 3d 26 0d be 9f 48 25 bb 00 23 33 bd
       -0.064151935 -0.13784118 -0.0025220287 -0.04373455
0000f0 49 f1 73 3d 08 5d c8 ba 5f 13 54 3e 8f cf a8 3d
       0.05955628 -0.0015286515 0.20710514 0.08242714
000100 8f ad 39 3d 4e 83 49 ba e6 c2 06 bb 4f fa 4f be
       0.045331534 -0.00076871074 -0.0020562946 -0.20310329
000110 28 10 2c bb 8e e5 5c 3d 29 b1 66 3d d2 8f ba bc
       -0.0026254747 0.053929858 0.056321297 -0.022773657
000120 3e 14 8f 3a d3 c6 25 ba 17 8d 91 bb 7e 01 dc ba
       0.0010916067 -0.00063238776 -0.004441868 -0.0016785113
000130 c5 35 c3 3d 2a 12 de ba 84 19 23 be 35 53 d3 bc
       0.0953174 -0.0016942669 -0.15927702 -0.025796512
000140 cd ca 8d 3b d3 5e a2 bc 89 7e 2d 3c 42 26 5c 3c
       0.0043271543 -0.019820606 0.01058925 0.013436856
000150 b2 8c 1d bd 81 7a fc bd 5d ea de 3d 96 fe be ba
       -0.038464256 -0.12328053 0.10884545 -0.0014571722
000160 c8 b6 05 be e1 9e c2 bd 4d a7 c3 bd e6 aa 23 3a
       -0.13058007 -0.0950296 -0.095533945 0.00062434224
000170 b2 fa b7 bc 24 5d b0 3a c8 0a 02 3e 2b d5 dc bc
       -0.022458408 0.0013455492 0.12699425 -0.026957115
000180 c6 bc 3f bc 7b 32 0e 3d 9b 4b b5 be 82 36 21 bd
       -0.011702722 0.03471611 -0.35409245 -0.039358623

autoencoder.encoder.5.weight f4 [100, 100]
000000 51 ef 67 bb 45 59 d8 3a 43 5d cf bb e4 ab 34 3c
       -0.0035390446 0.0016506097 -0.0063282563 0.01102731
000010 f9 69 af 3b e8 13 73 bb b5 bd 24 3b 9f 75 9b bb
       0.005353209 -0.0037090722 0.0025137488 -0.004744246
000020 40 fc 84 3a 83 56 a2 3b cc f1 99 bb 0f 28 71 3b
       0.0010145977 0.0049541607 -0.004698014 0.0036797558
000030 51 56 68 3a b1 e2 dc 3b b2 02 a9 ba de 7c 5f 3a
       0.000886296 0.006740891 -0.001289448 0.00085253816
000040 a6 ab 05 bb 32 f9 32 3b b8 1a 8a 3b 1b 2a 1d bb
       -0.00203965 0.0027309177 0.004214611 -0.0023981396
000050 18 18 d0 3b 4d 3d c5 3b 65 93 76 bb a6 b8 01 3c
       0.0063505284 0.0060192705 -0.0037624475 0.007917559
000060 19 ce 2a ba f4 0e 12 ba a8 d3 ad ba d5 8b 76 3b
       -0.00065156963 -0.0005571686 -0.0013261931 0.0037619967
000070 c0 74 bd ba 7f a5 b7 bb 25 cc 1f 3a 70 3c 37 ba
       -0.001445435 -0.0056044455 0.00060957886 -0.0006989902
000080 71 c7 cf 37 04 c4 36 3a 64 50 24 3b 24 52 fe bb
       2.4769195e-05 0.00069719576 0.002507233 -0.007761257
000090 22 3f 92 3c fe 79 f2 ba 35 cf 97 3b 50 a6 68 3a
       0.01785237 -0.0018499491 0.0046328553 0.000887488
0000a0 97 9b 18 bc 9e 7c a3 bb 82 f9 d9 ba 09 0d 4e 39
       -0.009314439 -0.0049892208 -0.0016630145 0.00019650547
0000b0 61 1a 08 bc 0b 33 25 3c 6b 49 32 bb bb 63 a1 bb
       -0.0083070705 0.01008297 -0.0027204405 -0.004925219
0000c0 35 a8 c4 3b 04 ba 06 3c 2d c7 4a bc af b9 55 3a
       0.006001497 0.0082230605 -0.012376589 0.0008152974
0000d0 cd 93 e8 bb 3d 6a 12 3a 7b 9a 85 3a 93 22 cf ba
       -0.0070976974 0.0005585289 0.0010193133 -0.0015803151
0000e0 96 b1 d1 bb 59 a6 30 3a 58 87 60 3a b3 14 8d 39
       -0.0063993437 0.0006738655 0.00085650897 0.00026909038
0000f0 53 8b f1 3b 5a d3 2d bb 2c ef 63 3b 07 9b ab ba
       0.007371345 -0.002652368 0.0034780009 -0.0013092466
000100 05 4e ed 39 73 68 93 bb 34 2f 26 39 32 44 da 3b
       0.00045262292 -0.0044985353 0.00015848578 0.0066609615
000110 91 de 88 ba 89 db 8b ba 60 12 97 3b 84 48 25 bc
       -0.0010442307 -0.0010670285 0.004610345 -0.01008809
000120 e5 d3 8c ba d0 f2 92 bb ac 76 6b 3b 10 34 08 ba
       -0.0010744302 -0.004484512 0.0035928888 -0.0005195746
000130 ca be 9d 38 f9 e7 7c 3a 1a 5a 6b 3a 6d 51 17 bc
       7.5218806e-05 0.0009647604 0.0008977965 -0.009235722
000140 a4 58 d6 ba 0f 05 b1 3a 3a c9 85 bb d4 ab 4d bc
       -0.0016353321 0.0013505536 -0.004082826 -0.012553174
000150 96 0f 75 bb cf a2 9a 3a ee 78 9b 3a 03 85 27 39
       -0.0037393323 0.0011797788 0.0011861601 0.00015975912
000160 3a a5 bf ba 22 6a 12 3b f3 0d db b9 54 7b 09 3b
       -0.0014621385 0.0022341092 -0.00041781328 0.002097805
000170 b1 17 0d bb 9c 64 ad 3b 78 77 32 bc 3d 35 cc 3b
       -0.0021529014 0.0052915346 -0.010892741 0.0062319324
000180 23 ec 06 ba 0f d4 de 3a 37 d1 60 b9 7e 08 0f 3b
       -0.00051468814 0.0017000454 -0.00021440243 0.002182513
000190 d4 0f 9b 3b 73 23 96 3d 6b 44 7d 3d c8 2a 19 3e
       0.0047321115 0.0733098 0.061832827 0.14957726
0001a0 80 f2 81 bc 7d 16 8c 3d 71 38 67 3c 73 17 af 3b
       -0.015862703 0.06840227 0.014112578 0.0053433715
0001b0 9a 2c ae 3c 04 b1 45 bb d0 f7 10 be 12 59 19 bc
       0.021261502 -0.0030165324 -0.14157033 -0.009359615
0001c0 5d 98 be bc 82 1d c6 bb 6d 68 ff bb 71 69 fa bb
       -0.023266012 -0.006045998 -0.007794431 -0.007641964
0001d0 3a 36 f4 3b 27 98 6b bc 8e 32 d3 be 78 a1 88 bd
       0.0074527534 -0.014379538 -0.41249508 -0.06671423
0001e0 4a bb 07 be 0c 31 4e bb 01 3a ea 3b e1 a3 09 be
       -0.13255039 -0.003146234 0.007148028 -0.13441421
0001f0 67 36 0d bc 1c 7f a1 3d 7c 20 d0 bb 85 3c 02 3c
       -0.008618928 0.07885572 -0.0063515287 0.007948999
000200 36 e1 59 3b d9 e9 34 bd 0d d4 5c bc 70 c7 09 bc
       0.0033245808 -0.044168327 -0.013478291 -0.008409366
000210 1c 72 13 bd 41 d3 45 3d 0c 62 8b 3b 8e 85 28 bd
       -0.035997495 0.04829717 0.0042536315 -0.041142993
000220 d9 34 b3 bd 7b a2 bd 3b 30 22 27 3c d8 82 a8 3b
       -0.08750314 0.0057871914 0.010201022 0.005142551
000230 9d b3 36 3e 84 ee c1 3b c8 fb a2 be 85 42 07 3c
       0.17841955 0.005918326 -0.3183272 0.008255606
000240 76 65 f9 bd fa eb 43 3e f0 eb 2b bc ec bc cb 3b
       -0.12177555 0.19132987 -0.010493264 0.0062175896
000250 b5 51 d8 bb d0 f5 0c bb 6d 8c 9a bc 55 be 84 bc
       -0.006601537 -0.002150882 -0.018865788 -0.016204039
000260 f6 64 83 3d 6a e1 bf 3d 11 3c 85 3d fd 9a d4 bc
       0.06415741 0.09369166 0.065055974 -0.02595281
000270 ef a3 51 be f3 3d b8 3d c1 0c 26 3c 1b af 93 bb
       -0.20472692 0.08996191 0.010134877 -0.004506958
000280 26 36 a3 3c 99 30 67 3b d3 f9 eb 3d 8b b9 de bd
       0.01992328 0.003527677 0.115222596 -0.10875233
000290 b6 29 36 3d a6 fe 91 3b 0c 94 fd 3b 34 04 b5 3d
       0.044473372 0.0044554053 0.007738596 0.08838692
0002a0 e0 af 97 3a 31 de ed 3d ac 58 fc bd 44 d5 54 be
       0.00115728 0.11614645 -0.123216 -0.2078448
0002b0 0c 7d 62 bc 5f f4 8c 3b b6 82 61 3c a9 e4 99 3b
       -0.013823759 0.0043015922 0.013764074 0.004696448
0002c0 23 c1 0c be 6f d0 17 3c 43 04 31 3e 26 c5 a3 bd
       -0.13745551 0.009266003 0.17286782 -0.079965875
0002d0 81 cd 08 bc b0 05 13 bf 1d 72 68 bd 45 71 19 3d
       -0.008349777 -0.57430553 -0.056749452 0.037461538
0002e0 73 aa 61 3b 38 ee 06 3d 2e bf cf 3d fb 11 50 bc
       0.003443387 0.032942027 0.101438865 -0.012699599
0002f0 47 8f 99 bd e4 28 58 3e cf a6 18 3e be cf 27 bc
       -0.07498031 0.21109349 0.14907382 -0.010242401
000300 9f e6 2b 3e cb 7a 10 bc 69 94 f4 bc 5e 5d 1e 3b
       0.16787194 -0.008818339 -0.029855924 0.0024164538
000310 8e 21 ea bd 65 e7 86 bc c9 5b b6 3c 4e ff 78 bd
       -0.11432181 -0.01646776 0.022260563 -0.060790353
000320 cd 7d 43 3c eb 6d 66 bc d7 67 c9 b9 e1 0f e9 3d
       0.011931849 -0.014064292 -0.00038415074 0.11379982
000330 67 05 1c 3d e7 a7 ce 3d dc 37 c5 3b ec 21 e8 3b
       0.03809109 0.100906186 0.006018622 0.007084122
000340 14 8a dc bd 0a fb 73 3b 50 5d 3a be d3 98 ac bb
       -0.10768524 0.0037228488 -0.18199658 -0.0052672415
000350 ec 28 17 3d 1e ed 81 bb 82 3c be 3a ea 6c 2c 3c
       0.03690426 -0.003965034 0.0014513882 0.010524014
000360 14 9a 8e 3d 6a 93 fb bd af 2e 9d 3d bc 90 29 3e
       0.06962982 -0.122839764 0.0767492 0.16559118
000370 31 45 aa bc 02 a4 09 bc 31 74 11 3c cc 79 0f be
       -0.020784946 -0.008400919 0.0088778 -0.14011306
000380 08 0d 0e 3b 65 5f 98 bc 00 49 a2 b9 8b 07 1d ba
       0.0021675248 -0.018600175 -0.00030953437 -0.00059901987
000390 eb 57 f1 3b 7e 93 85 3d 00 c4 2e 3d 4d 1c ea 3a
       0.007365217 0.065222725 0.04266739 0.0017861217
0003a0 a2 e0 51 ba a6 aa 07 3d 6c b2 f6 ba 3c 62 22 be
       -0.000800619 0.033121727 -0.0018821484 -0.15857786
0003b0 a6 09 14 3d 4b 5d ec 3b 6b 95 b9 bb 6c 49 1e 3c
       0.036142014 0.00721327 -0.005663564 0.00966106
0003c0 8d f1 c3 bd 27 65 1b 3c 22 f8 2d be 12 d7 8a ba
       -0.095675565 0.009484566 -0.16989186 -0.001059266
0003d0 d4 f6 a7 bd 24 53 ec 3c 0c 90 c2 bb fd 5b 2a 3c
       -0.082013756 0.028848238 -0.005937582 0.010397908
0003e0 15 e6 e4 bb 49 d7 0b 3e b1 f9 0b 3d 3d ff e4 3b
       -0.0069854357 0.13656344 0.03417367 0.0069884346
0003f0 5f 5d 94 3d 04 9e d5 bd 42 2f ca bb 3f f1 ac be
       0.072443716 -0.1043053 -0.0061701844 -0.33777806

autoencoder.encoder.5.bias f4 [100]
000000 35 ad cd ba ff e7 4c bd de 39 46 bd b5 2d 5b b9
       -0.0015691879 -0.050025936 -0.04839503 -0.00020902495
000010 f6 65 a1 3d 51 ec f6 ba e7 fb ff 3d de 47 0d bb
       0.07880776 -0.0018838738 0.124992184 -0.0021557729
000020 51 08 c2 bd a6 d0 90 ba 92 06 e5 39 cc e5 fa 3d
       -0.094742425 -0.001104851 0.0004368318 0.122508615
000030 6f 53 cf 3b 40 34 12 bc 1b cf a0 bd 26 c1 46 bb
       0.0063270847 -0.00892359 -0.07852002 -0.0030327528
000040 65 c1 43 bd 73 c8 6a bb 70 22 16 bb 04 fc ea b9
       -0.047791857 -0.0035825043 -0.002290871 -0.00044819724
000050 71 19 6b bd d1 44 94 3a d5 b1 3d bb 32 82 24 ba
       -0.05739731 0.0011312013 -0.0028945107 -0.0006275504
000060 11 68 d6 3c 18 3a f6 3c be 0f c8 bc 45 7d 67 3a
       0.02617267 0.030056998 -0.024421569 0.00088306173
000070 07 7e 3b be 10 45 5c be 1e 1d de 3a f9 3f 13 3d
       -0.18309794 -0.2151072 0.0016945933 0.03594968
000080 df b9 a4 bd 4f 9a 3c 3b fa a3 57 3b 7e df 13 3a
       -0.080432646 0.0028778499 0.0032904134 0.0005640908
000090 72 12 7f 39 42 78 8d bd 67 aa 48 3a 09 54 3b 3e
       0.00024325566 -0.06907703 0.00076547865 0.18293776
0000a0 40 16 29 ba 88 f7 45 3e 8f 8b 80 bc 1c 69 9c bb
       -0.0006450154 0.19332707 -0.015691547 -0.004773272
0000b0 37 ed 94 3d a8 bb 3b b9 8e 99 81 bb 73 78 3d 3e
       0.07271808 -0.00017903617 -0.0039550727 0.18502979
0000c0 16 a3 da 39 6f d4 fc b9 17 2f 37 3d f9 82 41 3b
       0.0004170171 -0.0004822346 0.044722643 0.0029527529
0000d0 4a 7e 62 bd 27 40 b5 bb 8b bd 9b b8 97 fa 0c ba
       -0.05529622 -0.005531329 -7.426281e-05 -0.0005377917
0000e0 61 7e 30 ba 04 d5 c8 ba cd 49 ba 3d cb b9 d0 ba
       -0.0006732699 -0.0015322273 0.09096108 -0.0015924511
0000f0 1e c9 40 bb 42 43 05 3b 4f 53 87 b9 4d 09 1d 3e
       -0.002941675 0.0020334278 -0.00025811276 0.15335579
000100 7c 56 82 3a 35 fe a4 bb 0f 10 43 be 43 ea b4 39
       0.0009943987 -0.0050351867 -0.19049095 0.00034506814
000110 56 40 88 3d 50 d0 07 3b ec 6d 4f bb 97 f8 bb ba
       0.06652896 0.002072353 -0.0031651212 -0.0014341053
000120 e4 fb 8a bd e8 6f 92 bb 4a 02 d6 bd 93 44 26 3c
       -0.067863256 -0.0044689067 -0.10449655 0.010148185
000130 77 94 b6 bb ce cd 27 bb fb 3a d5 3d ed 8f 87 3b
       -0.0055718976 -0.0025604847 0.1041164 0.0041370303
000140 32 da 6d 3a 12 6a 3a bb 0a c1 48 bb ea 11 8a bb
       0.0009073346 -0.002844457 -0.0030632638 -0.0042135613
000150 bf da e1 3a 55 3b 72 bb 52 1d 4c 3b 5f d3 00 3a
       0.0017231329 -0.0036961634 0.0031145406 0.0004914309
000160 72 36 28 3b 9f d2 b4 3a 9f 6b e4 bb 23 1f 69 35
       0.0025667218 0.001379568 -0.0069708372 8.6844574e-07
000170 a2 e7 fc ba 3c 67 75 ba 6c 73 ab 3a bd 45 37 3c
       -0.0019295106 -0.00093613914 0.0013080663 0.0111860605
000180 e9 2f 55 ba 05 ce f9 bd 79 4c 48 3b 81 80 6d ba
       -0.00081324443 -0.12197498 0.003056316 -0.0009059981

autoencoder.encoder.7.weight f4 [100, 100]
000000 c1 db 31 3b a8 e7 8d be ab db 82 bd f6 39 00 bb
       0.002713904 -0.27715802 -0.063895546 -0.0019565797
000010 4e 27 35 be 83 ae 9d ba c4 fb 5f 3d 0c ef 13 3b
       -0.17690775 -0.0012030158 0.05468346 0.0022572903
000020 34 96 97 bd ef 29 0b 3b b2 ee e3 3a 38 db 52 bd
       -0.07401696 0.0021234711 0.0017389862 -0.051478595
000030 39 46 84 3c c7 b0 6b bc a1 9a 79 bd b3 89 06 3b
       0.016146766 -0.014385409 -0.06093848 0.0020528852
000040 9b a3 b1 3c 17 2b ee 3a be c5 be 3a d7 91 dc 3a
       0.021684458 0.0018170801 0.0014554781 0.0016828132
000050 8c 4e 3e 3e 01 68 01 ba 94 c5 02 ba ea 3f ae 3a
       0.18584651 -0.0004936457 -0.0004988548 0.0013294194
000060 8e 22 94 bd c1 17 dd 3c 64 f5 e3 3c 29 27 0e bb
       -0.07233153 0.026988866 0.027826972 -0.0021690822
000070 a0 b0 e5 bc e4 4f 92 bd 51 03 72 ba 93 f9 32 bd
       -0.028038323 -0.07144144 -0.00092320616 -0.043695044
000080 51 8a f5 bd d9 9d 06 3a 88 ae b4 39 65 e0 25 bb
       -0.119892724 0.00051352155 0.0003446231 -0.0025310752
000090 07 bc 82 bd 4e f8 3a bd a7 cb 18 bb c8 60 0b ba
       -0.063835196 -0.045646958 -0.0023314746 -0.0005316851
0000a0 aa d2 d1 3a 55 48 87 3d 74 e6 a2 bd f2 e8 a8 3a
       0.0016008217 0.06605593 -0.07954112 0.0012886806
0000b0 c5 97 16 be 31 31 2d 3b 66 08 23 3a 63 82 d5 bd
       -0.14706333 0.0026427025 0.0006219208 -0.1042526
0000c0 a5 64 06 bb 56 ad 7e b9 ee a6 03 bf 16 c8 e5 ba
       -0.0020506766 -0.000242879 -0.5142659 -0.0017530944
0000d0 30 2e 33 3e 88 4f e2 ba 91 22 7b 3a b0 d1 ae ba
       0.17498088 -0.0017266134 0.0009580041 -0.0013337638
0000e0 3b 1f 9a ba 5c 95 03 3b 7a eb f3 bd 70 7b 25 39
       -0.0011758575 0.0020078039 -0.11910148 0.0001578161
0000f0 bf aa 1a 3a 16 a5 a2 b9 c4 54 f5 39 b6 73 9c 3d
       0.0005900077 -0.00031022046 0.00046793197 0.076392576
000100 bd bf 0b 3a 15 f6 de 38 26 b3 36 bf 96 51 5e b9
       0.00053310004 0.00010631621 -0.7136711 -0.00021201963
000110 b9 4f 43 be ad af 9a 3a 74 1e 8f 39 56 c2 07 ba
       -0.1907338 0.0011801623 0.00027297775 -0.00051787996
000120 32 a0 c8 3d 5c e3 16 3b 64 6c 9e bd bb 78 a7 bd
       0.0979618 0.00230237 -0.077355176 -0.081773244
000130 c5 f8 13 be 4a 8a 2b 3b 60 2b 25 be b4 46 9b ba
       -0.14450367 0.0026174956 -0.16129827 -0.0011846633
000140 f3 fc 75 3a 6d f8 eb 3a d1 d8 2c b9 aa 1c 61 ba
       0.00093837007 0.0018003114 -0.00016483969 -0.000858734
000150 51 5d 49 ba 7b 5c 65 3a 0f 95 13 bb 48 cf 93 ba
       -0.0007681447 0.00087494374 -0.0022519266 -0.0011276985
000160 ce 1e 4f ba 0f fe 98 ba 29 d0 1c be 73 15 49 3a
       -0.00079010136 -0.0011672395 -0.15313782 0.00076707377
000170 9b 90 fb 3a bc 2d d1 3a 79 a4 14 3a 55 c7 3b be
       0.0019192876 0.0015959064 0.000567026 -0.18337758
000180 05 c2 95 3a 05 26 84 3d e6 46 db 38 46 7a a2 ba
       0.001142562 0.06452564 0.000104559396 -0.001239606
000190 1e 4f 8f 3a 91 12 6b bb e0 92 9c bd 6a ce cb 3a
       0.0010933613 -0.003586922 -0.07645202 0.0015549187
0001a0 85 7a 73 bd 3d 73 23 3a 2d 3a 8f bc 33 71 f2 3a
       -0.059443016 0.00062351284 -0.017483795 0.0018496871
0001b0 6f 3d ea bc cd 4e e7 b9 de 90 3f 3a 05 b3 c8 bb
       -0.028593747 -0.00044118465 0.00073076587 -0.0061248564
0001c0 6f 90 b8 ba 53 9d 2d 3d 53 05 5f 3c 36 ed fa 39
       -0.001408113 0.042386364 0.013612109 0.00047860452
0001d0 3e aa 42 3c 44 25 82 3a 60 fd c7 b9 fe 7d 03 bb
       0.011881409 0.0009929319 -0.00038145017 -0.002006411
0001e0 8c 34 af bc e0 ac d5 39 2e 55 6e 39 82 3a a1 b9
       -0.021387361 0.00040755328 0.0002272918 -0.00030751905
0001f0 d8 06 41 bd 97 d0 10 3c 0c e0 8e bc 84 ed 89 39
       -0.047125667 0.008838794 -0.017440818 0.0002630764
000200 74 6e 87 3c ca 8f a4 bb ba a5 3e ba 47 10 2c bc
       0.01653216 -0.005022024 -0.000727262 -0.010501928
000210 4f 5b bb bd d9 84 8f 39 9a af 11 b9 1b 01 d7 b9
       -0.09148275 0.00027374065 -0.00013893694 -0.0004100882
000220 3e de f1 3c f4 60 90 bc 1f fa 82 37 6c b9 fc bc
       0.029524919 -0.017624356 1.561368e-05 -0.030850135
000230 21 f9 77 39 3b a8 85 bd 1c 52 ee 3a 0c 89 a7 3a
       0.00023648563 -0.06526228 0.001818243 0.0012781932
000240 00 c0 56 bd 5f 9d 06 ba 09 94 43 3a 43 3b 14 bd
       -0.0524292 -0.00051351445 0.00074607186 -0.03618933
000250 ea d2 ce b9 89 ec 9a 3a 06 df b8 bd ca 22 06 bb
       -0.00039448525 0.001181976 -0.09026913 -0.0020467513
000260 d9 b9 bd 3b 6d 00 d6 3a 7f 18 e7 b9 94 65 0b 3a
       0.005789977 0.0016327031 -0.00044078004 0.00053175655
000270 99 62 80 3a a7 b7 b0 b8 c1 b6 f0 bc d1 4c ea 39
       0.0009795009 -8.426542e-05 -0.029384019 0.0004468919
000280 87 c2 39 3a 96 1f 65 ba eb 30 d6 3a d2 a4 dc bd
       0.0007086177 -0.00087403634 0.0016341483 -0.107736245
000290 62 5f cd 3a b6 d3 e7 3a 10 46 b5 bd 98 6b c2 b9
       0.0015668685 0.0017686996 -0.08851254 -0.00037082727
0002a0 90 34 9c bc a9 1f 7c ba aa 2a b1 3a f1 9f c4 3a
       -0.019068033 -0.0009617755 0.0013516743 0.001500128
0002b0 d6 05 5a 3d a5 7e cf 3a 87 17 fd bc c9 23 ab bd
       0.05322822 0.001583059 -0.030895008 -0.08356435
0002c0 d5 76 92 bc 2c 44 13 3b 37 39 62 bd 5f 02 5a b8
       -0.01787893 0.0022471054 -0.055230346 -5.197746e-05
0002d0 54 2a 0b bb 0a d3 18 3b 02 b3 c2 3a c5 ae d0 3a
       -0.0021234946 0.0023319148 0.0014854374 0.0015921226
0002e0 39 64 11 b9 7e 32 5d 3a f8 f2 91 ba da 80 86 3a
       -0.00013865613 0.0008438005 -0.0011135032 0.001026179
0002f0 2b 0a 47 3a d5 f8 75 ba 0e e0 db bc a7 21 52 ba
       0.00075927627 -0.0009383087 -0.026840236 -0.0008015879
000300 1f b1 7b 3a 39 bd 0c 3a f7 e3 c6 38 27 58 a8 3a
       0.0009601283 0.00053687725 9.4838375e-05 0.0012843654
000310 ba 7f ca 39 62 f3 d3 bd c3 72 25 3a 74 1e 93 3a
       0.00038623606 -0.10349156 0.00063113513 0.0011224286
000320 ea 31 e7 3a ef af 8e 3c 48 3b 81 bc 10 aa eb ba
       0.0017638777 0.017417876 -0.015775338 -0.001797976
000330 ac 12 5e bb 37 4f 64 ba 01 10 ea 3c 50 1f dc 37
       -0.003388564 -0.00087093137 0.028572084 2.6240625e-05
000340 5c d1 78 3c 69 07 0f b9 87 12 84 ba d8 f0 0a bc
       0.015186634 -0.00013640303 -0.0010076322 -0.008480273
000350 a1 19 98 3c 35 a4 d0 b9 0e 42 9a bc c6 27 a7 ba
       0.018566908 -0.00039795195 -0.018830325 -0.0012752942
000360 d1 d0 b9 bc 01 9a c5 b9 ea 83 ee b9 f0 eb 59 3b
       -0.02268258 -0.0003768951 -0.0004549318 0.0033252202
000370 1e e5 71 3d 4f ec 3c 39 01 96 a6 ba 3d bd 4b 3a
       0.059056394 0.00018017109 -0.00127095 0.0007772034
000380 13 eb 1e bd 4d 21 b8 b9 f0 49 31 bd 6e 4a cd ba
       -0.038798403 -0.00035120026 -0.043283403 -0.001566244
000390 68 66 41 bd a7 53 06 3d d3 63 78 3a 73 2a a0 3a
       -0.047216803 0.03279462 0.0009475324 0.0012219682
0003a0 7e 47 45 bd 82 25 4c 38 16 87 58 38 40 09 22 3a
       -0.048163883 4.8672322e-05 5.162422e-05 0.0006181188
0003b0 ab d1 5a ba d9 1c 19 bc f0 74 31 3a 82 71 60 3d
       -0.0008347283 -0.009345257 0.0006769439 0.05479575
0003c0 0f bf a4 3a ca 29 63 3d 9d 7a e7 bc 99 b2 87 39
       0.0012569147 0.055459775 -0.028256709 0.00025882272
0003d0 4e 81 bd bc 9b 57 c3 3a 3c e9 4a ba 35 40 82 3b
       -0.023132946 0.0014903428 -0.0007740443 0.003974939
0003e0 b4 06 8a 39 b3 cf 33 ba d1 ab 43 be f7 56 69 3b
       0.00026326405 -0.00068592577 -0.19108512 0.0035604814
0003f0 51 60 0b bd 0c 4a 00 ba 00 00 ae 3a 2e dd cb ba
       -0.0340274 -0.00048938463 0.0013275146 -0.0015553588

autoencoder.encoder.7.bias f4 [100]
000000 d4 bd b6 bd 2a a0 b9 bd 52 ba f5 bb 15 d9 a2 bc
       -0.089229256 -0.09063752 -0.0074990178 -0.019878903
000010 9e 02 14 3b 14 67 fd 3d ba 07 e5 b8 3c d7 a0 39
       0.0022584568 0.12373176 -0.0001092101 0.0003067794
000020 34 ae b5 bd 07 eb b9 38 54 10 69 bd 41 6f e9 3d
       -0.08871117 8.865265e-05 -0.056900337 0.11398173
000030 8b 0e 7f 3a 81 14 2e bb d5 a2 31 bc 88 af b2 bb
       0.0009729645 -0.0026562514 -0.010842045 -0.005453054
000040 78 84 af 3c 58 fa f4 3a f5 f5 63 3a e2 c7 d7 3d
       0.02142547 0.0018690331 0.0008696013 0.105361715
000050 4a a3 a7 3d c2 37 04 3e d3 19 c6 3d a4 e2 98 3b
       0.08185442 0.12911895 0.09672894 0.0046656895
000060 42 d3 fd ba ef f4 a9 bd 4f 44 23 3d ac 8b a2 39
       -0.0019365328 -0.082986705 0.039860066 0.00031003112
000070 01 5d 91 bd 41 70 4d 39 76 ae e9 3d a6 f6 6f bd
       -0.07097817 0.00019592141 0.11410229 -0.05858483
000080 18 8d 36 3b c1 7a cd ba 90 3f d2 bd 08 05 b5 3d
       0.0027855095 -0.0015676842 -0.1026603 0.0883885
000090 8e af 33 3a 14 2c fc ba 03 88 0f bb be 35 ae bd
       0.0006854468 -0.001923921 -0.0021901138 -0.08506344
0000a0 3a 92 7b 3a de c9 46 bd 51 0f d4 37 bf cd 11 3b
       0.00095966796 -0.04853236 2.5279502e-05 0.0022247878
0000b0 df 5b 3c 3d 77 c1 38 bd 0e 54 a8 39 64 33 d3 bd
       0.045986053 -0.045106377 0.00032106083 -0.10312536
0000c0 9c 9f 05 bb 74 6e 0d 3b 4f 0e a5 bd 9a de 0c bc
       -0.0020389324 0.0021580728 -0.0805937 -0.008597994
0000d0 8a 8d ec 3d 3b 1b 18 39 86 d4 52 3d 33 2b 39 3c
       0.11550434 0.00014505994 0.05147221 0.011301803
0000e0 69 65 14 3e fe 18 94 bd 3d d0 db 3d 9c 47 04 3b
       0.1449181 -0.072313294 0.10733078 0.0020184284
0000f0 4a 91 78 bd 03 85 aa ba 8b 99 4d 3d 1a 11 1e 3b
       -0.060685433 -0.0013009611 0.050195258 0.002411908
000100 9d b8 94 bc 57 b7 a2 bd f1 02 e6 b9 85 2d 02 bb
       -0.018154437 -0.079451256 -0.0004387121 -0.0019863558
000110 c5 28 94 3a c6 be 91 3d a2 4b 16 be 63 8e 55 bd
       0.0011303654 0.07116465 -0.14677289 -0.052137744
000120 33 a3 59 39 7f 05 a0 bd 16 0f 3f 3a d6 f5 ec 3d
       0.00020755529 -0.07813548 0.000728832 0.11570327
000130 30 fc cc 3d 1d ec c3 3d 70 87 c6 bc 35 76 04 38
       0.100090384 0.095665194 -0.024234504 3.158134e-05
000140 64 cc fb 3c f9 86 99 bd 36 7d 98 3d 24 96 35 3a
       0.03073711 -0.07496447 0.07445757 0.0006926975
000150 e2 1d 98 3d 8f 40 0f bd 20 21 5c 3a 26 8f a4 bc
       0.07427575 -0.034973677 0.000839727 -0.02008779
000160 b8 c7 83 bd 37 e4 5c bd 00 da 8c bd 0c e1 84 bd
       -0.06434578 -0.05392858 -0.06877518 -0.06488237
000170 07 6c a9 3d 3c 22 4d bd f8 df 5c bd cf 34 85 bd
       0.08272558 -0.050081477 -0.05392453 -0.06504213
000180 d4 ae ff ba 9d 43 02 be 8d 97 46 bb 4d 31 b2 bd
       -0.0019507059 -0.12721105 -0.0030302734 -0.0870081

autoencoder.encoder.9.weight f4 [2, 100]
000000 ff 78 b9 3e 38 c4 0a be cf 0c d8 3d ff 23 9d 3d
       0.36225125 -0.13551414 0.10549318 0.07672881
000010 23 0d 30 3a 4b 07 89 3e 77 15 6e b9 c3 68 13 ba
       0.0006715825 0.26763377 -0.00022705445 -0.00056232157
000020 bb c4 32 be 24 b2 3a ba 99 e8 84 be fd 86 0a 3e
       -0.17457859 -0.0007121882 -0.25958708 0.13528056
000030 09 0b 4e 3a 5f ea 4b ba 64 25 bd be 1c cf e8 3c
       0.0007859921 -0.00077787595 -0.3694259 0.02841907
000040 77 cc dc 3b 39 5d 8c 39 e8 ec dd 38 e6 3c 8a 3e
       0.0067382413 0.00026772337 0.000105822284 0.26999587
000050 a0 8c b5 3d 9e f5 01 3f d0 ed 6c 3c 86 91 3a 3e
       0.08864713 0.5076541 0.014460996 0.18219575
000060 5e c7 14 ba 0c b3 2d bd 3e 4e c8 3b 5d c5 37 ba
       -0.000567546 -0.04240708 0.006112843 -0.00070103054
000070 68 11 47 3e f4 78 7b b6 6c 35 1d 3e 0d 28 90 bd
       0.19440234 -3.7472319e-06 0.1535241 -0.07038889
000080 de 6e 8d 3a d5 27 07 bb a4 88 1c be 17 81 88 3d
       0.0010790487 -0.0020623107 -0.152865 0.06665247
000090 2f 88 86 b9 1e b3 7b ba f3 a5 2d ba e3 0a 80 be
       -0.00025659936 -0.00096015807 -0.00066241546 -0.25008306
0000a0 c3 df 1b 3a e7 a6 aa bd e1 e5 a0 39 1c fd 09 3a
       0.0005946124 -0.08332615 0.0003068885 0.00052638515
0000b0 aa 19 ce 3d 82 32 98 3e 19 61 d7 bd e5 db 26 be
       0.10063489 0.29726034 -0.10516567 -0.1629482
0000c0 94 ab 83 ba 83 5f 03 3a d3 84 9c be 80 57 e4 bb
       -0.0010045641 0.0005011486 -0.30570087 -0.0069684386
0000d0 1a 2e 40 be 42 a3 9c ba 9c 99 c8 3e 8f 1c 04 3e
       -0.18767586 -0.001195051 0.39179695 0.12901519
0000e0 14 17 8f 3e f9 47 ec bd 35 6e 51 3e 1c 2a 3b 3a
       0.27947295 -0.11537165 0.20452197 0.00071397587
0000f0 be 52 10 3d 79 2d 82 b9 14 e8 1f be 5d 47 2f 3a
       0.03523516 -0.00024829412 -0.15615875 0.0006686354
000100 e6 da bf 3d 8f d3 a3 be 92 5a 7b ba 5d 0d 45 ba
       0.093679234 -0.31997344 -0.0009588386 -0.0007516945
000110 d1 52 67 38 a6 da 43 3d 32 4d 5f bd 45 70 77 bd
       5.515182e-05 0.04781594 -0.05451698 -0.060409803
000120 41 bf 96 ba 19 51 a2 be 67 77 40 b9 48 e0 33 3e
       -0.001150109 -0.31702498 -0.00018355028 0.17566025
000130 21 20 49 3e cd c4 5c 3d 71 18 b1 3e ba e4 28 b9
       0.19641162 0.05389862 0.3458896 -0.00016106936
000140 a1 3d 90 3d 9e 8a f9 bd 23 b9 9c 3e 47 3e 44 3a
       0.07043005 -0.12184642 0.30609998 0.00074860867
000150 26 0c 53 be 2c 74 71 3e 16 02 f9 b7 3e 2b bd be
       -0.20610103 0.23579472 -2.9684084e-05 -0.36947054
000160 82 7e f9 3e 85 64 4f be 18 79 ac be 7f 65 ce bd
       0.4872933 -0.20253189 -0.33686137 -0.100779526
000170 2b b6 50 3d aa 63 06 bf 18 81 23 be 31 2b 5b bd
       0.05095498 -0.52495825 -0.15967214 -0.053507987
000180 ff c3 00 bb d3 38 15 3e a5 57 c1 b8 74 04 0a be
       -0.0019648073 0.14572458 -9.219282e-05 -0.13478261
000190 59 d7 24 be fc d3 d5 bd 88 3e 88 3d ce df e0 3c
       -0.16097774 -0.104408234 0.06652552 0.027450468
0001a0 d3 75 5f b8 f8 12 a2 3e ac a9 be 37 aa a1 0f 3a
       -5.3277075e-05 0.31655097 2.2728775e-05 0.0005479107
0001b0 08 d5 bc bd a2 80 24 3a 00 8d c3 bd 96 ac ec 3d
       -0.0922032 0.00062752713 -0.09548378 0.11556356
0001c0 1e ea 18 38 ca a7 fc b9 4a 5f 35 3e 5f aa 24 be
       3.6457663e-05 -0.00048190198 0.17712131 -0.16080616
0001d0 74 b6 e6 3b 0a 69 9d 39 7d 16 fd 39 ae bb 89 3d
       0.007040793 0.00030023634 0.00048272675 0.0672525
0001e0 fe 56 23 3e 44 fe c4 be ae 47 5d 3e 2b 3d 77 bd
       0.15951154 -0.3847524 0.21609375 -0.06036107
0001f0 d4 a2 1e b9 fc 2f 4e be 37 6b 0a 3d 5c cd 32 3a
       -0.00015128712 -0.20135492 0.033793654 0.0006820762
000200 8b 3b 0b bf fe bf b9 38 fc 87 7b 3e 84 8a 3a bd
       -0.5438773 8.857249e-05 0.24563593 -0.045542255
000210 05 2d a0 39 eb 3a 82 3a 8a 64 10 be 5d 2b 2c 3e
       0.0003055112 0.0009935772 -0.14100853 0.16813417
000220 66 45 17 3a ee 43 19 b9 f2 db 37 b9 ed 36 b7 bd
       0.0005770534 -0.00014616523 -0.00017534176 -0.08946023
000230 34 05 e2 37 05 fd 81 bd 16 5d ad b8 4d a8 12 3a
       2.6943722e-05 -0.06347088 -8.2666214e-05 0.0005594537
000240 6f e5 59 3e 24 f6 ba bd be 95 40 3e 2b 46 52 be
       0.21278928 -0.09128979 0.18807122 -0.2053458
000250 b2 ff b4 b6 2b e4 c4 36 79 2c fd bd 85 06 9a bb
       -5.394185e-06 5.8678174e-06 -0.12361998 -0.004700484
000260 a4 d8 3f 3e 1b ed 9d b9 77 ed f8 3e 53 ff 0f 3e
       0.18734986 -0.0003012203 0.4861867 0.14062242
000270 38 0a a4 3e 1d 40 6d bd 8b 30 82 3e 44 7e 8a 39
       0.32039046 -0.05792247 0.2542766 0.00026415486
000280 c6 51 5d be 99 75 11 b9 40 a6 c3 3d f5 6f 4a 39
       -0.21613225 -0.00013872086 0.09553194 0.00019305928
000290 8a 00 f2 be 83 da d6 bd 13 f2 fc 39 4d 57 68 38
       -0.47266036 -0.104908966 0.00048245545 5.5394416e-05
0002a0 23 52 01 3a 34 28 0a 3e 1b 2f 1d bf 1b 2b 0a bd
       0.0004933199 0.13491899 -0.614 -0.033732515
0002b0 d3 10 71 3a fa f1 27 be b8 bf 10 3a 39 21 49 3e
       0.00091959274 -0.164009 0.00055217324 0.1964158
0002c0 64 10 e1 3d 24 60 63 3e 8b 52 50 3d 3b 4c ee 37
       0.109894544 0.22204643 0.05085997 2.8407308e-05
0002d0 7a fa 88 3e a9 34 7a bd 06 8f b3 3e 18 23 ee 39
       0.26753598 -0.061085377 0.35070056 0.00045421044
0002e0 88 41 83 3d 86 df ba 3c ba 01 8e 37 85 c2 4c bd
       0.064089835 0.022811662 1.6928523e-05 -0.049990196
0002f0 d5 d1 20 bc 10 eb 75 be 6d b4 d2 bd 0a a6 44 bd
       -0.009815653 -0.2401545 -0.1028832 -0.04800991
000300 8a cf d4 3d bb f7 a4 bd 81 5a 1e be 72 19 f3 be
       0.103911474 -0.08055063 -0.15464212 -0.4748035
000310 0f 89 6b 3a e0 82 f8 be 89 00 a1 b9 1a bc bf bd
       0.0008984962 -0.4853735 -0.00030708712 -0.093620494

autoencoder.encoder.9.bias f4 [2]
000000 ff cb 21 3e b6 c2 84 3e
       0.15800475 0.25929803
