test_runs/8/model_state.pth (torch, 882022 bytes, 20 tensors)

autoencoder.encoder.1.weight f4 [100, 784]
0	0x000cff2c	1.193564e-39
1	0x0005b04e	5.22424e-40
2	0x0005ca22	5.31689e-40
3	0x800e8cc6	-1.336197e-39
4	0x001437dd	1.85675e-39
5	0x8013a58e	-1.804264e-39
6	0x8008a975	-7.95474e-40
7	0x800b88ea	-1.059306e-39
8	0x80027179	-2.24377e-40
9	0x000b0379	1.011436e-39
10	0x000bcacd	1.082942e-39
11	0x800346c2	-3.0089e-40
12	0x39f0bf89	0.00045919072
13	0xbbbaa831	-0.0056963195
14	0xb81de5a5	-3.764559e-05
15	0x36568bfa	3.1969962e-06
16	0x80157876	-1.971759e-39
17	0x00108452	1.516836e-39
18	0x00155802	1.960117e-39
19	0x8004328b	-3.85473e-40
20	0x000b05df	1.012297e-39
21	0x8000967a	-5.3981e-41
22	0x0002c6e0	2.55014e-40
23	0x80110380	-1.562459e-39
24	0x8000369c	-1.959e-41
25	0x80048303	-4.1434e-40
26	0x80008242	-4.6728e-41
27	0x801437e7	-1.856764e-39
28	0x00025157	2.1285e-40
29	0x8015d4b9	-2.004856e-39
30	0x80112591	-1.57468e-39
31	0x000bc975	1.08246e-39
32	0xb0c3f136	-1.4256674e-09
33	0xafccb5f8	-3.723668e-10
34	0x3ac79d5c	0.0015229392
35	0x3b56d133	0.00327785
36	0xba8c418a	-0.0010700685
37	0x3c0a1e9a	0.008430148
38	0x3c50b725	0.012738978
39	0x3c1e8835	0.009676029
40	0x3b5300dc	0.0032196557
41	0x3b0d0592	0.0021518213
42	0x3a061671	0.00051150384
43	0xbabe2986	-0.0014508225
44	0x3a95fe1b	0.0011443527
45	0xb9f6c951	-0.0004707077
46	0x3a8950dc	0.0010476368
47	0x3bdf2b3b	0.0068105734
48	0x3beb5f0b	0.007182961
49	0x3b004870	0.0019574426
50	0x31015180	1.8818298e-09
51	0x305e8f6a	8.0966933e-10
52	0x800d417a	-1.21735e-39
53	0x0001c1bd	1.61336e-40
54	0x800c81d7	-1.148604e-39
55	0x8010d51b	-1.545816e-39
56	0x000e8725	1.334178e-39
57	0x00067a93	5.94984e-40
58	0xa8d89ba9	-2.4048324e-14
59	0x2ecec5cc	9.402931e-11
60	0xb6294bdd	-2.522712e-06
61	0x3a8d58f5	0.0010783958
62	0xbb72a25f	-0.003702305
63	0xbbcf8c73	-0.0063338815
64	0x3a89dc00	0.0010517836
65	0xbb9ed7eb	-0.004847517
66	0x3b918b92	0.004441687
67	0x3c6ead57	0.014567695
68	0x3bba9f3c	0.0056952517
69	0xbb999b99	-0.004687738
70	0xbb23c28a	-0.002498778
71	0xbbe03340	-0.006842047
72	0xbbf33c19	-0.0074229357
73	0x3a8b072b	0.0010606995
74	0x3c06ca8a	0.008227
75	0x3c41b69b	0.011823322
76	0x3ca2c937	0.019871337
77	0x3c51f09d	0.012813714
78	0x3c10700b	0.008815776
79	0x3c2d8136	0.010589888
80	0xbaca1c63	-0.0015419837
81	0x31b2e88d	5.20692e-09
82	0x0013ac08	1.806588e-39
83	0x000e7c41	1.330271e-39
84	0x8010fd6f	-1.560283e-39
85	0x0010ec5f	1.554162e-39
86	0xad2c27be	-9.785893e-12
87	0x3a865da8	0.00102513
88	0x37b159ab	2.11418e-05
89	0x3abcb07c	0.0014395858
90	0xba097c26	-0.0005244635
91	0x3ac068c5	0.0014679661
92	0x3c48f51e	0.012265472
93	0x3c64a244	0.013954703
94	0x3c35e3e0	0.011101693
95	0x3c113e21	0.00886491
96	0x3bd8a480	0.006611407
97	0x3b8b6cd8	0.0042549185
98	0x3b8baeec	0.0042627957
99	0x3c0223ca	0.007943103
100	0x3bbed538	0.0058237575
101	0x3b52aee0	0.003214769
102	0x3c3b205f	0.011421292
103	0x3c0d1f36	0.008613398
104	0xbbbfedb1	-0.0058571924
105	0xbc77eb0e	-0.015131725
106	0xbbb0621f	-0.0053827907
107	0x3c156392	0.009117978
108	0xbb0f7662	-0.002189063
109	0x3b2041f2	0.002445337
110	0x362c8f62	2.5713457e-06
111	0x0005e95d	5.42892e-40
112	0x000c7f25	1.147637e-39
113	0x26d33a99	1.4656949e-15
114	0x3652910e	3.1376871e-06
115	0x3b90cbed	0.004418841
116	0xbad14a78	-0.0015967628
117	0xbb9068a4	-0.0044070054
118	0xbb1a0629	-0.0023502207
119	0xbbf2c8b3	-0.007409179
120	0x3a8c8b39	0.0010722644
121	0xbbdab05d	-0.006673856
122	0xbc6031f1	-0.013683782
123	0xbc85cff3	-0.01633451
124	0xbc86d299	-0.016457843
125	0xbcd5ac2c	-0.026083075
126	0xbcabf95e	-0.020992931
127	0xbbbabee3	-0.005699025
128	0x3a907e6e	0.0011024007
129	0xbc34f474	-0.01104461
130	0x3ab51f61	0.0013818556
131	0x3bd0d690	0.006373234
132	0xbbab1caf	-0.005221925
133	0xbc50aa1a	-0.012735868
134	0xbc58ea16	-0.013239404
135	0xbb6295db	-0.0034574184
136	0xbc0bba67	-0.0085283285
137	0xbb797592	-0.0038064462
138	0x397703fc	0.0002355724
139	0x2e036296	2.9873513e-11
140	0x800d8227	-1.240551e-39
141	0x3389e6c5	6.4215364e-08
142	0xb7d07012	-2.4847719e-05
143	0x39ea838e	0.00044729974
144	0xbbb8b0b8	-0.005636301
145	0xbbd3e9e8	-0.006467093
146	0x3bc184e2	0.0059057334
147	0x3c9368f7	0.017994387
148	0x3d2937c8	0.041312963
149	0x3cd53362	0.026025478
150	0x3c15724f	0.009121492
151	0xbbcf0653	-0.0063178926
152	0xbc71ee47	-0.014766282
153	0xbc85947e	-0.016306158
154	0xbcb19a7e	-0.021680113
155	0x3b2ce2ea	0.0026380369
156	0x3c309c6f	0.010779484
157	0x3d427c25	0.047481675
158	0x3cbaa277	0.022782547
159	0x3c10d02d	0.0088386955
160	0xbc73412e	-0.014847083
161	0xbc92bcfc	-0.01791238
162	0xbcdcaec3	-0.026938802
163	0xbcc678b3	-0.024227476
164	0xbc568899	-0.013094091
165	0xbbbca373	-0.0057567894
166	0x380a0ccf	3.2913693e-05
167	0xba386651	-0.00070342893
168	0x8006cf67	-6.25415e-40
169	0x3924dcd4	0.00015722524
170	0x3938ae36	0.00017612506
171	0xbb8794fe	-0.0041376343
172	0x39c7180f	0.00037974163
173	0x3ad3b45d	0.0016151775
174	0x3d126674	0.03574224
175	0x3da037bb	0.0782313
176	0x3d948c60	0.07253337
177	0x3d4b6565	0.049657244
178	0xba91e2e5	-0.0011130242
179	0xbbf794ad	-0.0075555653
180	0xbc341856	-0.01099213
181	0x37bebcba	2.2737648e-05
182	0x3c016fbc	0.007900175
183	0x3d149d18	0.03628263
184	0x3d7779da	0.06041894
185	0x3d820b96	0.06349866
186	0x3cf4e8ee	0.029896226
187	0x3ce21773	0.027599072
188	0xbad168b8	-0.0015976643
189	0xbb89c023	-0.0042038127
190	0xbc63c427	-0.013901747
191	0xbccfdd6d	-0.025374139
192	0xbce07fcb	-0.027404686
193	0xbbf938f1	-0.007605665
194	0xbb3e7143	-0.0029059208
195	0x3c63ff84	0.0139159
196	0xae353c43	-4.120816e-11
197	0xbb1c5cca	-0.0023859018
198	0xbb653825	-0.0034976092
199	0xbbcae5ea	-0.0061919587
200	0x3c29ea31	0.010370777
201	0x3d3a6a86	0.045511745
202	0x3dbb44e6	0.09144001
203	0x3db216b9	0.0869574
204	0x3d561385	0.05226471
205	0x3afc690e	0.0019257383
206	0xbd12a6ad	-0.035803486
207	0xbd4a5e99	-0.04940662
208	0xbd1d7d9c	-0.03844987
209	0xbd091324	-0.03346552
210	0xbca128c4	-0.019672759
211	0x3c2adfb5	0.0104293125
212	0x3d5553f6	0.052082025
213	0x3d2c13c5	0.04201104
214	0xb9c5f53d	-0.00037757485
215	0x3c1c72c9	0.009548851
216	0x3c23ae66	0.00999031
217	0x3bde8937	0.0067912596
218	0xbca21742	-0.01978648
219	0xbc37d5fc	-0.011220451
220	0xbc0c810a	-0.008575687
221	0xbab7ec5d	-0.0014032234
222	0x3bb401a8	0.0054933615
223	0x3c69ddf2	0.014274107
224	0x370b650f	8.308575e-06
225	0xbb9a224b	-0.004703795
226	0xbc67093c	-0.014101323
227	0xbc3b74eb	-0.01144145
228	0x3cccd34e	0.025003102
229	0x3d63e2a3	0.05563606
230	0x3dbb40b3	0.091432
231	0x3da61122	0.081087366
232	0x3cd88fcf	0.02643576
233	0xbd08fabc	-0.033442244
234	0xbd4caa00	-0.049966812
235	0xbd761585	-0.060079116
236	0xbd00a659	-0.03140864
237	0xbcf973cd	-0.030450726
238	0xbbb85b70	-0.0056261346
239	0x3c885570	0.016642302
240	0x3d347fd3	0.044067215
241	0x3cc0454c	0.023470543
242	0xba4c52eb	-0.0007794338
243	0x3c5336e6	0.012891507
244	0x3ccc08f4	0.024906613
245	0xbb9a9e2e	-0.0047185635
246	0xbc9186df	-0.017764507
247	0x3b9757dd	0.0046186284
248	0x3c0e6e5f	0.008693307
249	0x3ca89235	0.02057753
250	0x3c0daa7a	0.008646602
251	0xbb4dc817	-0.003139978
252	0x3afdbcd1	0.001935864
253	0xbbd87879	-0.0066061583
254	0xbbf9243a	-0.0076031955
255	0xbb8d89de	-0.0043194136

autoencoder.encoder.1.bias f4 [100]
0	0xbc9f9d6d	-0.019484246
1	0xbe178302	-0.1479607
2	0x3e0f3dbe	0.13988397
3	0xbc146ab7	-0.009058646
4	0xbd507673	-0.050894212
5	0xbe878ff3	-0.26477012
6	0xbd9de4f6	-0.077096865
7	0xbb2f4b7a	-0.0026747868
8	0xbe2a0b5b	-0.16605894
9	0x3f4bc0a1	0.79590803
10	0xbc138183	-0.009003046
11	0xbf1d0bc0	-0.61346054
12	0xbb0dbd5b	-0.0021627757
13	0xbb9a1d88	-0.0047032274
14	0xbf0b7918	-0.5448165
15	0x3cbf27b6	0.023334365
16	0xbe3ed0c2	-0.18634322
17	0x3e89be00	0.2690277
18	0x3b921252	0.0044577504
19	0xba1e1b69	-0.0006031306
20	0xbf03cd83	-0.5148546
21	0xbe1d0eaa	-0.15337625
22	0xbeee2afd	-0.46517172
23	0xbb975625	-0.0046184235
24	0xbd9626b3	-0.073316
25	0x3c571643	0.013127866
26	0x3a4efdba	0.00078960846
27	0xbe836681	-0.25664142
28	0xbbad028e	-0.0052798456
29	0xbe824e38	-0.254503
30	0xbc518e2d	-0.012790245
31	0xbd364fa8	-0.04450956
32	0xbe065d5f	-0.13121556
33	0xbb8df3c1	-0.0043320362
34	0x3b3f1b09	0.0029160401
35	0xbdceaca4	-0.10091522
36	0xbb7c6460	-0.0038511977
37	0xbee497eb	-0.44647154
38	0x3ae812a1	0.0017705747
39	0xbc25c5f1	-0.010117994
40	0xbd829e6d	-0.063778736
41	0xbde8e720	-0.113722086
42	0xbda991d5	-0.082797684
43	0xbb5abf9e	-0.0033378373
44	0x3d0d2730	0.0344612
45	0x3a33a032	0.0006852179
46	0xbddd5daf	-0.10808884
47	0xbed41063	-0.41418752
48	0xbe2b34bf	-0.1671934
49	0x3a0e6476	0.000543184
50	0xbe3d6000	-0.18493652
51	0xbc551602	-0.013005735
52	0x3df24f66	0.1183155
53	0xbe2ff9c2	-0.17185119
54	0xbba16d17	-0.0049263346
55	0xba2b5a9d	-0.0006536635
56	0xbe790f76	-0.24322304
57	0xbbf30d24	-0.007417338
58	0xbe4da09a	-0.20080796
59	0x3bd24eb8	0.0064180754
60	0xbe2bf275	-0.16791709
61	0x3ee76ad8	0.45198703
62	0x3e49ce8c	0.19707698
63	0x3e64d606	0.22347268
64	0xbeb144eb	-0.34622893
65	0x3d9a2961	0.07527424
66	0xbe19854d	-0.14992256
67	0x3b997800	0.0046834946
68	0x3dbbdf41	0.09173442
69	0xba1c156c	-0.000595412
70	0xbb959436	-0.0045647873
71	0xbacecd74	-0.0015777783
72	0xbc204e5b	-0.009784306
73	0xbb0cd5c2	-0.0021489714
74	0x39de5636	0.00042407372
75	0xbb129fce	-0.0022373083
76	0x3d64946a	0.0558056
77	0xbef13711	-0.47112325
78	0x3d0e1d9f	0.034696218
79	0x3da457ab	0.08024534
80	0xbb9bfa37	-0.0047600525
81	0xbb111ea2	-0.0022143503
82	0x3ce3aad7	0.027791424
83	0x3d8485f4	0.06470862
84	0xbbece0bd	-0.0072289393
85	0xbbee9272	-0.0072806412
86	0xbe1d0855	-0.1533521
87	0xbb1f2462	-0.002428316
88	0xbb7abfa5	-0.0038261202
89	0xbac4ca6a	-0.0015013937
90	0xbf56b8ea	-0.83875906
91	0xbe463b76	-0.1935862
92	0xbb3966b3	-0.0028289973
93	0x3d9da692	0.076977864
94	0xbda50a0e	-0.080585584
95	0xbb6d5a2a	-0.0036217072
96	0xbf12b390	-0.5730524
97	0x3e59d653	0.21273164
98	0xbb5128b9	-0.0031915142
99	0xbe967266	-0.29384154

autoencoder.encoder.3.weight f4 [100, 100]
0	0xba2de9cf	-0.00066342665
1	0xb94f85c3	-0.00019790888
2	0xbb2ebeb0	-0.0026663952
3	0xbba3ddf0	-0.0050008222
4	0x3c1cfe92	0.009582179
5	0x3b1fc595	0.0024379243
6	0xb9f3236e	-0.0004637497
7	0xb9204d87	-0.0001528767
8	0xba3ffe39	-0.0007323954
9	0xbbf1d86b	-0.0073805354
10	0xbba0b882	-0.0049048075
11	0xbc3d7306	-0.011563068
12	0xba9d9282	-0.0012021812
13	0xbb1e2301	-0.002412975
14	0xbaa8ff47	-0.0012893461
15	0xbbf3bc2e	-0.0074382043
16	0x39cb252b	0.0003874687
17	0x3b179d50	0.0023134537
18	0xbb1799bd	-0.0023132407
19	0xba128e37	-0.00055906497
20	0xb9024e7b	-0.00012427002
21	0xb83252c7	-4.25156e-05
22	0xba57c719	-0.0008231267
23	0xbbc52f84	-0.006017627
24	0xbb392c42	-0.002825514
25	0xbb8230cc	-0.003973102
26	0x3a560a6d	0.0008165006
27	0x39c29eac	0.00037120783
28	0x39e77831	0.00044149303
29	0xbc02cc09	-0.007983216
30	0xbad88532	-0.0016519187
31	0xbaa7d79b	-0.0012805344
32	0xbbfb2d5b	-0.007665319
33	0xbab7cc1b	-0.001402262
34	0x3a96d1b1	0.0011506585
35	0x3beb11cc	0.0071737524
36	0xba92661a	-0.0011169345
37	0x3b9d5afb	0.0048021055
38	0x3998f7b2	0.00029176247
39	0xbb72ab49	-0.0037028363
40	0xbbf369a3	-0.0074283644
41	0xba03b0ac	-0.00050235796
42	0x3a6196ef	0.00086055597
43	0x3a616df0	0.0008599451
44	0x3ad8b593	0.0016533606
45	0xba824367	-0.00099383
46	0xbbffb294	-0.0078032706
47	0xbbaaa5fe	-0.005207776
48	0xba4cbeda	-0.00078104215
49	0x3acfd207	0.001585544
50	0x3af39d53	0.0018586315
51	0x3b2dfbcc	0.0026547788
52	0xbb7d60fd	-0.0038662546
53	0x3bfc591b	0.007701052
54	0xbae1407c	-0.0017185356
55	0x3aa429b1	0.0012524632
56	0x3a9231cc	0.0011153757
57	0xbb1244aa	-0.002231876
58	0xbae59a10	-0.0017517228
59	0xbb939280	-0.004503548
60	0xba9f297c	-0.0012143101
61	0x3a9ac04e	0.0011806579
62	0x3c14f25b	0.009090985
63	0x3bfc043c	0.0076909345
64	0x3b87fb82	0.004149855
65	0xbb8f88bc	-0.0043803137
66	0xbba48e0e	-0.005021817
67	0x3adc869b	0.0016824784
68	0xbc33bb42	-0.010969939
69	0xb8fb8a74	-0.000119944016
70	0x388ad3c3	6.6197965e-05
71	0xba84ba8e	-0.0010126398
72	0xbbb68ed5	-0.005571226
73	0xbb0b8da5	-0.0021294144
74	0xbab16f1c	-0.0013537141
75	0xb9ec8f0c	-0.00045120006
76	0xbbc5aca5	-0.0060325437
77	0xbafd66ad	-0.0019332968
78	0xbaac87e6	-0.001316306
79	0x3be1e9ef	0.006894342
80	0xbb8076b2	-0.0039203996
81	0xbb2c1681	-0.002625853
82	0xbb57a0c0	-0.003290221
83	0x3b3961a4	0.0028286958
84	0xbabf01eb	-0.0014572715
85	0xbb5ce388	-0.0033704955
86	0xbc353a2f	-0.011061235
87	0xba186e87	-0.00058148097
88	0xbbf6a8dd	-0.0075274543
89	0xba0dbd9a	-0.0005406976
90	0xbbaf0ce3	-0.0053421124
91	0xbb041e7b	-0.002015977
92	0xb96f9e53	-0.00022851797
93	0xba4d549d	-0.0007832738
94	0xbb492672	-0.0030693081
95	0x392b8f71	0.00016361267
96	0x3abfbccf	0.0014628413
97	0xbbc26104	-0.0059319753
98	0xb9fc0d86	-0.0004807526
99	0xbb1b7f5a	-0.002372703
100	0x3e52d125	0.20587595
101	0xbe1154e8	-0.14192545
102	0x3cde3fc4	0.027130015
103	0xbb40e2b9	-0.0029432012
104	0x3cd92cec	0.026510678
105	0x3d339962	0.04384745
106	0xbd8b4fd1	-0.06802333
107	0xbc9c9946	-0.019116055
108	0x3e090ada	0.13383046
109	0xbd9e99f0	-0.07744205
110	0xbb2a1352	-0.0025951457
111	0x3d76b18e	0.060227923
112	0x3b3d9019	0.0028925
113	0xbb91924c	-0.004442489
114	0xbdd4a13c	-0.103823155
115	0x3c0575b9	0.008145743
116	0x3d0cd1a5	0.03437962
117	0xbd43f7c9	-0.04784373
118	0xbbb11f77	-0.005405362
119	0x3b99dc8d	0.004695481
120	0xbd6e2e1b	-0.05814944
121	0xbb27b7ac	-0.0025591655
122	0xbb9b8221	-0.004745737
123	0x3b393e49	0.0028265885
124	0xbd4f6c84	-0.050640598
125	0x3db61395	0.08890454
126	0xbb4061c8	-0.0029355157
127	0xbd585936	-0.052819453
128	0x37df9012	2.665076e-05
129	0x3e004fe8	0.12530482
130	0xbb29ace9	-0.0025890416
131	0xbd792a4d	-0.060831357
132	0x3d767368	0.060168654
133	0xbc4bab12	-0.012430923
134	0x3baec765	0.0053338283
135	0x3cad8dab	0.021185717
136	0x3ba75f8b	0.005107825
137	0x3d3b9058	0.045791954
138	0x3c378983	0.011202219
139	0x3be20001	0.006896973
140	0x3d85695a	0.06514235
141	0xbe0991fa	-0.13434592
142	0xbcbf34a7	-0.023340536
143	0xbb8b1e83	-0.0042455806
144	0xbd62c227	-0.05536094
145	0x3bc2329f	0.0059264447
146	0xbbfbb649	-0.007681642
147	0x3e1055ae	0.14095184
148	0x3e03a63b	0.1285638
149	0x3bd7a1b9	0.006580558
150	0x3da43347	0.08017593
151	0x3c910d18	0.017706439
152	0x3d1cad12	0.03825099
153	0xbe1ffa07	-0.15622722
154	0x3baae301	0.0052150493
155	0x3b8fe44c	0.004391229
156	0xbc3316b6	-0.010930708
157	0xbc0161bd	-0.007896838
158	0x3dcb06e5	0.099134244
159	0xbba6b51e	-0.005087509
160	0x3c9cbf5d	0.019134218
161	0xbe2aad0b	-0.16667573
162	0x3c9e2f6c	0.019309722
163	0x3e1a8c1b	0.15092508
164	0x3d724ff3	0.059158277
165	0x3e3810d8	0.17975175
166	0x3e5309e6	0.20609245
167	0x3d8946d8	0.067029655
168	0xbdc01334	-0.09378663
169	0x3b9a6a76	0.004712398
170	0x3bdb9f15	0.0067023137
171	0xbc46e454	-0.012139399
172	0x3b52aed6	0.0032147667
173	0xbacce2dc	-0.0015631574
174	0x3c13bff0	0.009017929
175	0xb9fa0271	-0.00047685535
176	0x3e6d0941	0.23148061
177	0xbe12b0d3	-0.14325266
178	0x3cf8265b	0.030291727
179	0x3b895506	0.004191044
180	0x3a1551be	0.00056960795
181	0xbc966396	-0.018358033
182	0xba9e5183	-0.0012078736
183	0xbdee0e92	-0.11623873
184	0xbc5ffbcd	-0.013670874
185	0x3bcbcf72	0.006219798
186	0xbd34ca73	-0.044138383
187	0xbbb208d1	-0.00543318
188	0x3baa6550	0.0052000657
189	0xbc14b87f	-0.00907719
190	0x3cee15d4	0.029063143
191	0x3cbdfae2	0.02319092
192	0x3b40ad1d	0.0029400059
193	0xbd0ac2de	-0.033877246
194	0x3e01612f	0.12634729
195	0x3b45792f	0.0030132046
196	0x3e76aa65	0.24088438
197	0xbd9c1a41	-0.07622195
198	0x3b3b5be6	0.0028588711
199	0x3c4e1931	0.012579248
200	0xbc111d4f	-0.008857085
201	0xbb3654e7	-0.0027821602
202	0xbb8e60d2	-0.004345038
203	0x39b796f6	0.00035016955
204	0xbbc6d0a0	-0.0060673505
205	0x3bd97ca6	0.0066371737
206	0xbb423360	-0.0029632673
207	0xbab8b163	-0.0014090951
208	0x3b22b5bb	0.0024827558
209	0x3bb36650	0.005474843
210	0x3ac6c508	0.0015164921
211	0x3c5fa4ce	0.013650132
212	0x3a582d24	0.00082464726
213	0xbad9a08a	-0.001660363
214	0x3aebe58d	0.0017997489
215	0xbb0a08ff	-0.002106249
216	0xbb5f3929	-0.003406117
217	0x3b9784bf	0.004623979
218	0x39dc3047	0.0004199764
219	0xbbad4f30	-0.005288981
220	0xbb943290	-0.004522629
221	0x3b8a2da7	0.004216868
222	0xb93a2927	-0.00017753673
223	0x3b4591fc	0.0030146828
224	0xbbfee960	-0.0077792853
225	0x3c8c2f7b	0.017112484
226	0xb8d7fd57	-0.00010299187
227	0xbbf2e542	-0.0074125836
228	0x3b3afc0b	0.0028531577
229	0x3bad7cf4	0.0052944366
230	0xbb293aa1	-0.00258223
231	0xbaa6e1d1	-0.0012732093
232	0x3c3b1259	0.011417949
233	0xbb822a5d	-0.0039723353
234	0x38be8af5	9.085789e-05
235	0xbae7755a	-0.0017658875
236	0x39e766bd	0.000441363
237	0x3bf5d576	0.007502253
238	0xbab745a7	-0.001398255
239	0x3784ca1a	1.5829737e-05
240	0x3b553cfc	0.003253757
241	0x3bddc815	0.0067682364
242	0x3b90f3a7	0.004423577
243	0xbbe3cc1b	-0.0069518215
244	0x3c0bf00e	0.00854112
245	0x3a928960	0.0011179857
246	0xba8e2306	-0.0010844178
247	0xb7c80f1d	-2.3848896e-05
248	0x3b4f4739	0.0031628145
249	0x3a90d804	0.0011050706
250	0x3bdbc2bb	0.0067065633
251	0xbbc59c2b	-0.0060305796
252	0x3add4280	0.001688078
253	0x3c1a58c5	0.009420578
254	0x3a9b9831	0.0011870918
255	0xbb3504e7	-0.002762133

autoencoder.encoder.3.bias f4 [100]
0	0x3aa9e289	0.001296119
1	0xbe4bc303	-0.1989861
2	0xbba32a4f	-0.004979409
3	0x3da98eec	0.08279213
4	0xbb638ab0	-0.0034720115
5	0xbe3888d6	-0.18020949
6	0xbbb6e409	-0.005581383
7	0x399adf0d	0.00029539355
8	0xbb9187cb	-0.0044412366
9	0xbe2e7f24	-0.17040688
10	0x3d8fc9eb	0.07020935
11	0xbe41025c	-0.18848556
12	0xbbae29aa	-0.0053150253
13	0x3b314e92	0.0027054888
14	0x39bf05ef	0.0003643478
15	0xbb6b415e	-0.0035897116
16	0x3d89017a	0.06689735
17	0x3dcdcb21	0.100485094
18	0xba081ee1	-0.00051925896
19	0xbde139a5	-0.10997323
20	0xbd7bfe47	-0.061521795
21	0x3ac3fc2c	0.0014952472
22	0xbd0a8ef3	-0.033827733
23	0xbd5e6851	-0.054298703
24	0x3bb043f3	0.005379194
25	0xbc841348	-0.016122475
26	0xbb3b53c7	-0.002858387
27	0x3cbe7284	0.023247965
28	0xbbc7d958	-0.0060989074
29	0xbb1a2f03	-0.0023526556
30	0x3ab87b1f	0.0014074779
31	0xbb8722fc	-0.0041240435
32	0xbdbe82c2	-0.09302284
33	0xbe138dab	-0.14409511
34	0xbd1cf2bc	-0.038317427
35	0xbb21c4a0	-0.0024683848
36	0xbaa2d0c8	-0.0012421841
37	0xbb453f1e	-0.0030097435
38	0xbb3e3bc2	-0.0029027318
39	0xbb91546b	-0.0044351122
40	0x3b20c3b6	0.0024530715
41	0x3b2bd1f9	0.0026217683
42	0x3a5f690f	0.000852243
43	0xbec2270c	-0.37920415
44	0xbd54fa69	-0.051996622
45	0xbb51d3a5	-0.003201702
46	0xbba43740	-0.005011469
47	0xbc8decab	-0.017324766
48	0xbd380bf3	-0.04493327
49	0x3e3604b6	0.17775235
50	0xba6d6875	-0.0009056398
51	0x3ba1116f	0.0049154083
52	0x3b9173d1	0.004438855
53	0x3d93bf6a	0.07214244
54	0x3b979c2c	0.0046267714
55	0xbb8cd198	-0.0042974465
56	0xbb635683	-0.0034689016
57	0xbb56cd22	-0.0032776077
58	0xbaa2bfb0	-0.0012416746
59	0xbbd900b3	-0.006622398
60	0x3a40a375	0.0007348576
61	0xbc3c08b6	-0.011476686
62	0x387730b2	5.893474e-05
63	0x3d6d981a	0.058006383
64	0xbbc2459a	-0.0059287073
65	0xbe807066	-0.25085753
66	0xbd900c0b	-0.07033547
67	0x3f004859	0.50110394
68	0xb99fef08	-0.00030504935
69	0xbe75df39	-0.24010934
70	0x3e161476	0.14656243
71	0xbda494c1	-0.08036185
72	0xbd460365	-0.04834308
73	0xbb810501	-0.003937364
74	0x3e0ea5c4	0.13930422
75	0xbf015d7f	-0.5053329
76	0x3bd4262e	0.006474278
77	0x3826bf17	3.975545e-05
78	0xba8e35f7	-0.0010849823
79	0x3b206947	0.0024476813
80	0x3c3cd3a6	0.01152507
81	0xbc0bbebb	-0.00852936
82	0xbb2ca568	-0.0026343707
83	0xba9ac9c1	-0.0011809395
84	0xbb02b4d9	-0.001994422
85	0x3e98f9da	0.29878122
86	0xbe465945	-0.19369991
87	0xbd987dc9	-0.074458666
88	0x3e39ba64	0.18137509
89	0xbe797909	-0.24362577
90	0x3b616e7f	0.0034398136
91	0x3c0dadc5	0.008647387
92	0x3b8c2d43	0.0042778566
93	0x3b8d1238	0.0043051504
94	0xbb2775a9	-0.0025552309
95	0x3ad3969b	0.0016142906
96	0xbd47187e	-0.048607342
97	0xbcb49bfa	-0.022047032
98	0x3bb64a9e	0.0055630943
99	0xbdc3a677	-0.09553235

autoencoder.encoder.5.weight f4 [100, 100]
0	0x3b6ff487	0.0036614256
1	0x3a348b01	0.0006887168
2	0x390e6f04	0.00013583532
3	0x3baea7af	0.005330048
4	0x38549e65	5.0692255e-05
5	0x3be27140	0.006910473
6	0xbba2d76a	-0.004969527
7	0xbb09ff85	-0.0021056843
8	0xbc0c452f	-0.0085614165
9	0x3b4927e1	0.0030693936
10	0xba8aeae5	-0.0010598568
11	0x3a922f63	0.0011153038
12	0xbb72af9c	-0.003703094
13	0x3bc32ddd	0.005956395
14	0xbb91987c	-0.0044432264
15	0xbb0d71db	-0.0021582756
16	0xbb2f901b	-0.0026788774
17	0x3b3a8f74	0.0028466852
18	0x3bf47e63	0.0074613555
19	0x3bdc1b5f	0.00671713
20	0xbbd2139e	-0.00641103
21	0x3b3b94ea	0.0028622695
22	0xbadbaad2	-0.0016759282
23	0x3bd174d8	0.0063921027
24	0x3ba255e9	0.004954089
25	0x3b301ac9	0.0026871434
26	0x3b99909d	0.0046864287
27	0xbbafcc22	-0.0053649107
28	0xbb1915d8	-0.0023358967
29	0x3b6e79ce	0.003638852
30	0x3ac05d33	0.0014676213
31	0xbba3219a	-0.004978371
32	0xbc47bc29	-0.012190857
33	0x3b829b29	0.0039857817
34	0x3aa18423	0.0012322705
35	0x3bd00978	0.006348785
36	0xbae7f276	-0.001769616
37	0xbb843d1a	-0.004035604
38	0xbc05b6f0	-0.0081612915
39	0x3b47e2bc	0.0030500134
40	0x3be9de3d	0.0071370886
41	0x3a540df6	0.00080892385
42	0xbb5f56f0	-0.0034078918
43	0xbafba1d3	-0.0019198008
44	0x3bdd9ff4	0.0067634527
45	0x3ba2bfe4	0.004966723
46	0xbba0c317	-0.004906069
47	0xbc426019	-0.011863732
48	0xbb8c8ea2	-0.004289464
49	0x3a580b29	0.0008241409
50	0xb9c0cb99	-0.00036772786
51	0x3b9a16f2	0.0047024423
52	0x3af787ac	0.0018885038
53	0x3ba734b6	0.005102719
54	0x3ba5051e	0.0050360104
55	0xbbb9308b	-0.0056515387
56	0xbb2cdd3d	-0.0026376985
57	0xbbc50bbd	-0.006013362
58	0xba2a7c72	-0.0006503529
59	0xbb2fa453	-0.0026800826
60	0x3b14e8b3	0.0022721707
61	0x3a88f6ca	0.0010449525
62	0x3b277aef	0.0025555452
63	0xbbaf9ec6	-0.0053595034
64	0xbb19c3c7	-0.002346264
65	0x3bedadbb	0.0072533763
66	0xba90a0dc	-0.0011034268
67	0xba98fe7e	-0.0011672524
68	0x3bb70d55	0.005586306
69	0x3b4b3a8c	0.0031010238
70	0x38b5f2ad	8.6759545e-05
71	0x3bfdc55f	0.0077444757
72	0xbb5853c7	-0.003300892
73	0xbab2be38	-0.0013637012
74	0xbb256181	-0.0025235119
75	0xbbd64907	-0.0065394673
76	0x3ba4415b	0.005012674
77	0xbad7ea80	-0.0016473085
78	0xb9ed4e27	-0.0004526239
79	0xb8b8f3e4	-8.819232e-05
80	0x3c012d7b	0.007884379
81	0xbb195032	-0.0023393747
82	0x3b79cf09	0.0038117787
83	0xbb6374a9	-0.0034706986
84	0xbb4773a2	-0.0030433913
85	0xba2915b0	-0.000645007
86	0x3b3d2b2a	0.002886484
87	0x3baf6921	0.0053531085
88	0xbb3338a3	-0.002734699
89	0x3ba3ae60	0.0049951524
90	0x3be2d62d	0.0069225044
91	0xba557984	-0.00081434124
92	0x3a6505ec	0.0008736539
93	0xbb853fbd	-0.004066436
94	0x3b5e586e	0.003392722
95	0xba5b04ec	-0.00083549204
96	0x3b1a1d80	0.0023516119
97	0x3b76e093	0.0037670478
98	0x3bfc4112	0.0076981867
99	0x3bce5bbd	0.006297557
100	0xb92f86ee	-0.00016739566
101	0xbaef8e72	-0.0018276705
102	0xbb7bead8	-0.0038439538
103	0xba956b4d	-0.0011399776
104	0x3a894dfd	0.0010475513
105	0xba442896	-0.00074828544
106	0x3bc285c7	0.0059363577
107	0x3b1f9d42	0.0024355208
108	0xb9b3d631	-0.00034301126
109	0x3b3ac71b	0.0028500024
110	0xba80862f	-0.0009805615
111	0x3ab3c25f	0.0013714543
112	0x3973c3d9	0.00023247245
113	0x3986584c	0.00025624258
114	0x3bd8ac26	0.0066123186
115	0x3bbcad55	0.0057579675
116	0x3b0a6e43	0.002112285
117	0x3b3bebc7	0.002867447
118	0x3bb1229c	0.005405737
119	0x3b1e2135	0.002412868
120	0xbbd32feb	-0.0064449213
121	0xbbd08e19	-0.0063645956
122	0xba6f101c	-0.0009119527
123	0x3b0e8bac	0.0021750731
124	0x3c0e4f0e	0.00868584
125	0x3a5afe15	0.0008353901
126	0xbaca3050	-0.0015425775
127	0x3a9fa6c0	0.0012180433
128	0x3be0df66	0.0068625687
129	0xbab1043d	-0.0013505291
130	0xbb809619	-0.003924143
131	0x3b7af997	0.003829574
132	0xbb1163f9	-0.0022184832
133	0xbacefb77	-0.0015791495
134	0x3be1f734	0.006895924
135	0xba860b5b	-0.0010226773
136	0x3b2165f5	0.0024627422
137	0x3b5a5792	0.0033316356
138	0xb95cd7d5	-0.00021061239
139	0xbb319836	-0.0027098781
140	0x3afc1fe8	0.0019235583
141	0x3bae9448	0.005327735
142	0xba95cff9	-0.0011429779
143	0xbafd9a06	-0.0019348271
144	0x3b8cb3a2	0.004293875
145	0xbb2d97a4	-0.002648809
146	0xbae6c529	-0.0017606366
147	0xbbaca785	-0.0052689933
148	0x3b2fe4f0	0.0026839338
149	0x3ab12966	0.0013516366
150	0xba363188	-0.000695013
151	0xb9b5390f	-0.00034565522
152	0x3c00a160	0.007850975
153	0xbb09306f	-0.002093341
154	0x3a3fa4e3	0.0007310642
155	0x3ab9cb75	0.0014175015
156	0x3b5485be	0.003242835
157	0xba853a0e	-0.0010164396
158	0xba044232	-0.0005045264
159	0xbb3d0013	-0.0028839156
160	0x3bea83d7	0.00715683
161	0x3b0b5bf5	0.0021264527
162	0x3a3e9205	0.00072696834
163	0x3b5442c6	0.0032388433
164	0xbaa5569d	-0.0012614314
165	0x3b814784	0.003945293
166	0xbbd7c089	-0.0065842313
167	0xba389d80	-0.00070425123
168	0xbbb35a6b	-0.005473425
169	0x3bfbb539	0.0076815155
170	0x3b336d50	0.0027378388
171	0x3b5b74dd	0.0033486404
172	0x3aaa4b94	0.0012992495
173	0xbb9f4c7a	-0.0048614116
174	0x372d6526	1.0335154e-05
175	0xbb13e332	-0.002256584
176	0x3b41e959	0.002958855
177	0x39a96cdf	0.00032315307
178	0x3b0f4826	0.0021863072
179	0x3a761513	0.00093872956
180	0x3c0ff882	0.008787276
181	0xbb8addce	-0.004237867
182	0xba9b8bbd	-0.0011867207
183	0x3afb4874	0.0019171373
184	0x3ad9aba7	0.0016606943
185	0xbb88c8c9	-0.004174326
186	0x395950e7	0.00020724871
187	0x3c16d45c	0.009205904
188	0xbb5701de	-0.003280751
189	0xba84bdd1	-0.001012737
190	0x3b01aadd	0.001978568
191	0xbbdab67f	-0.0066745873
192	0x3a45f228	0.00075510377
193	0xbb8b4174	-0.004249746
194	0xba1afa18	-0.00059119007
195	0xbb0986ae	-0.0020984816
196	0x3bc4434c	0.0059894677
197	0x3b9d1843	0.004794152
198	0xbb815561	-0.0039469455
199	0x3b4a8382	0.0030901139
200	0x3a8c228f	0.0010691452
201	0x3da86ecf	0.0822426
202	0xbb181cf2	-0.0023210612
203	0xbde259d2	-0.11052288
204	0x3ab0af1b	0.001347992
205	0x3bd6854d	0.0065466524
206	0x3bb85be5	0.005626189
207	0x3b1c7a65	0.0023876664
208	0x3be76f2f	0.0070628147
209	0x3e3b394c	0.18283576
210	0xbdf4952e	-0.11942516
211	0x3b1ec041	0.002422348
212	0x3b023673	0.001986888
213	0xba8d6df4	-0.0010790215
214	0x3b6a02c1	0.0035707208
215	0x3b24b1c7	0.0025130378
216	0x3d2399e0	0.03994167
217	0x3e177446	0.14790449
218	0xbe1e7c70	-0.15477157
219	0xbdd802a1	-0.105473764
220	0xbe1bbe16	-0.15209231
221	0xb9f85d75	-0.00047371877
222	0x3b0f6d2d	0.0021885142
223	0xbde056ed	-0.1095408
224	0xbb179fd0	-0.0023136027
225	0xbe0eff25	-0.13964517
226	0xbb30927b	-0.0026942778
227	0xbcf76894	-0.030201234
228	0x3b6a9e29	0.0035799837
229	0xbace14d9	-0.0015722766
230	0x3a9cd4be	0.0011965258
231	0x3b997fc5	0.004684421
232	0xbc2b8d96	-0.010470768
233	0x3ddd929f	0.108189814
234	0x3ddd5744	0.1080766
235	0xbba1aead	-0.004934153
236	0x3aaefc11	0.0013350268
237	0x3b4573f5	0.003012893
238	0x3bf09ffb	0.00734329
239	0xbb15529c	-0.0022784835
240	0xbbd7fd04	-0.006591441
241	0x3a308cc4	0.0006734843
242	0x3e1c9ae1	0.15293457
243	0x3deacc3b	0.11464735
244	0xbe334619	-0.17507209
245	0xbb948e9c	-0.004533602
246	0x3b57e57f	0.0032943187
247	0xbba7dec3	-0.005122991
248	0x3c40c5aa	0.011765877
249	0x3b64e4e1	0.0034926462
250	0x3a1932e9	0.0005844073
251	0x3b19b509	0.0023453853
252	0x3b0e6b13	0.0021731302
253	0xbe3fb297	-0.1872047
254	0x3a2e53d1	0.0006650063
255	0x3b0b612b	0.0021267633

autoencoder.encoder.5.bias f4 [100]
0	0x3afcfdfe	0.001930177
1	0xb8860c27	-6.3918815e-05
2	0xbdbf60e2	-0.09344651
3	0x3ae8fffc	0.0017776485
4	0xbb509838	-0.003182901
5	0xbaa5ca3d	-0.0012648773
6	0xbb097b7b	-0.002097814
7	0xbac72e67	-0.0015196324
8	0x3b12b657	0.0022386515
9	0xbb81ab4f	-0.003957189
10	0x38dd5b6f	0.00010555132
11	0xbb61598f	-0.0034385656
12	0xbafdf976	-0.0019376713
13	0x3b0c4b17	0.0021407062
14	0x3a56b96f	0.0008191084
15	0xbe469411	-0.1939242
16	0xba804f2c	-0.000978922
17	0x399b26a2	0.00029592687
18	0xbdb88ee3	-0.090116285
19	0xbba4f37e	-0.0050339093
20	0xbb419290	-0.002953682
21	0x3b32cc3f	0.0027282385
22	0xb9872724	-0.0002577837
23	0xbb59e7d3	-0.003324975
24	0x3b05ecec	0.0020435406
25	0xbe207d3c	-0.15672773
26	0xbb444e9d	-0.0029954084
27	0xbb5fd672	-0.003415492
28	0xba070597	-0.0005150674
29	0xbcd3c7da	-0.025852133
30	0x3b718f06	0.003685893
31	0xbb84a158	-0.004047554
32	0x3a79c88d	0.00095284806
33	0x3b63a620	0.003473647
34	0x3a7235fc	0.00092396117
35	0x3b5a831f	0.0033342314
36	0xbb8d9c1e	-0.004321589
37	0x3be51640	0.006991178
38	0x3acc7790	0.0015599597
39	0x3bd8e459	0.006619018
40	0xba5d5658	-0.0008443347
41	0xba284505	-0.0006418976
42	0xbaee3168	-0.0018172683
43	0xba2281a3	-0.0006199127
44	0x3b04ffdd	0.0020294108
45	0xbb19f7da	-0.0023493678
46	0xbb97b48a	-0.004629676
47	0xbaa7506c	-0.0012765056
48	0x3ad6c279	0.0016384862
49	0xbb9fe595	-0.004879663
50	0x3b81d6a1	0.0039623533
51	0xbbb1962d	-0.0054195137
52	0x3ae22951	0.0017254745
53	0x3b0909f4	0.0020910474
54	0xbe86b191	-0.26307347
55	0x3b165cea	0.0022943565
56	0xb99f2f3d	-0.00030362039
57	0xb915a817	-0.00014272366
58	0xbb7a0ff3	-0.003815648
59	0xbb595fb5	-0.0033168618
60	0x3b2c44d3	0.002628614
61	0xbde9c6ee	-0.11414896
62	0xbe7f7845	-0.24948223
63	0xbb549228	-0.0032435749
64	0x3d1613dd	0.036640037
65	0xbb6afa51	-0.0035854767
66	0xbe22d543	-0.15901665
67	0x3ac2ba81	0.0014856608
68	0xba6b842e	-0.0008984235
69	0xbd83c714	-0.064344555
70	0xbb10d05f	-0.0022096855
71	0xbb22aaf2	-0.002482113
72	0x3ad3ff19	0.0016174047
73	0x3ab8d504	0.001410157
74	0xbb4a62f2	-0.003088173
75	0xbe63f34e	-0.22260782
76	0xbb1e165f	-0.002412222
77	0x3bcafbf7	0.0061945873
78	0xbea58210	-0.32325792
79	0x3c9de937	0.019276245
80	0xbb9e9584	-0.004839601
81	0xb9c28f64	-0.00037109398
82	0xbe57b241	-0.21064092
83	0xbbbef871	-0.0058279564
84	0x3b9ca0c9	0.0047799093
85	0x39e1b28b	0.0004304837
86	0x38523c03	5.0123792e-05
87	0xba862026	-0.001023297
88	0xbb89ae42	-0.0042016814
89	0xb9618dbb	-0.00021510471
90	0x39bdea81	0.00036223608
91	0xbb99a69f	-0.0046890522
92	0x3b2736e9	0.0025514907
93	0x3cbdfa64	0.023190685
94	0xbb8f1450	-0.004366435
95	0x3b515d52	0.0031946492
96	0xbb0170bc	-0.0019751033
97	0x3b7e0532	0.003876042
98	0x39921e49	0.00027869854
99	0x3a28dc88	0.0006441553

autoencoder.encoder.7.weight f4 [100, 100]
0	0xbbb30570	-0.0054632947
1	0xbb63c697	-0.003475582
2	0x3e9ea8ee	0.30988258
3	0xbad916ab	-0.0016562542
4	0x3b83fc5d	0.004027887
5	0xbace1602	-0.0015723112
6	0xbb638c5a	-0.0034721107
7	0x3b97918c	0.004625505
8	0xbdf345a0	-0.11878514
9	0xbb173cb1	-0.0023076946
10	0x3a653478	0.0008743475
11	0xbb4b39df	-0.0031009836
12	0xbb7839ca	-0.0037876242
13	0xbb339057	-0.0027399266
14	0x3b1b7177	0.0023718753
15	0x3e2e0729	0.16994919
16	0xbb41124a	-0.0029460364
17	0x3b2d0398	0.0026399847
18	0xbe3a5ad9	-0.18198718
19	0x3aca25af	0.0015422608
20	0x3b073c30	0.002063524
21	0x3a99a211	0.0011721273
22	0xbba003ee	-0.004883281
23	0xb9279dac	-0.00015985098
24	0xba92f5d6	-0.0011212181
25	0xbe8eb241	-0.27870372
26	0x3b0d223c	0.0021535298
27	0xbe39de81	-0.18151285
28	0x3a9f017e	0.0012131182
29	0x3e61a346	0.2203494
30	0x3b087f1c	0.0020827716
31	0xbb42f9bc	-0.0029750904
32	0xb88289a0	-6.224518e-05
33	0x3b6051de	0.0034228484
34	0xbaeb30ba	-0.0017943599
35	0xbb8cba71	-0.0042946865
36	0xbb78deb0	-0.003797453
37	0xba2df50f	-0.0006635943
38	0xbb97dc5f	-0.0046344246
39	0x3ad42df5	0.0016188013
40	0x3a44b06e	0.0007503097
41	0x3b205fc0	0.0024471134
42	0xbbacb386	-0.0052704243
43	0xbb90f81e	-0.004424109
44	0xbade9c40	-0.0016983822
45	0x3ac44234	0.0014973343
46	0xbb4473c5	-0.002997623
47	0xbb50f0b6	-0.0031881756
48	0x3b0ece74	0.0021790536
49	0xbb62219e	-0.00345049
50	0xba90eb39	-0.001105643
51	0x3b37b86d	0.002803351
52	0x3b60de55	0.0034312208
53	0x3b63910d	0.0034723908
54	0x3e33f829	0.17575134
55	0x3b5c3228	0.0033599231
56	0xbba77e05	-0.0051114582
57	0x3aa33b44	0.0012453576
58	0xb95bd4bd	-0.00020964719
59	0x3a2a31c5	0.00064924016
60	0x39335221	0.00017101366
61	0xbdc5bd75	-0.09655277
62	0x3ca0bd41	0.019621493
63	0x3afb9138	0.0019193059
64	0xbe874c56	-0.26425427
65	0xbb8c9bcd	-0.004291034
66	0x3d909d37	0.07061236
67	0x3bac03c0	0.0052494705
68	0xbb2afc2c	-0.0026090248
69	0xbe343073	-0.17596607
70	0xb8a3790f	-7.7949946e-05
71	0xbb9297db	-0.004473669
72	0xbb8cc404	-0.004295828
73	0x3a848df4	0.0010113106
74	0xbb214ccc	-0.0024612425
75	0xbd819630	-0.06327474
76	0xba172380	-0.0005765483
77	0x3b022e98	0.0019864198
78	0x3e9549e0	0.29157925
79	0x3e61c9d3	0.22049646
80	0x3b054f14	0.0020341324
81	0xbbb28e8e	-0.0054491227
82	0xbdfb9846	-0.12284903
83	0x3ebd8d76	0.3702199
84	0xbb3a3b8b	-0.0028416838
85	0xbc8a6df8	-0.01689814
86	0xbb2d4509	-0.0026438853
87	0x3b554eee	0.0032548266
88	0x3b4519a1	0.003007509
89	0x3b590f7a	0.0033120797
90	0xba789542	-0.00094826904
91	0xbb16a570	-0.0022986792
92	0xbab76d5c	-0.0013994384
93	0xbe142900	-0.14468765
94	0xb9ebfd28	-0.0004501131
95	0xbb6f0dae	-0.003647666
96	0xbb95be0a	-0.0045697736
97	0x3ad3cb86	0.0016158677
98	0xbaccc57c	-0.001562282
99	0x3b846e6b	0.004041483
100	0x3b91a9b0	0.004445277
101	0x3b5db75e	0.003383122
102	0x3c1d5151	0.009601907
103	0xbb09050a	-0.0020907545
104	0x39151e9b	0.00014221149
105	0xbb470050	-0.0030365176
106	0xbb023ad7	-0.0019871497
107	0xbbcd1017	-0.0062580216
108	0xbbce72aa	-0.00630029
109	0x3b8b0331	0.004242324
110	0xbaa17477	-0.0012318034
111	0x3a2b9473	0.0006545253
112	0xb91c736d	-0.00014920319
113	0xbb1f154c	-0.0024274169
114	0xbb470765	-0.0030369398
115	0xbbde6348	-0.0067867376
116	0x3ac7c1ad	0.0015240215
117	0xb8d7a3ef	-0.00010282534
118	0xbc7d2fe2	-0.015453311
119	0x3954dd59	0.00020300354
120	0xb91b423e	-0.00014806629
121	0xb9930e78	-0.00028048805
122	0x3b8bd656	0.004267494
123	0xb9bfc66b	-0.00036578192
124	0xbae8e8b7	-0.001776955
125	0x3bc9718c	0.006147569
126	0xba551c0f	-0.0008129486
127	0x3b5aef20	0.003340669
128	0xbb2b8488	-0.0026171524
129	0x3afbee42	0.0019220787
130	0x3ab8780a	0.001407386
131	0x3b08a169	0.002084816
132	0x3b80e9b6	0.0039341105
133	0x3ae3f7ed	0.0017392613
134	0x3b148a32	0.0022665379
135	0x3bb77998	0.005599212
136	0x3b657ba7	0.003501633
137	0x3ba0c59c	0.0049063694
138	0x3b3d9b2e	0.0028931606
139	0x39a46594	0.000313562
140	0xba0d9c10	-0.0005401978
141	0xbb6a14bf	-0.0035717932
142	0x3aac4665	0.0013143538
143	0x3ba97f45	0.0051726424
144	0x3b8d1648	0.0043056346
145	0xbba3e20d	-0.0050013126
146	0x3a41eb7d	0.0007397456
147	0xba150f8b	-0.0005686215
148	0xbb17da8e	-0.002317104
149	0x3b1bb527	0.0023759098
150	0xba22c631	-0.00062093424
151	0xbb8891c2	-0.0041677663
152	0x3aa949b8	0.0012915647
153	0x3b0eee21	0.0021809416
154	0x3a84689b	0.0010101976
155	0x3a8e5f2f	0.0010862107
156	0x3b35751c	0.002768821
157	0x3b4372a5	0.0029822972
158	0x3abc5296	0.0014367874
159	0x3a4d6411	0.00078350405
160	0x39f565ec	0.0004680598
161	0xbb673645	-0.003528015
162	0xbb017ef7	-0.0019759515
163	0xbac3f6cc	-0.001495087
164	0xbc34bc48	-0.011031218
165	0x3aa64357	0.0012684864
166	0xbb22afe1	-0.002482407
167	0x379a6a01	1.8407593e-05
168	0x3b8fcda4	0.004388528
169	0xba187a41	-0.0005816557
170	0xbb024f16	-0.0019883565
171	0x3b7d4be2	0.0038649966
172	0x3b845534	0.0040384773
173	0x3b9171a3	0.0044385954
174	0x3aaee889	0.0013344447
175	0xbb32af8d	-0.002726528
176	0xba7519da	-0.00093498605
177	0x3a82923e	0.0009961796
178	0xbace34db	-0.0015732305
179	0xba0cdd4c	-0.0005373552
180	0x3a0ac25a	0.0005293243
181	0x3ac9a2cc	0.00153836
182	0x3bfac1c5	0.0076524937
183	0xbbc00662	-0.005860136
184	0xbaa3bbf9	-0.0012491933
185	0x3c15581b	0.009115244
186	0x3b2a948a	0.0026028478
187	0x3b14048a	0.0022585713
188	0x3a814e6c	0.000986529
189	0xbb740be1	-0.0037238526
190	0x3b588821	0.0033040124
191	0xb72d4110	-1.0326752e-05
192	0x3b319170	0.0027094744
193	0x3b8a21b4	0.0042154435
194	0xb9b7fec6	-0.000350943
195	0xbaa204a1	-0.0012360999
196	0x3b79eef9	0.0038136824
197	0x3ab83601	0.001405418
198	0xb841a08d	-4.616431e-05
199	0xbb790eb8	-0.0038003158
200	0x3b88b169	0.0041715396
201	0x3b23d398	0.0024997946
202	0x3be587cb	0.007004713
203	0xba90943c	-0.0011030505
204	0x39b68f00	0.00034820288
205	0xbb30b1f7	-0.0026961544
206	0xbac7060b	-0.0015184296
207	0xbba347c9	-0.0049829227
208	0xbb9bfe68	-0.004760552
209	0x3ba79ef4	0.0051153842
210	0xbabffb9e	-0.0014647131
211	0x3a61cffb	0.00086140604
212	0xba836628	-0.0010024952
213	0xbaaffee9	-0.001342741
214	0xbade6aed	-0.0016969122
215	0xbbcdfd9e	-0.006286337
216	0x3b1396c0	0.0022520274
217	0xb9431a2c	-0.00018606399
218	0xbbc04c25	-0.005868452
219	0xb7e548fa	-2.733291e-05
220	0xb9762a98	-0.00023476256
221	0x37e44e4f	2.7216183e-05
222	0x3b2e6cc2	0.0026615118
223	0xba2f1a07	-0.00066795986
224	0xbab9da04	-0.0014179354
225	0x3b43c3fe	0.002987146
226	0xba48b2d7	-0.0007656044
227	0xbaf433aa	-0.001863112
228	0xbb13629b	-0.0022489193
229	0x3bb7baa9	0.0056069684
230	0x3b0c6d57	0.0021427476
231	0x3acb97ed	0.0015532948
232	0x3b97aa6b	0.0046284697
233	0x3af739c5	0.0018861821
234	0x3b4daad1	0.0031382332
235	0x3bc303d0	0.005951382
236	0x3ae31370	0.0017324518
237	0x3bba1aba	0.0056794556
238	0x3b1d72aa	0.0024024644
239	0x3abc4022	0.0014362375
240	0xb9106e58	-0.00013774016
241	0xbb2b2c08	-0.0026118774
242	0x397f24bc	0.0002433238
243	0x3b6bd3c0	0.0035984367
244	0x3b8efe4d	0.004363811
245	0xbb9fa7e9	-0.0048723114
246	0xba18df3a	-0.0005831603
247	0xba9e5010	-0.0012078304
248	0xbab6df6a	-0.0013952081
249	0x3a9f4c3c	0.0012153457
250	0x3ab8ae27	0.0014089987
251	0xbb78c967	-0.0037961842
252	0x3a8fa7a2	0.0010959993
253	0x3afd328c	0.0019317432
254	0xb9e9b740	-0.00044577755
255	0x3adce9e4	0.0016854373

autoencoder.encoder.7.bias f4 [100]
0	0xbe762ed7	-0.24041305
1	0x3b0a8dc6	0.0021141632
2	0xbaba36b1	-0.0014206973
3	0x3b20ac21	0.002451666
4	0xbbee3fa8	-0.007270772
5	0xbad8e428	-0.0016547488
6	0x3bdbc87c	0.006707249
7	0xbb8cc21f	-0.004295602
8	0x3e82eb68	0.25570226
9	0xbbc27970	-0.0059348866
10	0x399273c8	0.00027933554
11	0x3d8ee88e	0.0697795
12	0xbb504c79	-0.0031783863
13	0x3bc75f24	0.0060843397
14	0xbbaa4535	-0.0051962384
15	0xbe62ced0	-0.22149205
16	0x3b828c70	0.0039840266
17	0xbb99333c	-0.004675297
18	0x3aad430c	0.0013218834
19	0x3a54069f	0.0008088145
20	0xbae4036b	-0.0017396038
21	0xbb73fa72	-0.0037228134
22	0x3bc57e27	0.0060270014
23	0xbb8411e9	-0.0040304554
24	0xbdefa614	-0.11701599
25	0x3b87271f	0.0041245366
26	0xba5347f8	-0.00080597354
27	0xbbfffc9d	-0.0078120963
28	0xb9c221dc	-0.0003702779
29	0x3a9d0b3c	0.0011981498
30	0xbb874c91	-0.0041290005
31	0xbb5c64a5	-0.0033629325
32	0xb9fcfb22	-0.00048252294
33	0xb9b3ed58	-0.00034318375
34	0xba000e06	-0.0004884902
35	0x3b2abcf5	0.0026052569
36	0xbbc54abf	-0.0060208733
37	0xbb50c5ad	-0.0031856105
38	0x3a8d0107	0.0010757752
39	0x3b827041	0.003980667
40	0xbdfbd6be	-0.12296818
41	0x3bc5b31d	0.006033315
42	0xbbb7c74f	-0.005608476
43	0xba57ed9d	-0.0008237006
44	0x39248880	0.00015691109
45	0x3b19a882	0.0023446386
46	0xbb85a045	-0.0040779435
47	0x3b5f1d69	0.003404463
48	0x3a8ce97e	0.0010750738
49	0x3bf3f2b4	0.007444704
50	0xbbf570d1	-0.0074902554
51	0xbaf1c7da	-0.0018446401
52	0x3b21ce97	0.0024689788
53	0x39b4c117	0.00034476139
54	0x3b5fe75b	0.0034164998
55	0x3b138ed0	0.0022515543
56	0xbe4808fe	-0.1953468
57	0x3ba66637	0.005078103
58	0xbb4df8a9	-0.003142873
59	0x3bb7a942	0.005604894
60	0xbaf2a4e0	-0.0018512271
61	0xbbb28443	-0.0054478957
62	0xbe151398	-0.14558256
63	0x3adb1990	0.0016715992
64	0x3a02638c	0.000497394
65	0x3b870b13	0.004121193
66	0x3b549f0d	0.0032443434
67	0xbb7901ae	-0.0037995386
68	0xbb92da7a	-0.004481611
69	0x3b65ff07	0.0035094635
70	0x3b63f89f	0.003478564
71	0xba9755af	-0.0011545921
72	0xbe229c75	-0.15879996
73	0x3b90e932	0.0044223303
74	0x3b00771d	0.0019602247
75	0x3bc65415	0.006052504
76	0x3ad04b1f	0.0015891528
77	0x3b81259c	0.003941251
78	0xbba8e1ee	-0.005153886
79	0x3abd3069	0.0014433983
80	0x3e3a4074	0.1818865
81	0xbe2e1e1e	-0.17003676
82	0xbaf4a721	-0.0018665531
83	0xbc07a5ad	-0.008279246
84	0x3b5e18df	0.0033889336
85	0xb935291b	-0.00017276818
86	0xbb363f06	-0.002780856
87	0xbbed29a5	-0.0072376304
88	0xba47578b	-0.00076042925
89	0x3b595b38	0.0033165943
90	0x3ad74e5f	0.0016426555
91	0x3afca208	0.0019274363
92	0x3ba4024a	0.0050051557
93	0x3d103d2b	0.035214584
94	0x3e4c5606	0.1995469
95	0xbb423702	-0.0029634838
96	0x3bd3bda4	0.006461816
97	0x3b9db3d9	0.0048126993
98	0x3ba856dd	0.005137308
99	0x3b0afe39	0.0021208657

autoencoder.encoder.9.weight f4 [2, 100]
0	0xbe6b2262	-0.22962335
1	0x3b2d5e4c	0.002645391
2	0x3ad9395d	0.0016572882
3	0x3a2a3f40	0.00064944103
4	0xbabe0be9	-0.0014499399
5	0xb9ecd483	-0.0004517176
6	0x3ae0a1b8	0.001713804
7	0xba2b258a	-0.0006528726
8	0x3e66c84c	0.22537345
9	0xbaadde39	-0.001326508
10	0xbacdb9b4	-0.0015695603
11	0x3e5474ca	0.20747676
12	0xbad10fc8	-0.0015950138
13	0x39b4d766	0.0003449276
14	0xb99f4f32	-0.00030385848
15	0xbe0235a1	-0.1271577
16	0x385b314f	5.225959e-05
17	0xbaad4d39	-0.0013221867
18	0xb951e11c	-0.00020015653
19	0x3b68818f	0.0035477614
20	0x3a59b9ea	0.00083055964
21	0xba9f7707	-0.001216621
22	0x3ae4d2db	0.0017457859
23	0xb9045f4e	-0.00012624005
24	0xbe92cd19	-0.28672102
25	0x39c89156	0.00038255256
26	0x3b332d60	0.0027340278
27	0xbb429ffc	-0.002969741
28	0x3b12369a	0.0022310377
29	0x3b222e44	0.0024746815
30	0xbb1e0dc8	-0.00241171
31	0x36f59a2b	7.3195165e-06
32	0x3a207cc9	0.000612211
33	0xba70a0b0	-0.0009179218
34	0xba8bab3c	-0.001065589
35	0x3b66af4c	0.00351997
36	0xbb402bc3	-0.002932296
37	0xb9e0fdae	-0.00042913615
38	0x3aa13ff9	0.001230239
39	0xb91ddcc3	-0.00015054927
40	0xbe2d81c3	-0.16944031
41	0x3a92870a	0.0011179161
42	0x3a0fed92	0.0005490418
43	0x3b2e47c5	0.002659307
44	0xba27c150	-0.000639935
45	0x3a640c8b	0.0008699379
46	0xbb489b50	-0.0030610152
47	0x3a497f66	0.00076865254
48	0xba3b01a4	-0.00071337284
49	0x3a2d7537	0.00066168926
50	0xb8ea6630	-0.000111770234
51	0xba461b23	-0.0007557144
52	0xb99ae7db	-0.00029545915
53	0xb9c2fe95	-0.00037192242
54	0x3a8c2a0d	0.0010693684
55	0x3ad1daf5	0.0016010689
56	0xbe40fc9b	-0.18846361
57	0x3b3c517c	0.0028735092
58	0x393edc6a	0.00018201923
59	0x3b195f07	0.0023402588
60	0xb9c84329	-0.0003819701
61	0xba9b41d3	-0.0011845179
62	0xbccff5c9	-0.025385754
63	0xb7ed9af8	-2.8324765e-05
64	0x3a1ae179	0.0005908232
65	0x3a8811ce	0.0010381283
66	0x3a0f74c6	0.00054724177
67	0x3ae97362	0.0017810876
68	0xba58015f	-0.00082399504
69	0x3a17b587	0.00057872426
70	0x3ac2ff4b	0.0014877109
71	0xbab2e594	-0.0013648742
72	0xbe8e5ed4	-0.27806723
73	0x3a5fb583	0.0008533822
74	0xb99f3155	-0.00030363598
75	0xbac3e9a9	-0.0014946955
76	0x3b02fbf6	0.0019986606
77	0xbad09c44	-0.0015915711
78	0xb9f30d87	-0.0004635865
79	0xb60496ce	-1.9757313e-06
80	0x3e34c9c2	0.1765509
81	0x3e4036fb	0.18770973
82	0xbabb0c13	-0.0014270566
83	0xb9f7903c	-0.00047218974
84	0x38f8efaa	0.000118702024
85	0xba529e2d	-0.0008034434
86	0xbb5fff1a	-0.0034179152
87	0xbb1985d6	-0.002342572
88	0x38ed42d2	0.00011313487
89	0x3acba6be	0.0015537364
90	0xbaabcf84	-0.0013108109
91	0x3b4886f5	0.0030598019
92	0x3b877d81	0.0041348343
93	0xbd712c1a	-0.05887995
94	0x3e4a054a	0.1972858
95	0xbb60d947	-0.0034309195
96	0x3ae5324a	0.0017486301
97	0x3b48e539	0.0030654205
98	0x3b86a109	0.0041085524
99	0x39e02acc	0.00042756496
100	0xbe56eb9c	-0.20988315
101	0x3b219d39	0.0024660362
102	0x3ad84fe2	0.0016503299
103	0x3a12e32d	0.000560331
104	0xbac28578	-0.0014840802
105	0xb9fe87cb	-0.0004854783
106	0x3adf1ad7	0.0017021549
107	0xbae84fa4	-0.001772393
108	0x3d86e210	0.06586087
109	0xb824c830	-3.9287086e-05
110	0xba8d48cc	-0.0010779141
111	0xbda40a5c	-0.080097884
112	0xbafd9198	-0.0019345758
113	0x3ac10744	0.0014726897
114	0xb894628f	-7.075548e-05
115	0xbe8854da	-0.26627237
116	0x3aa67318	0.0012699096
117	0x3a8d423b	0.0010777185
118	0xba6025a9	-0.00085505337
119	0x3abb9c37	0.0014313523
120	0x3ad1d7e4	0.0016009775
121	0xb9edb21f	-0.00045336873
122	0x3a6e3ca1	0.0009088014
123	0xbaf080d8	-0.0018348945
124	0x3e8e4dd2	0.27793747
125	0xba0bd57c	-0.0005334241
126	0x3b3ac4c5	0.0028498631
127	0xbb1e451c	-0.002415008
128	0x3ac08466	0.0014687895
129	0x3b134853	0.0022473529
130	0xbb287de9	-0.0025709814
131	0x3983f743	0.0002517049
132	0x3af51dc1	0.0018700884
133	0xbaf1a0a3	-0.0018434714
134	0xb9ede462	-0.0004537432
135	0x3b0713d0	0.0020611174
136	0xbb132a01	-0.0022455456
137	0x39c3ccd5	0.0003734591
138	0x3aa680f8	0.0012703231
139	0xba0589cb	-0.000509408
140	0x3d616dc5	0.055036325
141	0x3821e30c	3.8596845e-05
142	0x3a3eaafa	0.00072734023
143	0x3b371221	0.002793439
144	0xba52f87c	-0.00080478913
145	0xba0b7187	-0.0005319346
146	0xbb3818f1	-0.0028091038
147	0xb8786065	-5.9217582e-05
148	0xbadc22ed	-0.0016795077
149	0x3aa32cd8	0.0012449278
150	0x38d1b958	0.000100004196
151	0x39cff7b4	0.0003966667
152	0xb859f61b	-5.1966035e-05
153	0xb9d0905b	-0.00039780405
154	0xb92a7e9d	-0.0001625963
155	0x3ace19ce	0.0015724243
156	0xbd91623b	-0.07098814
157	0x3b18241b	0.002321488
158	0xbad8c738	-0.0016538864
159	0x3ade0844	0.0016939719
160	0x3a67c490	0.0008841241
161	0x3a60cc13	0.00085753313
162	0xbe309787	-0.17245303
163	0xb955f205	-0.00020403422
164	0xba80b6fd	-0.000982016
165	0x3b09d2e0	0.0021030232
166	0xb97c91fe	-0.00024086979
167	0x3a8ac3e4	0.0010586944
168	0x37d8abb2	2.5829158e-05
169	0xb8a80f78	-8.0137455e-05
170	0x3aea75c4	0.001788788
171	0xbaca0dee	-0.0015415528
172	0x3dd67b30	0.10472715
173	0xb9fd5840	-0.00048321672
174	0xba4e53a7	-0.00078707415
175	0xbaf755e9	-0.0018870208
176	0x3b079805	0.0020689976
177	0xba46275c	-0.00075589656
178	0x37bec2d2	2.2740485e-05
179	0x38b76550	8.744991e-05
180	0x3e4aeda5	0.19817217
181	0xbe47f709	-0.1952783
182	0xb97b63e4	-0.00023974437
183	0xb9bfee3a	-0.00036607852
184	0xba2802a9	-0.0006409088
185	0xba378a79	-0.000700153
186	0xbb26798a	-0.0025402033
187	0xbb0239df	-0.001987092
188	0x396577a6	0.00021883714
189	0x3af48d7d	0.001865789
190	0xbae2e150	-0.001730958
191	0x3b53e8ed	0.003233488
192	0x3b19a8c6	0.0023446544
193	0x3d597d91	0.053098265
194	0x3dc9fdc1	0.09862853
195	0xbb57c462	-0.003292345
196	0x3b0683cb	0.0020525332
197	0x3b454f1d	0.003010697
198	0x3af7d13f	0.0018906965
199	0xb9f2d166	-0.0004631385

autoencoder.encoder.9.bias f4 [2]
0	0x3e92a018	0.28637767
1	0x3e0e0395	0.13868554

autoencoder.decoder.1.weight f4 [100, 2]
0	0xbf1712b2	-0.590129
1	0x3ee0df27	0.43920252
2	0xbece5d65	-0.4030563
3	0x3e2cb16b	0.16864555
4	0x3e8dff73	0.27733955
5	0xbf34a94c	-0.70570827
6	0x3f0437f7	0.51647896
7	0x3e4028e0	0.18765593
8	0x3f0a8617	0.54110855
9	0xbe611d1d	-0.21983762
10	0xbe24c12a	-0.16089311
11	0x3ca8394b	0.020535132
12	0x2c87a7f0	3.8555756e-12
13	0xad3b9a5e	-1.0663996e-11
14	0x3ce5ed58	0.028067276
15	0xbc466427	-0.012108839
16	0xbe3b18d2	-0.18271187
17	0xbd0757c9	-0.033042703
18	0x3ce4f679	0.027949559
19	0xbc4bf0b8	-0.012447529
20	0xb6ea46db	-6.981992e-06
21	0xb7033c85	-7.822299e-06
22	0x3f0bd314	0.54618955
23	0xbf70da7f	-0.940834
24	0x3cdabcad	0.026701296
25	0x3ecaf610	0.39640856
26	0xbec34d52	-0.38144928
27	0x3f441ada	0.7660347
28	0xbe933060	-0.28747845
29	0x3c9ae1f8	0.018906578
30	0x3e881a48	0.2658255
31	0xbecc0cd3	-0.39853534
32	0xbede3d61	-0.43406203
33	0x3e4cde2a	0.20006624
34	0xbeff077b	-0.49810395
35	0x3e202747	0.15639983
36	0xaa9747ec	-2.6872894e-13
37	0xa9184b1e	-3.3815934e-14
38	0x3ec48e17	0.38389656
39	0x3f0547d1	0.5206271
40	0x3dca0e0e	0.09865962
41	0x3bc6d634	0.0060680155
42	0xbd1e6a3e	-0.03867554
43	0xbd4e5014	-0.050369337
44	0x3f3de178	0.74172163
45	0x3f2ad07d	0.6672438
46	0x3e28d624	0.16487938
47	0xbdcac58a	-0.09900959
48	0x3e2e4a71	0.17020585
49	0x3cdb4a61	0.026768865
50	0x3de210ee	0.11038385
51	0x3dd5da1d	0.104419924
52	0xbdf47d4a	-0.119379595
53	0xbf23c29c	-0.63968825
54	0xbeb499c1	-0.35273555
55	0x3e01f1fd	0.12689967
56	0xbed3de66	-0.41380614
57	0x3d18ac1c	0.03727351
58	0xbea97159	-0.3309429
59	0x3e21ef93	0.15814047
60	0xbf0c09aa	-0.54702246
61	0x3edb48e1	0.4282904
62	0x3e328347	0.17432891
63	0xbea1e24b	-0.3161796
64	0xbe63a7b8	-0.22231948
65	0xbe426a29	-0.1898581
66	0x3cb28cb7	0.021795614
67	0xbf122f24	-0.5710318
68	0x3ee94cbf	0.45566365
69	0x3f340d65	0.7033294
70	0x3d8589eb	0.065204464
71	0xbd3aebd9	-0.045635078
72	0xbde89996	-0.11357419
73	0xbe8b5a1a	-0.2721718
74	0x3ee6f6a9	0.45110062
75	0xbd78ca25	-0.060739655
76	0xbf1cef2e	-0.6130246
77	0x3c989abc	0.01862847
78	0xbeb7f946	-0.35932368
79	0xbdd5271b	-0.104078494
80	0x3e2bf327	0.16791974
81	0x3e30e262	0.17273858
82	0x3f16ce10	0.58908176
83	0x3f327d48	0.69722414
84	0x3e592c6c	0.21208352
85	0x3e6c087b	0.2305011
86	0x3d870a49	0.065937586
87	0xbd6e507a	-0.058182217
88	0xbe50945a	-0.20369092
89	0x3f53be54	0.8271229
90	0xbed6aa03	-0.41926584
91	0x3f1f6bfc	0.62274146
92	0x3edbcefa	0.42931348
93	0xbf3d9d40	-0.7406807
94	0x3e3c3b9b	0.18382113
95	0xbdd65a30	-0.10466421
96	0x3ea94d92	0.33066994
97	0xbf2f3f9b	-0.6845643
98	0xbec36556	-0.3816325
99	0x3dab81dc	0.08374378
100	0xbde0c38b	-0.10974797
101	0x3ed425ad	0.41434994
102	0x3c2c1410	0.01050283
103	0xbcadc36f	-0.021211354
104	0xbe57911b	-0.21051447
105	0x3eb0d25b	0.34535488
106	0x3f2c4ad3	0.6730167
107	0xbe3e0202	-0.18555453
108	0xba5e800c	-0.00084877084
109	0xbb5cc843	-0.0033688701
110	0xbdf46206	-0.11932759
111	0x3cb98adc	0.022649221
112	0xbede666a	-0.4343751
113	0xbe7a03bf	-0.24415492
114	0x3e03514a	0.12823978
115	0x3f51b34c	0.8191421
116	0xbe157411	-0.14595057
117	0xbf15164a	-0.58237135
118	0x3d64acd6	0.05582889
119	0x3f3a99a5	0.7289069
120	0xbec5661e	-0.38554472
121	0xbe3dd563	-0.18538432
122	0xbeb30b3b	-0.34969506
123	0x3ca9c014	0.020721473
124	0x3eb573dc	0.35439956
125	0x3e36cfd2	0.17852715
126	0xbe6ff58b	-0.23433511
127	0xbef96931	-0.48713067
128	0xbed84e34	-0.42247164
129	0x3c8f0e43	0.017462855
130	0x3c0e15d3	0.0086721955
131	0xbf113743	-0.5672495
132	0xbd6864d8	-0.056736797
133	0x3f0ab13b	0.5417668
134	0x3ebb7249	0.3661063
135	0x3eacda93	0.3376051
136	0x3e2f07ab	0.17092769
137	0x3f48c906	0.7843174
138	0xbee221b4	-0.44166338
139	0x3f55c63a	0.83505595
140	0xbf1e00f9	-0.61720234
141	0x3ec1f6f4	0.37883723
142	0x3e942cea	0.28940517
143	0xbec07dcd	-0.37595978
144	0x3e929d44	0.2863561
145	0xbf4d3ef3	-0.8017418
146	0xbe86c4d1	-0.26322034
147	0xbede33c0	-0.43398857
148	0x3e8e0db0	0.27744818
149	0x3e75e81a	0.24014321
150	0x3eef97e2	0.46795565
151	0x3f0a1546	0.5393871
152	0x3ec78927	0.38971826
153	0xbf02c896	-0.5108732
154	0x3ef0a15d	0.4699811
155	0xbf291438	-0.66046476
156	0xb8359483	-4.3292075e-05
157	0xb7659de3	-1.36862245e-05
158	0x3e98cf4d	0.29845658
159	0xbee575e0	-0.44816494
160	0x3e85903f	0.26086614
161	0x3eb03913	0.34418544
162	0x3f130681	0.574318
163	0x3ee174d7	0.44034454
164	0x3db3ff1f	0.08788895
165	0x3e98d161	0.29847243
166	0xbe119c8a	-0.14219871
167	0xbee7d448	-0.45279145
168	0xbeccb4e3	-0.39981756
169	0x3d1f35df	0.038869735
170	0xbe7fa25a	-0.24964276
171	0x3d9b8160	0.07593036
172	0x3eb694b4	0.35660326
173	0xbf3151da	-0.6926552
174	0x3e088eb8	0.13335693
175	0x3eac81b8	0.33692718
176	0x3ee357ad	0.4440283
177	0xbf583cdb	-0.8446786
178	0xbe695b74	-0.22788793
179	0x3f385d3b	0.7201726
180	0x3da7c2ce	0.08191453
181	0xbf381eb4	-0.7192185
182	0xbe5bb1d0	-0.21454549
183	0x3ee03866	0.4379303
184	0xbeea34aa	-0.45743304
185	0x3d98f412	0.07468428
186	0x3f3ac3d3	0.72955054
187	0x3f2a3373	0.66484755
188	0xbe8fac62	-0.28061205
189	0x3e7161f1	0.23572518
190	0xbe9ba7fa	-0.30401593
191	0x3d425fd4	0.04745467
192	0x3f0bef23	0.5466177
193	0x3edf29c8	0.43586564
194	0x3e282bc3	0.16422944
195	0x3e2318c8	0.15927422
196	0xbde2067e	-0.110363945
197	0xbf20999b	-0.62734383
198	0x3ed5c4d2	0.41751724
199	0x3eb85c4b	0.36007914
