test_runs/7/model_state.pth (torch, 882022 bytes, 20 tensors)

autoencoder.encoder.1.weight f4 [100, 784]
00000000: 72a0 1480 8865 0780 c075 0080 f449 0a00
00000010: 3582 1200 4622 0b00 8090 0a80 2dcb 1500
00000020: 2a7f 0480 b038 0d00 e110 0700 9403 1400
00000030: 25f7 62ba 13dd 743a 5d60 7b2e 3af2 982f
00000040: f3e2 1480 7d94 0800 a657 1500 19d6 0d80
00000050: 9780 1180 ed61 1180 3e0c 0e80 3353 0e80
00000060: 64e1 1000 9ccd 0100 0df9 0c80 0bf4 0400
00000070: d640 1100 3064 1180 ec03 1080 d87f 1400
00000080: a133 4b34 2605 ac36 f650 cbba ed62 afba
00000090: 87ce 43bc 6d4a 13bc 3383 4dbb 1f3e 03bb
000000a0: 979a 38bb 7f37 99b9 d6c6 62bb 1a23 01bc
000000b0: c7c5 e0ba c8ea 9fbb a2e4 91bb 1983 c7ba
000000c0: 8a05 3c3c d8f0 b63c 99db 4a3a acab caa9
000000d0: 0ec0 0e80 cf9c 1080 f94c 0680 2b8c 0400
000000e0: 6572 0c80 2969 0680 17fe 3a26 f527 a633
000000f0: 18ff d6b2 0a3d 063a 914e 9eba e3e4 d5bb
00000100: 8ed6 95bc a752 66bc c5ee 83bc 9dad a03a
00000110: 9847 a0bc 67f8 34bd 4356 06b9 0193 7b3c
00000120: a383 c13c 4fbc 1abd 99c1 3dbd 1c4f 13bd
00000130: e6da 52bd 673d 69bc 0255 893c 532a 893b
00000140: adc8 8f3b c9be 913b 7faf 1180 85e6 1100
00000150: f5d7 0a80 c10e 0280 cda9 06b2 0a70 bb35
00000160: 31d7 51b9 b014 7d3c 6bff fb3c 1759 103d
00000170: c393 a83c e0e8 cf3c f728 273d e129 463d
00000180: 796b 513c 08d8 043c 0a51 65bd 53a7 57bd
00000190: ff61 373d 12ea 093d 7031 a2bd 8c8e 9fbd
000001a0: 0f7a a3bc 9daa e03c 37a7 043d 57d9 293c
000001b0: 9779 f4bb 5151 e0bb 7770 e8bb cb86 1280
000001c0: 726f 1100 54ea d239 4ab4 9a37 ec59 b8b8
000001d0: 95ff 283b 028c 073d f879 1f3d 807a 1f3d
000001e0: e953 713d 032d b73d 3c89 8d3d fab3 853d
000001f0: 6256 f5bc e56c 94bc 24bd b3bc a808 cf3b
00000200: 9e79 ac3d 721a 893d 38c5 b4bc 5f45 37bd
00000210: 5cc0 033c 3222 40ba 8f1e 55bd ae67 40bd
00000220: 9bae 05bd 7591 84bc 12b3 b33b 1de6 033c
00000230: d5a9 0a80 54b4 23a9 1adb a2bb 48fa fabb
00000240: 79ce b3bc dc76 3a3c 237e 813d 6d41 713d
00000250: 603e aa3d 492f 9d3d 1bde bfbc 2a6f f6bc
00000260: f948 36ba 59fa a13d 87f8 843d 3910 3d3d
00000270: 5aa9 c73d 4e90 e43d c9ec 923d d31d 043a
00000280: f811 813d 4a2f 753d c51e c5bc d5dd 94bd
00000290: 7023 6fbd 2e1b 3eba b239 5bbb 7b3b 873a
000002a0: 21d9 1000 dd01 a538 0b01 623c 33d9 a5bc
000002b0: fc2f 2fbd dccf cfbc e805 073c 0ce4 fa3a
000002c0: 73ec 6b3d 0cd6 2ebd 9376 b2bd 5e42 aabd
000002d0: e093 063d c0f5 593d 2323 9f3d b627 97bc
000002e0: ecc7 193c f671 1cbc 28a1 18bd 67d4 cf3a
000002f0: 3331 09bd 4e06 5dbc f97e 66bd 09f9 c1bd
00000300: cdd3 97bd b374 62bd f87e 933a 0a54 71ba
00000310: 13b0 9bb5 e218 f9ba d561 063d a0eb 84bc
00000320: 6021 1cbd 1986 a8bc f7f0 62bc 3a0e 32bc
00000330: c302 e13c 2a12 7bbd 25e7 e6bc ee0e 12bd
00000340: 9204 18bd 9eae 6a3d 3b83 be3d 7e1a 903d
00000350: fe37 5dbc d847 c6bd f0a6 80bd cd73 f7bc
00000360: 8422 75bd dc0a 87bd 909a a7bd 0ad5 c8bd
00000370: 47e0 5ebd 050e f9bc f3bc 9bbc 6ddf 5138
00000380: 3edc c336 75dd 5337 e397 ccbb 3e30 0dbd
00000390: 056c 893c 2c67 083d 1e73 e4bc 8674 ccbc
000003a0: dce0 5bbd 1a35 82bd 3f9f 87bd afb5 9ebc
000003b0: 7ddc 02bd 169f ed3b 02bb 2dbd bf22 2dbd
000003c0: f91e 12bd eb9d 49bd dee4 17bd 5f80 b63c
000003d0: cc2a 79bc 60b1 f83b 8aa0 02bc 9546 d7bc
000003e0: 4542 e53b da2b 8f3c 3e61 edbb 4229 603b
000003f0: 984d 8234 7cc6 4139 1ab3 aabc 6886 afbc
-1.894267e-39 -6.79271e-40 -4.2241e-41 9.44884e-40 1.699748e-39 1.022485e-39 -9.70192e-40 2.001431e-39
-4.1296e-40 1.214197e-39 6.48903e-40 1.837994e-39 -0.0008658043 0.0009340804 5.715638e-11 2.782075e-10
-1.918124e-39 7.87952e-40 1.959988e-39 -1.270665e-39 -1.607333e-39 -1.596333e-39 -1.290089e-39 -1.315543e-39
1.550223e-39 1.65594e-40 -1.191369e-39 4.54888e-40 1.584462e-39 -1.597144e-39 -1.470775e-39 1.882572e-39
1.8924631e-07 5.126599e-06 -0.0015511799 -0.0013380923 -0.011951095 -0.008989912 -0.0031358718 -0.002002604
-0.0028168315 -0.00029223782 -0.0034603379 -0.007881904 -0.0017148786 -0.004880283 -0.004452304 -0.0015221565
0.01147593 0.02233164 0.0007738411 -9.0003824e-14 -1.354593e-39 -1.52562e-39 -5.78626e-40 4.17625e-40
-1.143063e-39 -5.88737e-40 6.487607e-16 7.7372455e-08 -2.5028882e-08 0.000512079 -0.0012077858 -0.0065275296
-0.018290784 -0.014057792 -0.016105065 0.0012258772 -0.019565389 -0.044182207 -0.00012811371 0.015354873
0.02362234 -0.03777724 -0.046327207 -0.035964116 -0.05147829 -0.014235831 0.016764168 0.0041859536
0.004387936 0.004447792 -1.62416e-39 1.643898e-39 -9.95826e-40 -1.88964e-40 -7.838435e-09 1.3965193e-06
-0.00020011958 0.015446827 0.030761441 0.035241213 0.02057827 0.025379598 0.04081055 0.048379783
0.012781971 0.0081081465 -0.055985488 -0.052649807 0.04477119 0.033670492 -0.07919586 -0.077908605
-0.019955663 0.027425105 0.03238603 0.010366759 -0.0074607837 -0.006845631 -0.007093485 -1.701394e-39
1.601182e-39 0.0004022891 1.8442184e-05 -8.790553e-05 0.0025787104 0.033092506 0.038934678 0.038935184
0.058917914 0.08944132 0.06910941 0.065284684 -0.029948417 -0.018118331 -0.021940775 0.0063181706
0.08421634 0.06694497 -0.022066697 -0.04474389 0.0080414675 -0.0007329314 -0.052031096 -0.046973877
-0.03263722 -0.01618264 0.0054839933 0.008050469 -9.79279e-40 -3.634968e-14 -0.0049699666 -0.0076592304
-0.02194904 0.011380877 0.06322887 0.058900286 0.08312678 0.076750346 -0.023421338 -0.030082304
-0.0006953623 0.07909078 0.06492715 0.04615805 0.09749098 0.111603364 0.071740694 0.00050398445
0.063022554 0.05985955 -0.024062524 -0.072688736 -0.058383405 -0.0007251975 -0.0033451137 0.0010317409
1.547259e-39 7.86816e-05 0.013794194 -0.02024517 -0.04277037 -0.02536767 0.008241154 0.001914145
0.057598542 -0.0426846 -0.087140225 -0.0831344 0.03285587 0.05321288 0.07770374 -0.018451553
0.009386044 -0.009548655 -0.037263066 0.0015856148 -0.033494186 -0.013490273 -0.056273434 -0.09471328
-0.07413445 -0.055287074 0.001125305 -0.0009205943 -1.1599644e-06 -0.0019004608 0.032808144 -0.016225636
-0.038117766 -0.020571755 -0.013851396 -0.01086765 0.027467137 -0.06129662 -0.02818639 -0.03565877
-0.037113734 0.057295434 0.09302374 0.07036303 -0.013502119 -0.09681672 -0.06281841 -0.030206585
-0.05984737 -0.06593868 -0.08183777 -0.09806259 -0.054413106 -0.030402193 -0.019010996 5.0037565e-05
5.8370924e-06 1.2628142e-05 -0.0062436922 -0.034469835 0.01677514 0.033301517 -0.027886923 -0.024957906
-0.05368124 -0.063577846 -0.06622171 -0.019373743 -0.031948555 0.0072516305 -0.042414673 -0.042269465
-0.03567407 -0.049222868 -0.0370835 0.022278009 -0.0152079575 0.007589504 -0.007972846 -0.026278773
0.0069964253 0.017476965 -0.007244258 0.003420428 2.4270844e-07 0.00018479855 -0.020837355 -0.021426395

autoencoder.encoder.1.bias f4 [100]
00000000: dc1c 06be 6f26 0ebd 760f b6bc 9c2c 9bbc
00000010: a8e4 23bf 11ad c5bb c669 56be 1c47 8b3d
00000020: a5e7 3fbc 7557 1e3d 7432 d63b 105b 33bc
00000030: 8e27 65be 1d1a e53c b5f3 85be 62a7 f1bb
00000040: 8e23 8cbc 73d1 85bc 99c8 11bf 8db8 ebbd
00000050: adcd 9abd 676d 05be d277 3fbc 3ab9 01bc
00000060: b1d2 49bc 09b4 09bd cc1e ee38 ff99 61bc
00000070: 5b55 4d3e 9654 85be 86a5 5eba d369 f6ba
00000080: 285d 8e3c 2dd1 ccbd 4f0c a63e 2b14 d03c
00000090: a700 b6bb 6f68 573c 5165 5d3e b67c 8bba
000000a0: a0aa a33e 6fea e8bc 42d6 9bbc b03d b73d
000000b0: 3be4 553b 7fe0 10be b092 c7ba 5c9a 90bd
000000c0: 1c4f f3b8 b98c c13b a4be 153f eb86 383b
000000d0: 1441 8e3b 0613 5cbe 01ef d3bd 57e4 0bbe
000000e0: 2fcd 97bb a713 8338 98ff 67be f4c2 10bc
000000f0: 6cbe 2fba 4be2 86bb 4796 1c3c c4d5 d2be
00000100: cc89 dabe 1442 98be 283b 153c 643c 233e
00000110: 18bd eebc 086b 61bf 4ea2 db3e bc5e 6e3e
00000120: 50ac 2abe 3592 49be dc61 7fbe f30b 04be
00000130: a4d1 98bb bc72 20bc 4636 f2bb ea0c 173e
00000140: 2d01 d7bc 9f9d 683b a6e9 babe 16d8 82be
00000150: 9f0c 6fbe 14c1 dcbd 1c42 70bd ff77 ac3d
00000160: 4aa0 aa3b ba5b fbba 8e57 a33d cdae 12bb
00000170: 7809 4d3b d517 8dbb c8e5 80bc 0e62 cbbe
00000180: 081a 71be 5c82 3c3d ed12 f9bb dc02 c13e
-0.13096946 -0.034704622 -0.02222417 -0.01894217 -0.64020777 -0.006032594 -0.20938787 0.068006724
-0.011712943 0.038657624 0.006536776 -0.010947004 -0.2237837 0.027966553 -0.26162496 -0.00737469
-0.017106798 -0.016335225 -0.5694671 -0.1150981 -0.07558761 -0.13030015 -0.011686282 -0.007917697
-0.012318299 -0.03361896 0.00011354461 -0.013769626 0.20052092 -0.26041096 -0.0008493293 -0.0018799849
0.017378405 -0.100008346 0.32431266 0.025400242 -0.005554277 0.0131474575 0.2162068 -0.0010642025
0.31966114 -0.0284321 -0.019023065 0.08947313 0.0032637257 -0.14148138 -0.0015226211 -0.07060692
-0.00011601878 0.005906668 0.5849402 0.002815659 0.004341254 -0.21491632 -0.10348321 -0.13661323
-0.004632614 6.250227e-05 -0.22656095 -0.008835543 -0.0006704095 -0.0041163317 0.009557313 -0.41178715
-0.42683256 -0.29737914 0.009108342 0.15941006 -0.029142901 -0.8805394 0.42897266 0.23278326
-0.16667295 -0.1968468 -0.24939674 -0.12895183 -0.004663663 -0.00979298 -0.007391724 0.1475102
-0.026245678 0.003549434 -0.36506385 -0.25555485 -0.23344658 -0.10779014 -0.058656797 0.08421325
0.005207096 -0.0019177117 0.07975684 -0.0022382021 0.0031286161 -0.0043058195 -0.015734568 -0.39723247
-0.23545086 0.046022758 -0.007601133 0.37697494

autoencoder.encoder.3.weight f4 [100, 100]
00000000: 0bdc 813d 5f1a 4b3c db50 f83b 3415 c1bc
00000010: 8677 6b3e 150a 86bc 939b e2bb 397e 4fbd
00000020: ed38 6ebc 2913 41bc 40d1 1f3c 7c1e c83a
00000030: d2b5 3a3e e3dd 723d 8034 c6bc a57d 2cbb
00000040: 6a03 bcbb cad7 4c3c b39f 9cbd 3509 3abd
00000050: 2844 3fbd 7787 223d 982d 56bb 8a84 193c
00000060: 9a31 0a3c c099 c03b 11a7 85ba 5ac6 66ba
00000070: 8d4e 11bd fb89 9c3e fdf5 dbbc 8e7d 30bb
00000080: 21ce b1bb 28db e0bd 053a 08be 887f 29be
00000090: 12cc 133c da12 d9bb e889 38bd 1da2 27bc
000000a0: 2f11 c13d 75e4 40be 1499 07bc 10b4 76be
000000b0: ae3e e5bb 5ed9 adbb 36ab aabb daf6 84bd
000000c0: 127e 0f3c 1f3d a5bb 390d ebbd 11ad 0cbc
000000d0: c6b5 9fba b02f 97bc d2d4 2fbe 304f 183d
000000e0: e323 123c 4cbb 8bbc fe64 143e 5ad9 513b
000000f0: a77f ef3b 11ee 2f3b b8c4 043e 05dd 12be
00000100: 5b35 983d 1093 973c c3d2 01be 1b10 42bd
00000110: 7fdb 183c 7177 b13d 98ea 93bd e34a c8bd
00000120: 3d28 39bc 1c71 4f3e 3e80 d03b d72e 0c3d
00000130: fb36 27bc 56c1 6ebc 92bb c73b 2353 1bbe
00000140: 979a 923a 2a42 59bd ad17 cebd a5cd 9b3c
00000150: b84f 28bd 7f60 bebd 1348 85bc 9642 49bd
00000160: 7570 6bbb 93f4 073b 134e a5bd 6e64 4dbb
00000170: 40c4 4d3c 950f 823a e0fb c5bd 3de3 40bc
00000180: 3c2f bebd 2b0f a9bd b6a1 373c 8cb0 5cbd
00000190: 46a1 54bd 012b 33bd a069 e73b 2463 c1bc
000001a0: a225 143c a5a4 073c 786e 943c f3e0 51bd
000001b0: 8c83 e1bb c553 94bd 73c2 d8bb a550 2dbc
000001c0: 6205 223d bd55 fdbb 3f6e a53d 48f9 64bc
000001d0: 0c6e 84bc 0451 83bc b1c4 1b3e 4413 aabc
000001e0: b30a 95bd 01f0 2cbe 8d14 053c 6756 c8bb
000001f0: 666a 873b 49ee 093d 2502 a7ba 090e 9ebc
00000200: 1b34 b4bd 79dd dfbd eac2 d33b 32fd 853c
00000210: 3800 a43b 9c6d 4ebd c7ab e4bd 86e9 df3d
00000220: fafe f6bb 9263 fb3a 25bc e8bc 7ab2 373c
00000230: 8aea 8d3e 2f5e dfbd 4c84 34bc 0d18 1abe
00000240: a4c4 2abc 561a 443c 3ce0 04bc edc8 2abd
00000250: 6504 733b 3ddf 143c 0f97 46bd 8068 9d3b
00000260: cf0b 49bc 7b66 223c d957 353d aea3 3c3d
00000270: 7865 08bb e0ce e8bb d848 22bd 00f7 b8bc
00000280: 3b43 833b 6c85 9a39 6264 86bd aae2 03be
00000290: 5a6b 7bbb a583 9e3c 3729 4d3d eea3 b63d
000002a0: ed17 52bc 1a0b babd ae00 1e3e dbe4 70be
000002b0: a3fe 1a3b f0ab 4cbd 8507 47bd 1658 74bd
000002c0: bbe3 07bc fa13 883c 2c60 723b 53be 81be
000002d0: 9627 17bc 5e32 4a3c aff3 70ba 4a7b dd3c
000002e0: c141 003e fe33 d9bc 6662 da3c e740 b4bc
000002f0: 3839 7e3c 23fe caba ed64 733e 5c3e 683c
00000300: d4ed 023c ac15 553a 5a13 0d3e 6f2f cabb
00000310: 8e7d 9a3d 5084 a6bd fb12 4c3c c990 81bd
00000320: 71a2 b7bc dcc3 58bd 8ddc 263c 4fcb 18bd
00000330: 84f5 1bbd 1dca 973c b737 143c 9c0c ee3c
00000340: 1eb9 723c eb39 5a3d 3cb1 833b 9076 7ebb
00000350: 84fe 243e b783 0f3c cc71 39bc d336 8c3c
00000360: 8475 743c 4228 273c d3ab a4bd 2fe2 6e3c
00000370: 18cb 5bbd 9c7e 93bd e67a 883c 2ce3 82bb
00000380: b7f9 1b3c 0a45 833c 0f03 803a a244 d5bb
00000390: fb44 543d 8477 98bd 0b9f 90bc 1f72 2f3c
000003a0: 8980 53bb 5414 773d 6041 c5bc 88ec 303d
000003b0: a174 063c ad76 7f3c fcf0 3fbd d6fc f33c
000003c0: 1bf7 3ebe 20a2 47bc faa7 de3c a6be ddbb
000003d0: 8cc4 563c 9f27 b73b 3a4a 323b ebb6 b93d
000003e0: bcbd 123c 391e d43c d6d8 e3bc 701d 963c
000003f0: 8560 e8ba a615 dbbd 6ec6 90be 32e0 bbbd
0.06340798 0.012396424 0.007577998 -0.02356968 0.22994813 -0.01636223 -0.0069155185 -0.050657485
-0.014539939 -0.011784353 0.009754479 0.0015267874 0.18233421 0.05929364 -0.024194956 -0.0026320007
-0.0057377117 0.01250262 -0.07647648 -0.045418937 -0.04669586 0.03967997 -0.0032680985 0.009369979
0.0084346775 0.0058777034 -0.0010196884 -0.00088033604 -0.035475302 0.3057402 -0.026850695 -0.0026930305
-0.005426184 -0.10979301 -0.13303383 -0.16552556 0.009020822 -0.0066245617 -0.045053393 -0.010231522
0.09427106 -0.1883715 -0.008276243 -0.24092126 -0.0069959974 -0.005305453 -0.005208398 -0.06492396
0.008758085 -0.0050426866 -0.114771314 -0.008586184 -0.001218491 -0.018455356 -0.17171028 0.037184894
0.008919689 -0.017057084 0.1449165 0.003202042 0.0073089185 0.002684478 0.12965667 -0.14342125
0.07432052 0.018502742 -0.12678055 -0.04737864 0.009329676 0.0866536 -0.072224796 -0.097799085
-0.011301097 0.20257992 0.006362944 0.034224357 -0.010205979 -0.014572462 0.006095358 -0.15168433
0.0011184987 -0.053041615 -0.100631095 0.019018957 -0.04109165 -0.09295749 -0.01626972 -0.049135767
-0.0035925184 0.0020745143 -0.08071532 -0.0031340378 0.012558997 0.0009922857 -0.09667182 -0.011772928
-0.09286353 -0.08254846 0.0112079885 -0.053879306 -0.051911615 -0.043742184 0.007062152 -0.023606844
0.0090421755 0.008279 0.018119082 -0.05123992 -0.0068821367 -0.0724254 -0.006614977 -0.010578309
0.039555915 -0.007731168 0.080776684 -0.013975449 -0.016165756 -0.016029842 0.1521175 -0.02076114
-0.07277431 -0.16888429 0.0081225755 -0.0061138156 0.0041325567 0.033674512 -0.0012741728 -0.019293802
-0.08799001 -0.109309144 0.0064624446 0.016356084 0.005004909 -0.0503975 -0.111655764 0.10933213
-0.00753772 0.0019179455 -0.028410027 0.011211986 0.27718002 -0.10906636 -0.01101787 -0.15048237
-0.010422859 0.01196917 -0.008110102 -0.041695524 0.0037081477 0.009086427 -0.048483904 0.004803717
-0.012270882 0.009912129 0.04427323 0.046054535 -0.0020812433 -0.0071047395 -0.03962025 -0.022578716
0.004005817 0.00029472576 -0.06562115 -0.12879434 -0.0038363547 0.019349882 0.050088134 0.08917986
-0.012823087 -0.09084149 0.15429947 -0.23524801 0.002365031 -0.04996866 -0.048591156 -0.059654318
-0.008294041 0.016611088 0.0036983592 -0.25340518 -0.009225747 0.01234111 -0.0009191585 0.027036328
0.12525083 -0.02651405 0.026658248 -0.022003604 0.015516572 -0.0015487116 0.23768969 0.014175024
0.007991273 0.00081285345 0.13776913 -0.0061702053 0.07543479 -0.08130705 0.012455697 -0.06326444
-0.022416325 -0.05292116 0.010184419 -0.037303265 -0.03807594 0.018528992 0.009046487 0.029058747
0.014814643 0.05327789 0.0040189307 -0.0038827993 0.16112715 0.008759431 -0.011318635 0.017115986
0.014920596 0.010202469 -0.08040585 0.014580294 -0.053660482 -0.07201883 0.016660165 -0.003994366
0.009519986 0.016024131 0.0009766537 -0.006508426 0.051823597 -0.07444671 -0.017653963 0.010708361
-0.0032272658 0.06032212 -0.024079025 0.043194324 0.008206517 0.015592259 -0.04686068 0.029783648
-0.18648951 -0.01218465 0.027179707 -0.006767112 0.013108384 0.00558944 0.0027204887 0.09068092
0.008956369 0.025893318 -0.027813356 0.018324584 -0.001772896 -0.106974885 -0.2827639 -0.09173621

autoencoder.encoder.3.bias f4 [100]
00000000: 2126 093c cabe 9fbb dc0c 65bc 2e1a e03b
00000010: 6894 8e3b b021 20bc 205c fcbd fda3 133d
00000020: d7d7 323b 7296 fdbd 0427 24ba ff5e b53d
00000030: cdea 9b3b 16a1 ceba a878 fc3b bc72 28bb
00000040: 089f 883b 2119 a53b 914d ebbb a210 17bc
00000050: a44b 3bbc ed8c 8a3b 2b62 9b3e d2bc 413b
00000060: 2fde 2ebd 2906 8b3e 278c 83b9 f99b 723b
00000070: ca71 513b fac2 b03b c501 b13a 1e3b 643d
00000080: e4cd d4bd 6454 2a3d e0fc 2fbe 86e2 733e
00000090: bd04 f2bd 934a 05be 1682 9cbd 6f09 f3bb
000000a0: 6277 a73b d98e 673e ba38 503b 7345 883d
000000b0: 8478 02be c39b a43b 7069 14be da64 c03b
000000c0: 6ff9 f33b e5f5 7f3b ac67 2ebb b836 07bd
000000d0: ccb8 503b b348 44be 67ee 90be 1301 77b9
000000e0: 9f1a 063e a71b cc3c 3fb6 d3bd 6aa7 283d
000000f0: 7453 873e 6271 773b 743c 433d cec6 7fbc
00000100: 7cca 813a 39a8 8c3b 3ffb 2d3e 539d d93b
00000110: cab2 cf3c cfbc 1fbb bc30 21be ce32 9f3e
00000120: 3550 e3bd 5859 85ba 7de8 be3d d293 143e
00000130: 300a e83c 8b36 a9ba f2f1 fbbd 83c2 a5be
00000140: 16f4 35bb a97f 943e f4cb 9fbd dcce a53b
00000150: 84bb 23bb d5a0 d23b 96b9 a6bd b881 01ba
00000160: 01ac ac3b 44b8 9abe 4175 77be dd78 cdbe
00000170: 0c39 723d 085d 2bbb c3cf 23bc 0b7c 123b
00000180: c440 cc3a d7d6 1abc e0de 1abd 13d0 7b3d
0.008370907 -0.0048750388 -0.013980117 0.0068390584 0.0043511875 -0.009773657 -0.12322259 0.036045063
0.0027289295 -0.12382211 -0.00062619173 0.0885601 0.004758215 -0.001576456 0.007704813 -0.0025703153
0.0041693486 0.005038396 -0.0071808775 -0.009220274 -0.011431608 0.0042282254 0.30348334 0.0029562009
-0.04269236 0.27153137 -0.0002509069 0.0037019236 0.0031958693 0.005394337 0.0013504556 0.05572044
-0.10390833 0.041584387 -0.17186308 0.2381688 -0.1181731 -0.13016729 -0.076419994 -0.007416896
0.005110667 0.22613086 0.0031772093 0.066538714 -0.12741286 0.005023451 -0.14493346 0.0058713974
0.0074455063 0.0039056477 -0.0026612086 -0.03301117 0.0031848429 -0.19168358 -0.28306887 -0.00023556156
0.13096093 0.02491553 -0.10337495 0.041175283 0.26430857 0.003775679 0.047665074 -0.015611364
0.0009902264 0.0042925146 0.16990374 0.006641069 0.025353808 -0.0024374013 -0.15741247 0.31093448
-0.11099283 -0.0010173721 0.09321687 0.14509514 0.02832517 -0.0012909932 -0.12302007 -0.32374963
-0.0027763895 0.29003647 -0.07802573 0.00506006 -0.0024983594 0.006427864 -0.081408665 -0.0004940289
0.005269528 -0.3021871 -0.24165823 -0.40131274 0.059136435 -0.002614798 -0.009998265 0.0022351767
0.0015583267 -0.009450636 -0.037810206 0.061477732

autoencoder.encoder.5.weight f4 [100, 100]
00000000: 2e09 d93b ea69 48ba ca60 d13b 3dcd 90bb
00000010: f937 88bb eba8 8a3b d8a8 45bc c5ad 2f3b
00000020: 55e7 c9ba decd ff3b d6bb 913a 6c56 8f3b
00000030: c9ef 75bb ca0f 1c3a 6a13 86bb d8d0 1e3b
00000040: 6afc 38bb c124 91bb 339d aa3b c070 1c3c
00000050: 9b07 e53b 14d6 68bb 1452 8f3b 4393 aabb
00000060: aa63 083c 0a60 bd3b 687f 71b8 4df9 7ebb
00000070: d9fd 4cbb 7355 93bb de18 0dbb fb94 903b
00000080: 8cc0 bcbb 0fc1 49b7 ac90 d73b 6513 6aba
00000090: eece 083c d650 9cb9 e6bc 443b 145d 863b
000000a0: ee2c 82bb ffc3 12bc f328 44bb e5bd 913b
000000b0: 99cd e63b ba2e 78bb 1188 dfbb 76d9 73bb
000000c0: cee9 7ebb eee3 14bb 2ca0 a13b 2d18 fe3b
000000d0: 65fc 033b a683 063a 910f 8ebb e317 3339
000000e0: b64b 1c3b c8d4 99bb 3fca d33b bc49 f0bb
000000f0: e7b7 3e3b 3023 37bb e4ec 1bbb 6d30 3c3b
00000100: 8d5e 73bb 0648 1ebb 7e8e ea3b 2bde 67bb
00000110: 8194 8f3a 4a2d db3a c2c9 a939 8ac1 753b
00000120: 9a39 933b c1c0 1b3b 46c0 7cbb 694c 14bc
00000130: de2f 99ba 6731 e53a 5f73 2d3a 2ad2 c13b
00000140: 0653 0a3b 69f3 1bbc dcd4 11b9 2524 80bb
00000150: 74bc 693b 0299 70bb fa87 773b 69ac 68ba
00000160: b759 42bb f8ed 6f3c 85c6 eb3a a2b1 c83b
00000170: ae29 973b 8ff7 b33b 912f 7d3b c470 2c38
00000180: 2a31 bbba 8934 843b e5bf ea3a 8e90 813b
00000190: 94eb 31bc a7de 9ebb 5ac7 2a3c d02f 04bb
000001a0: d093 113b d5c2 083a 900e a3ba aa88 95bb
000001b0: 8dad c9ba aa6c bbba 384b 0739 a0ba 87bb
000001c0: d00b 1dbb f848 fe39 433d 6aba f4eb a83a
000001d0: 5655 4aba 54bd 24bb a021 303b 77ca 15bb
000001e0: 14b2 ab3a 5c33 12bb 3a86 c4ba be26 10b9
000001f0: cf21 3ebb 4692 a73b 1908 41ba 1107 73bb
00000200: c9be 33bb fa95 eaba ca06 b7ba 50b8 41bb
00000210: c938 f8bb a70c 4e3b e3fd c3bb 0ad1 1cbb
00000220: ed1b 82bb 2f5e 863b 1d02 ca3b b6a9 243b
00000230: b68f c6ba a4ff 80bb 80f5 60bb b5d4 fc39
00000240: cecf 913b 9a68 f139 66a3 eabb ab57 8bba
00000250: 0343 64ba 4da4 1ebb 291f 583b f661 843a
00000260: cd12 103b 1a91 db3a 5216 503b 73f6 5d3a
00000270: 2685 cfba 3e97 efbb d344 823b eac7 b63a
00000280: f6a5 f13b f5b9 aaba 2ea0 7d3b d6ed bd3a
00000290: 27a9 8dbb 4b6d 58bb 32a5 6cbb 0696 6fba
000002a0: cb25 6bbb 6db0 3f3b 8f47 33bb 3fa2 18ba
000002b0: f10e a03a fdad 193a e117 c03a c4b3 4bbb
000002c0: 23c9 b23b 91dd 3d3a 62ee 79bb 9278 30bb
000002d0: 73cb c63a e3de 55bb 9af3 7e39 b82a 6dbb
000002e0: abcc 6a3b 0263 54ba 4a97 a2bb f723 9539
000002f0: 9ffe 38ba 91ea 0d3b 0068 b33a 6fbe 1d3c
00000300: 3cb2 f338 6f36 673b 2c7f be39 ec36 c93a
00000310: 7ad1 b8ba 5983 2739 c297 b7bb 0cf8 b53b
00000320: 4d59 443b b162 89bb 8655 ceba 867b 2e3b
00000330: b263 e3ba 50f7 06bb d7e4 8c3b 923d dc3b
00000340: 2f89 e43a e6bd 723b 52bd b93a c834 a3bb
00000350: b657 6a3b 92f7 9339 085a c03a 4e50 41bb
00000360: d2c5 e43a 2dd1 653b afa4 5abb 0c68 2d3b
00000370: 42d1 683b 9d34 893a 9cd2 d9bb da4e 5c3a
00000380: 99b2 b43b 83a8 013c ef9e fdb9 7862 9e3b
00000390: f00f c23a bf39 323b bca2 263a 1569 953b
000003a0: f1d7 133c f3ca 8ebb a36e 563b 4d54 873a
000003b0: 8e3f e13b 3e03 daba 1904 4239 f1c9 62bb
000003c0: 1541 113b 34d3 583a 718e 923b c1e9 963a
000003d0: a15e f039 d68d 303b 0a37 533b d7cd b73a
000003e0: ab82 b13a d943 8b3b e6d2 85bb 0987 e9bb
000003f0: 465a 913b 8fcb 65bb 5d8d b1ba 4272 f239
0.0066234088 -0.0007645177 0.006389712 -0.0044189976 -0.004157063 0.0042315624 -0.012064181 0.0026806456
-0.0015404025 0.0078065237 0.0011118602 0.004374316 -0.0037526956 0.00059532805 -0.00409167 0.0024233367
-0.0028226622 -0.0044294302 0.005206728 0.009548366 0.006989432 -0.003552799 0.004373798 -0.0052055432
0.008324543 0.005779271 -5.7577534e-05 -0.003890592 -0.0031279235 -0.0044962703 -0.0021529715 0.004412291
-0.005760258 -1.2025484e-05 0.0065785255 -0.00089292816 0.008350117 -0.00029814866 0.0030019819 0.0041004512
-0.003972641 -0.008957862 -0.0029931634 0.004447686 0.007043552 -0.0037869648 -0.0068216403 -0.0037208474
-0.0038896683 -0.0022718864 0.004932424 0.007754347 0.0020139453 0.00051313115 -0.0043353518 0.00017079669
0.0023848838 -0.004694555 0.0064633186 -0.0073330086 0.0029101314 -0.0027944557 -0.002379232 0.0028715387
-0.0037135214 -0.0024151816 0.0071580997 -0.0035380225 0.0010954292 0.0016721871 0.00032384513 0.0037499391
0.0044929506 0.0023766013 -0.0038566752 -0.009051421 -0.0011687239 0.0017486037 0.0006616618 0.005914946
0.0021106615 -0.009518483 -0.00013907574 -0.0039105588 0.0035665305 -0.0036712294 0.0037770257 -0.0008875789
-0.0029655525 0.0146441385 0.001798824 0.006124691 0.004613123 0.005492158 0.0038633088 4.1113017e-05
-0.001428162 0.004034583 0.0017909972 0.003954 -0.010859389 -0.0048483196 0.010423506 -0.00201701
0.0022213347 0.00052170205 -0.0012440253 -0.0045634108 -0.0015386805 -0.0014299352 0.00012902624 -0.0041421205
-0.002396334 0.0004850102 -0.00089355203 0.0012887702 -0.00077184045 -0.0025137262 0.002687551 -0.0022856274
0.0013099336 -0.0022308445 -0.0014993616 -0.00013747343 -0.002901185 0.0051138727 -0.00073635724 -0.003708307
-0.002742695 -0.001789748 -0.0013963815 -0.0029559322 -0.0075751287 0.0031440647 -0.0059811934 -0.0023928308
-0.003970614 0.004100583 0.0061648027 0.002512557 -0.001514903 -0.0039367247 -0.0034326017 0.00048223665
0.004449821 0.00046045036 -0.007160592 -0.0010630985 -0.0008707495 -0.0024206818 0.0032977557 0.0010099995
0.0021983862 0.0016751618 0.0031751585 0.0008467205 -0.0015832528 -0.0073117306 0.0039754896 0.0013945077
0.0073745204 -0.001302539 0.003870021 0.0014490436 -0.004323143 -0.0033024128 -0.0036109206 -0.00091394817
-0.003588068 0.0029249445 -0.0027355885 -0.00058225164 0.0012211484 0.0005862413 0.0014655554 -0.003108249
0.0054561063 0.0007242794 -0.0038136472 -0.0026927334 0.0015166834 -0.0032634072 0.00024314076 -0.0036188792
0.0035827558 -0.00081019115 -0.0049618827 0.0002844629 -0.00070569845 0.0021654705 0.0013687611 0.009627922
0.00011620342 0.0035280248 0.00036334374 0.0015351451 -0.0014100515 0.00015975292 -0.0056028077 0.005553251
0.0029960454 -0.004192673 -0.0015742041 0.0026623919 -0.0017348437 -0.0020594187 0.004299741 0.006721207
0.0017435903 0.0037039458 0.0014170802 -0.0049806572 0.0035757846 0.0002822248 0.0014675269 -0.0029497328
0.0017453975 0.0035067305 -0.003336232 0.0026459722 0.0035525118 0.001046795 -0.006647421 0.0008404084
0.0055144546 0.0079137115 -0.00048374335 0.0048335157 0.0014805775 0.0027195064 0.0006356647 0.004559646
0.009023652 -0.0043576895 0.0032719753 0.0010324806 0.0068740314 -0.0016633046 0.00018502808 -0.003460523
0.0022164036 0.0008271218 0.0044725467 0.0011513756 0.0004584687 0.002694001 0.003222885 0.0014023137
0.001354297 0.0042500314 -0.004083979 -0.007126693 0.0044358103 -0.0035063957 -0.0013546158 0.00046242966

autoencoder.encoder.5.bias f4 [100]
00000000: 18a5 f5ba f890 a6b9 1ab6 90bb a096 8db8
00000010: fd41 d03b 91bd d73a 1a92 ecbc 165f 6cba
00000020: 3294 bdba 7f6f e33a 2483 493c 105c d6ba
00000030: d354 be3c fb76 cfbd 0241 5cbb 73fa 4abb
00000040: cb70 1fbb 96b2 f4ba 90d0 af3b ef48 263b
00000050: df29 ac3b 640c 033b 0c9c eb3a 4a56 beba
00000060: 059d d93a 4dd6 7d3a 5165 18bb 454b 45ba
00000070: dc7d f539 8118 ff3d 2889 fd3c cea6 c0ba
00000080: 4058 353a b74c 95b9 9f7a b23a dfb1 e9ba
00000090: 3834 d1ba 617c d8bc c175 7e3a 48bc 1f3a
000000a0: dbfc 88bb 733a a5bb a5e1 75bc b0c9 6cbe
000000b0: 5b87 cabd 23e7 5b3b 736b 113b 18e9 1b39
000000c0: 459e 9f3a 24f8 2dbe dfbb 20be 53c1 fbbd
000000d0: b1a2 61ba 8a0c a2ba bc97 173b 9f04 90ba
000000e0: 7397 dd39 45ce c8ba c441 023b 5201 e13a
000000f0: cb99 d03a 16f4 4e3b 0194 a13a 0370 85bc
00000100: 0ad0 10bb 64a8 4c3b ffa2 343b ba33 cc3a
00000110: 214b 2b3b f94a 4e3b 0d60 07bb 340e 70bb
00000120: 2822 97bb c131 e53a 48a8 9fb9 e60b 42be
00000130: 559c 46bc d6df 6ebb c1a2 30ba 540e d7ba
00000140: d008 cdba d728 0dbb 7c0a dfba 6d61 34bb
00000150: 8e87 263a 9944 beba 5607 1fbb e08b e9b9
00000160: 6d92 98bd 4906 c03a e9ae 80bb 2922 0a3b
00000170: d8c0 eaba ce69 353b 1f3b 85be 095c c1be
00000180: 8b27 84ba 9fe0 203b d13e 85bd 810d 31bb
-0.0018741218 -0.00031769997 -0.0044162394 -6.75146e-05 0.0063555227 0.0016459693 -0.02887826 -0.00090168545
-0.0014463721 0.0017351954 0.012299333 -0.0016354341 0.023233807 -0.101301156 -0.0033608084 -0.0030972033
-0.0024328704 -0.0018668945 0.0053654388 0.0025373062 0.005254015 0.00199964 0.0017975583 -0.0014521566
0.0016602582 0.00096831174 -0.0023253749 -0.00075261696 0.00046823814 0.124558456 0.03094919 -0.0014698149
0.00069177523 -0.00028476652 0.0013616866 -0.0017829499 -0.0015960997 -0.026426496 0.0009706878 0.0006093425
-0.0041805333 -0.005042368 -0.015007411 -0.23123813 -0.09889098 0.0033554516 0.002218929 0.00014868786
0.0012177905 -0.1698919 -0.15696667 -0.12292733 -0.0008607312 -0.0012363356 0.0023131212 -0.0010987705
0.00042265243 -0.0015320262 0.0019875625 0.0017166531 0.0015914975 0.0031578592 0.0012327434 -0.016288763
-0.0022096657 0.0031228298 0.0027562974 0.001557938 0.002613731 0.0031477793 -0.0020656616 -0.003662956
-0.004612226 0.0017486141 -0.00030452223 -0.18949851 -0.012122233 -0.0036449335 -0.00067381194 -0.0016407468
-0.0015642885 -0.0021539235 -0.0017016674 -0.002752389 0.00063525967 -0.0014516293 -0.0024265847 -0.00044545438
-0.074498035 0.0014650311 -0.003927101 0.002107749 -0.0017910255 0.0027681473 -0.26021668 -0.3776553
-0.0010082586 0.0024547947 -0.06506122 -0.0027016106

autoencoder.encoder.7.weight f4 [100, 100]
00000000: bd0d b13a 453a 46bb 41f4 e1b9 8b37 ccb9
00000010: 9226 65bb dbbe 5d3a 8849 3a3a a0af 753a
00000020: c27f 383b 9913 81ba 9410 173b beaf 4a3b
00000030: 86e9 2b3c 81e4 e4ba a4bc 273a e102 c63a
00000040: caa6 133a 83c0 9a39 b8b2 c3ba af4c 4a3a
00000050: 0a0c bb3b 267b a8bb ebb6 adbb 3370 94ba
00000060: 6763 55bb 0458 92ba 7585 e93a f6c6 19bc
00000070: 7624 723a bfd9 47bb 6b05 6e3b f5a0 dfba
00000080: 3cbe e5b9 4d40 6bbb ad5a 05ba f188 883a
00000090: ef67 5db8 3b01 5f3a dfa8 cdbb 1e82 f9ba
000000a0: 9ae6 2839 d5f1 fc38 2066 a7bb e5ba bd3b
000000b0: 2bb6 6c3c cb13 41bb 48b2 feba 1c99 76bb
000000c0: 1a5a 0aba 76ca 7cba df76 7bbb deda 093b
000000d0: c343 053c 90e6 31b9 0305 daba 9d1a 04bb
000000e0: a753 ccb9 8b43 163a d1ac b33a 904b 243a
000000f0: 7e49 3cbb 2959 ecb9 7f6e c339 d672 9c3b
00000100: a174 9a39 7dd7 80bb 2df3 3f3a 815d 99bb
00000110: d511 10ba b77c 963a da84 843a 1c0a 0dbb
00000120: 352f 023b 2012 41bb 915d e639 4de2 723b
00000130: 516f 773b d6a7 34bb 2cb8 083a 6a71 c0ba
00000140: 3fda 0e3b de8b 133a f5c3 9f39 6f26 a23b
00000150: 1699 d0ba 3543 fd39 4ce6 503a c904 773a
00000160: e670 843b f0c9 5bbb 893f 673b 727d ae3a
00000170: 9932 f9ba 3192 20bb c3c7 0339 3347 ba3a
00000180: 636c d0b8 eac5 c0ba 475b e4bb 3357 c63a
00000190: 617f 36ba 98e8 66ba c328 88bb 7d21 8c3b
000001a0: cf15 0d3c dce1 38ba dd2f 59b9 a189 82bb
000001b0: db69 ca3a 9c84 0aba 9423 c1ba 7ea1 9aba
000001c0: a443 cab8 9904 473a 0973 35ba 1f14 47bb
000001d0: 69fe 1abb 58f2 38bb 1159 113c b194 933b
000001e0: 7951 41ba 54f5 683b 795d 643b c65c ddb9
000001f0: 3a37 c43b c130 8fba 48a8 cdba 8dd8 4b3b
00000200: 7320 07bb 9aa3 043b 8ec3 7d3b a203 7dba
00000210: 1290 5cbb a23e 7f3b a6b1 263a 5b15 d43a
00000220: 55d7 8cbb 53de 8bbb 6de0 7d3b fb6f b0ba
00000230: 760b 673b 3bd2 a4bb ff3d b0bb 8952 0d3c
00000240: 5e87 d53b a1f0 143a 3772 f73a 0c06 813b
00000250: 4b0e 3dbb 0cdd 39bb 8beb 183b 7421 453b
00000260: a95d 303c b5b5 3f3b 2dcb f33a 62c1 c1bb
00000270: ad58 ae3a 41bc 62bb e359 aa3b 1f6f e037
00000280: e194 9b3a 1c75 11ba e43e 02bb a933 903b
00000290: a74f a2b9 aa9b e73a 4c7a df3b bff2 a33b
000002a0: 0154 8d3a fffc 183c 41c1 37bb 5f8d 8cbb
000002b0: 10c1 07bb 6ba3 5b3a 1230 a0ba 7262 6c3b
000002c0: 5fc5 ae3a 24b7 99bb e685 0ebb 19df b4bb
000002d0: 0108 34ba 6a3e 2ebb 392e 37bb 7d9b 733b
000002e0: 2638 06ba c2f1 06ba b7f1 b43b 2202 22bb
000002f0: 83e7 60ba 9198 5a3b db70 243a f640 033b
00000300: 2902 65bb eafa 4e3a ea2a 01b9 7390 443b
00000310: bdf9 76bb 8fa1 2e3b 7f9f c13a 2484 68bb
00000320: dd63 f83a 5efa 9638 7b8c 0f3b 5adc af38
00000330: 5bd7 71bd af26 c039 666b dcbb 32d2 073a
00000340: c4e7 8239 b7ed 0b3b 50cf 29bd d9bd d43a
00000350: 8599 f43c 8784 43bd ca19 383b d334 8439
00000360: 3fec 343a 1a14 883a 67e8 fc38 68d2 e0b9
00000370: 7f57 683d c3ac e3ba c9a3 dcb9 bf93 083b
00000380: 6f11 65b9 69f3 5aba f178 bf3a 0f69 79b9
00000390: aa99 3c3a a0d6 b7bb 53c2 a9bc 14d7 843b
000003a0: 3a06 bd33 51d0 b239 b653 26ba eac8 13ba
000003b0: 5b25 bc3a 0f1c 92bc 4131 13bb 71ba 553a
000003c0: a42b 6fba db11 0e3b d1a9 0fbe 977b ed3c
000003d0: 271d 183d b652 8439 e606 53ba 6bef 82b9
000003e0: 17cd 84ba b480 cfbd 88b3 15bd ccc1 12bd
000003f0: cfd5 25bd ca00 c4b8 bce0 a5ba 1c15 81b9
0.0013508123 -0.0030247134 -0.00043097328 -0.00038951295 -0.0034965617 0.00084589206 0.0007106294 0.00093721785
0.0028152321 -0.000984776 0.0023050653 0.0030927504 0.010492688 -0.0017463119 0.0006398654 0.0015107059
0.00056324585 0.000295166 -0.0014930582 0.0007717115 0.0057082223 -0.0051416336 -0.0053013465 -0.0011324942
-0.003256047 -0.0011165147 0.0017816263 -0.009385815 0.00092370005 -0.0030494777 0.0036319147 -0.0017061519
-0.0004382002 -0.003589648 -0.0005087059 0.0010416788 -5.27873e-05 0.0008506958 -0.0062762345 -0.001903597
0.00016107634 0.00012061341 -0.00510861 0.005790102 0.014447729 -0.002946126 -0.0019431794 -0.0037627881
-0.00052777084 -0.0009643206 -0.0038370413 0.0021034996 0.008133831 -0.00016965927 -0.0016633574 -0.0020157464
-0.00038972238 0.00057321106 0.001370812 0.0006267363 -0.0028730328 -0.00045079857 0.00037275624 0.0047744317
0.00029460064 -0.003931938 0.0007322308 -0.004680336 -0.0005495821 0.001148126 0.0010110394 -0.0021520918
0.0019864563 -0.0029460266 0.0004393873 0.0037061155 0.0037755559 -0.0027565858 0.0005215432 -0.0014682238
0.0021797565 0.0005628447 0.00030472843 0.0049484293 -0.0015914764 0.00048305994 0.0007968887 0.0009423015
0.004041779 -0.0033537112 0.0035285673 0.0013312532 -0.0019012272 -0.00245012 0.0001256755 0.0014211893
-9.9384015e-05 -0.001470742 -0.006968889 0.0015132189 -0.000696173 -0.0008808463 -0.00415525 0.004276453
0.008611157 -0.00070526986 -0.00020712563 -0.003983692 0.0015442924 -0.00052840426 -0.0014735335 -0.0011797396
-9.64471e-05 0.00075919327 -0.00069217436 -0.0030376983 -0.0023650175 -0.002822062 0.008871333 0.0045038094
-0.0007374506 0.0035546618 0.0034845753 -0.00042221526 0.005988029 -0.0010924564 -0.001569041 0.0031104416
-0.0020618706 0.0020239116 0.0038721296 -0.00096517254 -0.0033655209 0.0038947244 0.0006358869 0.0016180681
-0.0042981305 -0.0042684465 0.0038738505 -0.0013461107 0.0035254634 -0.0050299442 -0.0053784843 0.008625635
0.006516381 0.00056816085 0.0018878643 0.0039374884 -0.002884763 -0.0028360514 0.0023333754 0.0030079754
0.010764518 0.0029252593 0.001859998 -0.0059129456 0.0013301574 -0.0034597071 0.0051987036 2.6754626e-05
0.0011869931 -0.00055487617 -0.0019873912 0.0044006896 -0.00030958393 0.0017670293 0.006819999 0.005003303
0.0010782481 0.009337663 -0.0028038772 -0.0042893137 -0.002071444 0.0008378538 -0.0012221357 0.003606942
0.0013333968 -0.0046910215 -0.002174729 -0.0055197594 -0.0006867648 -0.0026587495 -0.0027951135 0.0037171536
-0.0005120061 -0.0005147719 0.0055219787 -0.002472051 -0.000857942 0.0033355097 0.000627292 0.0020027733
-0.0034943915 0.00078956655 -0.00012318385 0.0029993325 -0.0037685477 0.002664659 0.0014772265 -0.0035479153
0.001895066 7.199192e-05 0.0021903801 8.385694e-05 -0.05904327 0.00036649915 -0.00672667 0.0005181163
0.0002496821 0.0021351406 -0.041457474 0.0016230895 0.02985836 -0.04773381 0.0028091543 0.0002521636
0.00069016585 0.0010381967 0.00012059585 -0.00042881374 0.056724068 -0.0017370213 -0.000420837 0.0020840017
-0.00021845636 -0.0008352311 0.0014608187 -0.00023785628 0.00071945286 -0.005610302 -0.020722544 0.0040539596
8.802131e-08 0.00034106013 -0.00063448714 -0.00056375435 0.0014354395 -0.017835645 -0.0022459778 0.0008153087
-0.00091236294 0.0021678123 -0.14029624 0.028989596 0.037137177 0.00025238626 -0.0008050039 -0.00024973913
-0.0010131922 -0.1013197 -0.036548167 -0.03582935 -0.040487107 -9.346155e-05 -0.0012655477 -0.00024620525

autoencoder.encoder.7.bias f4 [100]
00000000: 8102 003c 2e31 e5ba c2c4 4fbb b1d7 d73b
00000010: a89c 343b 86c4 883b e8fd 0e3c b948 7db9
00000020: efb2 20ba c8b0 88ba b304 ed3a 9ca8 91bb
00000030: 63cc ddbb 6227 9e3a bac3 ebbd 4bd6 b0bb
00000040: cd2f 1f3b fbd6 b83a ac9b a939 d640 3dbb
00000050: a13a 8c3d 23ad ab3a 2332 053c 44ef e23b
00000060: 1123 7a3a c5fb 7039 645e 38ba 5bbf cdbb
00000070: 51ff 17bc 00b2 12ba e917 183d c125 073b
00000080: 6796 a73b b24d deb9 a125 9cbb 6436 c2bb
00000090: be47 5f3b 03f8 a739 4983 cfba 9bc2 593b
000000a0: 7dd5 1b3b 8bc3 bdb7 c8fc a0b9 f316 163c
000000b0: 3e2a b8ba 76f5 0a3c 3904 a6bd accb 103b
000000c0: 820e b2bd 80f0 99ba 5adb 043c 92d2 9ebd
000000d0: 8483 a53a bc59 643d f260 18bc 73a2 453b
000000e0: 66a8 2bbc 2bf1 47bc c36f 1d3b dc63 08bc
000000f0: 8782 5e3a a3c3 b13b 20ac cabb b3ea d8bc
00000100: 02e3 06bd 2f77 9bba 7b5d e33a c65e f9ba
00000110: fc5e 863b a5e0 72bc dc31 25b9 25af b53b
00000120: 49be 503b fd97 98bd 1210 983b 94da b8ba
00000130: 512f debb 4a64 00ba 910c 913b ca04 0e3b
00000140: 8003 f23a 3027 6a3a 1b3f d03d 52bb 893b
00000150: dd81 d6bb 745c e93b cebc 2f3b aa5a 8dbd
00000160: c1b3 ba3a b340 2ebe b968 de3b 08cc 86ba
00000170: 7277 813b 7230 0e3b 1f4c 8e3a b5a9 a1bd
00000180: 1c6e 033c 498b 5fba 5b9a a33b 01ee 8539
0.007813097 -0.001748597 -0.003170297 0.0065869917 0.0027559195 0.004173818 0.008727528 -0.00024155052
-0.0006130179 -0.0010428661 0.0018083066 -0.0044451486 -0.0067687496 0.001206618 -0.11511941 -0.0053966395
0.0024289966 0.0014102155 0.00032350176 -0.0028877757 0.0684712 0.0013097863 0.008129629 0.0069254953
0.00095419685 0.00022981975 -0.0007033108 -0.006278915 -0.009277181 -0.0005595982 0.037132178 0.0020621868
0.005114365 -0.00042401027 -0.004765228 -0.005926894 0.0034069861 0.00032037505 -0.0015831973 0.0033227566
0.0023778372 -2.2621613e-05 -0.00030705915 0.009160745 -0.0014050675 0.008481374 -0.08106274 0.0022094054
-0.086941734 -0.0011744648 0.008108938 -0.07755007 0.0012627696 0.05574964 -0.009300457 0.0030156642
-0.010477161 -0.012203495 0.0024022914 -0.00832459 0.0008488078 0.005424933 -0.0061850697 -0.0264791
-0.032931335 -0.0011861081 0.0017346585 -0.0019025437 0.0041006785 -0.014824067 -0.000157542 0.0055445605
0.00318517 -0.074508645 0.0046405876 -0.0014103227 -0.006780543 -0.0004897757 0.004426547 0.0021670335
0.0018464178 0.0008932231 0.101682864 0.0042032385 -0.0065462426 0.007121617 0.0026815417 -0.069020584
0.0014244245 -0.17016868 0.0067873863 -0.0010284195 0.0039510066 0.0021696356 0.0010856426 -0.07893697
0.008021858 -0.000852753 0.004992766 0.00025545064

autoencoder.encoder.9.weight f4 [2, 100]
00000000: 0b4b f33a 8227 693a a661 7c3c 12a4 7b3a
00000010: 6185 433a 4f89 e0b9 ae61 873a 42eb d0b7
00000020: 75f9 0fbb 2801 783a eb4f b2b9 d971 65b8
00000030: d5fa 8cba c2d7 39ba 5fb3 61be 3a56 dc39
00000040: 7f5a 47ba 5b77 b3ba 6c74 25ba 476d 9938
00000050: 5e83 ad3e bcc3 b0ba 653d d039 7bd5 843a
00000060: bed8 c939 6b0d d2b9 106f a3ba dc20 f7ba
00000070: 846f 68ba 5c49 84ba c4dd 6d3e 6c31 6ab8
00000080: ac2d dd39 b474 e6b9 93df c5ba 4da8 9c38
00000090: c7db cbba f07d 8cba 243d 03bb 9c93 9fba
000000a0: 6226 d939 c2cd 8cba 15b8 75b9 b860 883a
000000b0: 1210 6639 61ee 283a 7551 bfbd 165f 85ba
000000c0: 440f 22be 4f51 98b8 9247 f539 3e90 f1bd
000000d0: ab0a 2b39 53eb 1d3e 7730 45ba 8951 aaba
000000e0: 33de c9ba 9703 c4ba 7c32 99ba 0b23 41ba
000000f0: d9b6 713a c9f1 84b7 d60f 13bb b7a6 c7bc
00000100: 82a6 633d 44e8 ea39 e3ec 4bba 277e 753a
00000110: 88e5 59ba 3ecf 8cbc bea4 83b9 a2af ab3a
00000120: c21b 4bb8 e705 7abd 17ac 73b6 8f7f b0ba
00000130: e944 82ba b952 53b9 a533 2aba 44bc f3b9
00000140: 38d3 8cb9 7879 a1ba 5ba9 0c3e b98e 50ba
00000150: bc85 c8b9 9bc7 ae3a 919e acb8 3ce9 8fbe
00000160: 03f5 bbba 9705 b9bd f825 28ba 3432 b7ba
00000170: 532c d63a 10f5 c6b9 cf95 07b9 3401 0cbd
00000180: 2b74 023b b116 313a 8c11 14ba 3c36 8f39
00000190: 4ccc 2eba 1cc1 bdba b15c 4bbb 1928 0838
000001a0: bdbd a4b9 4c67 8a3a fc36 3f3a d29a 63b9
000001b0: 8fb2 f93a 3282 6dba b1b6 093a 8176 ceba
000001c0: 292f 22bb 6caa ef39 56f6 0d3e ed35 bfba
000001d0: c0d2 203a 92a7 ae3a c571 683a 40de 06bb
000001e0: e764 f73d df5c df3a 5465 423a 4953 a23a
000001f0: 8c67 05ba 2663 a33a 8fd6 b73a 537a ddba
00000200: bbc1 37bb 2d90 903a 1379 6a3d 3a31 9c3a
00000210: 1886 8c39 1262 b939 16a7 ce3a 32a1 0039
00000220: 3b73 ff3a 0774 683a 6ec8 653a eaf9 ae3a
00000230: bafa 3d38 4f2c 883a 1657 0bba 1e3e fe39
00000240: aa9f f039 6f69 d93a 3c6d c7bb 1dba b03a
00000250: 42ee acbd b3f5 8ab9 de8e 6cb8 5c68 27bd
00000260: 2ae7 9e39 7eaa b7bd f085 12bb 8503 773a
00000270: 7862 97ba 4cfb 0dbb e156 9f3a 73c0 3db9
00000280: 85f9 6aba 1daf 61b8 f392 dd3a 4657 c13e
00000290: d71a 84be 2569 18ba 2f85 913a 8a36 b5ba
000002a0: e5ba ae39 a5f0 ec3d 1502 47b8 fe4a 9db8
000002b0: 4b2b 203a bd86 bebc 530d d239 a389 763a
000002c0: 87fd f239 d6c7 e639 aff9 b43a e3b0 2b3a
000002d0: 4fe4 e039 289d 013b 58fc 7d3d 5fb9 f53a
000002e0: 15bf d0ba be99 96b9 3add 5a3a 8a85 c9bd
000002f0: e8bf a83a 2a88 1ebe 6209 b73a dfd9 b93a
00000300: 8eea deb9 1c0b 733a 0568 603a 02ad edbc
00000310: 4d08 363a 6443 e239 cc52 073b b14c 0cba
0.0018561793 0.0008894132 0.015404141 0.00095993385 0.00074585347 -0.00042826912 0.0010328793 -2.4905083e-05
-0.0021968756 0.00094606215 -0.0003401035 -5.4703884e-05 -0.0010755906 -0.00070893404 -0.22041081 0.00042025914
-0.00076047325 -0.0013692187 -0.00063115987 7.315963e-05 0.33889288 -0.0013486068 0.00039718594 0.0010134423
0.00038499193 -0.00040064318 -0.0012469012 -0.0018854397 -0.0008866715 -0.0010092664 0.23229128 -5.5835975e-05
0.00042186433 -0.0004395597 -0.0015096538 7.470008e-05 -0.001555317 -0.0010718685 -0.0020025456 -0.0012174728
0.00041418063 -0.0010742473 -0.00023433597 0.0010404801 0.00021940496 0.00064442126 -0.093417086 -0.0010175433
-0.15826136 -7.26307e-05 0.00046783366 -0.1179509 0.00016311805 0.154218 -0.00075221754 -0.001299427
-0.0015401304 -0.0014954683 -0.0011688019 -0.00073675875 0.0009220667 -1.5848216e-05 -0.002243986 -0.024371488
0.055578716 0.0004480501 -0.00077791343 0.00093648065 -0.0008312096 -0.017188665 -0.0002510901 0.0013098607
-4.8424823e-05 -0.061040785 -3.6309991e-06 -0.001346575 -0.000993875 -0.00020153345 -0.0006492681 -0.0004648884
-0.0002686025 -0.0012319526 0.13736479 -0.00079558376 -0.00038246613 0.0013334634 -8.2311344e-05 -0.2810763
-0.0014339987 -0.09034269 -0.0006414349 -0.0013976754 0.0016340114 -0.0003794809 -0.00012930411 -0.034180835
0.0019905667 0.00067553954 -0.00056483666 0.00027315493 -0.0006668016 -0.0014477107 -0.003103059 3.246227e-05
-0.00031421884 0.0010559349 0.0007294265 -0.00021706082 0.0019050407 -0.0009060233 0.00052533584 -0.001575187
-0.0024747348 0.00045712607 0.13863501 -0.0014588215 0.000613492 0.0013325086 0.00088670506 -0.0020579249
0.120797925 0.0017041228 0.0007415612 0.001238444 -0.0005088977 0.0012465462 0.0014025735 -0.0016897417
-0.0028039056 0.0011029296 0.05724437 0.0011916526 0.00026802788 0.00035359018 0.0015766348 0.00012267081
0.0019489297 0.0008867387 0.0008765523 0.0013349627 4.529462e-05 0.0010389182 -0.0005315406 0.00048492936
0.00045895326 0.0016587208 -0.00608602 0.00134832 -0.084438816 -0.0002650447 -5.639984e-05 -0.04087101
0.0003030834 -0.08968066 -0.0022357665 0.00094228267 -0.0011549732 -0.0021664677 0.0012156629 -0.00018096138
-0.0008963573 -5.3807267e-05 0.0016904756 0.37761897 -0.25801727 -0.00058140076 0.0011102314 -0.0013825458
0.00033327113 0.11569337 -4.7447236e-05 -7.500312e-05 0.0006109967 -0.023257608 0.0004006425 0.0009404665
0.0004634673 0.00044017908 0.0013807322 0.00065494905 0.00042894713 0.001977751 0.062008232 0.0018747261
-0.0015926088 -0.00028724776 0.00083490054 -0.09839924 0.0012874575 -0.1548163 0.0013964588 0.001417931
-0.00042517897 0.000927137 0.0008560422 -0.02901316 0.0006943986 0.0004315629 0.0020648716 -0.0005352004

autoencoder.encoder.9.bias f4 [2]
00000000: 225b 213e 90c4 1a3e
0.1575742 0.15114045

autoencoder.decoder.1.weight f4 [100, 2]
00000000: ff3c cf3d 6bca dbbe 394c a63e 138d c43e
00000010: 1f02 1ebd b7ff c13e ef29 1db8 0514 923a
00000020: 8635 8d3e 025f 5c3e 76c0 5dbe 1608 de3b
00000030: 19b8 2bba 599a 843a 6c55 0fbe 1d00 553e
00000040: 197b 7bbe 4667 873e 005f 91b9 31c3 22ba
00000050: ad35 00be 75c1 30be daef ce3e 1ffb 993e
00000060: 8352 373e e523 c4be 90c4 9b33 66ff 96b4
00000070: 7ec5 c63e f653 8b3e c80c bb3e af89 b5be
00000080: 44bc 353f 4ddb ea3e 7714 4b3f d130 63bc
00000090: 1899 dbbe 3b4b 633f 679d 523f 4f4f 383f
000000a0: c0f1 493f 2ba0 e33e 6fe3 2cbd de35 883e
000000b0: 40da 19bf 1a63 923f cb28 7ebe 8bd9 5fbe
000000c0: 59d7 752a 9ceb b6ab e21c f33e 088d f7be
000000d0: 52f6 043f fd90 693e 021e 3abe f82a 1dbe
000000e0: 6865 d53e 1126 c4be c083 90be 220a 9b3e
000000f0: 8328 333f 76bb 103f 4718 993e 2b7d ecbe
00000100: 65c9 c7be fcf3 053f a0f2 1d3f 89ab 533d
00000110: 0f8c 1abe 5f85 cbbe 3d0f 22bf e991 5a3f
00000120: 7465 bb3e ae43 703f c674 b7b3 529c 71b3
00000130: 9c30 42b6 6284 6bb6 958e 913c 3aef b8be
00000140: abaf fb3e c1f3 00bf 0a49 a73e add9 d8be
00000150: 19a3 6e3e 20e6 b9bd 365c 74bc bed8 293d
00000160: 3fa2 cc3e 3afe a33e 9c3a 29be 8e6d 2c3d
00000170: 6abb 293b 2b90 54bc 4a95 86be 218e 0d3f
00000180: a810 4a3f daaa b23e 7860 7c37 e0b3 8337
00000190: 5be1 db3e 3cb8 273f d5b0 2d3f 8c20 23bf
000001a0: b955 963e 1ef1 673c 7884 103d fd7b ab3e
000001b0: 4f3a a93e b79c f8be 59aa b6be 2283 233f
000001c0: 7460 ea3e d1cc 44bf 0fdc 0c3e 2f30 4dbe
000001d0: c8f6 6fbe e19f c5bc 2644 f7be 8a82 923f
000001e0: 5936 363f da4d dd3e 09a1 0e3f ce4a 513f
000001f0: 8fd5 1ca8 4f3e 1727 32e4 7531 63d4 b530
00000200: 1cb9 4f3e f1be d7be 5a9f 2a3f f4dc c93e
00000210: 2167 91be 579b 0dbe a341 04be a2c1 f43e
00000220: ca96 203f 52a3 31bf 335f a4be 1198 e73e
00000230: 4467 d53e fb34 2d3f 6f82 80bc e468 f2be
00000240: 40ca 43be 428d cfbe e247 88be 565d a0be
00000250: f226 262e a3c3 bd2e 1225 dd3e 2f6d 65be
00000260: 3cad 3b3f 9e8d 65bd acd2 103f 4029 1ebf
00000270: 74ed 2bbe 8b53 5ebe 79d2 bbbe c7d3 ba3e
00000280: 5440 f13e 45fd 033e 4441 e7b5 f405 7bb6
00000290: 43e4 623e a885 043d 5400 31bd eedc a8be
000002a0: 60f6 e3be 6478 103f e0a6 fbba 584f bdba
000002b0: 567c c13a 62d8 09bc 0727 983e c0c2 4a3c
000002c0: 6a0d 92a3 0307 3fa4 5dba 6b3d 561e 0fbf
000002d0: 0e88 2ebe 74ea 223e eeac d63e 6250 5f3e
000002e0: fb0a 2e3f fbed 78bc c7f2 c53e 6a76 113e
000002f0: de98 14b6 b87e 26b8 4a73 5e3e 598b d6be
00000300: a11b 4739 dee2 acb9 d110 99be ea56 3f3f
00000310: 8db9 e6be 2ff8 3e3f 317f 0d39 5d85 8aba
0.10119056 -0.4292787 0.32480028 0.3838888 -0.03857624 0.37890407 -3.747077e-05 0.0011144882
0.27579898 0.21520618 -0.2165545 0.0067758663 -0.0006550565 0.00101168 -0.1399743 0.20800824
-0.24558677 0.2644598 -0.00027727336 -0.00062088954 -0.12520476 -0.17261298 0.40417367 0.30074403
0.1790257 -0.38308635 7.2535045e-08 -2.8125504e-07 0.3882255 0.27212495 0.3653319 -0.35456607
0.70990396 0.45870438 0.793281 -0.013866619 -0.4289024 0.8878667 0.82271427 0.71996015
0.78884506 0.44458136 -0.042209085 0.26603597 -0.6009865 1.1436493 -0.24820249 -0.2186033
2.1835085e-13 -1.2997273e-12 0.47482973 -0.48349786 0.51938355 0.22809215 -0.1817551 -0.15348423
0.4167893 -0.38310292 -0.28225517 0.30281168 0.6998369 0.5653604 0.29901335 -0.46189246
-0.3902084 0.52325416 0.6169834 0.05167726 -0.1509249 -0.39750192 -0.633045 0.8537889
0.3660084 0.9385327 -8.5428425e-08 -5.6254358e-08 -2.8936547e-06 -3.5094786e-06 0.017768184 -0.36120015
0.49157462 -0.5037194 0.32672912 -0.42353573 0.23304404 -0.09077096 -0.014914563 0.041466467
0.39967534 0.32029897 -0.16526264 0.042096667 0.002589906 -0.012973825 -0.26285774 0.55294997
0.78931665 0.34895974 1.5042831e-05 1.5700178e-05 0.4294537 0.65515494 0.6784795 -0.6372154
0.29362276 0.014156608 0.035282582 0.33493033 0.33052298 -0.48557064 -0.3567684 0.6387197
0.45776713 -0.76875025 0.1375582 -0.20037912 -0.23433983 -0.024124088 -0.4829418 1.1446087
0.7117668 0.4322346 0.5571447 0.8175477 -8.706048e-15 2.0989237e-15 3.5781906e-09 1.3229847e-09
0.20285457 -0.42137864 0.666494 0.39426386 -0.28398994 -0.13828789 -0.12915663 0.4780398
0.62730086 -0.6938983 -0.3210388 0.45233205 0.41680348 0.67658967 -0.015687196 -0.4734565
-0.19120121 -0.4053746 -0.26617342 -0.3132121 3.777862e-11 8.629477e-11 0.43192345 -0.22404931
0.7331121 -0.05604326 0.5657146 -0.6178169 -0.167898 -0.21711557 -0.36684015 0.36489698
0.4711939 0.12889583 -1.7229836e-06 -3.740538e-06 0.22157387 0.032354027 -0.043213204 -0.32981056
-0.44523907 0.564337 -0.0019199513 -0.0014443202 0.0014761786 -0.008413406 0.29717276 0.012375534
-1.5835033e-17 -4.1422462e-17 0.057550777 -0.55905664 -0.17044088 0.1590975 0.4192881 0.21808007
0.67985505 -0.015193458 0.38661787 0.14205328 -2.21427e-06 -3.96955e-05 0.21723667 -0.4190319
0.00018988411 -0.00032975426 -0.29895642 0.74741995 -0.4506344 0.7459745 0.0001349419 -0.001056831

autoencoder.decoder.1.bias f4 [100]
00000000: a6f2 df3e 14e5 59be aea4 e7bd 2089 6139
00000010: 8ca7 87be ea9c da3e 7b53 e0b8 59d0 ec3d
00000020: 0629 173f b16c f2b9 3646 5e3e 6961 a8be
00000030: d678 a53d 15e5 55b4 6b53 a5be 3b7e cc3e
00000040: 7402 ec3d 8d66 e13e cfdc 553e 727f 86bc
00000050: cc1e 4ebe ab36 8abd 76dd de3d 5b9d e53e
00000060: dc6f eda8 6e88 8d3d 04fb b0be d330 843e
00000070: 2288 9c3d 1000 313f c9f9 853e 09c0 be3d
00000080: ca51 b43e 7e11 a63e e40c 323f c115 2d3e
00000090: 5c85 043e 6ea5 5eb4 200f 6936 11f4 d73e
000000a0: 76fa 9b3c 6996 963d 3101 093f d7b4 83bb
000000b0: 8555 a3be 34d5 7d3d ddb6 1dbb 1853 133f
000000c0: 2f87 bfbe 3c2d a0b7 436d 21be 1a13 1c3d
000000d0: 3fe8 72be 311e c0bd 4940 a13e dbb0 663d
000000e0: 6d49 223e 0c62 71bc 61ba 003f 3356 603d
000000f0: 2311 c2be 596b 123e 9729 0528 83ee dfb1
00000100: 6e06 883d 0501 e53e aaf4 253f 91fc 93bd
00000110: cd2a 543d 1e6e 9ebc 5a4b 29be c150 eb3e
00000120: 318b 2c3f 6e2d 513f e4f2 84af 0987 893c
00000130: a64f d23e f31b 263f e637 9d3e 7b8c 053f
00000140: be40 113e ee75 6e35 353b 44be 49c2 813e
00000150: be33 063f e67d 16b9 e64d cbb9 eae2 70be
00000160: 71f7 4423 c501 ad3e 957c 97bd 661f b0be
00000170: 5a99 903e 4668 a5be cec6 c8b5 34bb 9c3d
00000180: a48f 25b9 30b5 4dbb c2e8 b33e 5b83 e8b9
0.43739814 -0.21278793 -0.11310707 0.00021508755 -0.26495016 0.4269784 -0.00010696702 0.11563177
0.5904697 -0.00046238818 0.21706471 -0.32886818 0.08079688 -1.992051e-07 -0.32290205 0.39940056
0.115239054 0.44023553 0.20885013 -0.016418193 -0.20128936 -0.06748708 0.10882084 0.44846615
-2.6360797e-14 0.069107875 -0.3456651 0.258185 0.07643153 0.6914072 0.26167133 0.093139715
0.3521865 0.3243522 0.6955092 0.1690283 0.12941498 -2.0735544e-07 3.472851e-06 0.42178395
0.019040328 0.07352907 0.5351744 -0.0040193605 -0.31901184 0.061970904 -0.0024065294 0.57548666
-0.37407824 -1.909455e-05 -0.15764336 0.038104154 -0.23721407 -0.093807586 0.31494358 0.056321006
0.15848322 -0.014732849 0.5028439 0.054769706 -0.379037 0.14298762 7.3920015e-15 -6.51727e-09
0.06641851 0.4472734 0.6482645 -0.072259076 0.05179863 -0.019339617 -0.1653265 0.45960048
0.6739989 0.81709945 -2.4183244e-10 0.016788023 0.41076392 0.648864 0.3070671 0.5216748
0.14184853 8.883352e-07 -0.1916321 0.2534354 0.524227 -0.00014352016 -0.00038777216 -0.23524061
1.0677579e-17 0.33790413 -0.07396809 -0.34398955 0.28241998 -0.32306117 -1.4959021e-06 0.07652894
-0.00015789137 -0.0031388514 0.35138518 -0.00044348356
