save_config_2/14/model_state.pth (torch, 28347 bytes, 13 tensors)

autoencoder.encoder.0.weight f4 [16, 1, 3, 3]
00000000: bbd7 e3bc 4c62 813d 1d49 e4ba 6c3a c9bd
00000010: 22be 8ebc fb9d 89be 0f6b 02be f009 4dbe
00000020: 437c 15bf faf9 21be f8e8 6fbe f031 47bf
00000030: 9f63 fb3c 3dee 1fbd 5e14 e4be cc7e e63d
00000040: ac62 0d3e dcdb acbe e1db 45bf a232 27bf
00000050: 235c 14be 3e09 1abf e46d d3be dbdc 663c
00000060: 3c56 0abf 7dd6 38be b1e7 523d 3aa2 153f
00000070: 512c e2bd 3670 50bd 1361 0f3f 6457 eb3d
00000080: e023 b23d 0e39 5c3f 2209 b93d 3587 36bd
00000090: d7bb 433f f2ec 373f c98f b03e aa40 8c3e
000000a0: 0f25 d03e 56ca 423d 092b dc3c c3de 0d3d
000000b0: c724 21be 2e65 97be 3fa9 99be 4fd0 edbe
000000c0: 1a98 08be ff0c bc3c 7bae a1bd b991 62be
000000d0: 191f a13b 5f83 bcbd 7c92 e03d 8b7e 993e
000000e0: 47b7 babe eb81 9a3e 6007 573e 3bcb 00bf
000000f0: 1dcd 9f3e 49c0 913e 2c5e 29bf 389c 12bf
00000100: e1d8 03be 07b0 0a3f 6708 ddbe db84 0ebe
00000110: 5ec3 e33e 519d 13bf d683 19bf 75d8 95bc
00000120: 8e8f c33e e087 26bf e7f1 07bf 0d56 9e3e
00000130: d72c 08bf 7336 cebe 97d4 7a3e 5cfd 3cbf
00000140: 378b 28bf 5a12 9abe 7d71 58be fc23 a63d
00000150: 13de 31be 0660 27be bc04 3abc b74b 06be
00000160: 5ab7 0ebf a4f1 3fbe 4724 353e 8474 cb3d
00000170: f272 473f a490 8a3d 746f 7c3d b590 393f
00000180: 1cb2 25be 9eb3 29be 8782 b33e ac3a cdbd
00000190: 386c b53e 30d6 5a3e a14c d1be 5412 043e
000001a0: ce4e aa3d 397c 5bbf bb65 00be 08f9 40be
000001b0: c2fe 35be e424 d23e 48f7 823e fd9e 173e
000001c0: cf57 0a3f b1af 943e ea1f 903e 380f 543f
000001d0: 1123 fa3e 0920 94be f42a 0e3e 1634 57be
000001e0: 05aa d9be 9409 1cbe da69 f4be ba3f 42bf
000001f0: 4f5f ecbe 2b72 68bf 2c80 f93d e7db 4abe
00000200: 92ce 463e f133 3e3e 2341 a23d fba5 cc3e
00000210: a8d5 dd3e 0a95 593d 541f a33e b0a1 2fbf
00000220: 3f1c 9ebe dfa3 53bd b03b 00bf ff2d 0f3e
00000230: eb90 d43e b719 853d 67cc 0c3f e17b f43e
-0.02781283 0.06317577 -0.0017416809 -0.09825596 -0.017424647 -0.26878342 -0.12736152 -0.20023322
-0.58392733 -0.15818015 -0.23428714 -0.77810574 0.030687151 -0.03904556 -0.4454679 0.11254653
0.13807172 -0.3376149 -0.77288634 -0.65311635 -0.14488272 -0.6017035 -0.41294777 0.014090742
-0.54037833 -0.18050571 0.05149049 0.58450663 -0.11043609 -0.050888263 0.560075 0.11491278
0.08698249 0.8602456 0.09034945 -0.044562537 0.76458496 0.71845925 0.344847 0.27393085
0.40653273 0.047556244 0.02687599 0.03463627 -0.15736686 -0.2956938 -0.30011937 -0.4644799
-0.13339272 0.022955416 -0.07894608 -0.22125901 0.004917037 -0.092047445 0.1096544 0.29979357
-0.36467955 0.30177245 0.20998907 -0.50310105 0.31211177 0.28467014 -0.6615932 -0.5726962
-0.12875701 0.54174846 -0.43170473 -0.13917868 0.4448499 -0.5766192 -0.5996679 -0.018291691
0.3819546 -0.6505108 -0.5310349 0.30925027 -0.5319342 -0.40275916 0.24495159 -0.73824096
-0.65837425 -0.30092126 -0.21137042 0.08112332 -0.17369871 -0.16345224 -0.011353668 -0.1311482
-0.5574852 -0.18744522 0.1768962 0.09934333 0.7790977 0.06765869 0.061629727 0.7248643
-0.16181225 -0.16572425 0.35060522 -0.100209564 0.35434127 0.21370769 -0.40878776 0.12897617
0.08315812 -0.85736424 -0.12538807 -0.18844998 -0.17772964 0.4104377 0.25579286 0.14806743
0.54040235 0.29040292 0.28149348 0.8283572 0.4885488 -0.2893069 0.13883573 -0.21015963
-0.42512527 -0.15238029 -0.47737008 -0.7587849 -0.46166465 -0.90799206 0.1218265 -0.19810449
0.19414738 0.18574502 0.0792258 0.39970383 0.4332707 0.05312065 0.3185984 -0.6860609
-0.30880925 -0.05166995 -0.50091076 0.1398239 0.41516814 0.06499045 0.54999393 0.47750762

autoencoder.encoder.0.bias f4 [16]
00000000: 1c77 aabe 502f a73f afbe 103f 5ec7 3ebd
00000010: c618 da3c b0b5 84be dac1 0e3f 7c0b 0cbf
00000020: b039 a53e ae20 b53f 9bda 6c3d 83c0 243f
00000030: 7afb 34be a841 9a3e 4f0b 4c3f c62c 693e
-0.33293998 1.3061314 0.5654096 -0.04657685 0.026623141 -0.25919867 0.55764544 -0.54705024
0.32270575 1.4150598 0.057825666 0.6435625 -0.17674056 0.30128217 0.79704756 0.22770986

autoencoder.encoder.3.weight f4 [8, 16, 3, 3]
00000000: 036c 6b3d a179 7dbd ac07 953d c37c 013e
00000010: 7d4c c03d 1b67 8dbd 3766 f83d 9474 8abe
00000020: 2aaf 84be c00d aabe 180c 57be 50cf 2fbe
00000030: 8eb8 19be c8f9 85bd e293 003e fc31 d3bd
00000040: 7b6b 12bc 311f 71be e6d8 4cbe 6afa 0ebe
00000050: 2fa5 9b3b f524 49bd 88cd 7c3d ca4b e73c
00000060: fdf9 34be c491 fcbd dbb4 5fbe 2eb4 c03c
00000070: 21a0 a83e fa6d edbd f98b d1be d2da b23d
00000080: 685c d6bd 32aa e9be d976 133e 44e8 243e
00000090: 9afb bf3c 4421 013c 5c4c a4bd b337 7abf
000000a0: 0547 a7be e190 7c3c 4853 1c3d dbc5 673e
000000b0: 99a4 713e b145 823c 7601 abbd c263 803c
000000c0: 715c a73d 7cab b33a b1ef 07bc c2d3 803d
000000d0: d73a 28be 037e a4be 8d11 3cbe a441 073e
000000e0: 194d 283d e5ab 6ebe 354d 95be 32bc aebd
000000f0: 4393 fbbd cbda 75bd dce6 99bd 46a7 563c
00000100: 0b41 f03d 8b2c ea3d 2993 413e ec27 9e3e
00000110: bd14 10be 9ded 003d 6ae1 5cbe 92eb 89be
00000120: 7beb 01be 2e3f 4fbe a0db 943c 8343 963d
00000130: 4714 913c 279f d2be d20f b93d 4675 83be
00000140: 4c7d d0be 7d62 9dbe 8192 f1bd 5850 2dbe
00000150: 1b1d 03be 6908 8d3e 0cf1 343d 429b a4be
00000160: 1da8 793d 8c51 2dbe 386f 60bd 1031 5f3e
00000170: fb20 07bc 9b80 2bbf d622 b6be 5306 d23d
00000180: 48a2 0e3e a56e 1c3e 069e d73e 2d87 23be
00000190: 7f74 cdbc cde2 e0bb 4268 abbd e981 f93e
000001a0: d44d 2cbd dab9 10bf 8160 073e de0c 73be
000001b0: 2c3b c23c 1319 893e 6e71 e9bc b665 e8be
000001c0: ea7f 1e3d 5bc0 aabd 4430 c1be c604 0c3e
000001d0: c12f b73e 396f 94bd 9cdb 6bbe dc16 1e3e
000001e0: b7a3 583e 0619 0f3f cabc 2f3d dca3 ed3d
000001f0: 37ad 67be fdfb 95be 9b67 28be e6e7 113e
00000200: 3a0a f0bd 31ef cbbe 2d73 463d c19a 923d
00000210: 021d a5be eea1 bf3e d223 c33e 6f51 75be
00000220: cfb9 343d f362 a8bb 50f4 38bd a20c cfbd
00000230: 4aa5 583c eed7 1abf 5890 cc3d a0fd 86bd
00000240: 48e6 f9bd ed70 213e e421 bd3e c7f9 9abd
00000250: 4ac7 36bd 9b8f 913d 714e 5b3e 2374 ef3b
00000260: 09f1 3c3e c746 9dbe eec1 f5bd 7e73 51be
00000270: 4359 58be 23f7 e63d 207b f7bc 9b3d 3fbf
00000280: 0467 87bc 5f4c 68be 3704 73be 6fcc 4dbe
00000290: 979e aabe a10a 7c3e 878c f5bd d9e3 613e
000002a0: 9d80 903d 80fc d2bd 54c4 a4bc de36 653e
000002b0: a8a2 5e3e 029d 1a3d 5e98 8cbe e3a6 54bd
000002c0: fd6f 4ebe 703c a23d f21a 843e 83c1 ebbd
000002d0: ec5a 5a3e 7c4b 523e ffee 9c3d 202b 92bd
000002e0: 7562 873c 0af0 06be 8bbe 173e ca57 ad3e
000002f0: a98f a7be eaed 47be c295 0dbd c750 173e
00000300: cf9c cfbc ef8c d2bd feed 053e 3941 2e3e
00000310: 5f94 56bc 3ded df3d 6b5a 5a3d 0049 fe3d
00000320: 7a38 f7bd 7d56 97be d453 203e e9d0 febd
00000330: d306 dd3d 6999 f03d 675f 1ebe 35c4 1fbe
00000340: 243f 71bc 0dd2 213e fdd9 b03d d8c7 3ebe
00000350: 3afc 00be 6d5c a03e 004c 053e 120e 163e
00000360: 4e98 c43d df69 483e 0fd0 3ebe 48ed 033e
00000370: 0b8e ac3e 95cb 30bd ccc2 ba3e 51e5 4e3e
00000380: 0e15 e93d 1c53 93bd f275 efbb 2d21 d5be
00000390: 4cbc 2dbe 730f 1f3e 2d91 1fbe ca2a 3bbf
000003a0: f6d6 34be 4482 bdbe 0b72 5e3e 0879 193e
000003b0: c80c 9b3e ea10 27be 7bfa a83d 1b6e afbd
000003c0: 9581 2bbd 934b 813e 955c 6ebd 0d86 003d
000003d0: 470f 193d 09d5 0cbe 993f 173e 0061 32be
000003e0: e256 26bd 775d bfbe 78f8 dfbd 8adb 8abd
000003f0: 102c 943e 776c d83d fc79 a13e ed9c d9bd
0.057476055 -0.061883572 0.07276854 0.12645249 0.09389589 -0.069044314 0.12128871 -0.27042067
-0.2591489 -0.33213615 -0.21000707 -0.17168927 -0.15011808 -0.065417826 0.12556413 -0.10312268
-0.008936758 -0.23547055 -0.20004615 -0.13962713 0.004749916 -0.04910751 0.061719447 0.028234381
-0.17673488 -0.1233249 -0.21846335 0.023523416 0.3293467 -0.11593242 -0.40927103 0.08733143
-0.10466844 -0.4563766 0.14400806 0.16104227 0.023435403 0.007881466 -0.08022377 -0.9774124
-0.3267137 0.015415401 0.03816536 0.2263407 0.23597945 0.015902372 -0.08349888 0.015672568
0.08171929 0.0013707723 -0.008296893 0.062903896 -0.16428696 -0.3212739 -0.1836607 0.13208634
0.04108915 -0.2330776 -0.29160467 -0.08531989 -0.12283947 -0.06002311 -0.07514736 0.0131014045
0.11731156 0.11434277 0.18903793 0.30889833 -0.14070411 0.031476606 -0.21570364 -0.26937538
-0.12687485 -0.20238945 0.018171132 0.073370956 0.017709864 -0.4113705 0.090362206 -0.2567541
-0.40720594 -0.30739203 -0.117955215 -0.1692518 -0.12804072 0.2754548 0.044175193 -0.32149702
0.06095134 -0.16925639 -0.054793566 0.2179606 -0.008247609 -0.6699311 -0.35573453 0.102551125
0.13929093 0.15276583 0.4211275 -0.15969534 -0.025079964 -0.0068629743 -0.08369495 0.48731926
-0.04206641 -0.56533587 0.13220407 -0.23735377 0.023709856 0.26776943 -0.02849647 -0.453901
0.038696207 -0.0833747 -0.37732136 0.13673696 0.3577862 -0.072477765 -0.23032993 0.15438408
0.21156202 0.5589756 0.042904653 0.11603519 -0.2262467 -0.29293814 -0.16445772 0.14248618
-0.117207006 -0.39830926 0.048449684 0.07158423 -0.32248694 0.3742823 0.38113266 -0.23956846
0.044122513 -0.005138749 -0.04515487 -0.101098314 0.013223002 -0.6048573 0.09988469 -0.06591344
-0.12202126 0.15765734 0.3693992 -0.075671725 -0.04462365 0.07107469 0.21416642 0.0073075457
0.18451323 -0.3071806 -0.1199988 -0.20454213 -0.211278 0.11277606 -0.030210078 -0.7470338
-0.016528614 -0.22685383 -0.23732077 -0.20097516 -0.3332412 0.2461343 -0.11989694 0.22059573
0.07055781 -0.10302067 -0.020113148 0.22384211 0.21741736 0.03774739 -0.27459997 -0.051916968
-0.20159908 0.07921684 0.25801808 -0.11511519 0.21323746 0.20536608 0.076627724 -0.07137132
0.01652644 -0.13177505 0.1481878 0.3385604 -0.32726792 -0.19524351 -0.03456665 0.14776908
-0.025343327 -0.10280787 0.13079068 0.17017068 -0.013096898 0.109339215 0.053308886 0.124162674
-0.12071319 -0.29558173 0.15656978 -0.1244219 0.10792317 0.11748011 -0.1546608 -0.15602191
-0.014724527 0.15802784 0.08635328 -0.18630922 -0.12596217 0.31320515 0.13017273 0.14653805
0.09599362 0.19571637 -0.18634056 0.12883484 0.3370212 -0.0431629 0.36476743 0.20204665
0.11380969 -0.07193586 -0.0073077613 -0.41626874 -0.16966361 0.15533237 -0.15582724 -0.73112166
-0.17660126 -0.37013447 0.21723191 0.14987576 0.3028319 -0.16315046 0.082509 -0.08565923
-0.041871626 0.2525297 -0.05819376 0.03137784 0.037368085 -0.13753141 0.14770354 -0.17419815
-0.0406102 -0.37375996 -0.109360635 -0.06780155 0.28939867 0.10567563 0.3153838 -0.10625634

autoencoder.encoder.3.bias f4 [8]
00000000: dac5 a53d 2649 af3d c908 433e 321f 843c
00000010: 949f 813d 9a9f 223d 8ac1 05be c744 a2bd
0.08094378 0.08558874 0.1904632 0.016128156 0.06329265 0.03970299 -0.1306211 -0.079232745

autoencoder.encoder.6.weight f4 [2, 8, 2, 2]
00000000: 1c70 68be 7296 05c0 fb12 bfbe 2890 90be
00000010: 5902 ad3f 9e36 b1bd cff4 67bf 4203 4abf
00000020: 04e6 6bbf 6977 2f3f 01f9 31bf cd07 453f
00000030: 4c93 f6be b93f 58be b0e6 98be 57d6 c2be
00000040: e67e 293e 7dc3 6f3e 33cf 8c3e 36bf ee3e
00000050: 29d9 c63e 15e2 bd3d 64a7 163f 91f3 9c3f
00000060: af59 543f 09d1 013f 1a93 f23e d474 a03e
00000070: 2324 99bf 4ddc c4be ca19 e6be 36a1 05bf
00000080: 1e09 92be bfa0 a5be ad1e 02bf 20f4 16be
00000090: 28ad 18bf cb77 15bf c641 1a3f f148 4cbf
000000a0: 2cd3 923e 9d39 2b3f c774 18bf 0b0d 803f
000000b0: 65f6 b2be c1fc 633d b315 12bf 41d6 48be
000000c0: af12 12bf ba84 c1be c64c edbe 39e2 c1be
000000d0: e96f 0fbe fa3e 263c 70f2 1e3f 1215 6b3f
000000e0: 476c 04bf 8113 0dbf 19cf 18bf ead4 e2be
000000f0: 24bd 9d3f 1f31 eabd 9a8c 5dbe 9915 64be
-0.22699016 -2.0873075 -0.37319168 -0.28234982 1.3516341 -0.086529955 -0.90607923 -0.7891122
-0.9214785 0.6854158 -0.69520575 0.7696503 -0.48159254 -0.21118058 -0.298635 -0.38054153
0.16552314 0.23414417 0.2750183 0.46630257 0.38837555 0.09271637 0.5884917 1.226183
0.82949346 0.5070959 0.47377855 0.31339133 -1.1964153 -0.38449326 -0.4494155 -0.52199113
-0.2852258 -0.32349202 -0.5082806 -0.14741564 -0.59639215 -0.58385915 0.6025661 -0.797988
0.28676736 0.66884786 -0.5955319 1.000398 -0.3495361 0.055660967 -0.5706436 -0.19612981
-0.5705976 -0.37796575 -0.46347636 -0.37867907 -0.14007534 0.010146851 0.6208868 0.91829026
-0.5172772 -0.55107886 -0.59691006 -0.44303066 1.2323346 -0.1143515 -0.21635666 -0.22273864

autoencoder.encoder.6.bias f4 [2]
00000000: cefd 843c da94 a1bd
0.016234305 -0.07889719

autoencoder.decoder.0.weight f4 [2, 8, 2, 2]
00000000: 036f 40be e622 29be 7287 be3c b430 153d
00000010: a8c4 423d c8b5 2b3d ead0 98bf 427e 853f
00000020: 7a47 efbe 7a81 a2bf 7739 af3e 4cd8 183f
00000030: 3e42 893e 6977 8b3f e96d 1e3f 9aaf 173f
00000040: d9e2 80bd 7457 18be bbbb f13e 0af1 093f
00000050: 3714 193e 11eb 28be c69e 3cbf 37f1 69bf
00000060: 77b7 823f 4c58 3abe ad0e 20be 975f 423d
00000070: 7942 943f 268f 1c3e 3468 a23f 218f 28bc
00000080: 7280 1e3e 377a 32bf f9e6 e1be b890 3f3c
00000090: 2294 083e aa51 40be f293 f83e 74a2 9bbe
000000a0: d4bf e63e 3780 d03e 667b e93f a9b7 b93e
000000b0: 5e4c a7be ffed 98be 6dff 113d a86b 0abb
000000c0: 643b 0b3f eccc 0dbf 7582 e4be 8c09 0fbf
000000d0: a5d1 6d3c 0508 853d f34a 2abf dcf9 66bf
000000e0: 4a42 95be d001 f73e 22ac 2dbe 585f d3be
000000f0: b137 153f ee1a 533d 7b4d f33e 09e4 33be
-0.18792348 -0.16517219 0.023257945 0.0364234 0.047550827 0.041921407 -1.1938756 1.0429156
-0.4673422 -1.2695763 0.3422353 0.5970504 0.2680835 1.0895816 0.6188646 0.5925232
-0.06293268 -0.1487711 0.4721354 0.5388342 0.14949118 -0.1649592 -0.7367977 -0.9138369
1.0212239 -0.18197745 -0.15630598 0.047454443 1.1582786 0.15288982 1.268805 -0.010288031
0.15478685 -0.69717735 -0.4412153 0.0116922185 0.13337758 -0.18781152 0.48550373 -0.3039738
0.45068228 0.4072282 1.8240783 0.36272934 -0.3267545 -0.29869077 0.035643984 -0.0021121297
0.543875 -0.5539081 -0.4463078 -0.5587394 0.014515315 0.0649567 -0.66520613 -0.90225005
-0.29152137 0.4824357 -0.16960195 -0.4128368 0.58288103 0.051539354 0.4752005 -0.17567457

autoencoder.decoder.0.bias f4 [8]
00000000: 57fc cf3e 4748 8f3d 0408 edbe 0602 113e
00000010: 9d55 3a3d e891 8dbe 9391 20be 44ae c63e
0.40622208 0.06996208 -0.46295178 0.14160928 0.045491803 -0.2765038 -0.15680532 0.3880483

autoencoder.decoder.2.weight f4 [8, 16, 3, 3]
00000000: 2a61 cb3d 89f3 94be 7754 65be 063d 5b3d
00000010: d7e1 183e 5724 853e bddb 68be 36fb 843d
00000020: 140e 8abe 761a c3bc 44f4 74bb 78b9 b83d
00000030: 7e87 1abc 6673 a53d 6e4a 023e 35bf 373d
00000040: 496e 833c b722 5fbd 85c2 53bd ee68 03be
00000050: a65e 683e 9567 253c 3d3d 73be db5b 513e
00000060: ca63 b1bc 0c19 143d 3268 b93d 0bf5 34bd
00000070: 81e7 55be 591f 46bd 5030 cdbd e556 cb3d
00000080: d8c2 823e ba1e 353c f84d 0abe 912d 42be
00000090: 6aad 4f3e 35a4 5d3e a1ec d2bc 5112 90be
000000a0: 4829 ae3d ea97 61be 2dea 133e 3f57 463c
000000b0: a660 8f3d b827 a5be ffde 873d d939 84bd
000000c0: e323 27bd 9018 973e edb6 6bbe 4d28 8a3d
000000d0: eb4f 3e3e 252d 4d3a f698 66be 02a1 ec3c
000000e0: 5c12 903b 4ef2 9ebe 32f6 373d 1cec 653e
000000f0: bb0a 603c 71b3 8c3e a715 bcbd 34c0 6d3d
00000100: 60a6 293e 8706 2ebe 49cf e53c b23c 26be
00000110: 0754 c7be ca6b d33d 4e2e 19bd 9a03 65bd
00000120: aeeb 4bbe 5848 a8bd e490 35bd 021e 73bd
00000130: 0ea6 55bc d225 cabd c2fc f23d 78fc 25bd
00000140: 1452 b9bc 1bba 2bbe 26d0 993d cfc5 4bbd
00000150: 522f 283e f1b8 a43d 5cce 1b3d 7f00 f5bb
00000160: 0556 45bd 3b8d 9e3c 8c7d 99be 1d8b e83d
00000170: d953 113c c234 903d 5506 113e 156d d7bc
00000180: 61c2 6cbc df61 f13d 1c62 2cbc b3e7 f3bc
00000190: cf6a b9be 168a 393e 1c64 d83d 5aa2 18be
000001a0: eefe 8c3e deee fc3d ec90 a8bd bda2 313e
000001b0: f026 5c3e b953 c4bd 5ef5 74bc ef7d 5c3d
000001c0: 40ee bb3d dccd 8cbe 6ce5 8c3e 5504 19bb
000001d0: 513c 913d f95d 3cbd f690 843e d43c ddbd
000001e0: 6548 73bd 937c 103d 708b 8d3e f29b 9ebd
000001f0: 4ca5 a43e 857d c5bc 2984 813d c9d1 23bf
00000200: 78b7 14bd 80e9 9d3e 32d1 fbbe 2403 3fbe
00000210: c2f1 0f3e 8515 15be 7e35 9a3d d8c9 e73d
00000220: 1f71 80be 294b 62bd 57b4 503e 444a 65be
00000230: f4f8 46bd d5dc 043e 4615 afbd 04d9 a7bd
00000240: 7471 973d 3cf9 d7bd d56f ba3d 368d 8abe
00000250: 77dc 7f3d 320e c4be 7f24 bbbe 6a88 f7be
00000260: f727 03bf 1666 8bbc d0be 993e 68ac 2ebd
00000270: 8426 7d3d be5f ee3d 6bb5 d83d 2961 d8bd
00000280: eeab 823e f462 643d 33ed da3c b599 943d
00000290: caf4 9d3d 1458 b73d 1b00 6cbd 5520 97bd
000002a0: e701 a33c 2df4 f73c c4f2 a7bd 3c5a aebc
000002b0: 2fab 963d 3bfc 28be 6b18 d23b 170f b4bd
000002c0: 9adc f2bd 6083 333d 91c5 97bc 626d 52be
000002d0: 9a72 fa3d e972 8cbe 65c2 e43d f5e6 3c3d
000002e0: 8f67 4cbe e9fb a6bc f85c 153e a034 003f
000002f0: 41ae 9a3e 1eff 47bd 84f1 6c3d 64b4 ccbd
00000300: f9c5 ac3d dbf0 a6bd 85a4 063e aa99 963c
00000310: 94bc 293d 5324 b8be 4f68 9cbe a2cc 093d
00000320: c55a edbd d59a 3ebc 3459 a2bd e872 8dbd
00000330: a2e2 a8be 0944 3bbe 3cc8 abbe c647 f6bd
00000340: 97a7 4d3c 296c 9ebd 4708 9bbd 2f46 0e3e
00000350: 4fa9 50be a3a2 91bd 179d 14bf 8809 613e
00000360: 01a7 533d dbc1 b0bc 172f 6ebe a5f2 643d
00000370: 445a 123e 9e34 2b3e f5ae 91be 9faf 6fbe
00000380: eff7 cbbe bb51 ef3d e180 0abc e9e0 c138
00000390: 3875 4b3d a06d 44bd 2249 e53d 3414 90be
000003a0: a602 9dba 833b c8bd 616a e23e 6644 8c3e
000003b0: 4174 303d 8387 0fbf a3df 0fbe 6d6b b4be
000003c0: 1801 7cbc 7fb7 0cbf 5b10 27bd b966 583d
000003d0: b3d1 9bbd 9749 2b3d 56cf 27be 75b0 6d3d
000003e0: a942 78be e4cf dabd 01b3 673e 9484 0cbd
000003f0: 78c2 3a3e 1a54 443e 589b ba3d 441b 24be
0.09930642 -0.29092053 -0.22395502 0.053524993 0.14929901 0.26004288 -0.22740074 0.06493227
-0.26963866 -0.023816328 -0.003737704 0.0901975 -0.009431718 0.08078651 0.12723705 0.044860084
0.016043799 -0.054476466 -0.05169918 -0.12832996 0.22692356 0.010095497 -0.2375383 0.20445196
-0.021654028 0.0361567 0.09053077 -0.044179004 -0.20889093 -0.04836974 -0.100189805 0.09928683
0.2553928 0.011054689 -0.13506305 -0.18962695 0.20280996 0.21644671 -0.0257476 -0.28138974
0.085039675 -0.22030607 0.144448 0.012105762 0.07000856 -0.32256866 0.0663433 -0.06456346
-0.04080571 0.29510927 -0.23019 0.06745968 0.18585174 0.00078268565 -0.22519287 0.028885368
0.00439672 -0.3104424 0.044912525 0.2245335 0.013674433 0.27480653 -0.09183817 0.058044627
0.16567373 -0.16994677 0.028052943 -0.16234091 -0.38931295 0.103232935 -0.037397675 -0.055911638
-0.19914123 -0.082169235 -0.04432763 -0.05935479 -0.013040079 -0.09870495 0.11864616 -0.040523976
-0.022622146 -0.16770212 0.07510404 -0.04974919 0.16424301 0.08043087 0.038038597 -0.007476866
-0.048177738 0.019354453 -0.29978597 0.11354659 0.0088700885 0.07041313 0.14162572 -0.026297132
-0.01445064 0.117862456 -0.010521438 -0.029773569 -0.362143 0.18119082 0.10565969 -0.14905682
0.27538246 0.12350248 -0.08230767 0.17347236 0.21499228 -0.09586281 -0.014951078 0.053831037
0.09176302 -0.27500808 0.27518785 -0.002334853 0.070915826 -0.045988057 0.25891846 -0.10802618
-0.059395213 0.035275053 0.27645445 -0.07744588 0.32157362 -0.024107704 0.06324036 -0.6399198
-0.036307782 0.3084221 -0.4918304 -0.18653542 0.14057067 -0.1455899 0.07529734 0.113177955
-0.25086305 -0.05524746 0.20381294 -0.22391611 -0.048577264 0.12974866 -0.085489795 -0.08195689
0.07394686 -0.105455846 0.091033615 -0.2706086 0.06246611 -0.3829208 -0.36551282 -0.48346263
-0.51232857 -0.017016452 0.3002839 -0.04264489 0.06180431 0.11639355 0.10581478 -0.10565407
0.25521797 0.05575843 0.026724434 0.0725588 0.077127054 0.089523464 -0.057617288 -0.07379214
0.019898368 0.0302678 -0.08200601 -0.021283261 0.073568694 -0.16502468 0.0064116023 -0.08791941
-0.11858483 0.04382646 -0.018526824 -0.20549539 0.1222889 -0.2743142 0.1116989 0.046118695
-0.1996138 -0.020383792 0.14586246 0.500803 0.3021107 -0.048827283 0.057847515 -0.09995344
0.08436198 -0.08151408 0.13148697 0.01838382 0.041439608 -0.35965213 -0.3054833 0.03364242
-0.115895785 -0.0116335945 -0.079271704 -0.06906682 -0.32985407 -0.18287672 -0.33551204 -0.120254084
0.012552164 -0.07735474 -0.07569938 0.1389396 -0.20377086 -0.071110986 -0.580522 0.21976292
0.05167294 -0.021576812 -0.23260151 0.055895466 0.14292246 0.1671929 -0.28453794 -0.23406838
-0.39837596 0.11685511 -0.008453579 9.24485e-05 0.049672335 -0.04795611 0.111955896 -0.28140414
-0.0011978939 -0.09776976 0.44221786 0.27395934 0.04307962 -0.5606615 -0.14050154 -0.3523821
-0.01538112 -0.5496749 -0.040787082 0.05283234 -0.07608356 0.041818228 -0.16387686 0.05802961
-0.24244179 -0.10684183 0.22626878 -0.034306124 0.18238246 0.19172707 0.09111661 -0.16026026

autoencoder.decoder.2.bias f4 [16]
00000000: 482c 4fbf 1ee7 02be 50f1 aa3e 290c 85be
00000010: 55fc 2e3f 15dd d43c ee06 0fbf 951b 0abf
00000020: abbb 4e3e 58ee b6bd 2218 afbe c043 4dbe
00000030: 7b4e 77be 9f40 98be fadd e53e 95d4 da3c
-0.8092694 -0.12783477 0.33387232 -0.2598584 0.6835378 0.025984326 -0.5586995 -0.53948337
0.20188777 -0.08932179 -0.341981 -0.20045376 -0.24151032 -0.29736802 0.44895917 0.026712695

autoencoder.decoder.4.weight f4 [16, 8, 5, 5]
00000000: ba7e 6d3c 3db9 613d 8564 f2bd 3296 273d
00000010: e37f 5e3d 9139 e5bd c625 9abd afbb b9bd
00000020: e443 f9bc abeb 103c 96ac 2dbd a4fb 8ebd
00000030: 2351 d2bd 14c8 47bd cb2d 8bbd a0da 0bbd
00000040: aa6d 46bc 2ea1 febd 6a16 18bd f0ea 66bd
00000050: a04d af3d 9fd8 9ebc 0baf 45bc 73cd 253d
00000060: ba0e 583d 48ca da3c 946f 1d3d 8e04 bbba
00000070: a839 d9bc 78a1 4bbc 80ac 1a3e a2a2 153e
00000080: 25ed 433e f00c 2c3e 1780 083d b8e1 393e
00000090: 5016 8b3e 1270 c73e 6687 a13e c045 0d3e
000000a0: 77b5 7c3d f721 4a3e f965 af3e 5018 633e
000000b0: 0baa 043e 3fae ff3c a9a9 f43d 7510 2c3e
000000c0: dc3a 363e 4382 a53d 797d d9bc 9602 a3bd
000000d0: 988f 3abc aba5 e23b 1560 d3bd 7e24 4dbd
000000e0: d467 603d 85cc 0c3e c638 d7bd b110 19be
000000f0: ede1 263d 8699 983c 39e5 2ebc 17f7 383d
00000100: 0340 0dbe 5988 51ba 5e5f 963d 3e3f a93d
00000110: 8ef1 3c3b 6c32 24bd 1e9f b03d 18ac f53d
00000120: 1d02 213d eb61 143e 3c59 9e3d bd4a 163b
00000130: 79c7 c8bd 0b25 b13d de32 ff3d 7c40 83bd
00000140: ad0b 5c3d d2f0 b83d 0f79 513d acc4 b23d
00000150: 708d ea3d aae4 51bc f0a2 0e3d 0b5d 053d
00000160: d4e0 393d 966d f4bd 3279 b73d 1d84 fa3d
00000170: 8d91 bc3d 3169 8d3d 5e3f a93d d544 0abd
00000180: 92a5 dc3d e388 103e 1368 dc3d b082 683d
00000190: 6053 5f3c 90a6 ab3d 9c8a 793e 3e4a 023e
000001a0: 19b0 19bd 77ca 723e d052 943e ce2d 083f
000001b0: b0fb 623e 63d6 273d 3d13 af3d 9337 5a3e
000001c0: bc6a ce3e 2536 8f3e 86c0 1b3e 1e26 2c3e
000001d0: 4ddb 3a3e c57b 853e 6136 413e e060 833b
000001e0: 293f 6bbd 6b7f 3a3d 8123 223e 4420 0c3b
000001f0: 2007 283c ce32 523e 96d6 243e 1e68 2b3e
00000200: 8e53 86bb 7373 583c b303 853e 0d39 4a3e
00000210: 2f2c 103e c563 493d 53e9 3cbd 8361 0c3e
00000220: bc5c 563e b935 303e df3b 383d 9f48 b2bd
00000230: 61db ed3d 8550 2c3e db62 f73d 5f9a 623d
00000240: 5971 fbbc d132 ae3c cd31 573d 78bf f03c
00000250: e790 d93c 3bcc 4ebd 68cf 2cba 8032 04be
00000260: 2336 1bbd b367 dcbd e816 07be 80f8 233e
00000270: 3970 8dbd 7791 0ebe aa70 03be b360 c9bd
00000280: 8d4d d0bd 6f5a 28be 8898 16be 0985 5cbe
00000290: 39d3 babd d5e7 c33d b8e7 c93d 7b62 46bd
000002a0: e8d8 683d 4d20 d43c 6f7e 33bd 8ea4 0c3e
000002b0: 55f5 023e 77e1 a33c 0500 463d 64ab c73d
000002c0: 1f2a 923d c800 003e d6e3 ca3d 3e8c ee3d
000002d0: 5ce5 b63d 0c6e 6d3d a121 003e b91f 213e
000002e0: a748 7e3d b69f b9bc 4512 fc3c ac70 113e
000002f0: 9cf7 3d3e b9f6 b33d 14a9 24bd 96b2 f43c
00000300: 61c6 dc3d 1582 573d f6c4 ce3d 995d a4bd
00000310: 4da7 a33b 17c5 1b3d d18a 393d 9a91 343d
00000320: 4816 7f3d e190 243d 5e53 013d fee4 1b3d
00000330: a7d0 00bd 25bc 82bc b457 74bb d090 50bc
00000340: 2964 0bbd e8de c6bd 2147 433d 6eac 2e3c
00000350: 1713 71bc 390e 8a3c 40e3 2bbe 39b6 12bd
00000360: 14f3 e23a ef68 49bc a738 91bb c0be b0bd
00000370: f3a4 593d 7b3f 723c 7148 1d3b 0c69 2b3e
00000380: 9725 e0bb fde1 1abb 1130 ab3c b9e2 9fbd
00000390: 4699 10bd 0551 923c 57ae 41bd a01c 6bbd
000003a0: f640 c13b 0938 c3bd 53ea 57bc d93c 783c
000003b0: d3ab 273d 57a5 b33d 6a59 8b3c 6115 263d
000003c0: 5590 413d 64d6 123d e76f bc3d 441f 4f3d
000003d0: acfe 253d f56f 58bd f2a6 483a 52fd 9bbc
000003e0: 53da 163d bc8f 1dbc 1944 093e c6fd 46bc
000003f0: 295c cabd 34df 05be c7a3 cfbc d6f5 cbbd
0.014495546 0.055108298 -0.11835579 0.04091472 0.05432118 -0.111926205 -0.07526736 -0.09069001
-0.03042788 0.00884525 -0.04240092 -0.069815904 -0.10269382 -0.048774794 -0.06795844 -0.034144044
-0.012111107 -0.12433086 -0.03713075 -0.056376398 0.08559728 -0.019390402 -0.012065659 0.040479135
0.05274842 0.026707783 0.038436487 -0.0014268325 -0.02651675 -0.012428634 0.15104866 0.1461282
0.19133432 0.1680181 0.03332528 0.18152511 0.2716546 0.3895269 0.31548613 0.13796139
0.061696496 0.19739519 0.34257486 0.22177243 0.12955491 0.031211017 0.119464226 0.16803153
0.1779589 0.08081486 -0.026549088 -0.079594776 -0.0113867745 0.006916722 -0.103210606 -0.05008363
0.05478652 0.13749893 -0.105088755 -0.14947774 0.040742803 0.018627893 -0.010674768 0.04515752
-0.1379395 -0.00079930347 0.073424086 0.082640156 0.0028830501 -0.04008715 0.08624099 0.11995715
0.039308656 0.14490478 0.07731864 0.002293273 -0.098036714 0.086496435 0.12460874 -0.06408784
0.053722072 0.09030308 0.05114084 0.087289184 0.11452758 -0.012810865 0.034823358 0.032559436
0.04538043 -0.11934964 0.08958663 0.1223223 0.09207449 0.06904829 0.082640395 -0.03375705
0.107737675 0.14114718 0.10762038 0.05676526 0.013630718 0.08381379 0.24369282 0.12723634
-0.037521455 0.23710047 0.2896943 0.5319489 0.22166324 0.04097594 0.08548591 0.21310262
0.40315807 0.27970996 0.1521016 0.16811416 0.18247719 0.2607099 0.188684 0.004009351
-0.05743328 0.04553167 0.15833856 0.0021381536 0.010255605 0.20527193 0.16097483 0.16738936
-0.004099316 0.013211119 0.25979385 0.19748326 0.14079355 0.049167413 -0.046120953 0.13709073
0.20933813 0.17207994 0.044978973 -0.087052576 0.11614109 0.16827591 0.12079402 0.055323
-0.030693697 0.021264466 0.052537728 0.029388174 0.026558353 -0.050487738 -0.0006592185 -0.12909889
-0.037893426 -0.107619666 -0.13192332 0.16012764 -0.069061704 -0.13922678 -0.12835947 -0.09832897
-0.10171042 -0.16440748 -0.14706624 -0.21535124 -0.09122319 0.09565703 0.0985865 -0.048433762
0.056847483 0.025894308 -0.04382175 0.13734648 0.12788899 0.020004971 0.048339862 0.09749487
0.0713694 0.12500298 0.099067375 0.11647843 0.089304656 0.057966277 0.12512828 0.15734757
0.062081005 -0.022659164 0.03077043 0.14203137 0.18551487 0.08787293 -0.040200308 0.029870313
0.10780025 0.05261429 0.10096161 -0.08025665 0.004994309 0.038029756 0.0452984 0.04408417
0.06227711 0.04017723 0.031573646 0.03806018 -0.031448986 -0.015958855 -0.003728372 -0.0127298385
-0.034031067 -0.09710485 0.047675256 0.010661228 -0.014714024 0.016852485 -0.16785908 -0.035818312
0.0017314875 -0.0122930845 -0.0044318023 -0.08630133 0.053135823 0.014785643 0.0023999477 0.16739291
-0.0068404186 -0.0023633235 0.020896943 -0.07806916 -0.035302423 0.017860899 -0.047285404 -0.057400346
0.0058976365 -0.09532172 -0.013178426 0.015151226 0.04093535 0.087717704 0.01701041 0.040547732
0.047256786 0.03584899 0.09201031 0.050566927 0.040526077 -0.052841146 0.00076542713 -0.019041691
0.036829304 -0.0096167885 0.13404883 -0.012145465 -0.098808594 -0.13073426 -0.02534665 -0.09958999

autoencoder.decoder.4.bias f4 [8]
00000000: d5f1 993e 7f41 cdbe 2b44 d0be dd84 1fbf
00000010: 2a6c b6be e47b f0be 76e3 0bbf 2684 e6be
0.30067316 -0.40089032 -0.40677008 -0.6231211 -0.35629398 -0.4696952 -0.5464395 -0.45022696

autoencoder.decoder.6.weight f4 [8, 1, 2, 2]
00000000: e10f b63d b81d bc3d c609 b53d 1aea b63d
00000010: 014b a83e ff4e 9c3e 52b8 833d 2490 203d
00000020: a7b2 a4be f97a 85be 8066 aebe 3c03 8fbe
00000030: 428d a23e 973c 933e d6e9 a13e c1bd 903e
00000040: ca3b 933e c804 893e f749 a53e b063 993e
00000050: c0ac 3bbe 4337 323e c9d4 54bc 7ef0 b13e
00000060: c2e4 9dbe bb7d a8be 01d8 c7be 24dd d0be
00000070: d86c e43d f6e7 5cbe 7073 8a3e efc4 6dbd
0.088897474 0.09185356 0.08839755 0.0893137 0.32869723 0.3052902 0.06431641 0.039199963
-0.3216755 -0.26070383 -0.34062576 -0.27932155 0.31748396 0.28757164 0.31623715 0.2826977
0.28756553 0.2676146 0.32282993 0.29958868 -0.18327618 0.17403893 -0.012990185 0.34753793
-0.3083859 -0.32908425 -0.39031985 -0.40793717 0.11153573 -0.21572861 0.27041197 -0.05804914
