test_runs/13/model_state.pth (torch, 882022 bytes, 20 tensors)

autoencoder.encoder.1.weight f4 [100, 784]
1.193564e-39 5.22424e-40 5.31689e-40 -1.336197e-39 1.85675e-39 -1.804264e-39 -7.95474e-40 -1.059306e-39
-2.24377e-40 1.011436e-39 1.082942e-39 -3.0089e-40 0.0004608282 -0.0009543755 2.4276374e-06 3.40148e-08
-1.971759e-39 1.516836e-39 1.960117e-39 -3.85473e-40 1.012297e-39 -5.3981e-41 2.55014e-40 -1.562459e-39
-1.959e-41 -4.1434e-40 -4.6728e-41 -1.856764e-39 2.1285e-40 -2.004856e-39 -1.57468e-39 1.08246e-39
-4.7912707e-10 -1.693459e-10 -0.00022326378 -0.00020870242 -0.00023714114 0.0005497121 0.0010524262 0.00055755157
-0.00061073975 0.000874788 -0.00043160218 -0.00025022795 -0.00093093404 -0.00089215743 0.007127503 0.0056089316
0.00052706903 0.00064117915 -1.5326316e-09 1.06765916e-10 -1.21735e-39 1.61336e-40 -1.148604e-39 -1.545816e-39
1.334178e-39 5.94984e-40 -7.952163e-16 -1.326384e-09 6.249861e-06 -0.004481931 -0.0068000145 -0.00328742
-0.001293432 -0.016723009 -0.0048953234 -0.0017135395 -0.01665217 -0.027652416 -0.013948177 -0.0039753895
-0.0032383767 0.0013528224 0.00558845 0.0019983295 0.0054510585 0.012052209 0.005562 -0.0012215709
-0.0006803548 -1.0865886e-09 1.806588e-39 1.330271e-39 -1.560283e-39 1.554162e-39 -6.412903e-11 -1.1321089e-06
-0.0002453866 -0.006525975 0.00046654686 0.01392315 0.021449106 0.016677305 0.018429507 0.012099017
0.024024721 0.0009210656 0.008512201 0.022339271 0.02665881 0.026084926 0.05089263 0.04883127
0.048216954 0.043439772 0.0340876 0.011223176 0.0075886105 -0.00078809087 -2.545074e-06 5.42892e-40
1.147637e-39 1.5497009e-17 4.8209165e-07 0.008824634 0.00073706184 -0.0034813765 0.01327276 0.024819989
0.020040343 -0.008022295 0.029028883 0.06566019 0.092932604 0.10226493 0.12392571 0.12433737
0.073416926 0.06357005 0.07908192 0.07121857 0.071575895 0.059470087 0.035877485 0.01339119
0.019040337 0.007392186 0.0002139825 2.6398846e-12 -1.240551e-39 3.1887875e-09 6.229505e-08 0.005616463
0.00022365333 0.014517399 0.009906862 0.014118945 -0.020506253 -0.012769955 0.058462013 0.07323902
0.022878293 0.0021251093 0.03510946 0.07124961 0.06728688 0.029298292 -0.003710427 0.007959535
0.007241485 -0.0052372306 -0.028871292 0.024725124 0.019560974 0.0034499993 0.0022964382 6.012055e-05
-6.25415e-40 7.3466006e-05 -0.0003528018 0.0040262234 -0.0010121587 0.039564934 0.009318394 0.009957442
-0.009193255 0.0016158936 0.023085907 -0.031351432 -0.107888 -0.13057834 -0.090721205 -0.07342439
-0.07532864 -0.06838803 -0.13402715 -0.105297044 -0.054712426 -0.056190606 -0.049923245 0.01608875
0.015664678 0.0017924967 0.011007413 0.0046495483 -5.5998906e-10 -0.003886379 0.0027789134 0.01031411
0.032021128 0.02396109 -0.03725185 -0.029234942 -0.03175947 -0.09278562 -0.09531749 -0.05076387
-0.07939299 -0.11089056 -0.054716304 -0.103049144 -0.1395566 -0.05929089 -0.090054385 -0.07512939
-0.024225567 0.011907917 0.03452761 0.031003926 0.0055834204 0.005360594 0.013651153 0.00040771734
5.5688175e-05 0.010743306 0.009825343 0.026044361 0.024398448 0.0008408998 -0.05437256 -0.03660364
-0.05979749 -0.06083612 -0.07757082 -0.088460386 -0.112417825 -0.089527376 -0.05139176 -0.02314946
-0.043606255 -0.028867764 -0.03739299 -0.059440326 -0.02140239 0.02767974 0.016848737 0.003357601
-0.006856597 -0.0058846413 0.00852228 0.005713473 -0.010372403 0.011241408 0.00902618 0.044047482
00000000: 2cff 0c00 4eb0 0500 22ca 0500 c68c 0e80
00000010: dd37 1400 8ea5 1380 75a9 0880 ea88 0b80
00000020: 7971 0280 7903 0b00 cdca 0b00 c246 0380
00000030: 509b f139 0e2f 7aba 7eea 2236 ab17 1233
00000040: 7678 1580 5284 1000 0258 1500 8b32 0480
00000050: df05 0b00 7a96 0080 e0c6 0200 8003 1180
00000060: 9c36 0080 0383 0480 4282 0080 e737 1480
00000070: 5751 0200 b9d4 1580 9125 1180 75c9 0b00
00000080: 92b3 03b0 a232 3aaf ea1b 6ab9 21d7 5ab9
00000090: 17a9 78b9 8e1a 103a 90f1 893a a728 123a
000000a0: 0d1a 20ba 0752 653a aa48 e2b9 0731 83b9
000000b0: ed09 74ba acdf 69ba d48d e93b 21cb b73b
000000c0: 012b 0a3a ce14 283a aea4 d2b0 dec7 ea2e
000000d0: 7a41 0d80 bdc1 0100 d781 0c80 1bd5 1080
000000e0: 2587 0e00 937a 0600 9b34 65a6 fd4b b6b0
000000f0: e6b5 d136 2add 92bb a8d2 debb c171 57bb
00000100: 6088 a9ba b1fe 88bc f368 a0bb d898 e0ba
00000110: 226a 88bc 5287 e2bc e586 64bc fc43 82bb
00000120: f23a 54bb 3051 b13a 511f b73b 68f6 023b
00000130: cb9e b23b a176 453c 7041 b63b 1e1d a0ba
00000140: d659 32ba f056 95b0 08ac 1300 417c 0e00
00000150: 6ffd 1080 5fec 1000 6f05 8dae f7f2 97b5
00000160: 3ba7 80b9 d9d7 d5bb dc9a f439 ec1d 643c
00000170: 09b6 af3c d89e 883c 7af9 963c f53a 463c
00000180: 7ecf c43c ab73 713a c276 0b3c d900 b73c
00000190: 9463 da3c 0eb0 d53c ca74 503d 4c03 483d
000001a0: 247f 453d e7ed 313d 709f 0b3d 69e1 373c
000001b0: e1a9 f83b e297 4eba 0acc 2ab6 5de9 0500
000001c0: 257f 0c00 47ef 8e23 1669 0135 3395 103c
000001d0: 6237 413a ce27 64bb fe75 593c 4a53 cb3c
000001e0: a52b a43c f26f 03bc fbcd ed3c da78 863d
000001f0: 7353 be3d 4770 d13d c3cc fd3d 97a4 fe3d
00000200: 9d5b 963d 0431 823d b4f5 a13d 0bdb 913d
00000210: 6296 923d e896 733d 45f4 123d b966 5b3c
00000220: 7bfa 9b3c 273a f23b 7d60 6039 efc3 392c
00000230: 2782 0d80 be21 5b31 11c7 8533 4e0a b83b
00000240: 7c84 6a39 62da 6d3c 6450 223c 2653 673c
00000250: bbfc a7bc 1339 51bc dd75 6f3d 57fe 953d
00000260: 426b bb3c 6b45 0b3b f0ce 0f3d 51eb 913d
00000270: b4cd 893d f902 f03c a32a 73bb b668 023c
00000280: fb49 ed3b 139d abbb 7d83 ecbc 588c ca3c
00000290: 563e a03c 6219 623b d77f 163b f329 7c38
000002a0: 67cf 0680 c311 9a38 42f8 b8b9 69ee 833b
000002b0: 69aa 84ba d70e 223d 2dac 183c 8a24 233c
000002c0: 4e9f 16bc 64cc d33a a81e bd3c 5c6a 00bd
000002d0: 62f4 dcbd 54b6 05be 0acc b9bd 875f 96bd
000002e0: e745 9abd 060f 8cbd 6a3e 09be faa5 d7bd
000002f0: 231a 60bd 1f28 66bd 517c 4cbd 8ecc 833c
00000300: 3653 803c 35f2 ea3a 7058 343c 3d5b 983b
00000310: baed 19b0 9fb2 7ebb 6e1e 363b 83fc 283c
00000320: 9628 033d 0c4a c43c 6595 18bd 1e7e efbc
00000330: 3816 02bd 6306 bebd d135 c3bd c7ed 4fbd
00000340: cb98 a2bd 971a e3bd 341e 60bd 6e0b d3bd
00000350: ede7 0ebe 01db 72bd 6f6e b8bd 70dd 99bd
00000360: b274 c6bc 6d19 433c d36c 0d3d f2fb fd3c
00000370: 20f5 b63b eca7 af3b 16a9 5f3c e5c2 d539
00000380: b992 6938 b104 303c 7afa 203c fc5a d53c
00000390: 41df c73c d56f 5c3a c3b5 5ebd b3ed 15bd
000003a0: 36ee 74bd 4c2f 79bd 73dd 9ebd b82a b5bd
000003b0: 513b e6bd 215a b7bd 2b80 52bd f0a3 bdbc
000003c0: 799c 32bd 177c ecbc 6429 19bd b377 73bd
000003d0: 1154 afbc 9fc0 e23c 5d06 8a3c 320b 5c3b
000003e0: 4ead e0bb f3d3 c0bb 08a1 0b3c 1638 bb3b
000003f0: 03f1 29bc e22d 383c 8be2 133c 226b 343d

autoencoder.encoder.1.bias f4 [100]
-0.08293942 -0.2478397 0.0010594709 0.08760004 0.08582473 -0.0024520252 -0.5405459 -0.007089985
-0.012277759 -0.24831901 0.01598131 -0.19685696 -0.014239809 0.0011562604 -0.12518787 -0.0043792804
-0.43884996 0.0141612375 0.25499472 -0.119606465 -0.035725564 -0.001298381 -0.2128007 0.07288944
-0.26642424 0.08474425 -0.035189506 0.017791595 0.012240626 -0.3311231 0.0012180136 0.088376015
-0.0710966 -0.05677762 -0.11895516 0.04327665 -0.010468934 -0.0055888207 -0.41451433 -0.17047496
-0.4635833 0.006545638 -0.010248595 0.05001141 0.004774214 0.0033676848 0.011084186 0.0738367
-0.07410453 -0.28562063 -0.1926536 -0.009368663 -0.008175218 -0.011231055 -0.16669115 -0.5341166
-0.05368518 -0.15449221 -0.0038371128 -0.2967225 -0.06681315 -0.0040310444 0.08578373 -0.08929707
0.04177204 0.009758176 0.048790693 0.08588506 0.011746811 -0.41881832 -0.49636665 0.00028348397
-0.120550856 0.0009103619 0.26938295 -0.07319055 0.23600505 0.003978747 0.008786793 0.110379145
-0.25489146 0.05148423 -0.007647471 -0.0040478115 0.084574 0.0043080384 0.20945255 0.08235307
-0.16598776 -0.0051097213 0.0054560117 -0.005318832 -0.00083210145 -0.0056777657 -0.006693335 -0.008021349
0.02018007 -0.0055595287 0.09977274 0.3120339
00000000: 25dc a9bd b1c9 7dbe f2dd 8a3a a667 b33d
00000010: e0c4 af3d 28b2 20bb 3761 0abf 1b53 e8bb
00000020: a728 49bc 5747 7ebe 3ceb 823c df94 49be
00000030: 164e 69bc a98d 973a 4031 00be 1180 8fbb
00000040: f1b0 e0be 8904 683c ab8e 823e 3cf4 f4bd
00000050: f854 12bd 702e aaba 6de8 59be 0f47 953d
00000060: c268 88be 658e ad3d df22 10bd aebf 913c
00000070: e88c 483c f888 a9be c1a5 9f3a 7cfe b43d
00000080: 189b 91bd a68f 68bd c39e f3bd db42 313d
00000090: e485 2bbc 6d22 b7bb 393b d4be fd90 2ebe
000000a0: ca5a edbe cb7c d63b b9e9 27bc c4d8 4c3d
000000b0: 0271 9c3b 60b4 5c3b 729a 353c b237 973d
000000c0: 1ec4 97bd de3c 92be fc46 45be 057f 19bc
000000d0: 59f1 05bc 7502 38bc 16b1 2abe debb 08bf
000000e0: fee4 5bbd 3533 1ebe 1278 7bbb 03ec 97be
000000f0: 55d5 88bd da16 84bb 61af af3d 62e1 b6bd
00000100: 2919 2b3d c2e0 1f3c c0d8 473d 82e4 af3d
00000110: b275 403c 5b6f d6be c523 febe 93a0 9439
00000120: 5ee3 f6bd 5aa5 6e3a 90ec 893e ede4 95bd
00000130: 4fab 713e 2660 823b 7bf6 0f3c 760e e23d
00000140: 2281 82be 21e1 523d a397 fabb 81a3 84bb
00000150: 2235 ad3d 722a 8d3b bb7a 563e baa8 a83d
00000160: b2f8 29be 736f a7bb 58c8 b23b 9949 aebb
00000170: 6221 5aba 8d0c babb c353 dbbb fa6b 03bc
00000180: ad50 a53c b52c b6bb a655 cc3d e8c2 9f3e

autoencoder.encoder.3.weight f4 [100, 100]
-0.017844371 -0.15670678 0.009483789 -0.081186816 -0.04297418 0.005515965 0.042491976 0.012338547
0.115444474 -0.003972107 -0.008156977 0.20209569 -0.0029157826 0.011200788 -0.046013266 0.000280602
-0.13933612 -0.013702131 0.0008896749 0.066161476 0.0035005282 -0.0041620876 -0.07189216 -0.12086315
0.07276782 -0.14055108 -0.0042737247 -0.09718297 -0.029405756 0.16630325 0.007038262 0.00072048925
0.08194431 -0.050318226 -0.064947076 -0.009180768 -0.00075554126 0.00429171 0.045267854 0.18426085
0.07401989 -0.0064822272 0.0031514762 -0.08545868 -0.116988525 -0.003427309 -0.00041413866 -0.050265964
-0.20602539 -0.011234771 -0.13784517 -0.0070239888 -0.0012256602 0.0017960015 -0.093735434 -0.002519379
0.021615509 -0.017441658 0.008130191 0.21440119 0.08239101 0.004535911 0.09653568 0.106621675
0.18875872 0.084128544 0.124066636 0.06093028 -0.0021667522 -0.12151157 0.06458543 0.0012042284
-0.03962595 0.004716865 0.04330613 -0.030385312 -0.17029324 0.009874441 -0.013744125 0.041582566
-0.10254637 0.077718675 0.007724116 0.0046479586 -0.08874387 -0.0061032386 -0.020750238 -0.072689265
-0.04312106 -0.010712029 0.0037530067 0.007865345 0.0063413847 0.005883096 0.010941357 0.0050992793
0.00010254215 -0.004061127 0.034981415 0.048204053 -0.00029806714 -0.00041236985 0.00030560885 0.0033077218
-0.0033417474 0.0024988966 0.00092303334 -0.0009503174 0.004087097 0.0030444406 -0.00017984702 -0.0076163905
0.00036675722 -0.0028707802 0.0011939238 -0.0002876795 0.00425162 -0.0035647396 -0.0025128827 -0.008276253
-0.003338421 0.002686875 0.0035075117 -2.231549e-05 -0.0047264807 0.004860645 0.0031166947 0.001535903
0.0018444422 -9.072323e-05 0.0027288913 -0.010281189 -0.0034298676 0.007982668 0.002051597 0.006533953
6.6180737e-06 -0.00054373045 0.00021705918 0.0028218748 -0.0019486964 -0.004833131 -0.0054388368 0.002077563
-0.0022063318 0.0011843658 0.0036310467 -0.0020774084 0.0017254807 0.0024276355 0.00083451386 -0.0003908982
-0.001463357 -0.0016176349 -0.0024975552 0.0031369377 0.0032396475 0.008080237 0.0011226574 0.0013291428
-0.004396296 -0.00021090935 -0.0074550374 -0.000111377776 -0.004723017 0.00064835435 -4.0378727e-05 0.006460077
0.00013173358 1.7253726e-05 0.00026607036 -0.005214083 -0.006254217 0.0019434612 -0.0032859088 0.0017806876
0.001501078 0.0007810576 0.0008296599 0.0046602534 -0.002566689 0.004622271 0.0010021625 -0.00019616277
0.00060778344 0.00012256207 -0.0019533744 0.0021210415 -0.0011082569 0.0010298393 -0.00033960657 0.0001759138
0.0015683905 0.00054040435 0.0054401252 -0.0014048826 0.0039238553 0.00041913168 0.0038556175 0.0047967616
-0.533668 0.013319074 -0.0051382277 -0.17210495 -0.056753494 -0.020698907 0.024966843 -0.005145376
0.084950805 0.04252508 -0.003681867 -0.13801676 0.0009824766 -0.011212885 0.030454822 -0.0075712716
0.036647283 -0.0042029195 0.06681907 -0.94962996 0.017041035 -0.01834672 -0.009442289 0.14937803
-0.09435025 0.1375951 -0.14812572 0.0034486514 -0.0692141 0.17743123 0.006851772 0.15109183
0.14784127 -0.3515229 -0.0024664565 -0.027092302 -0.045210574 -0.0043223533 0.041800965 0.15200153
-0.054691583 0.008244212 0.0064807814 -0.29731333 0.049575396 -0.0066514593 0.0021012016 0.120938316
0.112353355 -0.058399785 -0.22682393 0.004349907 -0.0031108952 -0.005193451 0.10680887 -0.118939966
00000000: 5c2e 92bc be77 20be e561 1b3c 4645 a6bd
00000010: b205 30bd 45bf b43b 110c 2e3d 9e27 4a3c
00000020: 276e ec3d 7328 82bb d7a4 05bc 2cf2 4e3e
00000030: b716 3fbb 8383 373c 6878 3cbd c31d 9339
00000040: 21ae 0ebe e77e 60bc 1239 693a ab7f 873d
00000050: 1e69 653b 1f62 88bb 323c 93bd 1987 f7bd
00000060: 4b07 953d 9fec 0fbe 9a0a 8cbb dd07 c7bd
00000070: 57e4 f0bc 664b 2a3e 39a1 e63b 37df 3c3a
00000080: 6bd2 a73d 7c1a 4ebd f902 85bd ef6a 16bc
00000090: 840f 46ba 79a1 8c3b c96a 393d e0ae 3c3e
000000a0: bd97 973d dd68 d4bb ff88 4e3b f604 afbd
000000b0: ae97 efbd b49c 60bb c020 d9b9 afe3 4dbd
000000c0: 52f8 52be 0c12 38bc 4927 0dbe 7d29 e6bb
000000d0: 55a6 a0ba cf67 eb3a 5df8 bfbd 2a1c 25bb
000000e0: 0213 b13c cfe1 8ebc 7e34 053c fc8b 5b3e
000000f0: 9ebc a83d fba1 943b 80b4 c53d 775c da3d
00000100: f749 413e 964b ac3d a616 fe3d 0792 793d
00000110: 1200 0ebb 0fdb f8bd 5e45 843d 33d7 9d3a
00000120: d24e 22bd ee8f 9a3b c561 313d 9eea f8bc
00000130: 5a61 2ebe 68c8 213c 0a2f 61bc 7b52 2a3d
00000140: d503 d2bd f82a 9f3d 951a fd3b e74d 983b
00000150: 59bf b5bd adfd c7bb 67fc a9bc 1cde 94bd
00000160: b59f 30bd 8281 2fbc 01f5 753b a6dd 003c
00000170: 64cb cf3b fcc6 c03b 6143 333c db17 a73b
00000180: e60b d738 3413 85bb ac48 0f3d 9d71 453d
00000190: e545 9cb9 5833 d8b9 203a a039 5dc6 583b
000001a0: 3801 5bbb 87c4 233b b8f7 713a b91e 79ba
000001b0: 0eed 853b 3d85 473b 5195 3cb9 ea92 f9bb
000001c0: 5249 c039 b323 3cbb 6f7d 9c3a b0d3 96b9
000001d0: 2c51 8b3b 689e 69bb 2daf 24bb 1f99 07bc
000001e0: 69c9 5abb 4816 303b 48de 653b 2632 bbb7
000001f0: 98e0 9abb 0c46 9f3b 7641 4c3b 5a50 c93a
00000200: 36c1 f13a aa42 beb8 33d7 323b 6f72 28bc
00000210: a1c7 60bb bcc9 023c 1674 063b c51a d63b
00000220: d210 de36 2289 0eba 619a 6339 34ef 383b
00000230: 676b ffba 3e5f 9ebb 4538 b2bb b927 083b
00000240: 1b98 10bb b93c 9b3a dbf6 6d3b 2125 08bb
00000250: 8629 e23a f718 1f3b 47c3 5a3a 78f1 ccb9
00000260: 1dce bfba d206 d4ba 06ae 23bb 1595 4d3b
00000270: 4450 543b f862 043c 2226 933a a236 ae3a
00000280: ce0e 90bb 8c27 5db9 6349 f4bb 7d93 e9b8
00000290: 8ac3 9abb 53f6 293a 545c 29b8 0eaf d33b
000002a0: f721 0a39 18bc 9037 5c7f 8b39 e6da aabb
000002b0: 2df0 ccbb bdbb fe3a 6758 57bb f665 e93a
000002c0: d2bf c43a e3bf 4c3a 897d 593a 0ab5 983b
000002d0: e535 28bb 6b76 973b fe5a 833a 0bb1 4db9
000002e0: a853 1f3a 0184 0039 2f04 00bb 2c01 0b3b
000002f0: ee42 91ba acfb 863a 390d b2b9 8075 3839
00000300: 7492 cd3a eca9 0d3a 1443 b23b 0a24 b8ba
00000310: af93 803b e7be db39 87ae 7c3b 272e 9d3b
00000320: 779e 08bf 3f38 5a3c 945e a8bb 483c 30be
00000330: 5a76 68bd c190 a9bc 4487 cc3c 8b9a a8bb
00000340: b0fa ad3d c72e 2e3d 7a4b 71bb 4454 0dbe
00000350: 72c6 803a 40b6 37bc 647c f93c 6e18 f8bb
00000360: 761b 163d a5b8 89bb 70d8 883d f31a 73bf
00000370: a499 8b3c dc4b 96bc d5b3 1abc 8ef6 183e
00000380: b43a c1bd bbe5 0c3e 45ae 17be c502 623b
00000390: 1fc0 8dbd 88b0 353e d484 e03b d1b7 1a3e
000003a0: b463 173e cffa b3be 46a4 21bb adf0 ddbc
000003b0: b92e 39bd 87a2 8dbb 7d37 2b3d 4aa6 1b3e
000003c0: 4804 60bd bb12 073c bc5c d43b 7439 98be
000003d0: 920f 4b3d 7cf4 d9bb 50b4 093b 82ae f73d
000003e0: 8419 e63d 9d34 6fbd 8844 68be aa89 8e3b
000003f0: 29e0 4bbb d32d aabb 9cbe da3d cc96 f3bd

autoencoder.encoder.3.bias f4 [100]
0.07702535 -0.001342879 0.018005528 -0.00011990388 0.00089334976 0.065741666 -0.07551387 0.06020401
0.00029382907 -0.1306101 0.107816756 -0.07015816 0.098648325 0.1379547 -0.12899257 -0.26789472
0.052044235 -0.0016670018 0.0011639424 0.033857465 0.0003250976 0.030451737 0.002702969 -0.20928167
0.13492587 0.0050093434 -0.1305552 -0.11918654 -0.00578802 -0.00024905233 0.007440644 0.003842378
0.0047532795 -0.11978184 0.020907111 -0.02106771 -0.0012746332 -0.08510206 -0.0033346445 -0.001297996
0.041674882 -0.17493553 0.0013305421 0.095637016 -0.030291278 0.07980086 -0.0023780116 -0.42593354
0.19883592 0.00013351208 0.21440746 8.4495e-05 0.11001687 -0.0030730902 0.078244515 0.026131481
0.0021146885 0.0027541106 -0.003618168 -4.718283e-06 -3.9085688e-05 0.031779416 -0.0037245553 -0.03206933
-0.07100792 0.020658089 -0.00082778145 0.0024165567 -0.0010824525 -0.09199969 0.0015161767 -0.04341467
-0.090903744 -0.18282105 -0.0028944854 -0.0013781466 0.0016245234 -0.16681318 -0.0033068112 -0.14405096
-0.09730527 0.14845802 0.0022378727 -0.103458375 0.15358905 0.003167256 -0.083501965 -0.003338997
0.05654089 0.0016091911 -0.0017040636 -0.0480243 0.04089224 -0.00028219563 -0.057007913 0.06537588
-0.10076137 0.012093567 -0.0042846883 -0.014278031
00000000: 77bf 9d3d 8b03 b0ba 5480 933c e874 fbb8
00000010: b02f 6a3a 91a3 863d 04a7 9abd 7b98 763d
00000020: 120d 9a39 a7be 05be 08cf dc3d 15af 8fbd
00000030: 2208 ca3d ff43 0d3e a116 04be 7f29 89be
00000040: 562c 553d 4c7f daba 6d8f 983a 20ae 0a3d
00000050: dc71 aa39 ec75 f93c 4b24 313b ef4d 56be
00000060: 022a 0a3e 6b25 a43b 43b0 05be 1318 f4bd
00000070: 6ea9 bdbb 3d93 82b9 a5d0 f33b 68d0 7b3b
00000080: 66c1 9b3b 2e50 f5bd 6445 ab3c 3196 acbc
00000090: 9811 a7ba fd49 aebd 0d8a 5abb 8521 aaba
000000a0: 48b3 2a3d 4d22 33be 9665 ae3a 57dd c33d
000000b0: 6a25 f8bc a26e a33d 6ad8 1bbb f613 dabe
000000c0: a59b 4b3e 60ff 0b39 a18d 5b3e e832 b138
000000d0: 8650 e13d e665 49bb a93e a03d b011 d63c
000000e0: 9696 0a3b 4f7e 343b c91e 6dbb be51 9eb6
000000f0: f0ef 23b8 222b 023d ab17 74bb 215b 03bd
00000100: 9a6c 91bd 273b a93c 79ff 58ba 185f 1e3b
00000110: 14e1 8dba 556a bcbd 73ba c63a 95d3 31bd
00000120: be2b babd 7135 3bbe 68b1 3dbb eda2 b4ba
00000130: f6ed d43a 13d1 2abe 16b7 58bb 1882 13be
00000140: fc47 c7bd 6105 183e 46a9 123b fce1 d3bd
00000150: 7346 1d3e bd91 4f3b 1403 abbd 13d3 5abb
00000160: 6c97 673d 7eeb d23a e35a dfba 21b5 44bd
00000170: 9f7e 273d a8f3 93b9 2181 69bd cae3 853d
00000180: fa5b cebd 1924 463c 9266 8cbb 67ee 69bc

autoencoder.encoder.5.weight f4 [100, 100]
0.0030062308 0.001175584 0.0029248286 0.0020006346 0.0006399462 -0.0019507305 -0.0009572678 0.005761939
-0.00049062585 0.009531944 -0.008039035 0.0010160991 -0.0009838666 0.0032368277 -0.0012085221 -5.98833e-05
0.008014491 0.001073855 0.00018266232 -0.0075385007 0.0015936602 0.0016195264 -0.0005475938 -0.006935912
0.00015686368 -0.0020271465 0.003380572 -0.0016792656 0.0025020405 -0.002971811 -0.0047146203 -0.0024877095
-0.0013285486 -0.0058669033 0.0067490884 -0.001435868 0.00018017447 -0.00059262285 0.0006384967 0.00031672794
-0.0019008161 -0.004369051 0.0003540535 -0.0016403105 0.003914541 0.0027095883 0.0010846346 0.0016205633
0.010921842 0.0018882327 0.0032496338 0.0019307523 -0.004627486 0.00067670335 -0.0032419409 0.0007413148
8.872858e-05 -0.0009916084 0.00060896826 0.0006148144 0.00013762021 0.00088181155 0.0006670696 -0.00027942113
0.0042356206 0.008002779 0.0008942203 -0.00012171365 0.0011512521 -0.00039109777 -0.0009824004 0.0037071125
0.0011624941 0.0044491715 0.0014905693 -0.00060089293 -4.6257614e-05 0.0034853043 0.0038314413 0.0013739638
0.003931409 -0.0017090751 -0.00041021232 0.0030510742 0.0005645187 -0.0005241963 -0.0030948864 0.0020220045
-0.0022598242 -8.62037e-05 0.0014569818 0.00022977235 -0.00035826841 -0.00035417624 0.0032656952 -0.00081184786
0.008914421 -0.006396254 0.0015595853 0.0019314275 -0.011142972 0.0017298298 0.07959435 -0.0055426923
0.003204099 -0.077528104 0.009194712 -0.03887623 0.009073357 0.015784862 -0.08868696 0.047444947
-0.024181098 -0.12186154 0.0011413051 -0.032515187 -0.05629431 -0.0017852403 0.007550088 -0.024493502
-0.005724754 0.12454131 0.007174044 0.04261424 0.04816857 -0.00205296 0.027476694 -0.068924986
-0.009865267 0.0022391214 -0.053994887 0.0047094463 0.0065789027 0.021768482 0.059899345 0.013641324
0.0012733325 -0.096465535 -0.002265903 0.0052942294 -0.06380799 0.0023196603 0.0073829372 -0.06682717
-0.19147538 0.07739929 0.0011539327 -0.083902806 -0.14032283 -0.0052322983 0.14226459 0.0021466368
0.01693518 0.007821183 0.026433753 0.031061994 0.0014724135 0.0021057783 -0.00054696767 0.0059449677
0.007650644 -0.24226947 0.0035846184 -0.09765238 0.12669525 0.092048556 -0.007946277 0.003691544
0.0055801286 -0.042951707 -0.0005115529 0.028326506 0.08270603 0.15837647 -0.010260421 0.0072570555
0.004376782 0.08299337 -0.0036607299 0.1864907 -0.12524056 0.08305544 -0.003021421 0.04656845
0.035428464 0.0020601598 -0.018885387 0.00365249 0.05182214 0.0054581077 0.004805777 0.14211814
-0.056056906 0.0073489654 -0.121597506 -0.027044851 0.01611065 -0.019962741 -0.008140037 -0.10843528
-0.0030083533 -0.0036627222 -0.0043925787 0.0026293288 -0.0020497153 -0.0045915837 -0.0057232073 -0.002937888
-0.0037603085 -0.0034625982 0.0032133632 -0.000341286 -0.0006050242 0.0005153512 -0.0012155012 0.000947982
-0.009102106 -0.006339497 -0.003120321 -0.002765734 -0.000548672 -0.00449579 -0.0028290595 -0.0060951263
-0.009511599 0.00090418995 0.0018920737 3.8482543e-05 0.00091893674 0.0026313534 0.00088286254 -0.0006901877
-0.002478798 -0.0045448616 -0.004110083 0.0006434361 -0.005069643 -0.004711136 -0.0027227981 -0.0047064507
0.0050691264 0.0026120779 -0.0028521477 0.002720613 -0.00050309324 0.00041474213 -0.0034965556 0.00083369185
0.0019164799 0.0030580484 -0.0044812816 -0.0009373963 -0.0009340135 -0.0019773103 0.0011025445 0.00025642064
00000000: 2f04 453b 0e16 9a3a 7bae 3f3b 141d 033b
00000010: 10c2 273a a7af ffba 28f1 7aba a6ce bc3b
00000020: 589d 00ba df2b 1c3c 28b6 03bc a12e 853a
00000030: 16f5 80ba f520 543b 4667 9eba 342b 7bb8
00000040: 364f 033c 98c0 8c3a 0b89 3f39 8705 f7bb
00000050: 5de2 d03a 4a46 d43a 668c 0fba a646 e3bb
00000060: c67b 2439 e0d9 04bb 968c 5d3b ce1a dcba
00000070: 46f9 233b b7c2 42bb 1a7d 9abb d708 23bb
00000080: b222 aeba 273f c0bb 7527 dd3b bc33 bcba
00000090: 37ed 3c39 3f5a 1bba ca60 273a 810e a639
000000a0: ce24 f9ba 422a 8fbb 42a0 b939 b0ff d6ba
000000b0: 8d45 803b 5993 313b 4c2a 8e3a 1569 d43a
000000c0: 87f1 323c 937e f73a cff7 543b 4c11 fd3a
000000d0: 2ba2 97bb cb64 313a be76 54bb cb54 423a
000000e0: cb13 ba38 dbf8 81ba 2ba3 1f3a 7f2b 213a
000000f0: 254e 1039 5f29 673a 48de 2e3a 457f 92b9
00000100: f6ca 8a3b 171e 033c 1c6a 6a3a 8540 ffb8
00000110: 9ce5 963a 410c cdb9 e3c3 80ba 07f3 723b
00000120: d45e 983a 5bca 913b 355f c33a 3e85 1dba
00000130: bc04 42b8 b469 643b eb18 7b3b 9316 b43a
00000140: 0dd3 803b 0b03 e0ba c411 d7b9 88f4 473b
00000150: 35fc 133a 386a 09ba 94d3 4abb 9b83 043b
00000160: 8f19 14bb 42c8 b4b8 32f8 be3a 0cef 7039
00000170: f9d5 bbb9 bbb0 b9b9 4605 563b 30d2 54ba
00000180: cb0d 123c ab97 d1bb 006b cc3a f427 fd3a
00000190: 0391 36bc 75bb e23a 5d02 a33d 799f b5bb
000001a0: dcfb 513b 0ec7 9ebd 6ba5 163c af3c 1fbd
000001b0: 6ba8 143c 414f 813c 82a1 b5bd a255 423d
000001c0: 7017 c6bc 8b92 f9bd d897 953a a52e 05bd
000001d0: dd94 66bd b9fe e9ba bb66 f73b 99a6 c8bc
000001e0: b896 bbbb 840f ff3d 3e14 eb3b 458c 2e3d
000001f0: 684c 453d f48a 06bb ce16 e13c 8b28 8dbd
00000200: eea1 21bc 39be 123b be29 5dbd b351 9a3b
00000210: d693 d73b d153 b23c 0459 753d dc7f 5f3c
00000220: f3e5 a63a b98f c5bd 8b7f 14bb 377b ad3b
00000230: c3ad 82bd 7105 183b 91ec f13b afdc 88bd
00000240: 1f12 44be 8583 9e3d 8e3f 973a 3cd5 abbd
00000250: cab0 0fbe b373 abbb cfad 113e 97ae 0c3b
00000260: a6bb 8a3c 6b24 003c 998b d83c b975 fe3c
00000270: 00fe c03a 1901 0a3b 6162 0fba 01ce c23b
00000280: 41b2 fa3b 7d15 78be ebeb 6a3b f9fd c7bd
00000290: 66bc 013e f483 bc3d 1a31 02bc d5ed 713b
000002a0: 83d9 b63b 21ee 2fbd bc19 06ba fd0c e83c
000002b0: c761 a93d 712d 223e 531b 28bc 98cc ed3b
000002c0: 1c6b 8f3b 6ef8 a93d dbe8 6fbb 6bf7 3e3e
000002d0: 103f 00be f818 aa3d 0803 46bb 8fbe 3e3d
000002e0: 701d 113d bf03 073b 87b5 9abc 9d5e 6f3b
000002f0: 7443 543d edd9 b23b c879 9d3b 6b87 113e
00000300: ed9b 65bd 97cf f03b 1d08 f9bd 2a8d ddbc
00000310: 7bfa 833c e788 a3bc ca5d 05bc 5113 debd
00000320: cb27 45bb 480a 70bb 9fef 8fbb d150 2c3b
00000330: 8454 06bb ff74 96bb be89 bbbb 9589 40bb
00000340: 826f 76bb c2ec 62bb 4a97 523b a2ee b2b9
00000350: 7d9a 1eba a218 073a 7451 9fba ff81 783a
00000360: 0021 15bc 8ebb cfbb 4d7e 4cbb 5141 35bb
00000370: c1d4 0fba 6c51 93bb be67 39bb a0b9 c7bb
00000380: 8ad6 1bbc 2907 6d3a 75ff f73a 5168 2138
00000390: cde4 703a c972 2c3b e76f 673a b6ed 34ba
000003a0: 5473 22bb 10ed 94bb e0ad 86bb 44ac 283a
000003b0: 3f1f a6bb e05f 9abb f970 32bb 9238 9abb
000003c0: ea1a a63b 652f 2b3b 19eb 3abb 504c 323b
000003d0: 04e2 03ba bf71 d939 7826 65bb 1d8c 5a3a
000003e0: 6532 fb3a 8a69 483b b7d7 92bb 9abb 75ba
000003f0: 96d8 74ba c395 01bb 4183 903a 3270 8639

autoencoder.encoder.5.bias f4 [100]
-0.0034211597 -0.1819514 -0.004099538 0.0011665956 0.0010828858 0.00011084425 -0.003666167 0.0015746938
0.0013703174 0.0005656874 -0.0007576383 -0.011203781 0.0040983716 -0.0018254383 0.054369275 -0.15898407
0.12591745 -0.00045884334 0.17554471 0.0014786004 0.00024353657 -0.0006240066 0.12931892 -0.002646122
-0.105953924 0.025053704 0.0016469227 0.0023442153 -0.0026545378 0.0048677204 -0.004862567 -0.13219212
0.07472399 0.12251333 -0.0023565902 -0.0032697255 -0.0008925084 -0.00032516153 -0.05132071 0.0833635
0.06633565 -0.060516983 -0.0019348527 0.0048141563 -0.001417734 0.0016729331 -0.0009191405 -0.0023831641
-0.0002931052 -0.0006153794 0.020730905 0.003073596 -0.027185673 -0.15217845 -0.3400976 -0.00084721076
0.0045982692 0.055120625 -0.010821432 0.048569217 0.0028148626 -0.06358004 -0.005949442 -0.002744395
-0.0014407021 -0.06952278 0.00018934945 -0.0002899934 -0.0034900666 0.002877361 0.00013872562 0.0013192616
0.0007755899 0.0035963655 -0.08650019 0.0005409952 0.01640861 0.0006075698 -0.16956998 0.00073003676
-0.0037811678 -0.0015648189 -0.00015478666 -0.07009054 -0.002355759 0.0035921857 -0.0012009321 0.12978305
-0.0005509633 0.00019720507 0.0024142251 0.0009194959 -0.34548134 -0.26895636 0.0013929347 0.0020299456
-0.13117445 -0.0028466398 0.19611523 0.0036028086
00000000: 8935 60bb 7851 3abe 6b55 86bb 74e8 983a
00000010: 9eef 8d3a 0e75 e838 1344 70bb f565 ce3a
00000020: 399c b33a a44a 143a 3f9c 46ba 1090 37bc
00000030: a24b 863b 8c43 efba 51b2 5e3d b8cc 22be
00000040: 81f0 003e e990 f0b9 fec1 333e 99cd c13a
00000050: da5d 7f39 6094 23ba 2e6c 043e 8f6a 2dbb
00000060: 5ffe d8bd 6d3d cd3c 8edd d73a 68a1 193b
00000070: c1f7 2dbb 6681 9f3b 2b56 9fbb 5f5d 07be
00000080: e408 993d 45e8 fa3d 0671 1abb e448 56bb
00000090: 3af7 69ba 717a aab9 aa35 52bd 7cba aa3d
000000a0: fcda 873d a8e0 77bd e29a fdba 12c0 9d3b
000000b0: 42d3 b9ba 5246 db3a 7af2 70ba dc2e 1cbb
000000c0: eaab 99b9 6a51 21ba dcd3 a93c 626e 493b
000000d0: 7db4 debc abd4 1bbe 4621 aebe 5a17 5eba
000000e0: 14ad 963b 2ac6 613d 604c 31bc 84f0 463d
000000f0: 8f79 383b 4136 82bd 89f3 c2bb 4fdb 33bb
00000100: f1d5 bcba f661 8ebd 1b8c 4639 410a 98b9
00000110: 9ab9 64bb 1b92 3c3b e076 1139 13eb ac3a
00000120: f550 4b3a 00b1 6b3b 0327 b1bd 93d1 0d3a
00000130: 596b 863c 5245 1f3a c1a3 2dbe f05f 3f3a
00000140: 78cd 77bb 9c1a cdba 3a4e 22b9 a18b 8fbd
00000150: 1463 1abb e06a 6b3b 9868 9dba d9e5 043e
00000160: 856e 10ba d5c8 4e39 fa37 1e3b 530a 713a
00000170: eee2 b0be a6b4 89be 2293 b63a d608 053b
00000180: 9852 06be b18e 3abb 6ed2 483e 191d 6c3b

autoencoder.encoder.7.weight f4 [100, 100]
0.001352036 0.04348506 0.00063546177 0.0022788004 -0.00065804395 -0.00016139405 0.00027716195 -0.00022245958
-0.000583679 0.00013062904 -0.0016707793 0.011021809 -0.0019480047 0.00028061238 0.060345918 0.0888179
0.0750827 -0.0034142963 -0.28399134 -0.0009738762 0.0026890144 0.00029365937 0.14065295 0.0002995045
0.02009998 0.028665762 3.10048e-05 -0.0020185183 -0.0014445763 -0.0019942168 0.00054488407 0.004337846
0.04740786 -0.020271957 0.0012854134 0.003180169 0.00039876308 -0.002210857 0.12616873 0.08664685
-0.07170152 -0.0997129 0.0009049437 -0.0026123237 0.0011914955 -0.00031044148 -0.0005640529 0.0007705629
-0.0017873325 -0.0654154 0.028059302 -0.0014215023 -0.03499433 -0.019725837 -0.09518753 0.003451529
-0.002883369 -0.14708528 0.08783812 0.020089054 -0.0007325695 -0.015911425 -0.008758736 0.00096746103
0.00047183718 -0.045604575 -0.00047623087 9.611791e-05 0.0019643859 -0.0020115906 0.0007619958 -0.00064316223
-0.0013034592 -0.0016126418 0.026879877 0.0024925969 0.113904476 -0.0021763167 0.087218694 -0.001296738
0.0015207831 -0.0010191484 0.0016244998 -0.12565643 0.0011008711 -0.002956361 -0.0021454298 -0.040208507
-0.00017889008 0.00052595313 -0.0008062631 0.0030952517 -0.03750721 -0.19422768 -0.0011882581 1.1635619e-05
0.02121661 0.00036446343 -0.33458105 -0.0024084884 0.00045289585 0.002173518 -0.0003602305 -0.00037910574
2.7858492e-05 -0.0007557559 0.0006644122 -0.0003308252 -1.116172e-05 0.00024281145 -0.00052427367 0.003283047
-0.0011618312 0.0011637007 -0.00084382127 -0.0006328404 -0.00053257495 0.0001708043 -0.0008337328 -0.0012003288
0.0002461247 -0.00037764848 2.2100434e-05 0.0011206298 0.0013632393 0.00034097652 7.4280333e-06 -0.0006596431
-0.0006619033 -0.001112397 0.0006649181 0.002081844 0.004267629 0.0003575428 0.00087698974 -0.00018185619
-0.00015804518 0.00015480036 -0.0010455125 -0.00064120523 -0.0012853289 0.0011963629 -0.00064659765 -0.00042610365
-3.5594185e-05 -0.00077865215 -0.00072419894 0.00017939825 -0.0010063786 -0.0017264544 0.001834372 -0.001443231
0.002272981 -0.00046479108 0.0004849877 -0.0008445668 -0.0016452736 0.0015294424 -0.00050781044 0.0020469327
-0.00060586527 0.002327711 0.0025984696 0.0002579705 0.0007141213 -0.0018943544 -0.0001604081 0.00024897905
0.00028993795 -0.0009919881 0.00035938335 -0.0005742481 -0.000677933 -0.00084956817 8.536268e-05 -0.00039228634
0.0021612092 -0.00092577405 -0.0015947762 -0.00030142118 0.00094363926 -0.0007518632 0.00024281899 -0.006686913
0.0006621439 -0.0002920388 -0.0002064086 -0.0015292735 -0.00054489187 -0.0012498711 -0.00072170893 0.00012054063
-0.00061548065 0.0011575717 -0.0010083845 0.00018325487 0.0021554488 0.00087750977 -0.000645559 -0.00076289376
-0.00020659309 0.0017455505 -0.00022476302 -0.0001431289 -0.0001094405 -0.0003308542 0.000118436765 1.4600665e-05
0.00016970394 0.00026322107 -0.00028848773 0.004768526 -0.00049330597 0.00029308224 0.002603742 0.002154617
0.0007518474 6.2377316e-05 -0.000995734 -0.00046737553 8.09151e-05 7.866129e-05 0.0038021638 0.00033828442
0.0015604615 -0.0014408063 5.185002e-05 -0.00023985625 -0.0002567899 -0.00031515406 5.7496753e-05 0.0007083678
0.00056276604 0.00023708984 0.0001277286 0.00014784717 5.1733692e-05 -8.0487174e-05 -0.0013776919 0.0013124982
-0.00078742136 0.00031143107 0.0001389876 -0.00024459232 0.00013773568 -0.00035616072 -0.0002485739 -0.0004120375
-0.0005128131 -0.0011334006 -0.00024439892 -0.0004376323 -0.00023838936 0.004011996 -0.0008680003 -0.00016639958
00000000: cd36 b13a 641d 323d 1e95 263a ed57 153b
00000010: 9580 2cba e33b 29b9 0c50 9139 0a44 69b9
00000020: 0902 19ba 77f9 0839 0dfe daba d194 343c
00000030: 3154 ffba 281f 9339 482d 773d 29e6 b53d
00000040: f5c4 993d 63c2 5fbb 5067 91be ba4b 7fba
00000050: 2d3a 303b 4bf6 9939 5407 103e d006 9d39
00000060: b7a8 a43c 76d4 ea3c 270b 0238 1e49 04bb
00000070: f057 bdba 68b1 02bb 8dd6 0e3a 7d24 8e3b
00000080: bf2e 423d 6011 a6bc 517b a83a 626a 503b
00000090: 1311 d139 07e4 10bb 6032 013e e773 b13d
000000a0: 3fd8 92bd 4736 ccbd be39 6d3a 8533 2bbb
000000b0: f42b 9c3a c0c2 a2b9 f3dc 13ba 9aff 493a
000000c0: ed44 eaba 82f8 85bd 9fdc e53c b451 baba
000000d0: 3756 0fbd 1498 a1bc aef1 c2bd 0c33 623b
000000e0: e8f6 3cbb 869d 16be 79e4 b33d cd91 a43c
000000f0: e809 40ba ad58 82bc cd80 0fbc 369d 7d3a
00000100: ea60 f739 ddcb 3abd a0ae f9b9 e992 c938
00000110: edbc 003b e4d4 03bb acc0 473a e399 28ba
00000120: d5d8 aaba 485f d3ba 3033 dc3c d65a 233b
00000130: c046 e93d 89a0 0ebb b79f b23d 4ff7 a9ba
00000140: 0355 c73a f294 85ba 2bed d43a 14ac 00be
00000150: 1b4b 903a 82bf 41bb 579a 0cbb adb1 24bd
00000160: 7194 3bb9 1ee0 093a 675b 53ba b5d9 4a3b
00000170: 29a1 19bd 9fe3 46be 53bf 9bba 9a36 4337
00000180: 75ce ad3c 7415 bf39 354e abbe bbd7 1dbb
00000190: a772 ed39 9571 0e3b 52dd bcb9 b6c2 c6b9
000001a0: a8b1 e937 eb1d 46ba f32b 2e3a 9b72 adb9
000001b0: 3943 3bb7 349b 7e39 696f 09ba 6328 573b
000001c0: 9648 98ba 5187 983a e333 5dba 33e5 25ba
000001d0: 809c 0bba ee19 3339 dc8e 5aba 5a54 9dba
000001e0: 4c0a 8139 1fff c5b9 5264 b937 19e2 923a
000001f0: b8ae b23a 18c5 b239 523e f936 e6eb 2cba
00000200: 9483 2dba d9cd 91ba e64d 2e3a 8c6f 083b
00000210: 77d7 8b3b 9574 bb39 c9e5 653a a6b0 3eb9
00000220: eeb8 25b9 e851 2239 9409 89ba 8e16 28ba
00000230: 7b78 a8ba 47cf 9c3a 6f80 29ba aa66 dfb9
00000240: f74a 15b8 761e 4cba 2bd8 3dba da1c 3c39
00000250: 76e8 83ba 324a e2ba 4f6f f03a cc2a bdba
00000260: 4bf6 143b 34af f3b9 f245 fe39 eb65 5dba
00000270: 39a6 d7ba 9277 c83a 951e 05ba d525 063b
00000280: eed2 1eba 838c 183b 164b 2a3b 3740 8739
00000290: df33 3b3a fc4b f8ba 3933 28b9 6789 8239
000002a0: d002 9839 9905 82ba 9e6b bc39 2389 16ba
000002b0: 50b7 31ba 8eb5 5eba bd04 b338 c8ab cdb9
000002c0: 13a3 0d3b a5af 72ba cf07 d1ba 1108 9eb9
000002d0: 8f5e 773a af18 45ba 3a9d 7e39 e41d dbbb
000002e0: ba93 2d3a c91c 99b9 636f 58b9 e771 c8ba
000002f0: 13d7 0eba b7d2 a3ba 1131 3dba c2ca fc38
00000300: 3558 21ba a9b9 973a c52b 84ba 1b28 4039
00000310: 6e42 0d3b af08 663a bb3a 29ba effc 47ba
00000320: e9a0 58b9 f5ca e43a 5dae 6bb9 df14 16b9
00000330: 6c83 e5b8 8076 adb9 4161 f838 61f5 7437
00000340: 8ef2 3139 ef00 8a39 2b40 97b9 4c41 9c3b
00000350: 3451 01ba d5a8 9939 8ba3 2a3b 7a34 0d3b
00000360: a017 453a 91d0 8238 4a83 82ba 150a f5b9
00000370: f7b0 a938 f5f6 a438 b92d 793b c45b b139
00000380: 6688 cc3a 70d9 bcba 8979 5938 ec81 7bb9
00000390: c2a1 86b9 433b a5b9 ab28 7138 c2b1 393a
000003a0: 9786 133a 529b 7839 e3ee 0539 6c07 1b39
000003b0: a1fc 5838 39cb a8b8 ab93 b4ba 2208 ac3a
000003c0: f46a 4eba 9247 a339 33bd 1139 a03c 80b9
000003d0: 246d 1039 15bb bab9 0653 82b9 bd06 d8b9
000003e0: 4e6e 06ba 9d8e 94ba ab22 80b9 0372 e5b9
000003f0: 28f8 79b9 1077 833b 848a 63ba 8c7b 2eb9

autoencoder.encoder.7.bias f4 [100]
-0.12225149 -0.00040827107 -0.0004972617 0.0011751774 0.13923031 -0.13427514 0.14912611 0.12502612
0.20306551 -0.0001452147 0.0023704367 -0.0021756957 -0.16830158 -0.16061284 0.0010199015 -0.12360055
-0.00050235866 0.15670526 -0.0021462864 -0.0031959163 0.05535149 -0.00030723488 0.0027277113 -0.00083270203
-0.0011386143 0.20544013 -0.00030438328 0.0018106849 -0.10822117 -5.5097753e-05 0.0019870277 -0.10930488
-0.09431561 0.0033193042 0.0016775586 -0.21689998 -0.12417051 0.1633079 0.10687877 0.002406201
0.0002042211 -0.122639604 0.15229848 -0.0010671812 -0.00072921393 -0.12176669 0.00015262676 -0.079841994
-0.0031367734 0.00079593784 -0.0015233358 -0.0602268 -0.02505792 -0.09863418 -0.1455378 0.000806188
-0.18048576 0.007591784 0.00064324314 -0.23746973 -0.0022762332 -0.112214185 -0.0012278786 -0.016481869
0.07136225 -0.12903729 -0.19011556 -6.844492e-05 0.01738809 0.0011781458 0.00013028609 -0.059090246
-0.04976853 0.0022927192 -0.00047772197 0.0037223275 0.00067671866 -0.05885806 0.11916538 0.00019951643
0.16216193 -0.15528396 -0.001785651 0.0002571915 -0.17103158 0.003389764 0.0037458988 -0.13545698
7.9012476e-05 -0.09721091 -2.348655e-05 -0.18427406 0.0015440765 0.10705771 0.1387143 -0.14613694
0.24669686 -0.0076463614 0.0005307692 0.0006113777
00000000: fd5e fabd 370d d6b9 ab5a 02ba 6908 9a3a
00000010: 6492 0e3e 6c7f 09be 84b4 183e d906 003e
00000020: 68f0 4f3e c644 18b9 5459 1b3b 1e96 0ebb
00000030: 4057 2cbe b177 24be 37ae 853a 4922 fdbd
00000040: b8b0 03ba 5877 203e b6a8 0cbb 9472 51bb
00000050: 3eb8 623d 5e14 a1b9 67c3 323b b049 5aba
00000060: 8e3d 95ba e65e 523e a295 9fb9 8154 ed3a
00000070: 10a3 ddbd c318 67b8 cb38 023b 3ddb dfbd
00000080: 8b28 c1bd af88 593b 87e1 db3a 071b 5ebe
00000090: 1c4d febd 303a 273e 42e3 da3d 5bb1 1d3b
000000a0: 2f24 5639 792a fbbd 22f4 1b3e a9e0 8bba
000000b0: b828 3fba d060 f9bd 6f0a 2039 3384 a3bd
000000c0: 5392 4dbb 7ca6 503a abaa c7ba 61b0 76bd
000000d0: 4446 cdbc b800 cabd dc07 15be 5c56 533a
000000e0: 42d1 38be 80c4 f83b 519f 283a 442b 73be
000000f0: db2c 15bb 8dd0 e5bd c5f0 a0ba fc04 87bc
00000100: 5f26 923d 5a22 04be a7ad 42be 168a 8fb8
00000110: 7871 8e3c 036c 9a3a 689d 0839 9d08 72bd
00000120: 16da 4bbd 7241 163b c276 fab9 4bf2 733b
00000130: d265 313a 2615 71bd fb0c f43d 4935 5139
00000140: c70d 263e c202 1fbe 810c eaba a9d7 8639
00000150: e722 2fbe ce26 5e3b c17d 753b 3cb5 0abe
00000160: 80b3 a538 8316 c7bd fb04 c5b7 57b2 3cbe
00000170: 9c62 ca3a 1341 db3d 1f0b 0e3e eca4 15be
00000180: 1a9e 7c3e 548e fabb 5123 0b3a dd44 203a

autoencoder.encoder.9.weight f4 [2, 100]
-0.25734997 -0.0011966585 -0.0003781464 0.00043035243 -0.056826513 -0.13630372 0.35509202 0.057948142
0.261607 -0.0005335244 0.00155164 -0.001278412 -0.008107054 -0.34296972 0.00089396536 -0.35467404
0.00076509226 0.046798516 -0.0011423334 -0.0012774441 -0.12644623 -0.0001359387 0.00087321404 -0.00014152339
-0.0010743748 0.25182897 -0.00060101104 0.00069651374 -0.26711282 -0.00081993703 0.0008442169 -0.22163758
-0.17899847 0.0009853422 0.001312381 0.011134165 -0.10454574 0.26902202 -0.1419997 0.00087645213
-0.00015371483 -0.39673418 0.1406162 0.00023290279 0.0008759574 -0.07053176 0.00044172714 0.3556626
-0.0010128345 0.0005431665 -0.0008960628 -0.044833466 0.35592455 -0.087572075 -0.46913105 2.4884777e-05
-0.4894598 -0.3331133 0.00089740905 0.16113722 -0.0019529574 -0.10231139 -0.0013156646 -0.16084695
0.020625282 -0.15274929 -0.26449558 0.00079655397 -0.19824107 0.00051061646 -0.0005858812 -0.043155372
-0.09761591 0.0012625576 -0.0001325475 0.00088070636 0.00095466885 0.084162116 0.3767469 -0.00010900548
0.10562424 0.03427645 -0.00076065364 -0.00048305542 -0.12626302 0.0014645446 0.00074930344 -0.17234907
0.00024836446 -0.07261326 2.4233916e-05 -0.23622477 0.0015040282 0.036399502 0.10086187 -0.18532713
0.2238791 0.47767183 0.0006689079 0.00014740753 -0.21769841 0.0005916748 -0.00014786713 -0.00033293563
0.28551683 -0.117230475 0.24179271 0.0737385 0.21346924 0.00021606719 -0.00075917784 0.0004476335
-0.43974456 -0.2414405 -0.0008035419 -0.46082252 -0.0004589145 0.33417493 0.00040294282 0.00075776153
0.23108447 -8.109326e-05 -0.00028469824 -0.00023306168 0.0008720664 0.41914716 0.00057092466 -0.00023471071
-0.37994242 0.0005057139 -0.00032740165 -0.35956523 -0.079107754 -0.00033756386 -0.0009403965 -0.40352982
-0.10583472 0.2920858 0.29000676 -0.00032951584 8.012807e-05 -0.23271587 0.16236046 -0.00013760339
-0.0006281065 -0.11825132 -0.0003344585 -0.34448123 0.000176613 -0.00032764845 0.00041634083 -0.036080744
-0.05767315 -0.07426253 -0.13882692 4.5755143e-05 -0.30949697 0.017862095 -0.0004431032 -0.58377635
0.0007092791 -0.088596016 0.0004543462 0.19182289 0.028774317 -0.10268501 -0.24938507 -0.00059811166
0.20009392 -0.00022975403 7.390716e-05 -0.03530808 -0.04944193 -0.0004860642 2.4466348e-05 -0.00030812487
-0.0007395602 -0.16522035 0.20130269 0.00010203298 0.15289909 -0.44113222 0.0006196654 0.00032739696
-0.222111 -0.00045727837 -0.0002643104 -0.13113399 -0.0003350366 -0.07445705 -9.136121e-05 -0.2625384
-0.0012102172 0.08564042 0.084429786 -0.27057174 0.22671944 -0.4480127 -0.00045986054 -9.765777e-05
00000000: 60c3 83be 32d9 9cba f341 c6b9 eda0 e139
00000010: ebc2 68bd 3493 0bbe 9fce b53e 085b 6d3d
00000020: 5af1 853e 37dc 0bba 6660 cb3a 6390 a7ba
00000030: 73d3 04bc ba99 afbe 0059 6a3a d697 b5be
00000040: 7990 483a cdaf 3f3d 59ba 95ba e96f a7ba
00000050: 1f7b 01be c48a 0eb9 67e8 643a e565 14b9
00000060: 09d2 8cba baef 803e 2b8d 1dba 3f96 363a
00000070: 03c3 88be 0bf1 56ba 704e 5d3a f6f4 62be
00000080: 604b 37be 9926 813a 3304 ac3a 136c 363c
00000090: 141c d6bd 41bd 893e 5f68 11be b5c1 653a
000000a0: 832e 21b9 be20 cbbe b1fd 0f3e 5e37 7439
000000b0: 82a0 653a f572 90bd 9d97 e739 6919 b63e
000000c0: 16c1 84ba 4963 0e3a c2e5 6aba 4ca3 37bd
000000d0: be3b b63e fd58 b3bd f231 f0be a7bf d037
000000e0: 7a9a fabe d48d aabe 1a40 6b3a 2801 253e
000000f0: 60fa ffba a288 d1bd 6172 acba 10b5 24be
00000100: 5af6 a83c 4f6a 1cbe f76b 87be d5cf 503a
00000110: b5ff 4abe e4da 053a d295 19ba b0c3 30bd
00000120: daea c7bd 677c a53a 73fc 0ab9 34df 663a
00000130: be42 7a3a 305d ac3d f8e4 c03e df99 e4b8
00000140: 8651 d83d 7665 0c3d 9a66 47ba 9a42 fdb9
00000150: 184b 01be f6f5 bf3a e76c 443a 467c 30be
00000160: ea36 8239 43b6 94bd f049 cb37 e8e4 71be
00000170: d022 c53a a517 153d ab90 ce3d 65c6 3dbe
00000180: 9040 653e 6791 f43e a659 2f3a 6891 1a39
00000190: 55ec 5ebe a01a 1b3a c80c 1bb9 dd8d aeb9
000001a0: 432f 923e 8816 f0bd 8298 773e 3604 973d
000001b0: ae97 5a3e 1890 6239 9003 47ba 5ab0 ea39
000001c0: 3326 e1be 2e3c 77be c9a4 52ba eef0 ebbe
000001d0: 769a f0b9 fa18 ab3e 1242 d339 84a4 463a
000001e0: 68a1 6c3e 9d10 aab8 8d43 95b9 0562 74b9
000001f0: 639b 643a 759a d63e 1baa 153a ad1c 76b9
00000200: d087 c2be e391 043a 1ba7 abb9 ef18 b8be
00000210: 3f03 a2bd 0efb b0b9 f184 76ba 769b cebe
00000220: e0bf d8bd 458c 953e c47b 943e dec2 acb9
00000230: 6e0a a838 124d 6ebe d241 263e a149 10b9
00000240: 84a7 24ba c02d f2bd 435a afb9 d85f b0be
00000250: 3131 3939 3bc8 abb9 5248 da39 67c9 13bd
00000260: ae3a 6cbd f416 98bd a528 0ebe 36e9 3f38
00000270: 6376 9ebe 8753 923c 4e50 e8b9 5e72 15bf
00000280: eaee 393a d471 b5bd 5135 ee39 386d 443e
00000290: 1eb8 eb3c 854c d2bd cd5e 7fbe 98ca 1cba
000002a0: 6ce5 4c3e 21ea 70b9 9bfe 9a38 359f 10bd
000002b0: 9f83 4abd 6fd6 feb9 153d cd37 d28b a1b9
000002c0: 0bdf 41ba 862f 29be 4b22 4e3e 8afa d538
000002d0: 9491 1c3e 15dc e1be 0b71 223a 7aa6 ab39
000002e0: 1171 63be ddbe efb9 2493 8ab9 fd47 06be
000002f0: daa7 afb9 f07c 98bd 2d99 bfb8 6f6b 86be
00000300: 27a0 9eba 3f64 af3d 86e9 ac3d 6188 8abe
00000310: 2429 683e ec61 e5be 7019 f1b9 9ecd ccb8

autoencoder.encoder.9.bias f4 [2]
0.18034416 0.33428985
00000000: 24ac 383e 0a28 ab3e

autoencoder.decoder.1.weight f4 [100, 2]
-0.52487713 0.34860975 -0.5477729 -0.052734617 0.3535774 -0.37813687 0.5008178 -0.029041229
0.51523966 -0.20199251 -0.30919558 -0.37415373 -0.15838405 0.14171831 -0.089593336 -0.5144899
-0.50454605 -0.15905917 -0.5409697 0.39234364 -0.32861647 0.27181995 0.34078345 -0.51556975
-0.15650068 0.20883064 -0.29319376 0.44779244 -0.23675565 -0.44731167 0.44842353 -0.41807082
-0.5231693 0.45752123 -0.35904297 0.26070666 0.29508162 -0.060773265 0.12892552 0.62850165
0.25627863 0.06651915 -0.19691652 -0.520245 0.61948025 0.3088327 0.038401768 -0.59864646
0.13465734 -0.033779062 -0.20987724 0.41554397 0.25191945 -0.2743504 -0.18133263 0.10005085
-0.3957214 -0.27549034 -0.2445807 0.18500108 -0.38752657 0.43906087 0.21660994 -0.21618289
-0.17893909 -0.56214404 0.023160083 -0.079370506 0.035920177 0.41394415 -0.07032018 -0.61329645
-0.13465136 -0.6114401 0.44326115 -0.104828 -0.18976013 0.13938838 -0.1996097 -0.5319589
-0.39792466 0.34101745 0.34027544 0.55859095 0.0926143 0.41018778 -0.12075872 -0.61473376
-0.30807176 0.49786347 -0.38027367 0.3806981 0.5179625 -0.5139827 -0.058760203 -0.63432276
-0.068258315 -0.648551 -0.55236405 -0.053006638 -0.000111833564 -0.00024410104 -0.20364632 -0.5021265
-0.39788333 0.3119962 0.49274707 -0.16623782 0.051656853 -0.0041449415 -0.2833366 -0.399845
-0.11489326 -0.0031936818 -0.14045076 0.20367466 0.18832096 -0.22134545 -0.11362222 0.10410663
8.938665e-05 7.486884e-05 0.008810065 -0.05612894 0.62437946 0.0054088454 -0.021947868 -0.06808908
-0.14799967 0.10360702 0.1899157 -0.20025027 -0.016102932 0.13617136 0.1676259 -0.118593656
-0.14574498 0.35450467 -0.40388387 0.60391253 -0.50208896 0.35936776 0.43347457 -0.24357721
0.428258 -0.47665757 -0.2596346 -0.46783015 0.36804804 0.5757834 0.2335899 0.3595594
0.4310549 -0.29258204 0.3896804 -0.4623948 -0.30615973 0.21358767 0.39281735 -0.48349676
0.17223373 0.2809692 0.4971563 0.11976726 0.015952751 0.38194385 -0.23585364 -0.451544
-0.55329055 -0.060429767 0.3985895 -0.16528669 0.3305748 -0.28455418 0.014689278 0.29749447
0.31604198 -0.48201308 -0.24847485 0.33613986 0.12563613 -0.45944047 -0.16541567 0.14025417
-0.69404715 0.19262406 0.57854366 0.38240296 -0.0652057 0.025941772 -0.5333341 -0.10975748
1.3360249e-05 5.9750723e-06 -0.30338973 0.7703986 0.22894369 -0.27311936 0.38683382 0.17569864
00000000: 595e 06bf fa7c b23e d83a 0cbf 4100 58bd
00000010: 1908 b53e 289b c1be 9835 003f dfe7 edbc
00000020: bfe6 033f 20d7 4ebe e24e 9ebe 1491 bfbe
00000030: 6e2f 22be 9b1e 113e b67c b7bd 9cb5 03bf
00000040: ee29 01bf 68e0 22be fe7c 0abf 44e1 c83e
00000050: 6b40 a8be fc2b 8b3e 2b7b ae3e 61fc 03bf
00000060: b741 20be b3d7 553e 7e1d 96be 0d45 e53e
00000070: 1370 72be 0906 e5be c597 e53e 610d d6be
00000080: 6cee 05bf 3940 ea3e 7bd4 b7be 587b 853e
00000090: f014 973e 63ed 78bd 0d05 043e 7ce5 203f
000000a0: f436 833e 313b 883d 7ca4 49be c72e 05bf
000000b0: 4296 1e3f 521f 9e3e 2c4b 1d3d e540 19bf
000000c0: 9de3 093e ea5b 0abd 0fea 56be 2ec2 d43e
000000d0: 96fb 803e a877 8cbe 43af 39be 76e7 cc3d
000000e0: ff9b cabe 120d 8dbe 5d73 7abe ec70 3d3e
000000f0: e269 c6be 96cc e03e ffce 5d3e 0c5f 5dbe
00000100: cf3b 37be ace8 0fbf 37ba bd3c 018d a2bd
00000110: 0921 133d 7df0 d33e 0704 90bd ff00 1dbf
00000120: 0ce2 09be 5787 1cbf 20f3 e23e 10b0 d6bd
00000130: 7b50 42be d4bb 0e3e 7c66 4cbe 752e 08bf
00000140: c8bc cbbe d799 ae3e 9538 ae3e d1ff 0e3f
00000150: 91ac bd3d 2204 d23e 5950 f7bd 315f 1dbf
00000160: 95bb 9dbe f6e7 fe3e 3bb3 c2be ddea c23e
00000170: 3199 043f 5f94 03bf 8aae 70bd fa62 22bf
00000180: 04cb 8bbd 7007 26bf bb67 0dbf 7d1d 59bd
00000190: 3088 eab8 60f5 7fb9 a988 50be 5d8b 00bf
000001a0: 5db7 cbbe f7bd 9f3e 5849 fc3e 3f3a 2abe
000001b0: 2396 533d 4ad2 87bb 7f11 91be 7cb8 ccbe
000001c0: 284d ebbd 174d 51bb 53d2 0fbe 1790 503e
000001d0: 36d7 403e 62a8 62be c4b2 e8bd db35 d53d
000001e0: 1875 bb38 e702 9d38 1758 103c 76e7 65bd
000001f0: 55d7 1f3f af3c b13b 04cc b3bc 4a72 8bbd
00000200: 3a8d 17be eb2f d43d 4379 423e 680e 4dbe
00000210: 4cea 83bc 8170 0b3e 20a6 2b3e 3be1 f2bd
00000220: 2c3e 15be a381 b53e dec9 cebe 039a 1a3f
00000230: e788 00bf 0dff b73e 61f0 dd3e 4e6c 79be
00000240: a244 db3e 760c f4be d4ee 84be 6f87 efbe
00000250: cb70 bc3e 8a66 133f 3132 6f3e 2b18 b83e
00000260: 3ab3 dc3e 50cd 95be 3084 c73e 03bf ecbe
00000270: f8c0 9cbe bab6 5a3e 5b1f c93e e38c f7be
00000280: 0a5e 303e 32db 8f3e 458b fe3e 8a48 f53d
00000290: 58af 823c 258e c33e 9e83 71be c630 e7be
000002a0: 73a4 0dbf 3485 77bd ec13 cc3e ea40 29be
000002b0: 1a41 a93e 16b1 91be 4cab 703c 3251 983e
000002c0: 41d0 a13e 6bca f6be 3170 7ebe 861a ac3e
000002d0: c2a6 003e c83b ebbe ba62 29be ca9e 0f3e
000002e0: 13ad 31bf 3e3f 453e 701b 143f 52ca c33e
000002f0: 918a 85bd d783 d43c 9588 08bf 88c8 e0bd
00000300: d525 6037 7b7d c836 e655 9bbe d838 453f
00000310: 3770 6a3e 4dd6 8bbe 150f c63e 58ea 333e

autoencoder.decoder.1.bias f4 [100]
-0.07571623 -0.14161867 0.008889233 -0.26550794 0.56070083 -0.039516505 -0.10482455 -0.1508118
0.008723428 -0.32274067 -0.26650894 -0.14166695 0.30039617 0.06557841 -0.09687573 -0.1865701
-0.2584249 0.15003951 -0.3184435 -0.82834715 -0.6109635 -0.111604 -0.39673716 -0.2546547
-0.25611544 -0.3615484 0.37922713 0.75278014 -0.010271012 0.05962115 0.42981666 -0.09281873
-0.09654831 0.3416643 -0.4564876 -0.16272442 -0.12755023 -0.21631359 0.39520487 -0.11361189
-0.28769755 -0.61497116 -0.70778245 -0.14802766 -0.028425444 -0.01618874 0.0117601855 -0.16992547
-0.15165311 -0.14944239 -1.7280596e-05 -0.10060107 -0.15844882 0.10522451 -0.17050257 -0.06171249
0.7720007 -0.12717412 0.33117777 -0.05244487 0.0001551799 0.23636448 -0.61164784 0.5980483
0.195847 0.24313235 -0.30266187 -0.12902685 0.1336765 0.12483081 -0.052236553 -0.22204311
0.25576207 -0.010496169 -0.9428494 -0.6218692 0.6618116 -0.18546475 -0.13204691 -0.21307732
-0.6265401 -0.39733618 -0.5990466 -0.03647768 -0.13021754 0.21884277 -0.05008316 -0.4962051
-0.12700015 -0.054876443 -0.038633697 -0.051272187 -0.26075134 -0.46137032 0.17607613 -0.0067604138
2.6345386e-05 -0.47548348 0.5009321 -0.63845885
00000000: 1c11 9bbd 7c04 11be 25a4 113c a8f0 87be
00000010: 178a 0f3f 0fdc 21bd 41ae d6bd 696e 1abe
00000020: b5ec 0e3c 443e a5be dc73 88be 2411 11be
00000030: 87cd 993e f94d 863d c866 c6bd 3b0c 3fbe
00000040: 4550 84be f5a3 193e 070b a3be 8f0e 54bf
00000050: 1b68 1cbf a390 e4bd 2221 cbbe 1a62 82be
00000060: 9021 83be df1c b9be 0f2a c23e 33b6 403f
00000070: bf47 28bc 4f35 743d ee10 dc3e bf17 bebd
00000080: 1fbb c5bd a0ee ae3e beb8 e9be 3ba1 26be
00000090: 879c 02be 4f81 5dbe 4b58 ca3e 5aad e8bd
000000a0: 184d 93be c06e 1dbf 3b31 35bf 9094 17be
000000b0: 7adc e8bc 409e 84bc cbad 403c f100 2ebe
000000c0: f44a 1bbe 6d07 19be ccf5 90b7 ef07 cebd
000000d0: 6840 22be f37f d73d 3a98 2ebe 3cc6 7cbd
000000e0: d6a1 453f ef39 02be 2290 a93e 6fd0 56bd
000000f0: cab7 2239 8809 723e f494 1cbf b219 193f
00000100: 1e8c 483e b0f7 783e 7ff6 9abe 9d1f 04be
00000110: 7ee2 083e 4ca7 ff3d fff5 55bd 455f 63be
00000120: 3ff3 823e 20f8 2bbc 945e 71bf d232 1fbf
00000130: 7c6c 293f 79ea 3dbe 4e37 07be f130 5abe
00000140: ef64 20bf a66f cbbe 1e5b 19bf 9f69 15bd
00000150: bf57 05be 5218 603e 0024 4dbd 980e febe
00000160: 540c 02be 1fc6 60bd 5e3e 1ebd c902 52bd
00000170: 3381 85be bb38 ecbe 4d4d 343e 7686 ddbb
00000180: 4900 dd37 9272 f3be 163d 003f 0a72 23bf
