save_config_3/8/model_state.pth (torch, 28664 bytes, 13 tensors)

autoencoder.encoder.0.weight f4 [16, 1, 3, 3]
0.009480596 -0.072717525 0.16208203 0.36999944 0.20086147 0.35239708 0.33443698 -0.0081433635
0.20430925 0.503325 -0.040615592 -0.7645259 0.614987 0.023148589 -0.5248759 0.6338699
-0.09796293 -0.5696387 -0.040216297 0.11273541 -0.22474362 0.4122968 0.20338246 0.05098545
0.6968193 0.15485379 -0.09044015 -0.020384353 0.13395706 0.15562567 0.07946104 0.20325772
0.13725808 -0.06312785 0.089266986 -0.062419493 0.1708696 -0.16346493 -0.10773603 0.1703122
0.13278423 0.0032762212 0.76935303 0.6670798 0.33240452 0.425233 0.39089483 0.27639896
-0.07498395 0.121223494 0.2802559 -0.48693514 -0.14281793 0.31435767 0.264532 0.43730226
0.42065173 -0.017282305 0.06871452 -0.18518618 -0.3467282 -0.44623157 -0.24913368 0.0852602
0.0064570247 -0.095166884 0.0700763 0.12470538 0.44259316 -0.1599579 -0.055450786 0.77449054
0.5352036 0.5326974 0.36345547 0.3903047 0.19340417 0.1697886 0.0013000984 0.13851036
-0.15727162 -0.24603179 -0.118096955 0.13670558 -0.5201591 -0.19651784 0.25313097 -1.0359306
-0.6151263 -0.3307277 -0.14836057 0.37416026 0.25194675 -0.048599727 0.3434058 0.040233508
0.049714338 0.5844945 0.14986193 -0.056996465 -0.031095559 0.18626934 -0.01466811 -0.031360548
-0.01068844 0.08182521 0.1327675 0.017588226 -0.3568086 0.009032512 0.20251967 -0.28712782
0.22109957 0.18460678 -0.37494668 0.23295885 0.13932048 -0.3858804 -0.43078402 -0.5991405
-0.07491576 -0.19720244 -0.44340548 0.033263933 0.001856605 -0.38315168 -0.26226878 -0.20360816
0.67700666 0.08654438 0.029311871 0.62244177 0.05793192 -0.17727081 0.17594776 0.53683573
-0.035211276 -0.22810791 0.13089064 -0.026133347 -0.2824988 0.42596188 0.33380795 -0.15562466
00000000: 8054 1b3c edec 94bd d5f8 253e 9170 bd3e
00000010: a1ae 4d3e 646d b43e 533b ab3e be6b 05bc
00000020: 7236 513e e8d9 003f 895c 26bd f8b7 43bf
00000030: ca6f 1d3f 1ca2 bd3c 445e 06bf 4c45 223f
00000040: caa0 c8bd d8d3 11bf d8b9 24bd d3e1 e63d
00000050: 3123 66be 9118 d33e 7e43 503e 1fd6 503d
00000060: c062 323f fe91 1e3e af38 b9bd 16fd a6bc
00000070: 0a2c 093e 565c 1f3e 78bc a23d cb22 503e
00000080: 628d 0c3e 2d49 81bd 9cd1 b63d 95ab 7fbd
00000090: 71f8 2e3e 5a63 27be b5a4 dcbd 5266 2e3e
000000a0: 97f8 073e dfb5 563b 52f4 443f bec5 2a3f
000000b0: ed30 aa3e 24b8 d93e 5e23 c83e 2a84 8d3e
000000c0: 2f91 99bd 0644 f83d b47d 8f3e 904f f9be
000000d0: dd3e 12be 7df3 a03e bd70 873e 15e6 df3e
000000e0: aa5f d73e 9f93 8dbc 33ba 8c3d 72a1 3dbe
000000f0: 5c86 b1be 7778 e4be e61c 7fbe e69c ae3d
00000100: 7395 d33b dbe6 c2bd 2a84 8f3d 8965 ff3d
00000110: 929b e23e 01cc 23be 5d20 63bd 0345 463f
00000120: 1a03 093f db5e 083f d616 ba3e 05d6 c73e
00000130: be0b 463e 10dd 2d3e 1068 aa3a a9d5 0d3e
00000140: d00b 21be c2ef 7bbe d1dc f1bd 8cfc 0b3e
00000150: 2629 05bf f93b 49be 629a 813e 6099 84bf
00000160: eb78 1dbf 2455 a9be d5eb 17be ef91 bf3e
00000170: 2aff 803e 8210 47bd e3d2 af3e e4cb 243d
00000180: 43a1 4b3d 6ea1 153f 6875 193e 2075 69bd
00000190: 1dbc febc 64bd 3e3e 8352 70bc eb73 00bd
000001a0: 911e 2fbc fa93 a73d 34f4 073e 2f15 903c
000001b0: 9eaf b6be 1afd 133c 5161 4f3e 6b02 93be
000001c0: ed67 623e 8f09 3d3e 03f9 bfbe c48c 6e3e
000001d0: 07aa 0e3e 1e92 c5be b98f dcbe 4661 19bf
000001e0: 6f6d 99bd 70ef 49be 0b06 e3be c33f 083d
000001f0: 5459 f33a 752c c4be 1848 86be a87e 50be
00000200: 4f50 2d3f 2e3e b13d 731f f03c 5858 1f3f
00000210: 054a 6d3d 7b86 35be a62b 343e 116e 093f
00000220: b339 10bd 1f95 69be 3208 063e 9a15 d6bc
00000230: afa3 90be ad17 da3e e0e8 aa3e 125c 1fbe

autoencoder.encoder.0.bias f4 [16]
0.322937 -0.25702363 0.13353026 1.0611738 0.018167088 -0.08693987 1.0149161 0.06943461
0.017445434 0.725923 -0.6036589 1.3559985 1.3733315 1.2473634 -0.15337014 0.74042684
00000000: 0058 a53e 9a98 83be 28bc 083e 8bd4 873f
00000010: 25d3 943c 880d b2bd c5e8 813f bc33 8e3d
00000020: bae9 8e3c 17d6 393f 6489 1abf 5c91 ad3f
00000030: 54c9 af3f 9ba9 9f3f 100d 1dbe 9d8c 3d3f

autoencoder.encoder.3.weight f4 [8, 16, 3, 3]
0.07476605 0.026953645 -0.27469465 -0.055544216 -0.10053419 -0.036944907 0.013974828 0.1842168
-0.08404812 -0.033155974 -0.22796422 0.34923133 0.031694524 0.07330185 0.1279699 -0.03107308
0.064731956 0.28015476 0.10468731 -0.09416079 -0.12675455 0.02763455 0.012554668 -0.008325498
0.11727488 0.030312406 0.04336023 0.08953456 0.10101149 -0.26862356 0.06992531 0.12237401
-0.16743113 0.1484488 0.061284386 -0.19826148 0.041623954 0.01602029 -0.14669797 -0.0217879
-0.085177384 -0.0036627606 0.117896505 -0.019778218 -0.12851277 0.11875005 0.024635978 -0.1867214
0.008349486 0.15359917 0.082176946 -0.049604777 0.09849145 -0.085868895 0.04957539 0.11059877
-0.22453648 0.19436476 -0.21566224 -0.24271289 0.06891838 0.06362139 -0.14109544 -0.003924583
0.03396291 -0.23321468 0.007303874 0.05163213 -0.003997317 0.13137498 0.18962911 -0.08999845
0.123951666 -0.09777742 -0.26823696 -0.034370612 0.14448215 0.23998435 0.18739457 0.13930857
-0.054178134 -0.04502817 -0.3559201 0.42594182 -0.3053035 -0.16014586 0.0061958376 0.068241306
-0.20662 0.14250033 0.08622838 0.057472654 -0.123889446 -0.10358058 0.16274302 0.12574492
0.047834016 0.043260023 0.043683764 0.017516866 0.10147388 -0.28550982 0.11371782 0.21115048
-0.24011631 0.13299559 0.0801927 -0.2479763 0.12366926 -0.0075361338 -0.42611882 0.22222766
0.010565355 -0.25058737 0.293373 0.21272348 -0.15247336 0.009934342 0.0556409 0.36892807
-0.11112413 -0.08939743 0.20768668 -0.035959773 0.15385582 0.3790712 0.048604924 0.04443635
-0.29469305 0.036617015 0.048359763 0.16885078 0.17396456 0.07446342 -0.014540742 0.16295914
-0.037577424 -0.13520221 0.00629417 0.018287469 -0.2321122 -0.0055322973 0.089862145 -0.14727634
-0.07729844 0.11494606 0.14351594 -0.1901238 -0.1967629 -0.17133754 0.10562945 0.079624034
0.0828108 -0.2088585 -0.08564798 -0.1005619 -0.4111194 -0.18879718 -0.032708492 0.02348236
-0.15803702 -0.07160165 0.045754388 -0.00923716 0.013428915 -0.3149379 -0.21307218 -0.21329549
0.06482616 0.0004827077 0.11641414 -0.3211866 0.15903616 0.19424658 -0.043086953 -0.16736355
-0.059342723 -0.0007895976 0.19416444 0.27614468 0.030051526 -0.0471022 0.04096489 -0.37092355
-0.18038328 -0.30622852 0.16700098 0.04015403 0.0087203765 0.10502321 0.049334332 -0.068618365
-0.19342726 -0.14029188 -0.1432721 0.21934515 0.043380566 -0.050093006 -0.4281393 0.0021963462
0.11314094 0.07657579 -0.07941199 0.14340717 0.1790916 0.10552119 0.06323608 -0.05446157
0.02712186 0.1514328 0.018396419 -0.17954026 -0.20221299 0.16567372 0.16032149 0.052021746
0.065775186 0.059984263 0.08964497 -0.2489512 -0.18347831 -0.15106979 0.15415211 0.112829365
0.05831334 0.24393553 -0.07578005 -0.14125355 0.66375995 0.36278027 0.27143672 -0.36899248
-0.18947963 -0.040830426 0.34462965 0.0049736546 -0.06282184 0.113719724 0.018487157 -0.15605393
0.15298504 0.047425162 0.012478278 -0.5170377 0.19611153 0.24520794 -0.08077464 -0.04807974
-0.066495605 -0.055796824 0.15659392 0.28333443 -0.31041133 0.22636916 0.1445903 0.01416779
00000000: f11e 993d e4cd dc3c c7a4 8cbe 5582 63bd
00000010: dfe4 cdbd 8b53 17bd adf6 643c 54a3 3c3e
00000020: 6c21 acbd 8fce 07bd 746f 69be 73ce b23e
00000030: 1ed2 013d 481f 963d 8b0a 033e f98c febc
00000040: 3092 843d 7270 8f3e 4d66 d63d 5fd7 c0bd
00000050: f2cb 01be da61 e23c 18b2 4d3c ab67 08bc
00000060: d02d f03d b951 f83c 7f9a 313d e55d b73d
00000070: 1ddf ce3d 0789 89be 0035 8f3d 3a9f fa3d
00000080: 1173 2bbe f602 183e 5605 7b3d 0f05 4bbe
00000090: e17d 2a3d fc3c 833c fe37 16be 8a7c b2bc
000000a0: 7b71 aebd ed0a 70bb b973 f13d ee05 a2bc
000000b0: da98 03be 3a33 f33d 64d1 c93c e533 3fbe
000000c0: 48cc 083c 1a49 1d3e 634c a83d 612e 4bbd
000000d0: e3b5 c93d 08dc afbd 900f 4b3d 9c81 e23d
000000e0: e4ec 65be 8e07 473e 90d6 5cbe ba89 78be
000000f0: 1425 8d3d ee4b 823d 537b 10be ca99 80bb
00000100: b11c 0b3d d4cf 6ebe 5655 ef3b 367c 533d
00000110: edfb 82bb 2a87 063e 222e 423e 1b51 b8bd
00000120: 5fda fd3d 873f c8bd 5b56 89be 33c8 0cbd
00000130: 21f3 133e 75be 753e 5de4 3f3e e8a6 0e3e
00000140: e4e9 5dbd 756f 38bd 293b b6be 0c15 da3e
00000150: be50 9cbe 47fd 23be 7406 cb3b 19c2 8b3d
00000160: 3194 53be 9beb 113e 8198 b03d 7268 6b3d
00000170: c0b9 fdbd 0e22 d4bd 1ba6 263e 47c3 003e
00000180: 9aed 433d 6c31 313d bfed 323d 887f 8f3c
00000190: 8ad1 cf3d 582e 92be e3e4 e83d d537 583e
000001a0: 0de1 75be ff2f 083e 123c a43d 80ed 7dbe
000001b0: 4f46 fd3d acf1 f6bb 3f2c dabe a68f 633e
000001c0: 501a 2d3c fd4c 80be fc34 963e 2fd4 593e
000001d0: fa21 1cbe a6c3 223c b6e7 633d 24e4 bc3e
000001e0: 0c95 e3bd 0016 b7bd d1ab 543e 8e4a 13bd
000001f0: 618c 1d3e 9f15 c23e f515 473d e402 363d
00000200: 02e2 96be b9fb 153d e314 463d 38e7 2c3e
00000210: c423 323e 4780 983d 4b3c 6ebc c3de 263e
00000220: c9ea 19bd 7372 0abe 533f ce3b 9acf 953c
00000230: d2ae 6dbe 4648 b5bb a509 b83d 9ccf 16be
00000240: a54e 9ebd d768 eb3d d8f5 123e d0af 42be
00000250: 377c 49be 1c73 2fbe 4154 d83d ed11 a33d
00000260: b598 a93d 01df 55be 3568 afbd 66f3 cdbd
00000270: 3e7e d2be 0c54 41be 57f9 05bd 145e c03c
00000280: 75d4 21be e3a3 92bd f468 3b3d 7557 17bc
00000290: f404 5c3c 8a3f a1be 982f 5abe 226a 5abe
000002a0: 94c3 843d ee13 fd39 896a ee3d 9272 a4be
000002b0: 60da 223e 93e8 463e f27b 30bd 5a61 2bbe
000002c0: 5b11 73bd fffc 4eba 0bd3 463e d662 8d3e
000002d0: 9e2e f63c 3dee 40bd cdca 273d b1e9 bdbe
000002e0: 65b6 38be fcc9 9cbe 4e02 2b3e 8d78 243d
000002f0: e9df 0e3c 6916 d73d cc12 4a3d c987 8cbd
00000300: cc11 46be ada8 0fbe ecb5 12be 049c 603e
00000310: d2af 313d 532e 4dbd 1335 dbbe 93f0 0f3b
00000320: 70b6 e73d c5d3 9c3d c1a2 a2bd 54d9 123e
00000330: ca63 373e 7e1b d83d eb81 813d 1813 5fbd
00000340: aa2e de3c 3311 1b3e 16b4 963c 67d9 37be
00000350: ec10 4fbe 5fa6 293e 512b 243e c114 553d
00000360: 24b5 863d 0fb2 753d c897 b73d 10ed 7ebe
00000370: bde1 3bbe 0ab2 1abe 0dda 1d3e 1513 e73d
00000380: f8d9 6e3d 3cca 793e 9232 9bbd c5a4 10be
00000390: 2cec 293f 56be b93e c1f9 8a3e 95ec bcbe
000003a0: f306 42be ce3d 27bd 4c73 b03e 0afa a23b
000003b0: bda8 80bd e3e5 e83d 6172 973c 9acc 1fbe
000003c0: 1ca8 1c3e e340 423d b171 4c3c 955c 04bf
000003d0: 76d1 483e ca17 7b3e 2d6d a5bd 43ef 44bd
000003e0: d92e 88bd 368b 64bd 285a 203e 3611 913e
000003f0: 3cee 9ebe 51cd 673e 7b0f 143e 0520 683c

autoencoder.encoder.3.bias f4 [8]
0.032422286 0.05535358 -0.02231904 0.071067855 0.19775556 0.12967476 0.053431414 -0.015315782
00000000: 3bcd 043d 6fba 623d 6bd6 b6bc 068c 913d
00000010: 6f80 4a3e 76c9 043e e6da 5a3d 0cef 7abc

autoencoder.encoder.6.weight f4 [2, 8, 2, 2]
0.55096054 -0.35152903 -0.57200545 -0.38526922 -1.118983 -0.24292544 0.50168246 -0.77285796
0.5683358 0.21617311 0.6265959 -0.017818669 0.02340029 0.41881797 0.4098774 0.5189641
-0.71375877 0.5799113 0.32894868 0.09066573 0.5774373 0.39889753 0.20668115 0.42799494
-0.28480408 -0.30675086 -0.44880918 -0.03605509 0.8459324 0.68688196 -0.9022465 -0.5045823
0.20181756 -0.5748409 0.26094827 -0.5743504 -0.762394 0.1380972 -0.07896089 0.16826327
0.573039 1.6396086 0.60033464 -0.1578825 -0.36919147 -0.32357296 -0.5142319 -0.41540572
-0.05732428 0.8839477 -0.22407602 0.3200459 -0.06671051 0.17692192 -0.10877104 0.13907462
-0.36425585 0.0987076 -1.1510981 -0.42943496 0.35712948 0.46773756 0.003288075 -0.13566813
00000000: c00b 0d3f 9dfb b3be f36e 12bf 0242 c5be
00000010: d63a 8fbf 72c1 78be 436e 003f 05da 45bf
00000020: 747e 113f 7c5c 5d3e 9768 203f 75f8 91bc
00000030: f7b1 bf3c 4f6f d63e 73db d13e d5da 043f
00000040: e5b8 36bf 1175 143f f66b a83e f4ae b93d
00000050: eed2 133f 4c3c cc3e 39a4 533e 2722 db3e
00000060: d7d1 91be 730e 9dbe 51ca e5be 81ae 13bd
00000070: 078f 583f 7fd7 2f3f a0f9 66bf 4e2c 01bf
00000080: 43a9 4e3e c628 13bf 039b 853e a108 13bf
00000090: 412c 43bf 5a69 0d3e 3fb6 a1bd 354d 2c3e
000000a0: afb2 123f b2de d13f 88af 193f f3ab 21be
000000b0: aa06 bdbe 5bab a5be b4a4 03bf 0fb0 d4be
000000c0: ddcc 6abd 654a 623f 2f74 65be 0edd a33e
000000d0: 859f 88bd 052b 353e 5ac3 debd 9469 0e3e
000000e0: be7f babe 3627 ca3d 2f57 93bf e6de dbbe
000000f0: add9 b63e 4c7b ef3e bf7c 573b 96ec 0abe

autoencoder.encoder.6.bias f4 [2]
0.096705005 -0.055546295
00000000: 460d c63d 8384 63bd

autoencoder.decoder.0.weight f4 [2, 8, 2, 2]
0.74842966 0.45133573 -0.23428477 -0.19782491 0.029118389 1.0251514 -0.23477162 0.95303357
0.06308813 0.58315897 0.25918308 0.22933793 0.5452275 0.07957791 0.033237834 -0.45432565
-0.074930616 0.5790558 -1.574831 -1.3567325 -0.8968688 -0.2440552 0.20163639 -0.7041902
0.53775924 -0.037926078 0.9350758 -0.020501284 -0.25370845 -0.30668622 -0.035340115 0.16507173
0.088292114 0.8842195 0.4296969 0.21905427 -0.3249633 0.2715753 -0.54792035 0.5430838
-0.6649542 -0.546479 -0.078784935 -0.34352526 -0.08601463 -0.077075236 -0.57059073 -0.5066844
-0.1749045 0.00016224927 -0.041003134 -0.09013717 -0.7327186 -0.49907488 0.92608464 -0.48526055
-0.13714279 -0.42382178 0.059548296 1.0343444 0.2274207 -0.45369998 0.085726984 -0.28955936
00000000: 1699 3f3f 7a15 e73e 59e8 6fbe 9d92 4abe
00000010: b089 ee3c 2938 833f f967 70be 02fa 733f
00000020: 5934 813d e849 153f a5b3 843e 90d7 6a3e
00000030: 0894 0b3f bef9 a23d 6524 083d 5f9d e8be
00000040: 3975 99bd 003d 143f 1094 c9bf 69a9 adbf
00000050: 3299 65bf 9be9 79be c579 4e3e cf45 34bf
00000060: 97aa 093f 6058 1bbd 2161 6f3f 4ff2 a7bc
00000070: 13e6 81be fa05 9dbe ccc0 10bd 9008 293e
00000080: 7fd2 b43d 365c 623f 3b01 dc3e c34f 603e
00000090: 9761 a6be eb0b 8b3e 8244 0cbf 8a07 0b3f
000000a0: 703a 2abf 0ce6 0bbf ff59 a1bd 8be2 afbe
000000b0: 7028 b0bd 9fd9 9dbd 3c12 12bf 12b6 01bf
000000c0: 2a1a 33be 7521 2a39 e7f2 27bd d699 b8bd
000000d0: 7293 3bbf be86 ffbe e213 6d3f 1274 f8be
000000e0: 296f 0cbe 2bff d8be eae8 733d 6665 843f
000000f0: f9e0 683e 5d4b e8be a191 af3d 2041 94be

autoencoder.decoder.0.bias f4 [8]
0.096752934 -0.78457904 -0.80557454 0.11579368 -0.67336375 -0.63876283 0.10513039 0.9448814
00000000: 6726 c63d 2cda 48bf 223a 4ebf 3d25 ed3d
00000010: 9161 2cbf f685 23bf 9a4e d73d bfe3 713f

autoencoder.decoder.2.weight f4 [8, 16, 3, 3]
-0.025767544 0.104859985 0.13077272 0.040877234 -0.22138622 0.14197929 0.24464604 0.100325264
0.023576742 -0.0760137 -0.1478142 0.3623158 0.11331504 -0.09833043 0.0015290654 0.07551926
0.015311649 -0.031730413 0.21565977 0.14022905 -0.06335965 0.08907409 0.09858947 -0.33570856
0.28761715 0.006482716 -0.06085858 -0.03301865 -0.06443345 0.12037356 0.12797007 0.1177672
0.2017902 -0.011053859 -0.039348867 -0.09050698 0.22169614 0.19653986 -0.07462425 -0.042431667
0.14473836 -0.89706486 0.1276684 0.34153834 -0.28120944 -0.03734996 -0.017387357 0.14182694
0.08584398 0.33880752 -0.10904034 -0.060168378 -0.062781855 -0.07304906 0.0026025833 0.010003758
0.10106233 0.012868064 -0.21622303 -0.026847405 0.13262619 -0.037089992 -0.26931155 0.117824525
0.080983974 -0.03419477 0.38289776 0.004026654 -0.3529025 -0.34422615 -0.10234187 -0.122121066
-0.22068347 -0.049415037 0.099267796 0.09989284 -0.21914342 -0.052664794 0.0133646615 -0.2796777
-0.04108909 0.032425597 0.26111066 0.0017361323 0.17687549 -0.053405292 0.029668784 -0.15481575
-0.2959443 -0.042214964 0.19481674 0.06120083 -0.0847725 0.14390759 0.111100845 -0.12302585
0.2550746 -0.0013481245 -0.112894595 0.048812646 0.06590365 0.39495152 0.11654001 0.030124702
0.038094655 0.25168583 0.02337821 -0.14349487 0.0457119 -0.06764664 -0.47058597 0.13048588
0.5614326 -0.31232426 0.13458589 -0.05832701 -0.1990601 0.09122971 -0.24935885 0.113150574
-0.13816237 -0.01892781 -0.15067239 -0.06184169 0.18627846 -0.21546341 0.15146606 0.23953022
0.40002397 -0.13124815 0.0013545743 0.06550412 0.18240835 0.2796229 -0.06806021 -0.013211239
-0.2205917 0.21170768 0.13430242 0.28999197 0.14976396 0.06435553 -0.17087545 -0.04384742
0.27458933 -0.023369182 -0.1754423 0.2403979 0.07208637 0.077614926 -0.3070878 0.011234938
-0.24809608 0.15779804 0.16793463 0.163694 0.27659312 -0.024349853 0.06361529 -0.36630714
-0.25888273 0.13047837 -0.11640786 0.15108715 -0.3910005 0.09982657 0.2784374 -0.3933344
0.25895402 0.19396423 -0.33775523 0.18751481 0.12759663 -0.087652884 0.085804775 0.26184258
-0.032921713 -0.29208663 0.28833467 -0.17347899 0.15455818 -0.0069368575 -0.008977121 0.1890494
0.17595024 0.115998246 0.11952294 0.11252365 -0.013968762 0.17724319 0.08345742 0.1515752
0.06313285 0.045724545 0.24583091 0.074439526 0.0330637 0.013663522 -0.24491324 -0.022348842
-0.42173725 -0.07033653 -0.06068016 -0.8168723 -0.01412473 -0.044502817 -0.35242096 -0.0049585393
0.60888076 -0.08023685 0.19054352 0.43691972 -0.1355867 0.39011312 0.496998 0.06759842
0.1403957 0.071105465 0.084522225 0.05074399 -0.28612638 -0.004685823 -0.0038270042 -0.14790149
0.14493541 0.07744081 -0.04654123 -0.23276058 0.09808073 -0.044643633 0.08221745 0.18739207
0.07124928 -0.09420197 0.03550693 0.2737156 -0.23141427 0.2499099 0.17251806 -0.025695778
0.26697126 0.26447457 -0.23241872 0.30362856 0.047934424 -0.073565625 0.5318001 -0.21544263
-0.18262652 0.1729491 0.12019385 0.25349826 -0.12790969 -0.022021566 -0.07335322 -0.23596464
00000000: 7516 d3bc d5c0 d63d 49e9 053e e36e 273d
00000010: 12b3 62be 0563 113e 7e84 7a3e 5577 cd3d
00000020: 0324 c13c 12ad 9bbd 9b5c 17be 7581 b93e
00000030: b711 e83d 7761 c9bd ec6a c83a d7a9 9a3d
00000040: b6dd 7a3c c0f7 01bd ead5 5c3e 3498 0f3e
00000050: b4c2 81bd 7a6c b63d 47e9 c93d fee1 abbe
00000060: 8e42 933e f76c d43b d946 79bd 903e 07bd
00000070: aff5 83bd 6a86 f63d 960a 033e ee2f f13d
00000080: 17a2 4e3e 3f1b 35bc 472c 21bd b95b b9bd
00000090: 5004 633e bf41 493e 99d4 98bd d4cc 2dbd
000000a0: 4b36 143e 0ba6 65bf 81bb 023e 1dde ae3e
000000b0: affa 8fbe 46fc 18bd ee6f 8ebc 153b 113e
000000c0: f8ce af3d 2e78 ad3e 8b50 dfbd 1e73 76bd
000000d0: c693 80bd bf9a 95bd 1a90 2a3b cde6 233c
000000e0: c4f9 ce3d 93d4 523c 9269 5dbe 17ef dbbc
000000f0: 29cf 073e adeb 17bd 34e3 89be fc4d f13d
00000100: edda a53d d10f 0cbd 2d0b c43e 06f2 833b
00000110: a3af b4be 693e b0be 9d98 d1bd 9c1a fabd
00000120: d9fa 61be 6c67 4abd ea4c cb3d 9e94 cc3d
00000130: 2267 60be 0ab7 57bd 74f7 5a3c ea31 8fbe
00000140: 094d 28bd b4d0 043d 4cb0 853e ef8e e33a
00000150: d91e 353e 82bf 5abd f30b f33c 0588 1ebe
00000160: 0386 97be 99e9 2cbd 0a7e 473e b9ad 7a3d
00000170: 349d adbd 835c 133e d788 e33d faf4 fbbd
00000180: 2399 823e 8db3 b0ba 4835 e7bd c5ef 473d
00000190: 7ef8 863d 1637 ca3e 87ac ee3d 14c8 f63c
000001a0: 2409 1c3d f7dc 803e a983 bf3c 52f0 12be
000001b0: 673c 3b3d 528a 8abd a5f0 f0be 179e 053e
000001c0: 0cba 0f3f f7e8 9fbe e2d0 093e 4ee8 6ebd
000001d0: 69d6 4bbe a4d6 ba3d ed57 7fbe 7dbb e73d
000001e0: 707a 0dbe 7f0e 9bbc dd49 1abe b64d 7dbd
000001f0: c8bf 3e3e 71a2 5cbe eb19 1b3e 6947 753e
00000200: f1cf cc3e ea65 06be f98b b13a 0627 863d
00000210: 41c9 3a3e bc2a 8f3e 2763 8bbd f473 58bc
00000220: cae2 61be e6c9 583e 9386 093e d479 943e
00000230: b95b 193e d5cc 833d f9f9 2ebe 5a99 33bd
00000240: f996 8c3e ba70 bfbc 25a7 33be de2a 763e
00000250: 05a2 933d 93f4 9e3d 9d3a 9dbe bf12 383c
00000260: e60c 7ebe cf95 213e 0ef7 2b3e 669f 273e
00000270: 9d9d 8d3e 5879 c7bc bc48 823d 9c8c bbbe
00000280: 478c 84be 1f9c 053e 3e67 eebd 97b6 1a3e
00000290: 3831 c8be df71 cc3d 598f 8e3e 2063 c9be
000002a0: 9f95 843e 8f9e 463e 41ee acbe e203 403e
000002b0: b1a8 023e 5b83 b3bd 6aba af3d 3b10 863e
000002c0: ebd8 06bd 618c 95be 9aa0 933e 7aa4 31be
000002d0: 8044 1e3e 944e e3bb c614 13bc 2a96 413e
000002e0: 4d2c 343e 7d90 ed3d 71c8 f43d cd72 e63d
000002f0: 3cdd 64bc 3d7f 353e b9eb aa3d 8736 1b3e
00000300: cc4b 813d a949 3b3d 19bb 7b3e c073 983d
00000310: cd6d 073d f7dc 5f3c 89ca 7abe eb14 b7bc
00000320: f2ed d7be 990c 90bd c28b 78bd 8b1e 51bf
00000330: 696b 67bc 9648 36bd 8570 b4be 3e7b a2bb
00000340: 9cdf 1b3f 3853 a4bd d71d 433e f1b3 df3e
00000350: 3dd7 0abe e8bc c73e 8676 fe3e 0a71 8a3d
00000360: e4c3 0f3e be9f 913d fd19 ad3d eed8 4f3d
00000370: 287f 92be 888b 99bb 7ace 7abb 7d73 17be
00000380: f369 143e 4a99 9e3d 04a2 3ebd ca58 6ebe
00000390: 8dde c83d 3edc 36bd 9f61 a83d b5e3 3f3e
000003a0: 24eb 913d f6ec c0bd b76f 113d 7324 8c3e
000003b0: ddf7 6cbe 61e8 7f3e 93a8 303e f47f d2bc
000003c0: 75b0 883e 3669 873e 2cff 6dbe 3475 9b3e
000003d0: e356 443d 93a9 96bd 0d24 083f fe9c 5cbe
000003e0: 7202 3bbe 9219 313e 3128 f63d 86ca 813e
000003f0: c2fa 02be 9266 b4bc 373a 96bd b7a0 71be

autoencoder.decoder.2.bias f4 [16]
-0.8528613 0.026155392 -0.985943 0.023511786 0.34464005 -0.44493288 -0.49837533 -0.1690908
-0.20048249 -0.5355843 -1.2058854 -0.28126696 -0.6022904 -0.44375518 -0.08538336 -0.49284014
00000000: 1e55 5abf d543 d63c c366 7cbf ca9b c03c
00000010: a974 b03e 3ece e3be 0d2b ffbe 2426 2dbe
00000020: 484b 4dbe 0d1c 09bf 745a 9abf 3902 90be
00000030: b42f 1abf e133 e3be 79dd aebd 8b55 fcbe

autoencoder.decoder.4.weight f4 [16, 8, 5, 5]
-0.08820405 -0.036275946 -0.04660171 -0.25524712 -0.14733967 -0.2591283 -0.058976516 -0.26220506
-0.3403094 -0.22436158 -0.13558677 -0.25971085 -0.3367842 -0.3621048 -0.2095583 -0.18661848
-0.23600373 -0.19931552 -0.2256361 -0.20922758 -0.25959823 -0.16602752 -0.09565198 -0.24600607
-0.11050095 -0.09737991 -0.07956306 -0.15396735 -0.021201642 0.16897595 -0.17060614 -0.16505219
-0.2022659 -0.10882782 0.07939749 0.035960224 0.060138516 -0.14072715 -0.055303954 0.3499384
-0.041314747 -0.12528089 -0.03468566 -0.043363623 0.2394662 -0.047904536 0.028496604 -0.065494
-0.10769611 0.15505074 0.16620506 0.06743874 0.13729332 0.14409459 0.19269195 0.12467759
0.030691506 0.2148845 0.22341222 0.024906756 0.09865819 0.14336467 0.18416104 0.07979185
-0.22099726 0.08947439 0.17247128 0.13172849 0.04020813 0.1583275 0.0964695 0.100175835
0.15643847 -0.006193771 -0.054882675 -0.11287775 -0.30394545 -0.16108152 -0.15689117 -0.17639561
0.025445335 -0.3170637 -0.29115158 -0.15754344 -0.047361534 -0.074328154 -0.26160887 -0.3071903
-0.005649427 0.10497165 -0.039783925 -0.04352115 -0.25050956 0.022518506 0.071960114 -0.033159267
-0.07870654 -0.07525034 0.1343054 -0.03375478 -0.017389243 -0.0026491596 -0.09708241 0.081697814
0.04167396 -0.22696432 -0.045129355 -0.06602612 0.039192747 -0.006380777 0.05783959 0.13891834
0.033159785 0.3343015 0.10192172 -0.012352928 -0.011981636 0.23188898 0.179802 0.12469118
0.04117471 0.052000217 -0.040471494 0.062089033 0.08347081 -0.005599213 -0.060435 0.013563622
-0.24177793 -0.085588366 -0.08880958 -0.064088106 -0.112273365 -0.14761761 -0.17815271 0.04681375
-0.047136806 -0.10494401 -0.089205265 -0.17474687 0.007692444 0.016970925 -0.04353992 -0.10681166
0.02421186 -0.13431509 -0.034726083 0.0847202 -0.17054276 -0.070382826 -0.036240812 -0.053464662
-0.03529191 0.06031924 0.051704552 -0.13203877 -0.14242631 -0.11432713 0.017487703 0.022705374
-0.02085283 -0.09562017 -0.17120111 0.06676169 0.08710431 -0.042820066 -0.106512435 -0.10291441
0.057484575 0.109870024 -0.030030029 -0.07481568 -0.12732393 0.06546492 0.106657766 0.14877614
-0.0019807215 0.08687758 0.031514224 -0.09300669 -0.0060462775 -0.01933471 0.0956017 -0.041062057
-0.088382676 0.14105475 -0.043834753 0.0152638 0.10825606 -0.16737424 0.069398865 0.023243263
0.09300827 0.074214086 -0.09180681 0.099233724 -0.020328052 -0.10656043 0.1133444 -0.073743284
0.004118824 -0.05564163 0.116582036 0.051152978 0.012308906 -0.09456354 -0.07219743 0.17762071
0.078713804 0.11202614 -0.2089875 0.05280748 0.20354114 0.080416195 0.0045256563 -0.005664969
0.0967878 0.1873237 0.104302675 -0.0068865414 -0.0093751345 0.081231676 0.16429166 0.1341201
0.039418936 -0.022449447 0.050339576 -0.010831631 -0.04770337 -0.06440577 -0.058648188 0.002900822
-0.080340594 -0.15622458 -0.055695713 -0.039402656 -0.044451237 -0.26012465 -0.34942847 -0.17449671
-0.023230333 -0.062026974 -0.2178001 -0.27370098 -0.08855829 -5.525408e-05 -0.074543856 -0.21587773
-0.20636985 -0.07611608 0.04755142 -0.01666018 -0.0101526175 -0.035116944 0.025793409 0.262152
00000000: 53a4 b4bd 1696 14bd 6fe1 3ebd c0af 82be
00000010: 36e0 16be 77ac 84be 5c91 71bd be3f 86be
00000020: 093d aebe 0bbf 65be 42d7 0abe d2f8 84be
00000030: fb6e acbe cd65 b9be 7396 56be ea18 3fbe
00000040: f6aa 71be 5e19 4cbe 260d 67be c13f 56be
00000050: 0fea 84be 1e03 2abe 2fe5 c3bd 04e9 7bbe
00000060: 524e e2bd 1e6f c7bd f5f1 a2bd 9ea9 1dbe
00000070: 11af adbc 0808 2d3e 60b3 2ebe 7103 29be
00000080: cb1e 4fbe 1fe1 debd 279b a23d 074b 133d
00000090: ce53 763d c71a 10be 6686 62bd 202b b33e
000000a0: a739 29bd a249 00be 8d12 0ebd 0e9e 31bd
000000b0: a136 753e 8c37 44bd b671 e93c b821 86bd
000000c0: c78f dcbd 9fc5 1e3e a931 2a3e 521d 8a3d
000000d0: 9f96 0c3e 888d 133e 0a51 453e f756 ff3d
000000e0: c16c fb3c af0a 5c3e 2cc6 643e 4109 cc3c
000000f0: 4e0d ca3d 30ce 123e b694 3c3e e969 a33d
00000100: 1b4d 62be 593e b73d 509c 303e d5e3 063e
00000110: 48b1 243d 9b20 223e cd91 c53d fd28 cd3d
00000120: 6831 203e 1ef5 cabb a8cc 60bd 732c e7bd
00000130: bd9e 9bbe 8ef2 24be 14a8 20be 0da1 34be
00000140: bc72 d03c 2c56 a2be d211 95be 1153 21be
00000150: 2bfe 41bd 5c39 98bd 99f1 85be 0c48 9dbe
00000160: d41e b9bb 60fb d63d 78f4 22bd 3c43 32bd
00000170: ca42 80be bb78 b83c d35f 933d 03d2 07bd
00000180: e530 a1bd da1c 9abd 5b87 093e 7442 0abd
00000190: e373 8ebc 869d 2dbb 24d3 c6bd 2f51 a73d
000001a0: 50b2 2a3d 5669 68be 8fd9 38bd b438 87bd
000001b0: 9388 203d d615 d1bb 35e9 6c3d 9c40 0e3e
000001c0: 8ed2 073d 9129 ab3e 56bc d03d ef63 4abc
000001d0: a04e 44bc 4e74 6d3e 041e 383e 175e ff3d
000001e0: d0a6 283d 2efe 543d 70c5 25bd 1251 7e3d
000001f0: bef2 aa3d 9a79 b7bb b18a 77bd f439 5e3c
00000200: a294 77be f448 afbd cce1 b5bd a040 83bd
00000210: 94ef e5bd 1229 17be aa6d 36be c6bf 3f3d
00000220: 8612 41bd e3ec d6bd 40b1 b6bd d8f0 32be
00000230: e610 fc3b 9c06 8b3c ea56 32bd 12c0 dabd
00000240: f357 c63c e589 09be f03c 0ebd c981 ad3d
00000250: c3a2 2ebe df24 90bd 3f71 14bd c3fd 5abd
00000260: 408e 10bd 4f11 773d 27c8 533d 2c35 07be
00000270: 34d8 11be 5824 eabd 5f42 8f3c 9f00 ba3c
00000280: 8ed3 aabc 82d4 c3bd 584f 2fbe 5aba 883d
00000290: bf63 b23d 1864 2fbd 3123 dabd cac4 d2bd
000002a0: f274 6b3d 8903 e13d 8901 f6bc f738 99bd
000002b0: 3461 02be 7912 863d 636f da3d c658 183e
000002c0: fece 01bb dfec b13d 0f15 013d 4b7a bebd
000002d0: da1f c6bb d363 9ebc d3ca c33d b030 28bd
000002e0: fa01 b5bd a870 103e 128c 33bd 0415 7a3c
000002f0: 5ab5 dd3d 2764 2bbe fe20 8e3d a868 be3c
00000300: 1f7b be3d 8efd 973d 3505 bcbd 0d3b cb3d
00000310: 0487 a6bc 5b3c dabd 1c21 e83d b806 97bd
00000320: 33f7 863b 7ae8 63bd 90c2 ee3d c985 513d
00000330: 4bab 493c 87aa c1bd 3fdc 93bd 34e2 353e
00000340: b434 a13d f66d e53d d200 56be a84c 583d
00000350: 176d 503e 3fb1 a43d f54b 943b 34a1 b9bb
00000360: af38 c63d c9d1 3f3e a49c d53d 7fa8 e1bb
00000370: 2a9a 19bc cb5c a63d 133c 283e c856 093e
00000380: c075 213d e7e7 b7bc df30 4e3d 2777 31bc
00000390: 9c64 43bd 2ce7 83bd 1539 70bd b81b 3e3b
000003a0: 9c89 a4bd 56f9 1fbe 3021 64bd ae64 21bd
000003b0: 8012 36bd 0f2f 85be 4ae8 b2be 44af 32be
000003c0: 8a4d bebc ff0f 7ebd fd06 5fbe 8922 8cbe
000003d0: 0c5e b5bd 9ec0 67b8 73aa 98bd 0d0f 5dbe
000003e0: 9e52 53be bfe2 9bbd 47c5 423d ee7a 88bc
000003f0: 2a57 26bc c9d6 0fbd b34c d33c c938 863e

autoencoder.decoder.4.bias f4 [8]
0.7567411 -0.7440061 0.43629482 -0.63455546 -0.6177539 0.32492158 -0.6780175 -0.35354587
00000000: c9b9 413f 2f77 3ebf 0962 df3e 3a72 22bf
00000010: 1f25 1ebf 1f5c a63e 8e92 2dbf f703 b5be

autoencoder.decoder.6.weight f4 [8, 1, 2, 2]
0.44940934 0.4758738 0.468817 0.4940757 0.608105 0.13040188 0.61234605 0.12403816
0.39312294 0.41477913 0.40285018 0.42556223 0.27734643 0.37198266 0.47866946 0.5753594
-0.4130658 -0.023956137 -0.09774292 0.3033404 -0.38886008 -0.41134912 -0.40841696 -0.4296782
0.06623982 0.40067044 -0.37287357 -0.033800773 0.23105522 -0.16122065 0.16498515 -0.2380438
00000000: fb18 e63e bba5 f33e c808 f03e 7df7 fc3e
00000010: c5ac 1b3f 1288 053e b6c2 1c3f b807 fe3d
00000020: 6947 c93e ee5d d43e 6142 ce3e 4be3 d93e
00000030: 5a00 8e3e 8374 be3e 2a14 f53e c14a 133f
00000040: 5c7d d3be a93f c4bc 712d c8bd 6f4f 9b3e
00000050: ab18 c7be 5a9c d2be 071c d1be c8fe dbbe
00000060: bea8 873d ad24 cd3e 49e9 bebe ae72 0abd
00000070: bd99 6c3e 0717 25be def1 283e c1c1 73be
