save_config_3/7/model_state.pth (torch, 28664 bytes, 13 tensors)

autoencoder.encoder.0.weight f4 [16, 1, 3, 3]
0	0xbdf104d4	-0.11768499
1	0x3d9ed179	0.077547975
2	0x3ede023f	0.4336109
3	0x3e09d278	0.13459194
4	0x3e7e6ca6	0.24846134
5	0x3f1d93fa	0.6155392
6	0xbdc63f0a	-0.096799925
7	0x3c0e8dbe	0.008700786
8	0x3e53f870	0.2070024
9	0xbedab21a	-0.42714006
10	0xbe8f5aee	-0.2799906
11	0xbe7ae866	-0.24502715
12	0xbef43f66	-0.4770462
13	0xbec5dfdf	-0.38647363
14	0xbebf967f	-0.37419507
15	0xbf163c3e	-0.5868567
16	0xbead6a66	-0.33870238
17	0xbf116ee4	-0.5680983
18	0x3e170869	0.14749302
19	0x3e82465b	0.25444302
20	0xbe20be9f	-0.15697716
21	0x3f158c80	0.5841751
22	0x3ede7ff0	0.43456984
23	0x3cc0f4e1	0.023554267
24	0x3e6fcda4	0.2341829
25	0x3dc986ba	0.0984015
26	0xbe94703c	-0.28991878
27	0xbd80376b	-0.0626057
28	0xbe345382	-0.1760998
29	0x3e6ee830	0.2333076
30	0xbc7d5516	-0.015462181
31	0xbc0d52dd	-0.008625713
32	0x3d0e65db	0.034765106
33	0x3efa618f	0.48902556
34	0x3f093af0	0.53605556
35	0x3e1e2f11	0.15447642
36	0xbd8c0866	-0.068375394
37	0x3ddd3bd4	0.10802427
38	0x3d6b0231	0.057375137
39	0xbd56828a	-0.052370586
40	0x3d5fcc0a	0.054637946
41	0x3cc62b9e	0.02419072
42	0x3e231901	0.15927507
43	0x3e4ce681	0.20009805
44	0xbdacfc32	-0.0844654
45	0xbd262f64	-0.04057254
46	0xbe734b83	-0.23759274
47	0xbf31a46f	-0.6939153
48	0x3d2c8814	0.04212196
49	0xbe17cf9f	-0.14825295
50	0xbf010cec	-0.5041034
51	0x3d02904f	0.031875905
52	0xbce53ea1	-0.027983965
53	0xbefcc5f1	-0.49369767
54	0xbf12ed91	-0.5739375
55	0xbebc9a91	-0.36836675
56	0xbe002824	-0.12515312
57	0xbe80a6ac	-0.2512716
58	0xbe685d3c	-0.22691816
59	0x3e0237ab	0.12716548
60	0xbbe6e5d6	-0.0070464415
61	0xbe3e0f80	-0.185606
62	0x3d011cdc	0.031521663
63	0xbef9aed7	-0.48766205
64	0xbd1703b4	-0.036868766
65	0x3ee389d2	0.44441086
66	0xbf0ce0e3	-0.5503065
67	0xbc778b5c	-0.015108909
68	0x3e753f9d	0.23950048
69	0xbed6e9cb	-0.41975245
70	0xbe2f75ff	-0.17134856
71	0x3e1a0593	0.15041189
72	0x3f004472	0.5010444
73	0xbd841bc8	-0.06450611
74	0xbf0dcf7a	-0.5539471
75	0x3f38be5f	0.72165483
76	0xbc05f660	-0.008176416
77	0xbead9c61	-0.3390837
78	0x3f2577bd	0.6463583
79	0xbe6becc2	-0.23039535
80	0xbeeadb29	-0.4587033
81	0x3f1f8e36	0.6232637
82	0x3effcd7a	0.49961454
83	0x3eac3acf	0.33638617
84	0x3e2aee59	0.16692485
85	0x3da67d8e	0.081294164
86	0x3ce28b65	0.02765436
87	0x3e2f62e6	0.1712757
88	0x3e59ed6a	0.21281973
89	0x3e78609b	0.24255602
90	0x3db59ef9	0.08868212
91	0x3d69f2be	0.057116263
92	0x3d72cba0	0.059276223
93	0xbe5bf269	-0.21479191
94	0xbb53f731	-0.0032343382
95	0x3cd30e36	0.025763612
96	0xbf2525a5	-0.64510566
97	0xbf199e63	-0.60007304
98	0xbef091d3	-0.46986255
99	0xbd88672e	-0.06660305
100	0xbf24b1ef	-0.64334005
101	0xbf40451c	-0.7510545
102	0x3e7fbb45	0.24973781
103	0xbe908f78	-0.28234458
104	0xbed36915	-0.4129111
105	0x3d5e0bb4	0.05421038
106	0xbeb072f0	-0.3446269
107	0xbf266b4f	-0.6500749
108	0x3e71dc01	0.23619081
109	0xbdb9f0b5	-0.09079114
110	0xbe701501	-0.23445512
111	0x3eef9425	0.46792713
112	0x3e8435ac	0.25822198
113	0x3e8af393	0.27138957
114	0x3edfd65c	0.4371823
115	0x3e24ab35	0.16080935
116	0x3f0216ad	0.5081585
117	0x3ecc109b	0.3985642
118	0x3e99a031	0.3000503
119	0x3e8c3a66	0.27388304
120	0x3d0711cf	0.032975968
121	0x3d943b27	0.07237845
122	0x3de37f51	0.11108268
123	0xbec409dc	-0.38288772
124	0xbeda5237	-0.4264085
125	0xbe9d556e	-0.3072924
126	0xbda59fa9	-0.080870934
127	0x3f02648c	0.5093467
128	0x3e8b5f34	0.27221072
129	0xbde35057	-0.11099308
130	0x3e80d712	0.25164086
131	0x3d8ed600	0.06974411
132	0xbdd36f3c	-0.10323951
133	0x3e4d2bee	0.20036289
134	0xbdd208a2	-0.10255553
135	0xbf002248	-0.5005231
136	0xbf0b6c19	-0.5446182
137	0xbe0de976	-0.1385859
138	0xbe5d75c0	-0.2162695
139	0xbe06f23a	-0.1317834
140	0x3e26b731	0.1628082
141	0xbdfc69d0	-0.1232487
142	0xbdedd035	-0.11611978
143	0x3d486852	0.048927613

autoencoder.encoder.0.bias f4 [16]
0	0xbda7b08b	-0.0818797
1	0x3e6c6d8a	0.23088661
2	0xbe150d79	-0.1455592
3	0xbe876277	-0.2644231
4	0x3f87a265	1.0596434
5	0x3f8f1f6d	1.1181465
6	0xbeb4a118	-0.35279155
7	0xbc9e77a4	-0.019344158
8	0xbe231386	-0.15925416
9	0xbd429526	-0.04750552
10	0x3f2cd4d8	0.67512274
11	0x3e0c997f	0.13730429
12	0xbe1466ba	-0.14492312
13	0x3e8dd785	0.2770349
14	0xbf1a8509	-0.60359246
15	0x3fcbe8ea	1.5930455

autoencoder.encoder.3.weight f4 [8, 16, 3, 3]
0	0xbe46d9cf	-0.19419025
1	0x3cae1313	0.02124933
2	0x3d1a6a4e	0.037699036
3	0xbb1d99e7	-0.0024048032
4	0xbdd7b0d7	-0.105317764
5	0x3d9e90b5	0.077424444
6	0x3e4772fe	0.1947746
7	0xbe9f3acc	-0.31099546
8	0xbde5d27f	-0.112217896
9	0xbc2691cb	-0.010166596
10	0x3dab43dd	0.08362553
11	0xbe812e76	-0.2523076
12	0xbdff25c0	-0.12458372
13	0x3e2c1514	0.16804916
14	0xbe42e9ac	-0.19034451
15	0xbe86c135	-0.2631928
16	0x3d2b7ed1	0.04186899
17	0xbe570a65	-0.21000059
18	0x3dd9f2af	0.10641991
19	0xbcd8aa44	-0.026448376
20	0x3d07d338	0.03316042
21	0x3ca1577f	0.019695042
22	0xbde8a832	-0.11360206
23	0xbe01a2cd	-0.1265976
24	0xbb007aaa	-0.0019604363
25	0xbe62b7a4	-0.22140366
26	0x3b530b0c	0.003220263
27	0xbd2aea65	-0.041727442
28	0xbe5a4e8a	-0.21319023
29	0x3d03a5b0	0.032140434
30	0x3d883d9c	0.06652376
31	0xbdc004e6	-0.09375934
32	0x3e1355d7	0.14388214
33	0x3d0bc82e	0.034126453
34	0xbe644015	-0.2229007
35	0xbdf6c33d	-0.120489575
36	0xbd9dc594	-0.07703701
37	0xbd745680	-0.059652805
38	0xbe120c6c	-0.14262551
39	0xbdd44d47	-0.10366302
40	0xbd3a51e1	-0.045488242
41	0xbe10c9f2	-0.14139536
42	0x3d7766e4	0.06040086
43	0x3ec303c1	0.38088802
44	0xbd887144	-0.06662229
45	0xbe30607b	-0.17224304
46	0x3e3bb1cc	0.18329543
47	0xbeba4f0f	-0.36388442
48	0x3dac2670	0.08405769
49	0x3ebb30ad	0.36560574
50	0xbe5de79c	-0.21670383
51	0x3edc8487	0.4306986
52	0x3ee5fbf3	0.44918784
53	0xbe132830	-0.14370799
54	0x3dae447d	0.08509157
55	0x3e07df6a	0.1326882
56	0x3cda2fde	0.026634153
57	0x3d267ca3	0.040646207
58	0xbd0a1240	-0.03370881
59	0x3e01a942	0.12662223
60	0xbdeb1621	-0.1147883
61	0xbe433938	-0.19064796
62	0x3e0d0bf2	0.13774088
63	0x3d6d941d	0.05800258
64	0xbe19f942	-0.1503649
65	0xbdd46938	-0.103716314
66	0x3de04ed3	0.109525345
67	0xbda3ae1f	-0.07992195
68	0x3c165ed7	0.009177885
69	0xbe3bd0e0	-0.18341398
70	0xbd3b2f5c	-0.045699462
71	0xbe1565c5	-0.14589603
72	0x3dab3093	0.08358874
73	0x3dd6be00	0.104854584
74	0x3e1784d9	0.14796771
75	0x3e02ecae	0.12785599
76	0xbdb4c9c4	-0.08827546
77	0x3d96695a	0.07344313
78	0x3e290800	0.16506958
79	0xbd9365ea	-0.07197173
80	0x3dff0be1	0.124534376
81	0xbc0be32c	-0.008538049
82	0xbdb0726a	-0.08615573
83	0x3d0cbb90	0.03435856
84	0xbddcf3a1	-0.10788656
85	0xbdd0aa71	-0.10188759
86	0xbdaef568	-0.08542901
87	0x3e0838fc	0.13302988
88	0xbed9b7ec	-0.42523134
89	0xbd259f6c	-0.04043524
90	0x3da15de6	0.07879238
91	0x3e659be1	0.22422744
92	0xbe38b738	-0.18038642
93	0x3dd99bbe	0.106254086
94	0x3e73d540	0.23811817
95	0x3dce60dd	0.10077069
96	0xbdd84c01	-0.105613716
97	0x3ef1f77d	0.4725913
98	0x3c0b7249	0.008511134
99	0xbe323241	-0.17401983
100	0x3e0af0fd	0.13568492
101	0xbe3c2cdf	-0.18376492
102	0xbc44167d	-0.011968252
103	0x3e399407	0.18122874
104	0xbe150efe	-0.145565
105	0x3d82bb4c	0.0638338
106	0xbd9fbb83	-0.07799437
107	0xbe912a70	-0.2835269
108	0xbb41a305	-0.002954663
109	0xbd565f7b	-0.05233715
110	0x3c919afa	0.017774094
111	0x3cb8d0b9	0.022560464
112	0xbd5b81c7	-0.053590562
113	0x3caf32d9	0.02138655
114	0x3df0d075	0.1175851
115	0xbe7d0781	-0.24709894
116	0xbc2ede02	-0.010673048
117	0x3d8a6651	0.067577966
118	0xbd020464	-0.03174247
119	0xbd48740d	-0.0489388
120	0xbe852751	-0.2600656
121	0x3d9a3fa1	0.075316675
122	0xbea074ef	-0.31339213
123	0x3c7282a1	0.014801652
124	0xbe7504de	-0.23927638
125	0x3c836659	0.016040014
126	0x3d4bf8fa	0.04979799
127	0xbde6ac7a	-0.11263366
128	0x3db4c182	0.08825971
129	0xbb192a2e	-0.0023371088
130	0xbe864f1b	-0.26232228
131	0x3e383fd9	0.17993106
132	0xbe22daff	-0.15903853
133	0xbee4511b	-0.4459313
134	0xbd6c41f9	-0.057680104
135	0xbe05796d	-0.13034602
136	0x3e1452bc	0.14484686
137	0xbf0a355c	-0.5398767
138	0xbe7eaa75	-0.24869712
139	0x3e39c538	0.18141639
140	0xbee109cc	-0.43952787
141	0xbceda062	-0.02900714
142	0x3f075167	0.52858585
143	0x3d787ce8	0.060665995
144	0x3e1ad0dc	0.15118736
145	0xbd839dbb	-0.06426569
146	0xbbc442d0	-0.00598941
147	0xbe80b3ed	-0.25137272
148	0xbc93d7a1	-0.018047156
149	0xbe0063b1	-0.12538029
150	0x3e1dc0e9	0.1540562
151	0x3d89dad2	0.0673119
152	0x3e2e1bc0	0.17002773
153	0xbc18331c	-0.009289529
154	0x3d3ef721	0.0466224
155	0x3da78aae	0.08180748
156	0x3d84b518	0.064798534
157	0xbe317414	-0.17329437
158	0xbd8309f8	-0.06398386
159	0x3d4ef796	0.050529085
160	0x3ceda57e	0.029009577
161	0x3e1849c8	0.14871895
162	0x3d0dee63	0.03465117
163	0x3c977683	0.018489128
164	0xbc915f74	-0.01774571
165	0xbe4d0298	-0.2002052
166	0xbe462e77	-0.19353662
167	0xbd233e20	-0.03985417
168	0x3d888ddc	0.066676825
169	0xbdc6681f	-0.09687828
170	0x3cea9a78	0.02863811
171	0x3e5fb1e8	0.2184521
172	0x3cab315a	0.020897556
173	0x3ce90992	0.028446946
174	0xbe4835fe	-0.19551846
175	0xbaee8347	-0.0018197083
176	0xbc8441da	-0.016144682
177	0x3d8f140e	0.06986247
178	0xbd7e11e5	-0.062028784
179	0x3ca4d8d4	0.020122923
180	0x3e5e6256	0.217172
181	0x3e2da87a	0.169588
182	0x3e4ddf45	0.20104702
183	0x3da7d601	0.08195115
184	0x3dc4be61	0.096066244
185	0x3e3f2d9b	0.18669741
186	0x3e1e394c	0.15451545
187	0x3ddd31bd	0.108005024
188	0x3e47aa8f	0.19498657
189	0xbe4037d7	-0.18771301
190	0xbd95c271	-0.073124774
191	0xbe077352	-0.13227585
192	0x3d708d97	0.05872878
193	0xbe0f397e	-0.13986775
194	0xbca9f05b	-0.020744493
195	0xbdaf0d12	-0.08547415
196	0xbe1c9c02	-0.15293887
197	0xbe099739	-0.13436593
198	0xbd9c708e	-0.076386556
199	0xbdff7ac2	-0.12474586
200	0xbe4191bf	-0.18903254
201	0xbd69c295	-0.057070334
202	0xbe93341d	-0.28750697
203	0xbe0b7e23	-0.13622336
204	0xbda9dd77	-0.08294194
205	0xbe2da076	-0.16955742
206	0xbd7e4208	-0.06207469
207	0xbe16f01c	-0.14740032
208	0xbc508d6f	-0.012729033
209	0x3e9b5422	0.30337626
210	0xbd2272ae	-0.03966015
211	0xbe8816c2	-0.26579863
212	0xbc9eba93	-0.019376075
213	0xbd4719e4	-0.048608676
214	0xbdeb0962	-0.11476399
215	0x3dc58660	0.096447706
216	0xbe7d01cc	-0.24707717
217	0x3e06c16a	0.13159719
218	0x3d926ffb	0.07150265
219	0xbd8ca2f5	-0.06867019
220	0x3c9361ee	0.017991032
221	0x3b416ff5	0.0029516194
222	0x3df25093	0.118317746
223	0x3cfa35ae	0.030543175
224	0xbde98729	-0.11402733
225	0x3e3be24d	0.18348046
226	0xbb36a2b8	-0.0027867984
227	0x3d9a9a76	0.07548992
228	0x3cd62006	0.026138317
229	0x3c1d0713	0.009584206
230	0x3c14960a	0.009068975
231	0x3d7e7a8a	0.06212858
232	0xbc62629f	-0.013817458
233	0x3e08d20a	0.13361374
234	0xbe4eb571	-0.20186402
235	0x3dcf8f72	0.10134782
236	0x3da998fb	0.08281132
237	0xbe2fc0b8	-0.1716336
238	0xbe083b2d	-0.13303824
239	0x3c855973	0.016278004
240	0xbdf73629	-0.12070877
241	0xbc75ff5f	-0.0150144985
242	0x3c6af0d2	0.014339643
243	0xbde08c62	-0.10964276
244	0x3db44a15	0.088031925
245	0x3cca078a	0.024661798
246	0x3d2c259f	0.042028066
247	0xbe31b198	-0.17352903
248	0xbd137f54	-0.0360101
249	0x3d794470	0.060856283
250	0x3dd263ee	0.10272966
251	0x3e0707c5	0.13186558
252	0x3e41c287	0.18921863
253	0xbca1037b	-0.01965498
254	0x3d8ed3a5	0.06973962
255	0xbe4c53f9	-0.19953908

autoencoder.encoder.3.bias f4 [8]
0	0x3e3eae41	0.1862116
1	0x3e57e432	0.21083143
2	0x3e9fae85	0.31187835
3	0x3e5056f3	0.20345668
4	0x3daed2eb	0.08536323
5	0xbdf7015c	-0.12060806
6	0x3e272c82	0.16325572
7	0x3d2db0bb	0.04240487

autoencoder.encoder.6.weight f4 [2, 8, 2, 2]
0	0x3f20c7c2	0.62804806
1	0x3f084b07	0.5323948
2	0x3f034a9a	0.5128571
3	0x3f2ee322	0.6831533
4	0xbeed9e91	-0.4641004
5	0xbe8a4ef0	-0.2701335
6	0xbed32f25	-0.41246906
7	0xbe6cf686	-0.23140916
8	0xbe565496	-0.20930704
9	0xbe96c528	-0.29447293
10	0xbed3ee93	-0.41392955
11	0xbebcf029	-0.36901978
12	0xbe890497	-0.26761314
13	0xbecd0f1b	-0.40050587
14	0xbed8a9fd	-0.4231719
15	0xbe903eaf	-0.28172824
16	0xbe85397f	-0.2602043
17	0x3e8b4ee2	0.2720862
18	0x3f17c032	0.5927764
19	0x3ec81479	0.3907812
20	0x3f8873eb	1.0660375
21	0x3f8a3680	1.0797882
22	0x3dc4e2b6	0.09613554
23	0xbea2f67b	-0.31828675
24	0xbcb4fcd1	-0.022093209
25	0x3ee3151a	0.44352037
26	0xbe190582	-0.14943507
27	0x3cdc6f35	0.026908496
28	0xbe4d268c	-0.20034236
29	0xbeac3597	-0.33634636
30	0xbec8de64	-0.3923217
31	0xbe9a90ce	-0.30188602
32	0x3f2727d3	0.6529514
33	0x3f1eadc2	0.61983883
34	0x3f20af05	0.6276706
35	0x3f16babf	0.588787
36	0x3d9fb4c2	0.07798149
37	0x3db720f7	0.089418344
38	0x3eddfb2b	0.43355688
39	0x3f074204	0.52835107
40	0x3e93d171	0.2887073
41	0xbe7bccb6	-0.2458981
42	0x3e22d0fc	0.15900034
43	0xbf8650e0	-1.0493431
44	0x3e397c57	0.18113838
45	0x3ed680cc	0.4189514
46	0x3e1e6dc8	0.15471566
47	0x3ea1e51b	0.31620106
48	0xbfaadadb	-1.3348039
49	0xbec8cfc0	-0.39221
50	0xbfc38bdd	-1.5277058
51	0xbe39d506	-0.18147668
52	0x3fa3cc6b	1.2796758
53	0x3e300570	0.17189574
54	0xbe1f177d	-0.15536304
55	0xbf1fe8c5	-0.62464553
56	0x3d33b8a3	0.043877255
57	0x3f84fd49	1.0389796
58	0x3e65d7d5	0.22445615
59	0x3ebeaad8	0.37239718
60	0xbeb12a73	-0.346027
61	0xbe7b3bb3	-0.24534492
62	0xbea32f82	-0.31872183
63	0xbe84a329	-0.2590573

autoencoder.encoder.6.bias f4 [2]
0	0xbe271182	-0.16315272
1	0x3d3d73c0	0.046252966

autoencoder.decoder.0.weight f4 [2, 8, 2, 2]
0	0x3d9a374a	0.07530077
1	0x3e39dcc1	0.18150617
2	0x3eb5cd89	0.35508373
3	0xbeab4db0	-0.33457708
4	0xbf015a15	-0.5052808
5	0xbe976a92	-0.29573494
6	0xbee1a7c9	-0.44073322
7	0xbdc9ac06	-0.09847264
8	0xbefb6c91	-0.49106267
9	0x3a5b5c6a	0.0008367958
10	0xbe72ab9e	-0.2369828
11	0xbe0fded5	-0.14049847
12	0xbda64269	-0.081181355
13	0xbf15f71e	-0.58580196
14	0x3c3d6c05	0.011561398
15	0x3bbd77cf	0.0057821046
16	0x3e321c0c	0.17393512
17	0x3b757b25	0.0037457433
18	0x3d9f0b38	0.07765812
19	0xbec7c24b	-0.3901542
20	0x3e6aff03	0.22948842
21	0x3e2d29c6	0.16910467
22	0x3e95602b	0.29174933
23	0x3e22a4be	0.15883157
24	0xbe071fa1	-0.13195659
25	0x3c641f40	0.013923466
26	0x3eadcfeb	0.3394769
27	0x3d596687	0.053076293
28	0x3e6af8cd	0.22946472
29	0xbb89c310	-0.0042041615
30	0x3e534fe3	0.20635943
31	0xbd8eb559	-0.06968183
32	0x3f2b8645	0.67001754
33	0x3d0caf66	0.03434696
34	0x3fa26fb0	1.2690334
35	0xbebe1577	-0.3712575
36	0xbe0650f7	-0.13116823
37	0x3e22e2cb	0.15906827
38	0x3e942b05	0.2893907
39	0x3d450e25	0.048109192
40	0xbf2090a3	-0.627207
41	0x3ee5385c	0.4476956
42	0x3f5dbffa	0.8662106
43	0x3ee4c46f	0.44681117
44	0x3f0d6487	0.5523152
45	0xbf00a3ab	-0.5024974
46	0x3de69f82	0.112608925
47	0xbdcf4a96	-0.10121648
48	0xbb8b965e	-0.0042598685
49	0x3e7141c0	0.23560238
50	0x3b2876fc	0.0025705686
51	0x3e505c9d	0.20347829
52	0x3e0ef298	0.1395973
53	0xbe12cf56	-0.14336905
54	0x3e8fb0a9	0.28064469
55	0xbe55e7a4	-0.20889145
56	0xbf1ac2b0	-0.6045332
57	0x3f6a33e4	0.9148543
58	0x3f464d42	0.77461636
59	0x3f6dc86c	0.92883945
60	0xbf0b4e93	-0.5441677
61	0xbf76c1a9	-0.9638925
62	0xbe30b983	-0.17258267
63	0xbee1d0ef	-0.44104716

autoencoder.decoder.0.bias f4 [8]
0	0xbdccb7a0	-0.09995961
1	0xbeaec696	-0.34135884
2	0x3f000ab3	0.50016326
3	0x3e816622	0.25273234
4	0x3f90dc29	1.1317188
5	0xbe82193b	-0.25409874
6	0xbf0cb189	-0.549584
7	0x3eb73f55	0.35790506

autoencoder.decoder.2.weight f4 [8, 16, 3, 3]
0	0xbce6af2f	-0.028159706
1	0x3e80cfc0	0.251585
2	0x3e877e10	0.26463366
3	0x3d0adaaf	0.03389996
4	0x3e47e4d9	0.19520892
5	0x3eae5192	0.34046608
6	0x3cf4adce	0.029868033
7	0x3eefc8a9	0.4683278
8	0xbe93af72	-0.28844792
9	0x3e7f11a1	0.24909069
10	0x3d00b328	0.031420857
11	0x3e171bfd	0.1475677
12	0x3edbf512	0.4296041
13	0xbe2b3364	-0.16718823
14	0x3da78263	0.08179166
15	0x3ea66ce3	0.3250495
16	0x3e1f778a	0.15572944
17	0x3d105b4e	0.035243325
18	0x3e2a7b7b	0.16648667
19	0x3e95151f	0.29117677
20	0x3e9ef746	0.3104803
21	0x3e936e7c	0.2879523
22	0x3ef17f2a	0.4716733
23	0x3e8d1c45	0.2756063
24	0x3e0335c9	0.12813486
25	0x3eb4a301	0.35280612
26	0x3eacd5ce	0.3375687
27	0x3d4e756f	0.050404962
28	0xbcd23201	-0.02565861
29	0xbd8690aa	-0.06570561
30	0xbc401bf1	-0.011725412
31	0xbe593da6	-0.21214923
32	0x3e765d4d	0.24059029
33	0xbd7c8081	-0.06164599
34	0x3ded4897	0.11586111
35	0xbd9207be	-0.07130383
36	0xbd0b4e6a	-0.03401033
37	0x3e4036fc	0.18770975
38	0x3eb00ccb	0.3438476
39	0x3e727a97	0.23679577
40	0x3e4195bb	0.18904774
41	0xbe64a595	-0.2232879
42	0x3ed9ac71	0.42514375
43	0xbe82e330	-0.25563955
44	0x3c4f1ba5	0.012640868
45	0x3df18565	0.11793021
46	0x3e1adb99	0.15122832
47	0xbeb9be1b	-0.3627785
48	0x3e02b8b4	0.12765771
49	0x3e805f82	0.25072867
50	0xbe964ccf	-0.29355475
51	0x3e4656f0	0.19369102
52	0x3dee535b	0.116369925
53	0xbed0dbdd	-0.40792742
54	0x3e1717cf	0.14755176
55	0x3e3404a4	0.17579895
56	0x3c6c55bd	0.0144247385
57	0xbe5906d1	-0.21194007
58	0xbc7cae71	-0.015422449
59	0x3e4d6f4a	0.20061985
60	0x3dae800f	0.08520519
61	0xbe22e8af	-0.15909074
62	0xbd34a2bf	-0.04410052
63	0xbe2fa60c	-0.17153186
64	0xbb737691	-0.0037149529
65	0x3eb51913	0.35370693
66	0x3dee27a3	0.11628654
67	0x3c3a52c0	0.011372268
68	0x3e08840c	0.13331622
69	0x3e1ca01c	0.15295452
70	0x3da10617	0.0786249
71	0x3da83815	0.08213822
72	0x3e1ee098	0.15515363
73	0xbe39c00c	-0.18139666
74	0x3e9c5ab2	0.30537945
75	0x3e7c3271	0.24628617
76	0x3d4028ae	0.046913795
77	0x3e924a34	0.28572237
78	0x3ea4afdf	0.3216543
79	0x3e23ebe8	0.1600796
80	0x3ca261dc	0.019822054
81	0x3c492876	0.012277713
82	0x3eae4fd6	0.34045285
83	0x3e3dcc46	0.18534955
84	0xbdbb5e4d	-0.09148846
85	0x3e14dc0d	0.14537068
86	0x3e2c4cbd	0.16826148
87	0x3e2b2ae1	0.16715576
88	0x3eba8c26	0.3643505
89	0x3e0ed0b0	0.13946795
90	0xbd387db8	-0.04504177
91	0x3e6eaa5d	0.23307176
92	0x3dc24591	0.09485925
93	0x3e39c4af	0.18141435
94	0x3d4291fc	0.047502503
95	0x3d8dbb09	0.0692044
96	0x3db2c5ad	0.0872911
97	0xbe077e80	-0.1323185
98	0x3dc5a30d	0.0965024
99	0x3e2482c9	0.16065516
100	0xbdc111f7	-0.09427255
101	0x3e1fd4c2	0.15608504
102	0x3e99e475	0.3005711
103	0xbcf96048	-0.030441418
104	0x3ee4477a	0.44585782
105	0x3c21f852	0.009885864
106	0x3f0e6166	0.5561737
107	0x3e939526	0.2882473
108	0xbea6a83f	-0.32550237
109	0x3de6beee	0.11266886
110	0x3de0a3ef	0.10968768
111	0x3e7db85b	0.24777357
112	0x3e8187ca	0.2529891
113	0xb81bebc3	-3.717445e-05
114	0x3c65e28c	0.014031064
115	0x3cf19c65	0.02949352
116	0x3eb80a09	0.35945156
117	0xbcff1f56	-0.031142872
118	0x3e10ea29	0.14151825
119	0x3dd0970d	0.10185061
120	0xbf0b502e	-0.5441922
121	0x3eaffebe	0.3437404
122	0xbcefd09d	-0.02927428
123	0xbef5c585	-0.48002258
124	0x3e93e9ed	0.2888941
125	0x3aba9971	0.0014236403
126	0x3e2f880c	0.17141742
127	0x3e410471	0.1884935
128	0x3b6998f1	0.0035644139
129	0xbe95a7fe	-0.2922973
130	0x3d13b89b	0.036064725
131	0x3ca6ddda	0.020369459
132	0x3cb3c13e	0.021942731
133	0xbe6d664b	-0.23183553
134	0x3e620ae2	0.22074464
135	0x3e0e5f52	0.1390355
136	0x3e8e9291	0.27846196
137	0xbeade533	-0.33963928
138	0xbdc192f4	-0.09451857
139	0xbd3af276	-0.045641385
140	0xbc1e65a2	-0.009667786
141	0x3cc02e5d	0.023459608
142	0x3cbdbfc1	0.023162724
143	0xbe658647	-0.22414504
144	0xbcb162eb	-0.021653613
145	0xbdcb2263	-0.09918668
146	0xbc37ed02	-0.011225941
147	0x3e673e43	0.22582345
148	0x3ed05f0b	0.40697512
149	0x3e6d62d8	0.23182237
150	0x3d042a81	0.032267097
151	0xbe678901	-0.22610857
152	0x3d587c36	0.05285283
153	0x3ca90d18	0.020636126
154	0x3d603a03	0.054742824
155	0x3e77cbfa	0.24198905
156	0x3e1cf8cc	0.15329283
157	0xbe962086	-0.29321688
158	0x3d904def	0.07046115
159	0xbd933cd2	-0.07189335
160	0x3e99f6ee	0.30071205
161	0x3e891bac	0.26778924
162	0x3dbfc701	0.09364129
163	0xbec28c42	-0.37997633
164	0xbdc051d5	-0.09390608
165	0x3e70b2dc	0.2350573
166	0xbebe7622	-0.37199503
167	0xbf27e642	-0.6558572
168	0xbe1b9c2d	-0.15196295
169	0x3ec09fbf	0.37621877
170	0xbc7d28c8	-0.015451618
171	0x3db55681	0.0885439
172	0x3eb8c2a7	0.36086008
173	0x3e1d0b41	0.15336324
174	0xbdd30089	-0.103028364
175	0x3db5123a	0.08841367
176	0x3e659107	0.22418605
177	0x3d5686db	0.052374702
178	0x3e4c5929	0.19955887
179	0x3e2c7ff9	0.16845693
180	0x3e994fe5	0.29943767
181	0xbe9edd18	-0.31028056
182	0x3e9fa29e	0.31178755
183	0xbdaa6f6f	-0.083220355
184	0x3d16af5c	0.03678833
185	0x3d9abd63	0.07555654
186	0xbe1e9f6a	-0.15490499
187	0xbe2221da	-0.15833226
188	0x3c277965	0.010221814
189	0x3c6941b2	0.014236854
190	0xbeb3e07d	-0.35132208
191	0xbd42ee88	-0.047590762
192	0xbe0a73fa	-0.13520804
193	0xbe8842e4	-0.26613533
194	0x3ce7f9f0	0.028317422
195	0x3d735a7b	0.05941246
196	0xbe1870e5	-0.14886816
197	0x3e614d90	0.22002244
198	0x3ebaff3a	0.36522847
199	0x3e18e796	0.14932093
200	0xbd482487	-0.04886296
201	0x3e2e8b02	0.17045215
202	0x3f0b15c3	0.5433008
203	0x3df9a941	0.12190486
204	0x3e573a14	0.21018249
205	0x3e359fcc	0.17736739
206	0x3d581405	0.052753467
207	0x3ddfdcaf	0.10930764
208	0x3bcf48fa	0.006325838
209	0x3cb5c333	0.022187805
210	0xbd203d92	-0.039121218
211	0xbd893f1a	-0.06701489
212	0xbdefe352	-0.1171328
213	0xbd271bce	-0.040798
214	0x3dceb06f	0.10092246
215	0xbe297763	-0.16549449
216	0xbe6db06e	-0.23211834
217	0x3daac064	0.08337477
218	0xbe256f36	-0.16155705
219	0xbe456e3d	-0.19280334
220	0xbdc0ce6c	-0.09414372
221	0x3e852c02	0.26010138
222	0x3ddcce6e	0.10781561
223	0xbce146f3	-0.027499652
224	0xbc4c2c06	-0.012461668
225	0xbdb4a5e9	-0.08820707
226	0xbd2438ce	-0.040093236
227	0xbd27958c	-0.040914103
228	0x3dd67fbe	0.10473584
229	0xbdf81cd3	-0.12114873
230	0x3e91d6b9	0.28484133
231	0x3d64716c	0.05577223
232	0xbd6f5fbc	-0.05844091
233	0x3e296511	0.1654246
234	0x3d96a035	0.07354776
235	0x3d985f0c	0.07440004
236	0xbe5abfce	-0.2136223
237	0x3ee937ac	0.45550287
238	0x3e88e15f	0.26734444
239	0x3c08097c	0.0083030425
240	0x3d84ab23	0.06477954
241	0x3e768d4a	0.24077335
242	0x3ce09181	0.027413132
243	0x3e04d84c	0.12973136
244	0xbe6ba536	-0.23012242
245	0x3dcdc341	0.10047007
246	0xbcd3c283	-0.025849586
247	0x3e13c1f1	0.14429452
248	0xbf12b3ac	-0.5730541
249	0xbe34bb2e	-0.17649528
250	0xbf214530	-0.62996197
251	0xbe4bf07b	-0.19915955
252	0x3dd922d4	0.10602346
253	0xbd2e9d7c	-0.042630658
254	0xbe730c65	-0.23735197
255	0x3e97c711	0.29644063

autoencoder.decoder.2.bias f4 [16]
0	0xbf0335b2	-0.5125381
1	0x3e5e4f14	0.21709853
2	0xbd953d40	-0.07287073
3	0xbe61747e	-0.22017094
4	0xbf38783e	-0.72058475
5	0xbda85f94	-0.08221355
6	0xbf63707e	-0.88843524
7	0xbd19de76	-0.03756567
8	0xbeda8a5c	-0.42683685
9	0xbef99d22	-0.48752695
10	0xbf0d256c	-0.55135226
11	0xbf3370a2	-0.7009374
12	0xbf2ac798	-0.66710806
13	0xbf10efb7	-0.56615776
14	0xbf434879	-0.7628246
15	0x3e8714a8	0.26382947

autoencoder.decoder.4.weight f4 [16, 8, 5, 5]
0	0xbb884bab	-0.004159411
1	0x3cea5517	0.028605027
2	0xbd685349	-0.056720052
3	0xbe0b622d	-0.1361167
4	0x3cc4af5d	0.024009401
5	0x3cfc320f	0.030785589
6	0x3da23892	0.07920946
7	0x3d979a0f	0.07402431
8	0xbc153704	-0.009107355
9	0xbde9f2fe	-0.114233
10	0x3e6915b6	0.22762188
11	0xbd8e81dd	-0.06958363
12	0x3e37d50d	0.17952366
13	0x3da0ba86	0.078480765
14	0xbdf1efa1	-0.11813284
15	0x3d8a51d7	0.06753891
16	0x3d168188	0.036744624
17	0x3ddb408d	0.107056715
18	0xbca4980f	-0.020092038
19	0xbd8aebb4	-0.06783238
20	0x3e55fbde	0.20896861
21	0x3e0fb356	0.14033255
22	0xbd90702a	-0.070526436
23	0xbd699bfe	-0.05703353
24	0xbd9d3ea2	-0.07677962
25	0xbd5093d6	-0.050922237
26	0x3e7b6c6b	0.24553077
27	0x3d36a0c3	0.044586908
28	0x3d1e1d74	0.038602307
29	0xbdae4e91	-0.08511079
30	0x3d057855	0.03258546
31	0x3e3e8d5b	0.1860861
32	0xbd15788c	-0.036491916
33	0xbb503578	-0.003177015
34	0x3dde7bb0	0.10863435
35	0x3c8cf292	0.01720551
36	0x3d9f0a0c	0.07765588
37	0x3e03f21a	0.12885323
38	0x3e04d56e	0.12972042
39	0xbcfef08b	-0.03112056
40	0x3d587e0f	0.052854594
41	0x3e09f30c	0.13471621
42	0x3dc79409	0.09745032
43	0x3cb7b2ef	0.02242419
44	0xbdd986f9	-0.10621447
45	0xbcba3813	-0.022731816
46	0xbc43d24a	-0.011951992
47	0xbd4e900f	-0.050430354
48	0xbdcdd523	-0.10050418
49	0xbd620f03	-0.055190098
50	0x3c977134	0.018486597
51	0x3d163247	0.036669042
52	0x3e20b72c	0.15694875
53	0xbe21b482	-0.15791515
54	0x3bed7ba4	0.007247405
55	0x3d116dd2	0.035505123
56	0x3ab7f0a3	0.0014033507
57	0xbdda0864	-0.10646132
58	0x3dfa61e1	0.122257
59	0xbd505338	-0.050860614
60	0xbe064c9e	-0.13115165
61	0x3dd75a85	0.10515312
62	0x3de46303	0.111516975
63	0xbe1885df	-0.14894818
64	0x3d33a3ac	0.04385726
65	0xbca77e7c	-0.020446055
66	0x3de9495c	0.11390945
67	0x3d8af5d8	0.06785172
68	0xbcf17cb1	-0.029478403
69	0xbe178dfb	-0.14800255
70	0xbe148759	-0.14504756
71	0x3e85da40	0.26143074
72	0xbd7c4ee3	-0.06159867
73	0x3e68fd35	0.22752841
74	0xbe5c2a98	-0.21500623
75	0xbd0714c5	-0.03297879
76	0xbd4f74ad	-0.05064838
77	0x3e31db42	0.17368796
78	0x3d0b1e08	0.033964187
79	0x3d9d9dba	0.076960996
80	0xbdb470fb	-0.08810612
81	0x3d182ba2	0.037150986
82	0x3e43e055	0.19128545
83	0x3dc23f3c	0.09484717
84	0xbda32dec	-0.07967743
85	0xbe3b0739	-0.18264474
86	0x3d686ad5	0.056742508
87	0x3ef51127	0.4786465
88	0x3e7ee872	0.24893358
89	0x3d868f6a	0.06570323
90	0xbc9bc94d	-0.019016886
91	0x3e8129a1	0.25227073
92	0x3ebe8f37	0.3721864
93	0x3e82700c	0.2547611
94	0x3d4c0e4d	0.049818326
95	0xbde8acc1	-0.11361075
96	0x3e389df4	0.18029004
97	0x3e371ff7	0.17883287
98	0x3e1ff374	0.15620214
99	0xbd48c88d	-0.049019385
100	0xbd7868e8	-0.06064692
101	0x3b5e2e75	0.0033902202
102	0x3cf0d3fd	0.029397959
103	0x3d632d69	0.05546323
104	0x3d6c3de3	0.057676207
105	0xbda4a64f	-0.08039533
106	0xbcca6c57	-0.024709864
107	0x3ded370f	0.11582767
108	0x3e15816e	0.14600155
109	0x3d95e331	0.07318724
110	0xbe0eff91	-0.13964678
111	0xbe3104ac	-0.17286938
112	0x3e4938cb	0.19650571
113	0x3e9fd893	0.3121992
114	0x3e501d79	0.20323743
115	0xbd293a8b	-0.041315597
116	0xbdc79539	-0.09745259
117	0x3e826360	0.25466442
118	0x3e1f6470	0.15565658
119	0x3d8f0561	0.06983448
120	0xbd9f19f2	-0.077686206
121	0xbdb099c1	-0.08623076
122	0x3dd811fa	0.10550304
123	0x3e0e20c2	0.13879684
124	0xbd3f8ce2	-0.046765216
125	0x3d28e74c	0.041236207
126	0xbc87d7a3	-0.016582316
127	0x3e4c5789	0.19955267
128	0xbdad39e1	-0.08458305
129	0x3ce2d006	0.027687084
130	0x3de95cb2	0.11394633
131	0x3d599667	0.05312195
132	0x3d74d3a3	0.059772145
133	0x3e572aab	0.2101237
134	0xbd060468	-0.032719046
135	0x3d601947	0.054711606
136	0x3e028bc9	0.12748636
137	0x3e935b13	0.28780422
138	0xbdd773ff	-0.105201714
139	0xbb066005	-0.002050401
140	0xbd161d28	-0.0366489
141	0x3e37e8a8	0.17959845
142	0x3db30a02	0.08742143
143	0x3cbb82f2	0.022889588
144	0xbe2f9936	-0.17148289
145	0xbd2af35d	-0.041735996
146	0x3e2b35ae	0.16719696
147	0xbe86d14d	-0.2633156
148	0x3d7e7fb4	0.062133506
149	0xbe47aad2	-0.19498757
150	0x3da6bbe8	0.08141309
151	0xbd0d28a2	-0.03446258
152	0xbd26f6a4	-0.04076256
153	0x3dd38433	0.103279494
154	0x3da1da7e	0.07903002
155	0x3e055c53	0.130235
156	0x3d00b608	0.0314236
157	0x3e5b1cdb	0.21397726
158	0x3e3a5efd	0.18200298
159	0xbd31d40f	-0.043415125
160	0xbdd3d6d4	-0.103437096
161	0xbcb8d847	-0.022564067
162	0xbe34a485	-0.17640884
163	0x3d1cd605	0.038290042
164	0x3df43d1e	0.1192572
165	0x3d817392	0.063208714
166	0xbe3d405c	-0.18481582
167	0xbe0167d9	-0.12637271
168	0xbe37ead0	-0.17960668
169	0xbdec706c	-0.1154488
170	0xbcb1b20d	-0.021691347
171	0x3c2c8689	0.010530123
172	0xbd783ace	-0.060602956
173	0x3e262e57	0.16228615
174	0xbe0fcf83	-0.14044003
175	0x3d951bbf	0.07280683
176	0x3d5f801c	0.054565534
177	0x3d8e6963	0.06953695
178	0x3e6c1b3f	0.23057269
179	0xbc532e07	-0.012889392
180	0x3d0fbdd9	0.035093162
181	0x3d636fe0	0.055526614
182	0xbd837fc5	-0.064208545
183	0xbe79b040	-0.2438364
184	0xbd978fda	-0.074004844
185	0xbd66abad	-0.056316067
186	0xbe381e0f	-0.17980216
187	0xb9f019bc	-0.0004579554
188	0x3e1ad3c9	0.15119852
189	0xbe47247e	-0.19447514
190	0x3e797a2e	0.24363014
191	0x3dd8efe3	0.1059263
192	0xbd9c5df6	-0.07635109
193	0x3e178478	0.14796627
194	0x3d45050e	0.048100524
195	0x3c18b8f3	0.009321439
196	0xbdfcc256	-0.12341754
197	0x3e94890c	0.29010808
198	0xbd5e611c	-0.05429183
199	0x3e0e06ce	0.13869783
200	0xbd493ef2	-0.049132295
201	0xbe922bca	-0.28549033
202	0xbd90ed4c	-0.07076511
203	0x3c87ebd3	0.016591942
204	0xbdf9071a	-0.12159558
205	0x3da77db7	0.08178275
206	0xbe38f9b6	-0.18064007
207	0xbde4b95d	-0.11168168
208	0xbe384def	-0.1799848
209	0xbe97c23c	-0.29640377
210	0xbe42e0c6	-0.19031057
211	0xbe285330	-0.16437984
212	0xbd5f2702	-0.05448056
213	0xbe323ca5	-0.17405947
214	0xbe349c18	-0.1763767
215	0xbc61f2c1	-0.013790787
216	0x3d0bcb42	0.03412939
217	0xbe031db8	-0.12804306
218	0xbc2663cc	-0.010155629
219	0xbdd86d68	-0.105677426
220	0xbd8c11ce	-0.068393335
221	0xbd323d3d	-0.043515433
222	0x3da82ab7	0.08211272
223	0xb723df45	-9.767541e-06
224	0x3ddebcac	0.1087583
225	0xbd247d40	-0.04015851
226	0xbda65d65	-0.08123282
227	0xbe2645cb	-0.16237561
228	0xbde06234	-0.10956231
229	0xbe288b69	-0.16459431
230	0xbe0f5d38	-0.14000404
231	0xbe276dd9	-0.16350497
232	0xbdc211d4	-0.09476057
233	0xbe7b4329	-0.24537338
234	0xbdc0560a	-0.09391411
235	0xbe0ae88a	-0.13565269
236	0xbe28aad8	-0.16471422
237	0xbe290e3e	-0.16509339
238	0xbe756203	-0.2396317
239	0xbd95c709	-0.073133536
240	0x3d1083ea	0.035282053
241	0xbe4a7ab4	-0.1977337
242	0xbe483191	-0.19550158
243	0xbe13e355	-0.14442189
244	0xbdc7f0e5	-0.09762744
245	0x3b57f074	0.0032949718
246	0x3d5c6869	0.05381051
247	0xbdfcc6b0	-0.12342584
248	0xbbf257cb	-0.0073957196
249	0xbe04247d	-0.12904544
250	0x3dd0a8e2	0.10188462
251	0xbb8b52b6	-0.0042518033
252	0xbe44ce29	-0.19219269
253	0xbda4ea69	-0.08052523
254	0xbdbd1f80	-0.09234524
255	0xbe126ca6	-0.14299259

autoencoder.decoder.4.bias f4 [8]
0	0xbf245fa9	-0.64208466
1	0xbef0aab8	-0.47005248
2	0xbf113327	-0.5671868
3	0xbf195f6c	-0.5991123
4	0xbf0175e7	-0.5057053
5	0xbf1e6572	-0.61873543
6	0xbf15ca8e	-0.585122
7	0xbf190eed	-0.597884

autoencoder.decoder.6.weight f4 [8, 1, 2, 2]
0	0xbe8a0839	-0.26959398
1	0xbe683a08	-0.22678387
2	0xbeddbc39	-0.43307665
3	0xbec6f3c7	-0.38857862
4	0xbee27dc9	-0.4423659
5	0x3d9d38b8	0.07676834
6	0xbe8ea20e	-0.27858013
7	0x3e814235	0.25245824
8	0xbe710ff0	-0.23541236
9	0xbdf7340d	-0.12070475
10	0xbf08ed45	-0.53487045
11	0xbed4e7dc	-0.41583145
12	0x3ec603ce	0.38674778
13	0x3f63fb53	0.89055365
14	0x3ebb645c	0.36600006
15	0x3f611be0	0.8793316
16	0x3f4768e6	0.7789444
17	0x3d63642b	0.05551545
18	0x3f4c1112	0.7971355
19	0x3d75a9e0	0.05997646
20	0xbdd4912a	-0.1037925
21	0xbf04a66a	-0.5181643
22	0x3e4716f6	0.19442353
23	0xbe6eba98	-0.23313367
24	0xbed7cba1	-0.42147544
25	0xbe3d959a	-0.185141
26	0xbeab02cb	-0.33400568
27	0xbdbd33ea	-0.092384174
28	0xbe34d89e	-0.17660758
29	0xbedb8064	-0.42871392
30	0xbe85c42e	-0.26126236
31	0xbf04ddb9	-0.5190082
