test_runs/14/model_state.pth (torch, 882022 bytes, 20 tensors)

autoencoder.encoder.1.weight f4 [100, 784]
-1.006753e-39 4.1451e-40 -2.009126e-39 -1.278545e-39 -1.548988e-39 -1.985682e-39 -9.00745e-40 1.321988e-39
-1.886376e-39 -3.99053e-40 -1.459152e-39 -1.425835e-39 8.07029e-14 2.5223535e-06 -6.524907e-13 -1.1113251e-14
-9.90082e-40 -1.979286e-39 1.126348e-39 1.088503e-39 -2.65142e-40 1.852735e-39 1.075698e-39 1.402906e-39
6.38254e-40 7.09836e-40 1.175199e-39 1.337232e-39 8.67199e-40 9.53261e-40 8.81466e-40 1.198629e-39
5.695389e-13 0.010367556 0.008528231 -0.0012737045 0.0074716196 0.0035148882 0.0008140048 0.0003010125
0.004468186 -0.0006960582 0.004030749 0.002820842 -0.0012842244 -0.005806065 -0.010138867 -0.005284263
0.0011670506 0.0003746004 4.0896997e-05 -7.302786e-07 4.98373e-40 1.103033e-39 -7.82248e-40 -1.306257e-39
-3.19743e-40 -9.02243e-40 8.810297e-09 -0.00611015 -0.0012195766 0.010779636 0.007194656 -0.0012061481
-0.03358754 -0.040914994 -0.042409834 -0.033040382 -0.0056455065 -0.0023536815 -0.0061727497 -0.004211327
-0.007585817 -0.009628013 -0.009133109 -0.008494406 -0.008912422 -0.012672925 -0.007910779 -0.006666114
-0.0005199399 -5.4393113e-05 -1.889502e-39 -1.67922e-40 6.33659e-40 -9.33936e-40 -0.0001027449 -0.006670941
-0.004301199 0.00917969 0.015639398 -0.020615479 -0.043055907 -0.036522385 -0.047963426 -0.05603441
-0.012283523 -0.0044611967 -0.029274112 -0.047055155 -0.054064807 -0.05885425 -0.058150314 -0.050531518
-0.0034287046 -0.015541951 -0.025154566 -0.0029020638 0.009412251 0.00021256084 1.3108615e-08 -1.593638e-39
6.87473e-40 4.7964615e-11 0.0004179328 0.02124405 0.025819872 0.029444735 0.022674887 -0.016328728
-0.030845676 -0.039114926 -0.05387392 -0.044135217 -0.041930344 -0.03318151 -0.024145165 -0.06347122
-0.05187119 -0.018122772 -0.04642908 -0.046921726 -0.0071468474 -0.012449018 -0.005716999 1.9043377e-05
-0.011663454 0.0031573798 -5.2485848e-05 0.00012503576 -5.97109e-40 1.2892622e-15 0.0006929139 0.0014403508
0.019031852 0.028621068 0.038606416 0.021090262 -0.020814354 -0.031955257 0.0058845296 0.026831219
0.010868063 0.004874488 -0.016209366 -0.015695458 0.027627146 0.099624135 0.11578293 0.01940022
0.025615077 0.060732182 0.03221547 0.006738043 0.020921625 -0.006516629 0.0005310532 -0.0005377776
-6.1212e-41 9.301902e-10 -0.007277018 -0.0016666398 0.008281649 0.040517777 0.04390938 0.006968033
0.02022981 -0.0094560785 0.026430855 0.05653148 0.01896373 -0.058340285 -0.14334685 -0.16600747
-0.11925331 -0.023763908 0.030776145 0.056871515 0.10736245 0.06368211 -0.0091481265 -0.014178345
-0.006966557 -0.0060846447 0.0018308435 0.0058192206 0.00011830323 -0.0023081745 -0.018237395 0.016954666
0.049106196 0.076101765 0.076765105 0.056912333 0.08166905 0.0282677 0.036646843 -0.012724512
-0.071307614 -0.13438569 -0.20244892 -0.22152574 -0.19458286 -0.12019852 -0.050684154 0.050418597
0.10351183 0.002794997 -0.04691563 -0.09271614 -0.072712936 -0.014618321 -0.008820789 0.0023933838
0.00040938304 -0.025487006 -0.03246851 0.025075238 0.07207079 0.09863617 0.041312095 -0.008924804
0.030885039 0.034140054 -0.03062254 -0.07235519 -0.14381991 -0.18703155 -0.2061772 -0.18844345
-0.106394656 -0.045295753 0.013159273 0.08139536 0.0110220425 -0.10098462 -0.07984793 -0.09489853
-0.079715386 -0.016692081 0.0012614795 0.0020858096 0.0005214515 -0.017133458 -0.03996537 0.002662321
00000000: 6bf6 0a80 7c83 0400 a0e0 1580 10ec 0d80
00000010: f3dd 1080 469f 1580 e9ce 0980 2a65 0e00
00000020: 738a 1480 6658 0480 86e3 0f80 a686 0f80
00000030: 0eba b529 b445 2936 e9a8 37ab d332 48a8
00000040: f2c7 0a80 728d 1580 cd43 0c00 4eda 0b00
00000050: 1ce3 0280 ac2c 1400 9cb6 0b00 bb46 0f00
00000060: 31f3 0600 bcba 0700 facb 0c00 a98f 0e00
00000070: 6671 0900 4e61 0a00 2b99 0900 4a0d 0d00
00000080: 9a4f 202b aedc 293c feb9 0b3c 6ef2 a6ba
00000090: 7dd4 f43b 0a5a 663b f062 553a 37d1 9d39
000000a0: dc69 923b ad77 36ba 6014 843b e0dd 383b
000000b0: 6c53 a8ba ce40 bebb 7e1d 26bc 9c27 adbb
000000c0: b8f7 983a 0466 c439 d188 2b38 5d08 44b5
000000d0: 436d 0500 cf02 0c00 9784 0880 5039 0e80
000000e0: 507b 0380 16d3 0980 195c 1732 a737 c8bb
000000f0: 33da 9fba 129d 303c 26c1 eb3b 9d17 9eba
00000100: 1793 09bd 7b96 27bd efb5 2dbd 5a55 07bd
00000110: f1fd b8bb 3940 1abb c744 cabb 2cff 89bb
00000120: 7292 f8bb d0be 1dbc 09a3 15bc 1f2c 0bbc
00000130: 6805 12bc 1aa2 4fbc 369c 01bc 6b6f dabb
00000140: 934c 08ba 2924 64b8 2a93 1480 19d4 0180
00000150: 62e6 0600 6f2b 0a80 c078 d7b8 e997 dabb
00000160: 13f1 8cbb 6966 163c 321e 803c cbe1 a8bc
00000170: 645b 30bd 7f98 15bd 4c75 44bd 5684 65bd
00000180: d440 49bc 3b2f 92bb 43d0 efbc e8bc 40bd
00000190: 0f73 5dbd 2711 71bd 062f 6ebd 23fa 4ebd
000001a0: 1eb4 60bb aba3 7ebc f310 cebc 8d30 3ebb
000001b0: d835 1a3c dee2 5e39 4c34 6132 6a5a 1180
000001c0: 657c 0700 5bf3 522e fe1d db39 0008 ae3c
000001d0: 3284 d33c 1636 f13c afc0 b93c d3c3 85bc
000001e0: 12b0 fcbc f936 20bd e6aa 5cbd 21c7 34bd
000001f0: 27bf 2bbd 56e9 07bd 15cc c5bc 33fd 81bd
00000200: e376 54bd 3576 94bc 6b2c 3ebd ff30 40bd
00000210: 1a30 eabb f7f6 4bbc aa55 bbbb 57bf 9f37
00000220: 1218 3fbc 0bec 4e3b 4024 5cb8 081c 0339
00000230: 7f80 0680 61cd b926 aaa4 353a 27ca bc3a
00000240: b0e8 9b3c bb76 ea3c c321 1e3d 7cc5 ac3c
00000250: dd82 aabc 84e3 02bd 03d3 c03b 25cd db3c
00000260: f60f 323c 2bba 9f3b 81c9 84bc c393 80bc
00000270: 5352 e23c bd07 cc3d 9a1f ed3d 36ed 9e3c
00000280: b6d6 d13c 4fc2 783d 5ef4 033d cdca dc3b
00000290: d463 ab3c 7289 d5bb 6136 0b3a a5f9 0cba
000002a0: a2aa 0080 51b0 7f30 0d74 eebb 2773 daba
000002b0: c1af 073c f8f5 253d 52da 333d 1954 e43b
000002c0: fdb8 a53c abed 1abc 8585 d83c 8e8d 673d
000002d0: d359 9b3c 39f6 6ebd 84c9 12be ddfd 29be
000002e0: 143b f4bd 87ac c2bc 411e fc3c 1bf2 683d
000002f0: d8e0 db3d c46b 823d 06e2 15bc 4a4c 68bc
00000300: b747 e4bb b361 c7bb eaf8 ef3a 29af be3b
00000310: 9019 f838 be44 17bb 9766 95bc 83e4 8a3c
00000320: 9423 493d 3edb 9b3d 0637 9d3d e81c 693d
00000330: 1a42 a73d aa91 e73c 001b 163d 797a 50bc
00000340: ba09 92bd 679c 09be c54e 4fbe a5d7 62be
00000350: bb40 47be a42a f6bd 309a 4fbd bb83 4e3d
00000360: 03fe d33d 452c 373b 9b2a 40bd f6e1 bdbd
00000370: 85ea 94bd af81 6fbc 1285 10bc 51da 1c3b
00000380: 76a2 d639 20ca d0bc b3fd 04bd 966a cd3c
00000390: da99 933d c301 ca3d df36 293d 5739 12bc
000003a0: 9f02 fd3c 71d6 0b3d 1fdc fabc f52e 94bd
000003b0: 8745 13be 3385 3fbe 1e20 53be 52f7 40be
000003c0: 71e5 d9bd 0a88 39bd fe99 573c 9cb2 a63d
000003d0: cc95 343c 06d1 cebd 5087 a3bd 295a c2bd
000003e0: d241 a3bd d5bd 88bc 3a58 a53a 14b2 083b
000003f0: 05b2 083a 775b 8cbc bab2 23bd 567a 2e3b

autoencoder.encoder.1.bias f4 [100]
0.1612172 -0.0348221 -0.018091692 0.037199467 0.0120832855 0.007188785 -0.026102412 -0.071972094
0.1418662 -0.0401384 -0.18483707 0.03435102 -0.15889832 -0.045476846 -0.003332387 -0.022687232
-0.25624937 -0.0072229966 0.008356553 -0.266004 -0.011987256 0.13168855 0.00030656916 -0.04052317
0.21347643 -0.5072789 -0.02289889 -0.16274093 -0.007929534 0.0001342685 0.0030422844 -0.05415506
-0.14856677 0.046583395 -0.023678467 -0.10226301 -0.024739036 -0.21137147 -0.0179475 0.0018959069
0.09502007 -0.13691802 0.037595224 -0.0027088681 0.011862246 -0.1454383 -0.023845984 -0.14182964
0.11867176 -0.0026363325 0.013884286 0.19635653 -0.06334097 -0.046368822 -0.023651851 -0.011753092
-0.22900599 -0.0060465266 -0.011235285 -0.1703365 0.07098331 -0.18744269 -0.14879484 0.107995525
-0.060083985 0.09401002 -0.008893725 -0.011515529 0.0106247 -0.00971065 -0.24050996 -0.0016352155
-0.14937656 0.083242744 -0.016244352 -0.07541527 -0.23553056 -0.043505017 -0.19038054 0.10486999
-0.14828824 0.004749113 -0.015700292 0.079512514 -0.029128965 0.15500416 -0.4111803 -0.016740624
-0.028157255 0.007644096 -0.09283216 0.003746697 -0.1244919 -0.02212263 0.029405339 0.0985187
-0.062012438 0.14393105 -0.15157647 0.039508794
00000000: 1f16 253e 9ea1 0ebd 0735 94bc 785e 183d
00000010: f9f8 453c e68f eb3b bad4 d5bc 1b66 93bd
00000020: 6045 113e 2a68 24bd ee45 3dbe a8b3 0c3d
00000030: 3eb6 22be ee45 3abd 2d64 5abb 93da b9bc
00000040: 1e33 83be e3ae ecbb ece9 083c ad31 88be
00000050: 3266 44bc 5dd9 063e 04bb a039 a0fb 25bd
00000060: 9199 5a3e 08dd 01bf 7496 bbbc 8fa5 26be
00000070: e0ea 01bc 6dca 0c39 1061 473b b2d1 5dbd
00000080: e321 18be 3bce 3e3d 58f9 c1bc 456f d1bd
00000090: 85a9 cabc c371 58be a306 93bc 1480 f83a
000000a0: e299 c23d 3d34 0cbe 73fd 193d 4487 31bb
000000b0: de59 423c c7ed 14be a758 c3bc ca3b 11be
000000c0: 2e0a f33d 52c6 2cbb eb7a 633c b011 493e
000000d0: e9b8 81bd 3ced 3dbd 87c1 c1bc 0a90 40bc
000000e0: 8c80 6abe f121 c6bb 3314 38bc b16c 2ebe
000000f0: b35f 913d faf0 3fbe ad5d 18be c22c dd3d
00000100: a01a 76bd 5388 c03d fdb6 11bc a1ab 3cbc
00000110: 3913 2e3c 6b19 1fbc 3e48 76be ba54 d6ba
00000120: 2bf6 18be 2c7b aa3d e012 85bc 5273 9abd
00000130: ec2e 71be 5132 32bd 1ef3 42be 14c6 d63d
00000140: dfd8 17be 739e 9b3b e69d 80bc 75d7 a23d
00000150: de9f eebc 69b9 1e3e 3986 d2be a223 89bc
00000160: 0baa e6bc 537b fa3b ca1e bebd 258b 753b
00000170: 9cf5 febd 853a b5bc 77e3 f03c 2cc4 c93d
00000180: c100 7ebd a962 133e dd36 1bbe f9d3 213d

autoencoder.encoder.3.weight f4 [100, 100]
0.055901874 -0.005506799 0.005570204 0.023827238 -0.103409 -0.007539504 0.02335246 0.049253654
-0.0064233774 -0.008471115 -0.058514338 -0.03371275 -0.033163495 0.0037386222 0.011014938 0.0010608596
0.09261823 0.12638901 0.007414647 0.027347919 0.005618429 -0.0342047 -0.0003438977 0.042008553
-0.04905222 -0.2530716 0.003080857 -0.07163412 -0.0028287764 0.018572316 -0.004242921 0.0048468257
-0.07595137 0.10731841 0.020221023 -0.051727448 0.012735085 -0.052356303 0.0035789434 0.028657066
0.091790795 -0.008611372 -0.038172033 0.040587083 0.031961918 0.12106294 -0.030575411 -0.046908516
-0.02383223 -0.012121372 0.14842455 -0.019682862 0.016763594 -0.010243696 0.019988244 0.006330566
0.049619988 -0.006963446 -0.009011987 -0.058881115 -0.06388279 -0.025830572 -0.07994129 0.018832775
0.08662271 -0.10628526 0.003134296 0.006605505 0.0372411 0.0025537023 -0.055910785 0.0037734418
-0.0032144142 -0.03012434 -0.04054163 -0.1276616 -0.060789302 -0.0049328064 -0.06372012 -0.06660456
-0.0064710267 0.06456613 0.009308397 -0.01986959 0.0068333102 -0.00027055363 -0.011132448 -0.0011776314
0.034406204 -0.09485031 -0.03299412 0.005555789 -0.07689011 0.0053084022 0.045017906 0.06447401
-0.015459299 0.06463064 0.074992634 -0.007965589 0.087547585 -0.02237493 -0.023125952 -0.1248961
0.11580457 0.10638589 0.024477446 0.2813376 -0.20465371 -0.032412656 -0.20504847 0.066821
0.09105763 0.048444744 0.017018251 0.005746072 0.042034984 0.055915706 0.00630506 0.05085593
-0.0027853511 0.05796222 0.003136926 -0.09180894 -0.035717018 0.050341364 0.0037828386 0.036823917
-0.008627269 -0.0023976446 -0.0008303674 0.033475354 0.08065 -0.010013933 0.008544157 0.076195784
0.05628581 -0.012457775 0.008210179 -0.0745638 -0.018001698 0.0062445914 0.007914002 0.014303661
0.020980498 -0.0016330513 -0.027216423 -0.030507375 0.0382147 0.010668624 -0.013469982 -0.101823084
0.063212015 0.030344479 -0.001371098 0.056997046 0.090216026 0.0069533275 0.17538024 0.105042666
-0.040327996 0.047715403 0.10252733 0.07774806 -0.2909956 0.18335664 -0.005986831 0.08419077
-0.15908462 0.0047505205 -0.19127023 -7.77297e-06 -0.13765457 0.07028251 -0.03785245 -0.016333528
-0.016643895 0.12289313 -0.031775095 0.10488632 0.1656358 0.04440184 -0.023604903 0.061061688
-0.009235463 -0.15764444 -0.08374618 -0.0046248506 -0.03265008 0.11325332 0.018304791 0.013077447
0.0014837949 -0.022230912 0.10938132 -0.02498114 0.058954168 -0.10083461 0.025077965 0.11428217
0.0026181687 -0.0042474368 0.0014266704 0.0012837853 -0.0033739193 0.00013034049 0.00028434998 -0.0014791946
-0.001259585 4.3148e-06 -0.0014102989 -0.00055854424 0.0010139579 0.0017448122 0.00043021038 -0.0042978353
0.00044700765 -0.002912617 0.001136934 0.0019677 9.869679e-05 -0.0010057244 -0.0021849736 -0.0005139518
-0.006348827 0.00012995752 0.0015615025 -0.0015635109 -0.0022916154 -0.0015060578 -0.0026168167 0.002311991
-0.002497311 -0.0036785528 -0.00021997128 -0.001895202 0.0013661095 -0.0015675774 0.0012551703 -0.0013896539
-0.0039389087 -0.0030625686 -0.00016223281 -0.0023140034 -0.0012928647 0.002751072 0.00049098826 0.0027099606
0.0018337917 -0.00095191604 -0.00066514075 -0.001528872 0.0004612886 0.0037999959 0.0004340707 0.0018873757
00000000: 5df9 643d 6172 b4bb 4286 b63b 5731 c33c
00000010: 19c8 d3bd f20d f7bb a84d bf3c 33be 493d
00000020: 327b d2bb 6eca 0abc bbac 6fbd 6116 0abd
00000030: 72d6 07bd ac03 753b 0078 343c 8b0c 8b3a
00000040: a0ae bd3d 1f6c 013e 91f6 f23b be08 e03c
00000050: cc1a b83b 3a1a 0cbd 2b4d b4b9 2911 2c3d
00000060: fbea 48bd 9a92 81be 34e8 493b e9b4 92bd
00000070: fe62 39bb f824 983c 3308 8bbb 1fd2 9e3b
00000080: 648c 9bbd c1c9 db3d 8fa6 a53c 29e0 53bd
00000090: d1a6 503c 9073 56bd b58c 6a3b 39c2 ea3c
000000a0: d0fc bb3d b616 0dbc 475a 1cbd a43e 263d
000000b0: 80ea 023d d9ef f73d 4979 fabc 2523 40bd
000000c0: cf3b c3bc b898 46bc 9bfc 173e f43d a1bc
000000d0: ce53 893c 2dd5 27bc 63be a33c a370 cf3b
000000e0: 543e 4b3d 9e2d e4bb 03a7 13bc 532d 71bd
000000f0: fbd4 82bd a39a d3bc 42b8 a3bd 3147 9a3c
00000100: 3f67 b13d 16ac d9bd c368 4d3b fe72 d83b
00000110: 208a 183d 045c 273b b502 65bd d94b 773b
00000120: eca8 52bb 52c7 f6bc fb0e 26bd b9b9 02be
00000130: 34fe 78bd 61a3 a1bb b27f 82bd f967 88bd
00000140: e80a d4bb 3f3b 843d 3f82 183c 8dc5 a2bc
00000150: f6e9 df3b 18d9 8db9 df64 36bc c15a 9aba
00000160: 85ed 0c3d e140 c2bd d824 07bd 560d b63b
00000170: 9078 9dbd 1bf2 ad3b b264 383d f30a 843d
00000180: 0049 7dbc 125d 843d bd95 993d 1a82 02bc
00000190: 264c b33d a14b b7bc a372 bdbc 87c9 ffbd
000001a0: f22a ed3d d8e0 d93d ed84 c83c 7b0b 903e
000001b0: be90 51be 22c3 04bd 3af8 51be 73d9 883d
000001c0: 6c7c ba3d ff6d 463d dc69 8b3c 8c49 bc3b
000001d0: e02c 2c3d de07 653d ad9a ce3b 4f4e 503d
000001e0: 708a 36bb cb69 6d3d e394 4d3b 5306 bcbd
000001f0: 024c 12bd bf32 4e3d 80e9 773b add4 163d
00000200: 6459 0dbc cd21 1dbb 03ad 59ba 741d 093d
00000210: d42b a53d 7b11 24bc cbfc 0b3c 890c 9c3d
00000220: f38b 663d b21b 4cbc fd83 063c e8b4 98bd
00000230: 4c78 93bc 6e9f cc3b bba9 013c e759 6a3c
00000240: 4bdf ab3c 1c0c d6ba faf4 debc 9aea f9bc
00000250: 0487 1c3d 74cb 2e3c 33b1 5cbc 9f88 d0bd
00000260: 4d75 813d fc94 f83c 6ab6 b3ba bc75 693d
00000270: 2ec3 b83d bdd8 e33b e196 333e 9c20 d73d
00000280: f82e 25bd 3a71 433d d9f9 d13d 603a 9f3d
00000290: 60fd 94be d8c1 3b3e 2e2d c4bb 366c ac3d
000002a0: 14e7 22be 41aa 9b3b 58dc 43be a768 02b7
000002b0: 52f5 0cbe 47f0 8f3d 2c0b 1bbd e4cd 85bc
000002c0: c758 88bc 65af fb3d 9a26 02bd a4ce d63d
000002d0: 6e9c 293e b4de 353d 125f c1bc d21b 7a3d
000002e0: 5750 17bc 8b6d 21be 1e83 abbd 0f8c 97bb
000002f0: 17bc 05bd 5bf1 e73d eef3 953c ca42 563c
00000300: e57b c23a 9a1d b6bc 5003 e03d 3fa5 ccbc
00000310: ed79 713d 6082 cebd 4e70 cd3c c50c ea3d
00000320: 9595 2b3b 152e 8bbb 1dff ba3a b044 a83a
00000330: f91c 5dbb 02ac 0839 cf14 9539 89e1 c1ba
00000340: a918 a5ba dac7 9036 c7d9 b8ba 456b 12ba
00000350: c8e6 843a 2fb2 e43a dc8d e139 dbd4 8cbb
00000360: 5a5c ea39 9be1 3ebb 2d05 953a 87f4 003b
00000370: 70fb ce38 83d2 83ba c631 0fbb b9ba 06ba
00000380: d209 d0bb 3545 0839 54ab cc3a b8ee ccba
00000390: ed2e 16bb ea66 c5ba e67e 2bbb c684 173b
000003a0: eda9 23bb e013 71bb 17a8 66b9 6d68 f8ba
000003b0: 070f b33a 2b77 cdba 8784 a43a 0c25 b6ba
000003c0: f611 81bb 60b5 48bb 0a1d 2ab9 89a6 17bb
000003d0: 5775 a9ba 544b 343b aab5 003a 9899 313b
000003e0: d75b f03a 018a 79ba d75c 2eba 6e64 c8ba
000003f0: 1cd9 f139 5a09 793b fc93 e339 d261 f73a

autoencoder.encoder.3.bias f4 [100]
0.028502673 -0.036547698 0.0021609894 0.00028875598 0.10051251 -0.019769238 0.010344025 -0.01861213
0.0012618641 -0.12711735 0.0305528 -0.15560828 -0.038385414 -0.0005114864 -0.01567811 0.010314314
0.007998113 0.076395124 -0.23309521 -0.050817218 0.028042996 0.0054778117 -0.00070660847 -0.03115126
-0.12140108 0.05103376 0.05333582 -0.10984426 0.04303269 0.0042672115 0.30712172 -0.0016107002
-0.0007820638 -0.03399106 -0.12903215 -0.08997278 0.042792242 0.004612106 0.0020869577 0.024711182
-0.08672085 -0.24547112 0.0022138278 0.08786825 0.020087946 -0.0030586796 0.0027481932 0.007231853
0.0054725963 0.11914042 -0.050340924 -0.05715032 -0.04646995 -0.055585396 -0.00026776764 -0.0020357328
-0.003955447 0.11429881 -0.03745137 -0.11550777 -0.037347313 -0.0015176447 -0.0008417849 -0.0048232344
-0.013666812 0.00049490185 0.004302524 0.013562497 -0.0001102751 -0.002170629 0.00097059924 0.0015802396
-0.0936268 -0.0718082 0.05366489 -0.015436697 0.064746015 -0.007973131 -0.0013146386 0.0012845381
-0.044653755 -0.00017636483 0.06521012 -0.16368267 0.0023440178 0.026107153 0.010351384 -0.091913685
-0.009378805 -0.030899974 -0.054113887 -0.15176405 0.0014377626 0.05149954 0.20273294 0.0015399933
0.11865047 -0.049385156 -0.12358486 0.0026671595
00000000: 707e e93c 0ab3 15bd 639f 0d3b 2c64 9739
00000010: 81d9 cd3d 19f3 a1bc fc79 293c 7778 98bc
00000020: 2265 a53a 0d2b 02be de49 fa3c c757 1fbe
00000030: 063a 1dbd 4515 06ba 616f 80bc 5efd 283c
00000040: 840a 033c 0c75 9c3d 83b0 6ebe b725 50bd
00000050: 6dba e53c 377f b33b b13b 39ba ed30 ffbc
00000060: 21a1 f8bd c708 513d a976 5a3d 07f6 e0bd
00000070: 0c43 303d f7d3 8b3b 0f3f 9d3e 211e d3ba
00000080: 6a03 4dba 363a 0bbd 0121 04be a643 b8bd
00000090: eb46 2f3d 2621 973b 57c5 083b 1b6f ca3c
000000a0: b39a b1bd c85c 7bbe de15 113b 45f4 b33d
000000b0: 7a8f a43c 2174 48bb 081b 343b 2ef9 ec3b
000000c0: 7753 b33b e4ff f33d 4932 4ebd 7416 6abd
000000d0: 4657 3ebd 83ad 63bd 2a63 8cb9 ee69 05bb
000000e0: b29c 81bb 7f15 ea3d 9c66 19bd 568f ecbd
000000f0: 7ff9 18bd b5eb c6ba 3aab 5cba 390c 9ebb
00000100: c4ea 5fbc 4dbc 013a 30fc 8c3b 3c35 5e3c
00000110: 7e43 e7b8 1d41 0ebb d06f 7e3a 0b20 cf3a
00000120: 68bf bfbd 2d10 93bd b7cf 5b3d 33ea 7cbc
00000130: 8f99 843d bca1 02bc f44f acba f25d a83a
00000140: dbe6 36bd 93ee 38b9 e28c 853d 6e9c 27be
00000150: 189e 193b abde d53c da98 293c 3e3d bcbd
00000160: 8fa9 19bc f121 fdbc 86a6 5dbd 0968 1bbe
00000170: 4f73 bc3a 2ff1 523d 3999 4f3e 9ad9 c93a
00000180: 05ff f23d 1748 4abd 0f1a fdbd 83cb 2e3b

autoencoder.encoder.5.weight f4 [100, 100]
-0.00048554008 0.0004910335 0.0008295875 0.0032953883 -0.0067155873 -0.0025056426 0.00683939 0.0005087893
0.001197648 0.0004991152 -0.017088404 -0.0004376913 0.0012505136 0.0021797556 -0.0019957684 -0.008382533
0.007988417 -0.0019233591 0.0002805041 0.00318224 -0.0063537857 0.0024062423 0.0036853915 0.0020579027
0.0015351153 -0.0023034534 -0.0015137631 0.0014882928 0.0015645045 0.0007158737 -0.014259173 1.8643594e-05
0.002366656 0.014069679 -0.002287702 -0.003822258 0.002253819 0.0023663503 0.000656292 0.004019829
0.00050319 -0.000188731 -0.0010146459 0.0011587577 -0.0022387395 0.0029027194 5.5447545e-05 0.0022358962
0.002267132 -0.0038270224 0.0035289137 0.00056203635 0.0018399043 -0.0016335088 0.0012666695 0.0007013922
-0.0022841655 -0.00029333704 0.0052779857 0.0012967775 0.00052265584 0.0031206708 0.004405773 -0.0002928642
0.0018852019 -0.0010395078 -0.0005388031 0.003952643 0.0011461376 0.003210272 0.0003134984 -0.00011112689
0.004094521 0.0037918868 -0.0016693069 0.0047552055 -0.0023191413 -0.0052833157 0.0028325638 -0.0009153559
0.003654287 0.0016023738 -0.001654695 0.002599167 0.00011730673 0.0010317671 0.0062434347 -0.003322343
0.0016838283 0.001279909 0.003378722 -0.0012824374 0.0017607947 -0.0002608599 -0.0019067524 0.0015537455
-0.0014308873 0.0038113575 0.0033229233 -0.0003443183 0.025483849 -0.07434596 0.0025030826 0.0014710684
-0.14789744 -0.0007998973 0.030469785 0.059207343 -0.0019492126 0.036851607 0.015684687 -0.018282933
-0.124261305 -0.0033766143 -0.01175673 -0.05678768 -0.10573264 -0.015156164 0.113204636 -0.0371892
0.040238354 0.013395068 0.003182401 -0.021758843 -0.07583575 0.002466169 0.036225513 -0.13425086
0.018649505 -0.0007092759 0.06601475 -0.0024705215 0.0047495193 -0.017034866 -0.06801692 -0.052500352
-0.006504918 -0.00050705473 0.009033749 -0.00417429 -0.015978787 -0.086413436 0.0010834464 0.0020960667
-0.005057338 0.00686537 0.0024685445 -0.039045874 0.0041851113 -0.09536508 0.1396122 -0.08221494
-0.024653383 0.070832245 -0.002844249 0.0008368841 0.025655791 0.07202046 0.038170155 -0.13003042
0.03294048 0.0014620227 0.0038651754 0.0080386335 0.06339598 -0.011706816 0.0013469273 0.036703672
-0.11597122 0.004034697 -0.006324496 0.0013907487 -0.0055659334 0.024902156 0.048957035 -0.12411518
-0.023870748 -0.019864568 0.002555723 0.0008750586 -0.009183596 -0.15336075 -0.0005370997 -0.030181114
-0.005970586 -0.056152117 -0.040289752 0.10920926 -0.17553611 -0.039422393 0.006762164 0.02875673
0.0035560622 -0.051424682 -0.022119366 -0.0011042843 -0.011682809 0.051950652 0.048280157 0.0020136307
-0.00044872123 -0.042464986 0.003571909 0.0010165045 0.029538129 -0.03129979 -0.06892244 -0.014138335
0.0038132744 -0.01590142 0.010204072 -0.07379966 -0.014713604 0.0031558152 0.055091098 0.024000404
-0.08741103 -0.008639526 -0.011147489 -0.02610927 -0.04204751 -0.029690135 -0.0056805243 0.0986551
-0.06967326 0.014190578 0.045478083 -0.12177726 -0.024780976 0.01096505 -0.0073402408 -0.0020358039
-0.0009336 -0.0044215615 -0.098297596 -0.009261536 0.02991606 0.004761154 -0.0035212515 -0.035368945
-0.13975188 6.742022e-05 0.008293419 -0.08259295 -0.048854634 -0.008458329 0.0043459027 0.0085557075
0.003005971 -0.0108666485 0.008344431 -0.0343081 -0.021762466 -0.044556294 0.00059415406 -0.005471116
00000000: 1690 feb9 b3b8 003a ad78 593a 71f7 573b
00000010: 6e0e dcbb b535 24bb f61c e03b 4660 053a
00000020: 66fa 9c3a 0ed7 023a fbfc 8bbc ef79 e5b9
00000030: 46e8 a33a 3bda 0e3b 70cb 02bb e456 09bc
00000040: d9e1 023c 3919 fcba 9f10 9339 218d 503b
00000050: 6b33 d0bb 0cb2 1d3b 9c86 713b e1dd 063b
00000060: ec35 c93a 89f5 16bb 7669 c6ba d212 c33a
00000070: 0f10 cd3a 79a9 3b3a 4e9f 69bc d064 9c37
00000080: e619 1b3b 8384 663c 45ed 15bb d97e 7abb
00000090: cfb4 133b c514 1b3b 030b 2c3a c5b8 833b
000000a0: 82e8 033a 18e6 45b9 defd 84ba 75e1 973a
000000b0: d1b7 12bb 8d3b 3e3b 5990 6838 1d88 123b
000000c0: 2a94 143b c8ce 7abb 5945 673b 9f55 133a
000000d0: f228 f13a 761b d6ba 6006 a63a a2dd 373a
000000e0: f0b1 15bb 08cb 99b9 f4f2 ac3b a2f8 a93a
000000f0: d702 093a 2b84 4c3b 4d5e 903b 918b 99b9
00000100: e118 f73a 1840 88ba 773e 0dba 2c85 813b
00000110: ff39 963a 6d63 523b 0b5d a439 cb0c e9b8
00000120: 552b 863b 4e81 783b a5cc daba 8ed1 9b3b
00000130: bcfc 17bb aa1f adbb 89a2 393b 7ff4 6fba
00000140: c37c 6f3b be06 d23a 5ae2 d8ba c956 2a3b
00000150: 9202 f638 5c3c 873a ba95 cc3b abbb 59bb
00000160: e7b3 dc3a 9fc2 a73a 8c6d 5d3b 7517 a8ba
00000170: 77ca e63a 06c4 88b9 feeb f9ba 0ca7 cb3a
00000180: 9c8c bbba f8c7 793b 67c5 593b 9f85 b4b9
00000190: 81c3 d03c b242 98bd c20a 243b ddd0 c03a
000001a0: 6d72 17be 33b0 51ba c59b f93c 6683 723d
000001b0: b97c ffba b6f1 163d 2c7d 803c 17c6 95bc
000001c0: b67c febd 304a 5dbb 4d9f 40bc 339a 68bd
000001d0: 5b8a d8bd 8f51 78bc d5d7 e73d b453 18bd
000001e0: f9d0 243d fd76 5b3c d48f 503b 9a3f b2bc
000001f0: c64f 9bbd 739f 213b 3461 143d 0f79 09be
00000200: d9c6 983c b3ee 39ba be32 873d 79e8 21bb
00000210: dba1 9b3b b48c 8bbc 744c 8bbd 9c0a 57bd
00000220: 3527 d5bb deeb 04ba 4a02 143c 7cc8 88bb
00000230: f2e5 82bc 87f9 b0bd 6e02 8e3a 2a5e 093b
00000240: 07b8 a5bb e6f6 e03b 4ec7 213b 91ee 1fbd
00000250: 4223 893b c44e c3bd 80f6 0e3e 4e60 a8bd
00000260: e4f5 c9bc 7f10 913d 9466 3abb 5762 5b3a
00000270: 182c d23c 777f 933d 4f58 1c3d b226 05be
00000280: 99ec 063d 57a1 bf3a e24e 7d3b 79b4 033c
00000290: c0d5 813d f2cd 3fbc 618b b03a 9756 163d
000002a0: 5282 edbd 7e35 843b b83d cfbb c849 b63a
000002b0: 6f62 b6bb 9bff cb3c 2c87 483d 1930 febd
000002c0: 968c c3bc 05bb a2bc eb7d 273b 3064 653a
000002d0: cb76 16bc 9a0a 1dbe 27cc 0cba 623e f7bc
000002e0: e8a4 c3bb c3ff 65bd de06 25bd 1ba9 df3d
000002f0: bdbf 33be 6079 21bd 2595 dd3b 3c93 eb3c
00000300: d30c 693b b0a2 52bd ac33 b5bc a2bd 90ba
00000310: 4169 3fbc 35ca 543d 6ac1 453d 1ef7 033b
00000320: 5842 ebb9 c4ef 2dbd b016 6a3b 3b3c 853a
00000330: f2f9 f13c 3534 00bd 3527 8dbd 7aa4 67bc
00000340: 21e8 793b b243 82bc fb2e 273c 4724 97bd
00000350: 5411 71bc cbd1 4e3b 34a7 613d 7f9c c43c
00000360: 8e04 b3bd cc8c 0dbc f5a3 36bc 1ce3 d5bc
00000370: 033a 2cbd ba38 f3bc b123 babb af0b ca3d
00000380: dbb0 8ebd 997f 683c 3a47 3a3d 5b66 f9bd
00000390: 7901 cbbc c1a6 333c 6786 f0bb 1f6b 05bb
000003a0: d6bc 74ba bfe2 90bb 4050 c9bd b3bd 17bc
000003b0: 8612 f53c 7403 9c3b ccc4 66bb 07df 10bd
000003c0: 1e1b 0fbe f463 8d38 1fe1 073c 7e26 a9bd
000003d0: cc1b 48bd ce94 0abc 1368 8e3b 3d2d 0c3c
000003e0: d3ff 443b 070a 32bc 15b7 083c a686 0cbd
000003f0: 3347 b2bc a980 36bd 01c1 1b3a 0c47 b3bb

autoencoder.encoder.5.bias f4 [100]
-0.0015312629 -0.06899477 0.0022306154 -0.11342945 0.00096385897 -0.0010861324 -0.00072238717 -0.11041036
-0.053856738 0.0013380684 0.012997814 -0.0025933841 0.002363822 0.0797806 0.06447875 -4.77618e-05
0.0013124006 0.031825997 0.028092617 -0.001674131 0.000661408 -0.00051826093 0.0015422335 -0.06377585
0.038342226 0.08027751 -0.0018760116 0.16265577 0.038522717 0.010533011 -0.00492062 -0.00013938674
0.0008192077 0.053096026 -0.0022617332 -0.18831526 0.0009378865 -0.06393394 0.0003534381 0.020143684
-0.09682104 -0.0006536058 -0.0014297029 -0.055493556 -0.12064349 -0.00081957196 0.11268627 -0.0012753153
0.29815814 0.00050622335 -0.0969617 0.02016647 -0.00025744998 -0.0014763167 0.09953645 0.0011533836
0.0006628732 -0.0007399584 0.037967127 0.057250235 0.00072266604 -0.00031186684 -0.120870754 -0.0028757153
-0.001362343 -0.07373579 0.06277804 -0.002474549 -0.002325897 -0.0007630903 -0.044555187 0.08836299
-0.09559355 0.0025612349 0.0002542399 -0.03884446 0.0008046028 -0.001123586 -0.005782518 -0.001007942
0.11864511 4.668922e-05 0.00023916902 -0.0019342189 -0.00092281157 -0.0031809267 -0.002564445 -0.0013676424
-0.00045941852 -0.043337915 0.0024288183 -0.124747016 -0.0010501817 0.050745394 -0.0028888637 0.0026150492
-0.00080492394 -0.001914541 0.00079276395 0.031259988
00000000: a8b4 c8ba 214d 8dbd 842f 123b b34d e8bd
00000010: 7bab 7c3a 8e5c 8eba 955e 3dba d41e e2bd
00000020: e298 5cbd 2062 af3a c9f4 543c c4f5 29bb
00000030: 5aea 1a3b 0364 a33d 6f0d 843d d853 48b8
00000040: db04 ac3a fa5b 023d 7d22 e63c 846e dbba
00000050: 5762 2d3a e7db 07ba c524 ca3a ea9c 82bd
00000060: bd0c 1d3d 8968 a43d 81e4 f5ba 3c8f 263e
00000070: ffc9 1d3d a692 2c3c 273d a1bb 5828 12b9
00000080: 19c0 563a 387b 593d 9639 14bb b7d5 40be
00000090: 7fdc 753a ccef 82bd a94d b939 5e04 a53c
000000a0: 1c4a c6bd be56 2bba de64 bbba 364d 63bd
000000b0: ef13 f7bd 8bd8 56ba 0fc8 e63d 7b28 a7ba
000000c0: 2fa8 983e 13b4 043a db93 c6bd 2734 a53c
000000d0: 5afa 86b9 f880 c1ba c4d9 cb3d 222d 973a
000000e0: abc4 2d3a c5f9 41ba 6b83 1b3d 397f 6a3d
000000f0: 4c71 3d3a 0f82 a3b9 168b f7bd 7f76 3cbb
00000100: a590 b2ba ca02 97bd c691 803d 0b2c 22bb
00000110: 146e 18bb 200a 48ba 807f 36bd a8f7 b43d
00000120: 8dc6 c3bd 64da 273b 804b 8539 5e1b 1fbd
00000130: fbeb 523a 4a45 93ba 477b bdbb ec1c 84ba
00000140: 35fc f23d 2bd4 4338 72c9 7a39 9e85 fdba
00000150: d6e8 71ba 1877 50bb 3f10 28bb 7742 b3ba
00000160: 1cde f0b9 1983 31bd cf2c 1f3b 5d7b ffbd
00000170: 40a6 89ba 67da 4f3d 1753 3dbb 3f61 2b3b
00000180: 8801 53ba 56f1 faba 7dd1 4f3a 790a 003d

autoencoder.encoder.7.weight f4 [100, 100]
0.0033358056 0.06132914 -0.03179726 0.051565476 -0.0025358421 0.00027715473 -0.0004614202 0.06519548
-0.045809228 -0.0018224192 -0.013014107 -0.00059722655 -0.003210185 -0.109004274 0.11199353 0.0008757419
-0.0004401404 -0.034624685 0.06110153 0.0015351255 0.0003797046 0.0010034958 0.0012070406 0.03549952
0.024700366 -0.020060716 -0.00051129115 -0.04376751 -0.025378551 -0.119126506 -0.00013149773 -0.0011873317
-0.003678792 -0.023787389 -0.00028774785 0.0030306599 -5.940401e-05 0.038995404 -0.001727883 -0.045013152
0.12949964 -0.0034852917 -0.0032738699 -0.054756343 0.0005043111 -0.0019722865 -0.049875375 -0.0006197319
-0.46280038 -0.0003536827 0.05582017 -0.07674749 -0.0002524004 0.0007529893 -0.08402388 -0.0016766804
0.0021227028 0.00069762534 -0.07057222 0.011089283 -0.08922492 -0.0010050965 0.021969447 -0.0031289563
-0.00035773724 0.16763154 -0.033339955 2.7900835e-06 0.0028985196 -0.0029935755 -0.017657878 -0.14528023
0.014026432 -0.0033725067 -0.0027461825 0.04646159 -0.001465495 0.0023412525 -0.052287575 0.00091405585
-0.008170541 -0.0002707892 -0.001625865 2.798582e-05 0.0017657885 0.0016979066 -0.0016556815 0.0024425597
-0.0004437768 -0.27345815 -0.0028309026 0.1090021 0.0016700712 0.06360784 0.0009401872 0.0022898302
0.0006595078 0.002870683 -0.0021143146 -0.020693423 0.00021588366 0.042033445 0.04186623 0.044757564
0.001062238 0.0018213037 0.0043405946 0.097858444 -0.061858393 0.0013939737 0.015261914 -0.0022005867
-6.426368e-05 -0.12798639 0.06070417 0.003301582 -0.009053013 -0.016744092 -0.10638092 -0.0043790718
-0.00093037833 0.002199106 -0.006727415 0.022360899 0.0055449447 -0.08106918 -0.0012321114 0.06983581
0.043912917 -0.28801516 -0.00013753973 0.0020151592 -0.0021723816 0.04087286 -0.008510266 -0.013508662
-0.009611595 -0.004593066 0.0020543167 -0.0034492342 -0.06319578 -0.003198287 -0.0044851797 -0.22024815
-0.06796309 0.0016033889 0.06057197 0.0035399965 -0.22666322 -0.00491298 -0.10371643 0.037196178
0.0031461136 -0.0019014716 -0.24848722 -0.001002874 -0.0032644249 -0.00061214325 -0.08466388 0.018818824
-0.034330532 0.0021485137 -0.0116862375 -0.0010580689 -0.0034677067 -0.048274085 0.114680216 -0.0014156034
-0.00398147 -0.0014640357 -0.014388636 -0.19864585 -0.006983576 0.0011205376 -0.002578753 -0.032466043
0.0030101223 0.0075372946 0.04660507 0.0028619182 0.058012333 0.0014206738 0.0032409213 -0.0018320231
0.00012260243 -0.0027766165 -0.004757909 0.0032530553 -0.00031609152 -0.16616085 -0.0031767613 -0.003036699
0.003302734 -0.0069554374 -0.004926372 0.0035618064 -0.004605737 0.0071317833 0.00250682 0.0321888
-0.003271125 -0.029152997 0.0015154539 -0.052278765 -5.227187e-05 -0.0010381972 -0.0034013728 0.008559712
0.07538744 0.029693138 0.02916672 -0.0015292402 0.0039309543 0.12848243 0.035628263 -0.004955213
0.0021230218 -0.01391286 0.03660015 -0.0007654033 -0.00096497376 -9.1086375e-05 0.0017456216 -0.029993514
-0.044545628 0.085297026 0.000988469 0.044769347 -0.053748325 0.12938055 -0.0039136973 -0.0024933752
0.0029132222 0.014123232 0.003895569 -0.021691317 0.0021217142 -0.12892886 0.00019763557 0.0482417
-0.07783682 0.0031334993 0.002617138 -0.109631486 -0.10897061 -0.0020809707 0.038743764 -0.0008952099
0.13673003 0.00067653164 0.12033008 -0.053072657 -0.0024104735 -0.0010582414 -0.033867754 0.0014879507
00000000: 889d 5a3b 4434 7b3d d83d 02bd 5236 533d
00000010: 5f30 26bb 144f 9139 c5ea f1b9 3585 853d
00000020: 75a2 3bbd 3ede eeba 1f39 55bc 328f 1cba
00000030: f861 52bb a23d dfbd dd5c e53d 0b92 653a
00000040: a5c2 e6b9 9dd2 0dbd 9945 7a3d 4436 c93a
00000050: 1713 c739 bb87 833a 9035 9e3a f267 113d
00000060: 6c58 ca3c 5f56 a4bc 2b08 06ba 9045 33bd
00000070: aee6 cfbc 99f8 f3bd a7e2 09b9 3ea0 9bba
00000080: e317 71bb c5dd c2bc dddc 96b9 099e 463b
00000090: 9228 79b8 a5b9 1f3d 227a e2ba b65f 38bd
000000a0: 8e9b 043e 7e69 64bb 6c8e 56bb 3048 60bd
000000b0: bf33 043a 7a41 01bb 1f4a 4cbd 8175 22ba
000000c0: 2cf4 ecbe 7d6e b9b9 b1a3 643d ca2d 9dbd
000000d0: 9c54 84b9 4264 453a b614 acbd 0fc4 dbba
000000e0: 0b1d 0b3b d8e0 363a 2b88 90bd d3af 353c
000000f0: 8ebb b6bd 71bd 83ba 45f9 b33c 2d0f 4dbb
00000100: ae8e bbb9 9aa7 2b3e 7a8f 08bd 453d 3b36
00000110: 17f5 3d3b dd2f 44bb 41a7 90bc 57c4 14be
00000120: 1fcf 653c 4605 5dbb 4cf9 33bb 824e 3e3d
00000130: da15 c0ba b36f 193b 7f2b 56bd 409d 6f3a
00000140: bcdd 05bc b6f8 8db9 fa1a d5ba 17c3 ea37
00000150: 0872 e73a 4b8c de3a 7403 d9ba 5a13 203b
00000160: b7aa e8b9 b502 8cbe aa86 39bb 7e3c df3d
00000170: 4ae6 da3a d444 823d e576 763a fa10 163b
00000180: d2e2 2c3a 1222 3c3b 5090 0abb 4185 a9bc
00000190: d45e 6239 432b 2c3d ed7b 2b3d b553 373d
000001a0: cb3a 8b3a d0b8 ee3a 8c3b 8e3b 026a c83d
000001b0: 3a5f 7dbd ffb5 b63a 1b0d 7a3c b837 10bb
000001c0: 4dc5 86b8 dd0e 03be f0a4 783d 5b5f 583b
000001d0: 1753 14bc e82a 89bc 3dde d9bd 517e 8fbb
000001e0: a2e4 73ba e01e 103b a671 dcbb 342e b73c
000001f0: 5eb2 b53b 9907 a6bd cc7e a1ba 1406 8f3d
00000200: 08de 333d b976 93be 8a38 10b9 c310 043b
00000210: 845e 0ebb 4d6a 273d a56e 0bbc 6f53 5dbc
00000220: f479 1dbc 6e81 96bb b7a1 063b 8c0c 62bb
00000230: ca6c 81bd 5a9a 51bb 6af8 92bb bb88 61be
00000240: 3c30 8bbd ce28 d23a 501a 783d 49ff 673b
00000250: 671a 68be 10fd a0bb 4869 d4bd 055b 183d
00000260: 072f 4e3b cd3a f9ba 6f73 7ebe de72 83ba
00000270: f6ef 55bb 3d78 20ba 4264 adbd ef29 9a3c
00000280: 2c9e 0cbd 14ce 0c3b a277 3fbc e7ae 8aba
00000290: 7742 63bb 0cbb 45bd 76dd ea3d c58b b9ba
000002a0: fe76 82bb e3e4 bfba 50be 6bbc d169 4bbe
000002b0: 7bd6 e4bb 01df 923a 4c00 29bb 1dfb 04bd
000002c0: 7945 453b 69fb f63b f5e4 3e3d 058f 3b3b
000002d0: 579e 6d3d e735 ba3a a365 543b 7f20 f0ba
000002e0: d78e 0039 e5f7 35bb 3ce8 9bbb 3631 553b
000002f0: 16b9 a5b9 1226 2abe 3631 50bb 5b03 47bb
00000300: af72 583b 70ea e3bb 676d a1bb 326d 693b
00000310: b9eb 96bb bcb1 e93b 7649 243b 67d8 033d
00000320: 5f60 56bb 44d2 eebc 32a2 c63a 4222 56bd
00000330: 7e3e 5bb8 1e14 88ba 91e9 5ebb 093e 0c3c
00000340: bb64 9a3d 063f f33c 0cef ee3c c970 c8ba
00000350: 3ccf 803b e690 033e f1ee 113d 575f a2bb
00000360: 6522 0b3b c4f2 63bc 0aea 153d 59a5 48ba
00000370: 4bf6 7cba a005 bfb8 57cd e43a f5b4 f5bc
00000380: 7a75 36bd 35b0 ae3d 848f 813a 1060 373d
00000390: 3427 5cbd 567c 043e 793e 80bb e567 23bb
000003a0: c2eb 3e3b 2165 673c cd4c 7f3b fdb1 b1bc
000003b0: 750c 0b3b ed05 04be 653c 4f39 1799 453d
000003c0: e968 9fbd 655b 4d3b 4a84 2b3b 7986 e0bd
000003d0: fc2b dfbd e560 08bb c8b1 1e3d 85ac 6aba
000003e0: f502 0c3e 4559 313a 9e6f f63d b762 59bd
000003f0: 09f9 1dbb b0b4 8aba eab8 0abd 5707 c33a

autoencoder.encoder.7.bias f4 [100]
-0.06454689 -0.035014264 0.118085325 -0.0715302 -0.0048558326 -0.014509895 -0.0023666595 0.0025062247
0.002174047 -0.15899764 -0.117954366 0.0038104157 0.022845272 -0.1582376 -0.07618825 -0.042312358
0.00022272937 -0.08180027 -0.022954026 0.00013319355 0.020791655 -0.0032221845 -0.05204685 -0.0010211311
-0.08319553 -0.040048227 -0.03811281 0.0012797187 -0.06266859 -0.14412239 -0.00012514113 -0.060519744
0.1109834 0.0013536946 0.111357875 -0.06551622 0.0006030328 -0.06971225 0.06544215 0.07637063
-0.0041311933 0.0029926077 -0.044730507 0.0052334825 -0.05732515 0.054839905 0.10034521 -0.04817799
0.09632096 0.0032020945 0.07745201 -0.03303754 0.12343643 0.02804212 -0.030646583 0.0009692289
0.1331355 0.014305383 -0.00016001018 0.00040015898 -0.21940999 0.020849697 -0.032062143 -0.0034604834
0.08697131 0.0913923 0.11972847 0.08213371 0.0017661006 -0.0011152703 -0.04753696 -0.06260804
-0.033743937 -0.02149244 0.00066059176 -0.066336825 -0.005836146 -0.1549285 0.111078314 -0.001358812
-0.00029795675 0.18562476 0.035217218 -0.00015444655 0.030091405 -2.9894656e-05 0.00047193663 -0.003930047
-0.026362114 -0.006805305 -0.05014815 -0.036359314 -0.06380438 -0.0005002823 -0.025505943 0.11824525
0.06322206 -0.12653218 -0.08148475 0.08133036
00000000: 2931 84bd 1e6b 0fbd b8d6 f13d 6d7e 92bd
00000010: ad1d 9fbb e9ba 6dbc f519 1bbb 793f 243b
00000020: 757a 0e3b 47d0 22be 0f92 f1bd 2bb8 793b
00000030: 0226 bb3c 0a09 22be 9608 9cbd b94f 2dbd
00000040: 768c 6939 e686 a7bd 150a bcbc dfa9 0b39
00000050: 4353 aa3c 492b 53bb 142f 55bd 79d7 85ba
00000060: 6b62 aabd 9c09 24bd 2e1c 1cbd 3cbc a73a
00000070: 6458 80bd d294 13be 5138 03b9 8de3 77bd
00000080: 444b e33d 746e b13a 990f e43d 5e2d 86bd
00000090: d914 1e3a 4cc5 8ebd 8906 863d 3468 9c3d
000000a0: f65e 87bb a01f 443b 5637 37bd a27d ab3b
000000b0: c7cd 6abd cf9f 603d ca81 cd3d 4956 45bd
000000c0: ec43 c53d 3bda 513b 299f 9e3d 5f52 07bd
000000d0: 3dcc fc3d 97b8 e53c 8b0e fbbc da13 7e3a
000000e0: ac54 083e 2061 6a3c 68c8 27b9 6ecc d139
000000f0: 03ad 60be fccc aa3c 9853 03bd 47c9 62bb
00000100: 041e b23d e32b bb3d 3334 f53d b835 a83d
00000110: 817c e73a 432e 92ba 1eb6 42bd a538 80bd
00000120: 1537 0abd ea10 b0bc 902b 2d3a 9adb 87bd
00000130: 243d bfbb 94a5 1ebe 077d e33d 2a1a b2ba
00000140: 1437 9cb9 6b14 3e3e ee3f 103d eef2 21b9
00000150: 4082 f63c 49c6 fab7 436e f739 a0c7 80bb
00000160: 5cf5 d7bc 09ff debb 2668 4dbd 81ed 14bd
00000170: dfab 82bd 6025 03ba d7f1 d0bc 912a f23d
00000180: 917a 813d a791 01be 7ae1 a6bd 8890 a63d

autoencoder.encoder.9.weight f4 [2, 100]
-0.32629907 -0.28240868 0.17406441 -0.17014952 -0.002505893 -0.018273104 -0.001469892 0.0021007182
0.002433286 -0.33960232 -0.40764496 0.00074921595 0.00014902448 -0.57497174 -0.08713427 -0.1942629
-0.00053441525 -0.100804746 0.11917227 0.0017002384 -0.019182717 -0.0005246456 -0.050884236 0.003206208
-0.31457165 -0.2824172 -0.15724576 0.0022672093 -0.11439593 -0.46965978 -0.00081728434 -0.18730348
0.16677718 0.0022159948 0.11256834 -0.13911192 -0.0008567832 -0.16784668 0.15428278 0.21818906
0.003480238 0.0022781473 0.022500858 0.0016874967 -0.09662323 0.36151898 0.14132282 -0.14020105
0.15290673 0.0024016523 0.1332922 -0.27010387 0.15145712 -0.09512505 -0.29608017 0.0020248801
0.18182898 0.094516255 -0.0016926983 -0.0018746988 0.5133764 0.031684957 -0.043757908 -0.0022685742
0.13586648 0.16608809 0.1867223 0.13713233 0.0018004613 0.001227157 -0.039235987 0.27248025
-0.10529403 -0.16758297 -0.0011727429 -0.13347663 0.0041092318 -0.53406847 0.16266939 0.0002060629
-0.0014659244 0.2668509 0.0575175 -0.0013989495 -0.41017452 -0.0013229379 -0.0023437168 -0.0023054224
0.082032256 -0.0023130735 -0.049530298 -0.3256637 -0.20729403 -0.0014008471 -0.3309656 0.16362336
0.095455565 -0.39219785 -0.116520025 0.04823906 -0.21332769 -0.24813348 0.14203253 -0.12478929
0.0011994671 -0.012415395 -0.0004217399 -0.0022118688 -0.000624479 -0.46864375 0.043622494 -0.0005901328
0.49189532 0.07767632 -0.2557448 -0.069274865 0.002487401 -0.2651512 -0.0045951377 -0.000117901945
0.5256875 0.00030087732 -0.106844984 -0.006252998 -0.106868915 -0.16284522 0.05001972 -0.00034960455
-0.09244266 0.005513033 0.0015735325 -0.24593939 0.13592033 -0.0012087442 0.20151475 -0.095546775
0.0026886316 -0.1116975 -0.26877528 0.0020787048 -0.0041525722 -0.0018210071 -0.30210972 -0.00310967
-0.08916943 -0.13902515 0.1230955 -0.0693541 0.1136766 -0.0009920051 0.10063027 -0.29247734
0.20407364 -0.41362464 -0.114784874 -0.0015589969 0.16612124 0.5055254 0.0004881759 0.0007345977
-0.48821136 0.06632087 -0.029254034 0.00021826098 0.093231544 0.111267336 0.16224144 0.11033982
-0.0013966452 0.00065404346 -0.098828904 -0.36515382 -0.21141225 0.017872764 0.0024843323 -0.12447768
-0.46150726 0.1935597 0.13505588 0.0006650092 -0.0008742757 0.2106585 0.04259555 -3.2417e-05
0.055988394 -6.237003e-05 0.00047131305 0.00042420122 -0.25244382 -0.00012043614 -0.09683229 -0.11540721
-0.107612036 0.00035405852 -0.255727 0.20603059 0.075895 -0.112337716 -0.24042983 0.1585941
00000000: ac10 a7be df97 90be f13d 323e ad3b 2ebe
00000010: e839 24bb 7ab1 95bc 64a9 c0ba 34ac 093b
00000020: c477 1f3b 5be0 adbe d7b6 d0be 0867 443a
00000030: 7443 1c39 5931 13bf 7473 b2bd dbec 46be
00000040: 0018 0cba b872 cebd 9710 f43d 89da de3a
00000050: 1325 9dbc 5f88 09ba fd6b 50bd 3f1f 523b
00000060: 890f a1be fd98 90be 0805 21be 7695 143b
00000070: 6a48 eabd 3f77 f0be 063f 56ba 7ccc 3fbe
00000080: a3c7 2a3e 393a 113b 3b8a e63d 5b73 0ebe
00000090: bf99 60ba 00e0 2bbe 4efc 1d3e f46c 5f3e
000000a0: b414 643b f84c 153b b853 b83c fe2e dd3a
000000b0: 66e2 c5bd 0419 b93e eeb6 103e dd90 0fbe
000000c0: 9593 1c3e 0a65 1d3b c07d 083e 0e4b 8abe
000000d0: 9317 1b3e ecd0 c2bd d297 97be dab3 043b
000000e0: 6031 3a3e bd91 c13d 88dd ddba 74b8 f5ba
000000f0: a36c 033f 16c8 013d 7e3b 33bd 5cac 14bb
00000100: 9520 0b3e ff12 2a3e 2134 3f3e 6b6c 0c3e
00000110: 75fd eb3a 8ed8 a03a eab5 20bd 8882 8b3e
00000120: 65a4 d7bd df9a 2bbe b9b6 99ba 19ae 08be
00000130: bca6 863b b6b8 08bf ce92 263e 9712 5839
00000140: 4324 c0ba aea0 883e 7897 6b3d f55c b7ba
00000150: 6502 d2be 6e66 adba 0b99 19bb 9216 17bb
00000160: 8700 a83d ef96 17bb 48e0 4abd 64bd a6be
00000170: e344 54be a19c b7ba 5374 a9be e28c 273e
00000180: 357e c33d 28ce c8be 0da2 eebd 5296 453d
00000190: 9372 5abe b416 7ebe fa70 113e 8791 ffbd
000001a0: 7037 9d3a f169 4bbc f91c ddb9 00f5 10bb
000001b0: 14b4 23ba 13f2 efbe 80ad 323d 24b3 1aba
000001c0: b4d9 fb3e c314 9f3d fcf0 82be fbdf 8dbd
000001d0: aa03 233b e6c1 87be cf92 96bb 2042 f7b8
000001e0: 7593 063f 12bf 9d39 8bd1 dabd f3e5 ccbb
000001f0: 17de dabd e6c0 26be 7ae1 4c3d 214b b7b9
00000200: 9452 bdbd aca6 b43b fd3e ce3a 89d7 7bbe
00000210: b32e 0b3e ba6e 9eba e259 4e3e 07ae c3bd
00000220: c133 303b a9c1 e4bd ea9c 89be e13a 083b
00000230: 4d12 88bb dcae eeba 20ae 9abe 9bcb 4bbb
00000240: 769e b6bd 9c5c 0ebe 7e19 fc3d 8609 8ebd
00000250: 47cf e83d 2b06 82ba 3e17 ce3d 97bf 95be
00000260: aef8 503e 9cc6 d3be 5514 ebbd 4157 ccba
00000270: b01b 2a3e 1d6a 013f dcf1 ff39 0492 403a
00000280: d7f6 f9be 3cd3 873d 28a6 efbc fcdc 6439
00000290: 2ef0 be3d 21e0 e33d 9f22 263e d8f9 e13d
000002a0: a30f b7ba 1d74 2b3a cf66 cabd 71f5 babe
000002b0: 747c 58be e769 923c 2ed0 223b 27ee febd
000002c0: ae4a ecbe 8434 463e 174c 0a3e 0354 2e3a
000002d0: a62f 65ba ddb6 573e ac78 2e3d 7df7 07b8
000002e0: 1654 653d a8cc 82b8 911a f739 5367 de39
000002f0: 5140 81be a992 fcb8 0250 c6bd 9e5a ecbd
00000300: b363 dcbd eea0 b939 a6ee 82be aff9 523e
00000310: d66e 9b3d 5111 e6bd 3d33 76be 7e66 223e

autoencoder.encoder.9.bias f4 [2]
0.19396952 0.22902046
00000000: f29f 463e 5784 6a3e

autoencoder.decoder.1.weight f4 [100, 2]
0.68881214 -0.6477284 -0.20861354 -0.3031924 -0.19313326 0.236575 -0.12164321 0.1015093
-0.53265667 0.48780268 -0.31128615 0.4676448 -0.0018620833 -0.003112954 0.36592758 -0.17757426
-0.23486276 0.45882645 0.11144261 0.0269383 -0.017092383 0.4297394 -0.25606722 0.5346265
-0.081025496 -0.4947868 -0.091849096 -0.49665472 1.3226266e-05 8.7836415e-05 0.21410021 0.31702188
0.24697201 0.44774485 0.40791237 -0.43659714 0.35529447 -0.20396605 -0.19303007 -0.3210157
-0.07792056 0.03431127 9.2831084e-05 0.0002872016 -0.035174336 -0.014891048 -0.24320292 0.3409839
-0.48344794 0.25621417 -0.6141698 0.19320562 0.036176674 0.021994703 -0.14745581 0.5394183
-0.42119083 0.43700567 -0.061004825 -0.5025156 0.5121005 -0.47998327 -0.083797105 -0.45053506
0.47682005 -0.3009955 0.10390022 -0.11697657 -0.58047676 0.20349358 -0.28911963 0.5079256
-0.08928496 -0.49823114 0.7161995 0.30633095 -0.061849017 -0.49358746 0.16656902 -0.039130986
-0.23152883 0.6114819 0.32720006 0.0044677057 -0.123951696 0.10799662 -0.20539379 -0.30462947
-0.22253264 0.35651854 -0.4219841 0.5534963 -0.326398 0.5684319 0.4124863 -0.10783119
0.26979098 0.15389492 -0.3029685 0.38671798 -0.40164027 0.50406533 -0.1293202 -0.39423516
-0.09325485 0.08257394 0.016973024 -0.03352546 -0.19336909 0.11826448 0.00020477359 0.00015902209
0.15268633 -0.2935255 0.1740656 0.14205134 0.51616997 0.28203607 0.034753 0.012333811
0.35341913 0.37871742 -0.06799461 -0.49516562 0.3748568 -0.15375282 0.28879145 -0.7185998
0.00038538213 -0.00051247573 -0.23443808 -0.27687383 -0.5640451 0.14099523 -0.33056793 0.5048078
0.64479584 -0.39411557 -0.25875738 -0.24854882 0.30989107 -0.24065726 0.4185717 -0.1593186
0.17421477 -0.16339377 -0.3411257 -0.14989644 0.030130658 0.5154993 -0.22438486 -0.28611505
0.4491211 -0.13797018 -0.21355833 -0.29553103 0.17392129 -0.5174112 0.5325111 -0.15343624
-0.6299369 0.1992626 0.21982326 -0.60015124 0.000109639186 0.00016543364 0.20787679 -0.57863563
-0.28782687 0.3090015 -0.064481296 -0.5005226 -0.12357607 -0.39653093 -0.51903903 0.12942499
0.24242914 0.01161347 -0.50871927 0.56094533 0.35803586 0.2798953 0.55537724 -0.58220744
-0.3582028 0.54101187 0.028858813 -0.065490134 -0.2000527 -0.31146935 0.14558227 -0.14505893
-0.17980607 0.22056286 -0.6053502 0.28509232 -0.19120339 -0.31967926 0.4401911 -0.4899844
00000000: fe55 303f 87d1 25bf ca9e 55be 093c 9bbe
00000010: bac4 45be b840 723e 1320 f9bd 1ce4 cf3d
00000020: 305c 08bf 46c1 f93e e660 9fbe 246f ef3e
00000030: 2611 f4ba b402 4cbb dc5a bb3e 07d6 35be
00000040: dd7f 70be 4deb ea3e 063c e43d b6ad dc3c
00000050: 5305 8cbc cd06 dc3e 3e1b 83be 48dd 083f
00000060: b2f0 a5bd b254 fdbe 611b bcbd 8749 febe
00000070: 61e6 5d37 d134 b838 163d 5b3e b150 a23e
00000080: 3be6 7c3e d03e e53e e4d9 d03e a989 dfbe
00000090: 28e9 b53e 7adc 50be ada9 45be 2b5c a4be
000000a0: d194 9fbd f989 0c3d 4fae c238 8c93 9639
000000b0: f712 10bd 95f9 73bc 300a 79be 7195 ae3e
000000c0: 7d86 f7be 812e 833e 3b3a 1dbf b2d7 453e
000000d0: fe2d 143d 3c2e b43c a8fe 16be 5117 0a3f
000000e0: 53a6 d7be 35bf df3e 32e0 79bd dda4 00bf
000000f0: 0519 033f 5ec0 f5be d19d abbd 88ac e6be
00000100: c221 f43e 151c 9abe a3c9 d43d 6991 efbd
00000110: 209a 14bf 9f60 503e 7d07 94be 6a07 023f
00000120: 08db b6bd 2718 ffbe da58 373f 69d7 9c3e
00000130: 6555 7dbd 7fb7 fcbe 1291 2a3e d047 20bd
00000140: e515 6dbe 148a 1c3f c486 a73e d565 923b
00000150: 63da fdbd 552d dd3d c052 52be 65f8 9bbe
00000160: 99df 63be 9989 b63e 4d0e d8be efb1 0d3f
00000170: a31d a7be c184 113f 6831 d33e 99d6 dcbd
00000180: 0b22 8a3e a196 1d3e b01e 9bbe e6ff c53e
00000190: cba3 cdbe 6d0a 013f 846c 04be 31d9 c9be
000001a0: 66fc bebd 871c a93d 030b 8b3c fe51 09bd
000001b0: 8c02 46be a634 f23d 7eb8 5639 2bbf 2639
000001c0: ce59 1c3e f948 96be 413e 323e e875 113e
000001d0: b723 043f 0867 903e 2959 0e3d c113 4a3c
000001e0: 5af3 b43e 40e7 c13e c240 8bbd 5986 fdbe
000001f0: 3bed bf3e 6171 1dbe 79dc 933e 28f6 37bf
00000200: 1d0d ca39 aa57 06ba 8910 70be 68c2 8dbe
00000210: 4265 10bf 0e61 103e 3340 a9be 153b 013f
00000220: 5711 253f 84c9 c9be d97b 84be 9583 7ebe
00000230: 0baa 9e3e db6e 76be 084f d63e 6a24 23be
00000240: 5b65 323e b250 27be 07a8 aebe 747e 19be
00000250: 92d4 f63c c3f7 033f 25c5 65be ac7d 92be
00000260: 33f3 e53e 0e48 0dbe 09af 5abe d84f 97be
00000270: 6c18 323e 0f75 04bf a652 083f 641e 1dbe
00000280: 8b43 21bf 7f0b 4c3e 5919 613e 83a3 19bf
00000290: 17ee e538 4178 2d39 a7dd 543e 7721 14bf
000002a0: 0b5e 93be 7235 9e3e c50e 84bd 4022 00bf
000002b0: 7315 fdbd 1a06 cbbe bedf 04bf fc87 043e
000002c0: 583f 783e 6c46 3e3c 6d3b 02bf 1d9a 0f3f
000002d0: 7a50 b73e 704e 8f3e 342d 0e3f 8c0b 15bf
000002e0: 5b66 b7be c17f 0a3f 5169 ec3c b11f 86bd
000002f0: 9dda 4cbe e978 9fbe 8513 153e 548a 14be
00000300: 151f 38be 3bdb 613e 3bf8 1abf 9ff7 913e
00000310: d2ca 43be 00ad a3be ba60 e13e 3cdf fabe

autoencoder.decoder.1.bias f4 [100]
-0.11282579 -0.1491311 0.007826654 0.060093336 -0.15194964 -0.14412019 -0.0009098893 -0.2702616
-0.43077484 -0.4618733 -0.60531163 -0.30712503 0.003759531 0.06657387 5.708822e-07 -0.5275991
-0.49590957 -0.22577213 0.15980083 -0.1436777 0.71948814 -7.862842e-05 0.58145064 0.35658595
-0.01964976 -0.06895208 -0.33084315 -0.4428392 0.16769275 -0.10373195 -0.007884217 -0.10893835
0.22267848 0.3134833 -0.16871604 -0.2995618 0.051258173 -0.87948793 -0.098486885 -0.18651001
-0.4649439 -0.24395004 -0.023017941 -0.17507975 0.76289505 -6.8231257e-06 -0.31158754 -0.38020495
-0.37375122 0.017477687 0.11341592 -0.088920936 -0.05628882 0.13782983 -0.08206854 0.0008394864
-0.09713619 -0.5237786 -0.5245598 -0.2111677 -0.3741242 -0.06300515 -0.14808397 0.24732235
0.00066138146 -0.16540724 -0.21388136 -0.1707518 0.06901212 -0.19803438 0.49131334 0.1057705
0.091907285 -0.21678424 -0.59075034 -0.17500968 -0.1540756 -0.17633174 -0.07125918 -0.16712666
-0.0468373 -0.08848326 -0.0004649043 -0.12035443 0.3546079 -0.08138861 -0.13205834 -0.262192
-0.31180423 -0.1484658 -0.7286495 -0.14974609 -0.14748847 0.52374434 -0.15764757 0.20675814
-0.06964395 -0.21464553 -0.16785109 0.14066118
00000000: 3511 e7bd d3b5 18be 5e3b 003c 6e24 763d
00000010: b098 1bbe 3e94 13be a385 6eba ba5f 8abe
00000020: 858e dcbe a87a ecbe b4f5 1abf 7e3f 9dbe
00000030: 7762 763b e257 883d ba3e 1935 bc10 07bf
00000040: dce7 fdbe cf30 67be d4a2 233e 3f20 13be
00000050: 6030 383f 50e5 a4b8 f3d9 143f 6f92 b63e
00000060: 89f8 a0bc c036 8dbd 4664 a9be d2bb e2be
00000070: a6b7 2b3e 6b71 d4bd ce2c 01bc 121b dfbd
00000080: d405 643e e280 a03e e6c3 2cbe 2a60 99be
00000090: 17f4 513d 1f26 61bf 7eb3 c9bd 7bfc 3ebe
000000a0: 200d eebe 0ace 79be 1f90 bcbc 1b48 33be
000000b0: 174d 433f 34f2 e4b6 6788 9fbe 39aa c2be
000000c0: 525c bfbe 5e2d 8f3c 9b46 e83d 2e1c b6bd
000000d0: 1b8f 66bd 4323 0d3e 8d13 a8bd fb10 5c3a
000000e0: 57ef c6bd 5b16 06bf 8d49 06bf 583c 58be
000000f0: 358d bfbe d808 81bd 53a3 17be 1242 7d3e
00000100: 8f60 2d3a 8460 29be b703 5bbe 8fd9 2ebe
00000110: 3a56 8d3d 86c9 4abe 6c8d fb3e 349e d83d
00000120: e339 bc3d b0fc 5dbe 6a3b 17bf bd35 33be
00000130: fec5 1dbe 4f90 34be 55f0 91bd 4023 2bbe
00000140: 78d8 3fbd b636 b5bd 66be f3b9 627c f6bd
00000150: 2b8f b53e 12af a6bd 4d3a 07be 083e 86be
00000160: cea4 9fbe 6b07 18be c688 3abf 0a57 19be
00000170: 3807 17be 1c14 063f 5d6e 21be 68b8 533e
00000180: 7da1 8ebd 0acc 5bbe 28e1 2bbe 7c09 103e
