save_config_2/12/model_state.pth (torch, 28347 bytes, 13 tensors)

autoencoder.encoder.0.weight f4 [16, 1, 3, 3]
0	0xbe287173	-0.16449527
1	0x3ddb25f4	0.10700598
2	0x3f419a9c	0.7562654
3	0xbd39b968	-0.045342833
4	0x3e103ba1	0.14085247
5	0x3f07306d	0.52808267
6	0xbe291705	-0.16512688
7	0x3e1815e3	0.14852099
8	0x3e83a1d5	0.25709406
9	0xbf61e748	-0.8824353
10	0xbf39110a	-0.72291625
11	0xbf3ad1b3	-0.72976226
12	0xbf0dd493	-0.5540249
13	0xbf2b457b	-0.66902894
14	0xbf1eb21c	-0.61990523
15	0xbf543fbc	-0.8290975
16	0xbf1bad24	-0.60811067
17	0xbf21f6e1	-0.6326733
18	0xbdb065d8	-0.08613175
19	0x3f13775a	0.5760399
20	0xbea9043a	-0.33011037
21	0x3db58ac2	0.088643566
22	0x3efcdc0b	0.4938663
23	0xbee9a47d	-0.45633307
24	0xbd39abcd	-0.045329858
25	0x3eacc1e9	0.33741692
26	0xbf31f599	-0.6951538
27	0xbdd18bfe	-0.102317795
28	0xbce25206	-0.027627002
29	0x3e3d985e	0.18515155
30	0x3e0f20d0	0.1397736
31	0x3d83de0e	0.06438838
32	0x3ee7f559	0.45304373
33	0x3eee0bb4	0.46493304
34	0x3ebe362a	0.371507
35	0x3ed68073	0.41894874
36	0xbef753a5	-0.48306003
37	0xbeaa5138	-0.3326509
38	0xbe36d900	-0.17856216
39	0x3d698840	0.057014704
40	0x3d0cba0f	0.034357127
41	0x3e4f9a1c	0.20273632
42	0x3f0939c3	0.5360376
43	0x3e401f07	0.18761836
44	0xbd07e949	-0.033181462
45	0xbf0d8067	-0.5527405
46	0xbf11df3d	-0.5698126
47	0xbf112676	-0.5669931
48	0xbdc409c4	-0.09572175
49	0xbe449da0	-0.19200754
50	0xbd90e63f	-0.07075166
51	0x3d5cec63	0.053936373
52	0x3d5d0bed	0.05396645
53	0xbbc19318	-0.0059074275
54	0x3e20bda6	0.15697345
55	0x3e03fed3	0.12890176
56	0xbf059228	-0.5217614
57	0xbe99a0fd	-0.30005637
58	0xbdd3975c	-0.10331604
59	0xbea65ecf	-0.32494208
60	0xbef5e241	-0.4802418
61	0xbde05b86	-0.10954957
62	0x3e6e137a	0.23249617
63	0xbf37d921	-0.7181569
64	0xbe8e9efe	-0.27855676
65	0x3ee3d033	0.4449478
66	0xbf1b12b7	-0.6057543
67	0xbe19a19a	-0.15003052
68	0x3f2a4902	0.6651765
69	0xbeceeb91	-0.40414098
70	0xbe5c216b	-0.21497123
71	0x3f296f76	0.661857
72	0x3ec3e34c	0.3825935
73	0xbe416087	-0.18884479
74	0xbcc44cde	-0.023962434
75	0x3f15587c	0.5833814
76	0x3dd2c480	0.10291386
77	0x3e30a23c	0.17249388
78	0x3f404a7b	0.7511365
79	0x3d66794b	0.056268018
80	0xbd36d753	-0.044638943
81	0x3e2de0e6	0.16980323
82	0xbc773e22	-0.015090497
83	0x3e658a18	0.2241596
84	0xbd965de7	-0.07342129
85	0xbdfa760a	-0.122295454
86	0x3e93e3fa	0.2888487
87	0x3e41b551	0.18916823
88	0x3d03ba59	0.032160137
89	0x3f073058	0.5280814
90	0xbe1f3161	-0.1554618
91	0xbc86e0fb	-0.0164647
92	0x3ee4c9ed	0.44685307
93	0xbe301593	-0.1719573
94	0xbe89b2a9	-0.2689412
95	0x3ba9597b	0.0051681376
96	0xbf3ccedb	-0.73753136
97	0xbf317e73	-0.6933357
98	0xbeff3104	-0.49842083
99	0x3ed47da6	0.41502112
100	0xbf0eb2c6	-0.55741537
101	0xbf2c50d2	-0.6731082
102	0x3ee5ceb9	0.4488428
103	0xbec14b9f	-0.37753007
104	0xbea98570	-0.33109617
105	0x3f0d17ab	0.5511424
106	0xbf041d02	-0.5160676
107	0xbf0e83f9	-0.55670124
108	0x3ee58920	0.4483118
109	0x3ef0a883	0.47003564
110	0xbe93338b	-0.28750262
111	0xbc0c3397	-0.008557222
112	0x3e95f3b0	0.2928748
113	0xbe0c1485	-0.13679703
114	0x3e88d6be	0.26726335
115	0x3f14982f	0.58044714
116	0x3eb730f6	0.35779542
117	0x3f26e337	0.6519045
118	0x3e74c269	0.23902287
119	0x3ebfda9a	0.37471467
120	0x3e6c7e49	0.23095049
121	0x3e0e121f	0.138741
122	0x3e2c46a5	0.16823824
123	0xbe7b88bc	-0.24563879
124	0xbe4a161f	-0.19735001
125	0x3cc2d26f	0.023781983
126	0x3e1547f5	0.1457823
127	0x3ee63fcc	0.44970548
128	0x3f0cac88	0.5495076
129	0x3ef24607	0.47319052
130	0x3f2ae0a5	0.6674903
131	0x3e963ab7	0.2934167
132	0x3e6e9721	0.23299839
133	0x3ea228ba	0.31671697
134	0xbe075370	-0.13215423
135	0xbe3d0d1c	-0.18462032
136	0xbe339d37	-0.17540441
137	0xbd1d6f0c	-0.03843598
138	0xbeb26ecd	-0.3485016
139	0xbd2706ee	-0.040778093
140	0xbca1fd34	-0.019774057
141	0xbef5e503	-0.48026285
142	0xbe8ae7aa	-0.2712987
143	0xbdba9bf0	-0.09111774

autoencoder.encoder.0.bias f4 [16]
0	0x3f5e0b66	0.8673614
1	0x3f1492b6	0.58036363
2	0xbd8e0ac4	-0.06935647
3	0xbf7b0c52	-0.98065674
4	0x3f86e74b	1.0539335
5	0x3f988ad4	1.1917367
6	0xbe4d00b6	-0.20019802
7	0xbf19c067	-0.6005921
8	0x3ed7b18d	0.42127648
9	0x3f298124	0.6621268
10	0x3ee0a9d7	0.43879578
11	0x3dea8f17	0.114530735
12	0xbcfa4b68	-0.030553535
13	0x3f286903	0.65785235
14	0xbe134ef3	-0.14385585
15	0x3fab99c1	1.3406297

autoencoder.encoder.3.weight f4 [8, 16, 3, 3]
0	0xbf0294b9	-0.5100818
1	0xbd9871d9	-0.0744359
2	0x3eaa4ef4	0.3326336
3	0xbe21e763	-0.15810923
4	0xbe2898c6	-0.16464528
5	0x3daf1a46	0.08549933
6	0xbd7854eb	-0.06062786
7	0x3ea20fc5	0.31652656
8	0x3cd81b5a	0.02638023
9	0x3eb3d24f	0.3512139
10	0xbd9ca1ea	-0.0764807
11	0xbe84bee8	-0.259269
12	0x3e75d3d0	0.24006581
13	0xbdd4fecb	-0.104001604
14	0xbe322fa8	-0.17400992
15	0xbe2cafcf	-0.1686394
16	0xbed6e744	-0.41973317
17	0xbe40f133	-0.1884201
18	0x3d20bc0b	0.03924183
19	0xbe820eb7	-0.25401852
20	0xbe02c4d2	-0.12770393
21	0xbdfc7b2d	-0.123281814
22	0x3cd8edfe	0.026480671
23	0xbdc15edd	-0.09441922
24	0x3b5d8e14	0.003380661
25	0x3e235856	0.15951666
26	0xbddfd098	-0.10928458
27	0xbeb21551	-0.34781888
28	0x3eb2486c	0.34820879
29	0x3e20ccce	0.15703127
30	0x3ce79367	0.02826853
31	0x3e083b8c	0.13303965
32	0x3e8a4e16	0.270127
33	0x3da2b906	0.07945447
34	0xbd248ab7	-0.04017135
35	0x3de517aa	0.11186154
36	0xbed9cf10	-0.4254079
37	0xbe16c0d7	-0.14722
38	0x3e039641	0.12850286
39	0x3ddbb339	0.107275434
40	0xbd69a16f	-0.05703872
41	0xbeafcf97	-0.34338066
42	0x3e4dddc4	0.20104128
43	0x3bc23aba	0.005927411
44	0xbdaa8f08	-0.08328062
45	0xbddad9e6	-0.10686092
46	0x3cd739b6	0.026272636
47	0xbeb1e02a	-0.34741336
48	0x3f20c17b	0.6279523
49	0xbe6ad3fe	-0.22932431
50	0xbd89567a	-0.06705947
51	0xbe71b1a1	-0.23602916
52	0x3d75b9d9	0.05999169
53	0xbea48b08	-0.32137322
54	0x3e50f77d	0.2040691
55	0x3e401d86	0.18761262
56	0x3d87ab64	0.06624487
57	0x3f0d8eed	0.5529621
58	0x3e08f0e7	0.13373147
59	0x3da3ae2c	0.07992205
60	0x3d18a8c1	0.03727031
61	0xbd519600	-0.05116844
62	0x3dcefee9	0.10107214
63	0x3d9c0188	0.076174796
64	0x3db5806c	0.08862385
65	0xbe71e3ec	-0.23622102
66	0xbd9e0c15	-0.07717148
67	0x3eb56709	0.35430172
68	0x3e58358e	0.2111418
69	0xbe3ebf67	-0.18627702
70	0xbdb6ebe6	-0.08931713
71	0x3dc7dc5e	0.097588286
72	0xbf3f6186	-0.74758184
73	0x3d9f4eb5	0.07778684
74	0x3da2a753	0.07942071
75	0x3e01fd1a	0.12694207
76	0x3dd1c652	0.10242905
77	0xbe2de8c1	-0.1698332
78	0x3e841863	0.25799856
79	0xbcd68cd9	-0.026190208
80	0xbe009164	-0.12555462
81	0xbec4ae64	-0.384143
82	0x3d8a2f7c	0.06747338
83	0x3e2e6864	0.1703201
84	0xbda21031	-0.079132445
85	0xbe422bcc	-0.1896202
86	0xb9d177c0	-0.00039952807
87	0x3e07d3ee	0.13264439
88	0x3e3bd14d	0.1834156
89	0xbded6d72	-0.11593141
90	0x3e4ec710	0.20193124
91	0xbdcb2bd0	-0.09920466
92	0xbd9355b6	-0.071940824
93	0x3c36331d	0.011120585
94	0x3b3db252	0.0028945399
95	0xbe847506	-0.25870532
96	0x3e0d78af	0.13815568
97	0x3e4fc49b	0.20289843
98	0xbc82db9b	-0.015973857
99	0x3e153909	0.14572538
100	0xbf0213b9	-0.50811344
101	0xbeb8fe7b	-0.36131653
102	0xbdd70603	-0.104991935
103	0xbdd8b859	-0.105820365
104	0xbdb4e43a	-0.08832593
105	0xbd086211	-0.03329665
106	0x3d9f1ec6	0.077695414
107	0xbdb57357	-0.0885989
108	0xbf134787	-0.5753102
109	0x3c4734e4	0.012158606
110	0xbdbbd817	-0.09172075
111	0xbd9fd50e	-0.07804309
112	0x3e1afdb6	0.15135846
113	0x3d882346	0.06647353
114	0x3e0d7e8a	0.13817802
115	0x3e89a345	0.26882377
116	0xbd74ad80	-0.059735775
117	0xbefeb527	-0.49747583
118	0x3d215528	0.039387852
119	0x3e0f4099	0.13989486
120	0x3e168358	0.14698541
121	0xbcced090	-0.025245935
122	0x3dc3338a	0.09531315
123	0x3d3246da	0.0435246
124	0x3e383ae6	0.17991218
125	0xbd59e5bc	-0.053197607
126	0xbf471477	-0.777656
127	0x3d5b7727	0.05358043
128	0x3e840106	0.2578203
129	0xbdf55518	-0.11979121
130	0x3d4d7557	0.050160732
131	0x3e8be618	0.27323985
132	0xbce691cb	-0.028145691
133	0x3e2adb4b	0.16685216
134	0x3d9cc596	0.07654874
135	0xbe52a199	-0.20569457
136	0x3cec3a63	0.028836435
137	0xbe8686a9	-0.26274613
138	0x3eae24af	0.34012362
139	0xbe4185e4	-0.18898731
140	0xbf07dd10	-0.5307169
141	0xbe0eeba0	-0.13957071
142	0x3e0ad580	0.13558006
143	0xbd2ef397	-0.042712774
144	0x3e0e16b6	0.13875851
145	0xbca6d647	-0.020365847
146	0x3e818dbc	0.25303447
147	0xbcf7a46d	-0.030229772
148	0xbdcbb9dc	-0.09947559
149	0x3e74f4cf	0.23921512
150	0xbdd67050	-0.10470641
151	0x3d572d8c	0.05253367
152	0x3e2403c0	0.16017056
153	0x3e50f80b	0.20407121
154	0xbd3f533d	-0.04671024
155	0x3daa0b0a	0.08302887
156	0xbe7be6cd	-0.24599762
157	0xbe9efe7c	-0.3105353
158	0xbe10c099	-0.1413597
159	0xbd864802	-0.06556703
160	0x3e6bb096	0.23016581
161	0xbd765230	-0.060136974
162	0x3d3bb40a	0.045825996
163	0x3e10d2c1	0.14142896
164	0x3e152579	0.14565076
165	0x3df6ffb0	0.12060487
166	0xbe74274d	-0.23843117
167	0xbba622df	-0.005070075
168	0x3d782087	0.060577895
169	0xbdeaa88b	-0.11457928
170	0xbea4159d	-0.3204774
171	0x3dda2c29	0.10652954
172	0xbe05a6b7	-0.13051878
173	0xbddf94da	-0.10917063
174	0xbd2dcf6d	-0.042434145
175	0x3daa3857	0.08311527
176	0xbe51463c	-0.20436949
177	0x3e0b86fe	0.13625714
178	0x3e6e34a1	0.23262264
179	0x3e1c22d5	0.15247662
180	0x3dac37eb	0.08409103
181	0xbe806a80	-0.25081253
182	0x3da03189	0.07821948
183	0xbe1973ef	-0.14985631
184	0xbd11e70a	-0.035620727
185	0x3e748212	0.23877743
186	0xbd8c2c55	-0.06844393
187	0xbe501ae2	-0.20322755
188	0x3caa9f23	0.020827835
189	0xbe049be3	-0.12950091
190	0xbdad931f	-0.08475327
191	0xbe150234	-0.14551622
192	0xbe275dab	-0.16344325
193	0x3d107116	0.035264097
194	0x3e42733f	0.18989275
195	0xbe974e4d	-0.29551926
196	0xbd4a7c54	-0.049434975
197	0xbe5560ee	-0.20837757
198	0x3d874148	0.06604248
199	0xbd4964ee	-0.04916852
200	0xbe601888	-0.21884358
201	0xbe27baab	-0.16379802
202	0xbc01586c	-0.007894617
203	0x3cca5d7b	0.024702778
204	0x3d8e8963	0.06959798
205	0x3e0db04d	0.13836785
206	0xbe5bdbae	-0.2147052
207	0x3e0b1a6a	0.13584295
208	0xbe95b23c	-0.29237545
209	0xbc006dc8	-0.007838674
210	0xbe24a736	-0.16079411
211	0xbeba59f4	-0.36396754
212	0xbdcde672	-0.100537196
213	0xbdcb89b4	-0.09938374
214	0xbc179f95	-0.009254356
215	0x3e96fb46	0.2948858
216	0x3e91b769	0.28460243
217	0x3d70e668	0.058813483
218	0xbd8b7812	-0.06810011
219	0x3e45795f	0.1928458
220	0xbc382cb6	-0.011241129
221	0x3d1fad09	0.03898338
222	0x3d90c296	0.07068364
223	0xbe1a8ab7	-0.15091978
224	0x3cc30374	0.023805358
225	0x3e36e30d	0.1786005
226	0x3c577c2e	0.013152165
227	0x3de23ebb	0.11047121
228	0x3dee7407	0.11643224
229	0x3d9b18d3	0.07573094
230	0x3e37a5d9	0.1793436
231	0xbdc80433	-0.09766426
232	0xbd4f2aa5	-0.05057778
233	0x3d2cc421	0.04217923
234	0xbd0f4f1e	-0.03498756
235	0xbd15191a	-0.03640089
236	0xbd4f7f6b	-0.050658625
237	0xbd8c10e4	-0.06839159
238	0x3dfc8af7	0.12331193
239	0xbc2bfebf	-0.010497748
240	0xbd1aa6ff	-0.037756916
241	0x3e1621bb	0.14661305
242	0xbe8da9de	-0.2766866
243	0xbdd35758	-0.10319394
244	0x3d93bf2c	0.072141975
245	0x3d929a9b	0.07158395
246	0xbd906d24	-0.07052067
247	0xbea3614a	-0.31910163
248	0xbd177b63	-0.036982905
249	0x3c21110c	0.009830724
250	0x3da8f431	0.08249701
251	0xbe9be2dd	-0.3044652
252	0x3dbfbe95	0.093625225
253	0x3db251ce	0.08707009
254	0xbd7a3014	-0.061081007
255	0x3e67b236	0.22626576

autoencoder.encoder.3.bias f4 [8]
0	0xbe6ca7db	-0.23110907
1	0xbda7a3ce	-0.0818554
2	0xbdbe0267	-0.09277802
3	0xbc8888bf	-0.016666768
4	0xbdafe99e	-0.08589481
5	0x3ded30e8	0.11581594
6	0x3d731462	0.05934561
7	0xbdbcb244	-0.09213689

autoencoder.encoder.6.weight f4 [2, 8, 2, 2]
0	0x3e40a25b	0.18811934
1	0xbe81b316	-0.25331944
2	0xbd8a3c6a	-0.06749804
3	0x3f707ccb	0.9394042
4	0xbedbd239	-0.42933825
5	0xbf52dea7	-0.8237099
6	0xbf3d99b9	-0.7406269
7	0xbf00125e	-0.50028026
8	0xbefb7169	-0.49109963
9	0xbf1e8b28	-0.61931086
10	0xbebc23da	-0.36746103
11	0xbf0e3ee9	-0.55564743
12	0xbd8a9434	-0.06766549
13	0x3e294b03	0.16532521
14	0xbd9f2f83	-0.07772734
15	0x3d0cc1e5	0.0343646
16	0xbf05d8cb	-0.52283925
17	0xbee70e2d	-0.45128003
18	0x3fd1b6e4	1.6383939
19	0x3fbbce1e	1.4672277
20	0x3ec1a3ad	0.37820187
21	0x3d5a8193	0.053346228
22	0x3ea7d796	0.32781667
23	0x3e80ee41	0.25181773
24	0x3e8ae7f1	0.27130082
25	0x3db8efce	0.09030114
26	0x3e1d8852	0.15384033
27	0x3d2a5298	0.041582674
28	0xbf583aaf	-0.84464544
29	0xbd6af1a6	-0.05735936
30	0xbec58664	-0.38579094
31	0xbf242b79	-0.64128834
32	0x3f1039e5	0.5633834
33	0x3f6f3f5a	0.9345604
34	0x3fcda316	1.6065395
35	0x3ef837be	0.48480028
36	0x3eaf87ac	0.34283197
37	0x3d1f8551	0.0389455
38	0x3e037b4e	0.12840006
39	0xbc364220	-0.011124164
40	0x3df3b01b	0.11898824
41	0x3da0d28c	0.07852659
42	0x3eb8c91a	0.36090928
43	0x3cc8f719	0.024531888
44	0xbf8339cb	-1.0252012
45	0x3f1bbcbd	0.60834867
46	0xbed066fc	-0.4070357
47	0x3e25a3f1	0.1617582
48	0xbeac24ff	-0.33621976
49	0xbeb9cdbd	-0.36289778
50	0x3f6775df	0.9041423
51	0x3f23b118	0.639421
52	0x3e795b9b	0.24351351
53	0xbfa9d2dc	-1.3267474
54	0x3f71477b	0.94249696
55	0xbf834e1c	-1.0258212
56	0x3ef5fdb7	0.48045132
57	0x3ee2f5fc	0.44328296
58	0x3ee03d7c	0.4379691
59	0x3f0937c5	0.5360072
60	0xbd98a632	-0.07453574
61	0x3ec7334e	0.3890633
62	0xbe981391	-0.29702428
63	0xbff3c261	-1.9043695

autoencoder.encoder.6.bias f4 [2]
0	0x3d414bf2	0.047191568
1	0x3bf5c512	0.0075002993

autoencoder.decoder.0.weight f4 [2, 8, 2, 2]
0	0xbe864de8	-0.26231313
1	0x3e807926	0.2509243
2	0x3db0ed08	0.0863896
3	0x3ea923e6	0.330352
4	0xbf20f7c5	-0.62878066
5	0xbf041e1f	-0.5160846
6	0xbf235db1	-0.63814837
7	0xbec2312f	-0.3792815
8	0x3e7a29a1	0.24429943
9	0x3d8a6e63	0.06759336
10	0xbe64e2ca	-0.22352138
11	0xbcca88bf	-0.024723409
12	0x3f2b072f	0.66807836
13	0xbe9cb3da	-0.30605966
14	0x3f72ec60	0.9489193
15	0x3eceabd5	0.40365472
16	0xbbaba775	-0.0052384683
17	0xbe570b4d	-0.21000405
18	0x3f2af11b	0.6677415
19	0xbf224da5	-0.63399726
20	0x3ebebb8f	0.3725247
21	0xbe8aa825	-0.2708141
22	0x3fc3af95	1.5287958
23	0x3f340f36	0.7033571
24	0x3eba49b5	0.3638436
25	0xbdcc23a4	-0.099677354
26	0x3d851dc3	0.06499817
27	0x3ea52f58	0.32262683
28	0x3e966577	0.29374287
29	0xbee445db	-0.44584545
30	0x3e694c61	0.22783042
31	0xbe4bf565	-0.1991783
32	0x3f40940f	0.7522592
33	0x3f6cac3e	0.9245032
34	0x3ee8a499	0.45438078
35	0xbdf27aec	-0.11839852
36	0x3c713b2a	0.0147235785
37	0x3ef40800	0.47662354
38	0x3e146c67	0.14494477
39	0x3ecd0221	0.40040687
40	0xbfb739d7	-1.4314526
41	0xbd6970a1	-0.056992177
42	0xbf7537db	-0.95788354
43	0x3f42b0bd	0.7605093
44	0x3f03c5e0	0.5147381
45	0xbc445ac1	-0.011984528
46	0xbf888764	-1.0666318
47	0xbdba5310	-0.09097874
48	0xbeae9c01	-0.34103397
49	0xbf31759c	-0.6932008
50	0xbf8abc00	-1.0838623
51	0x3b250973	0.0025182634
52	0x3e85587e	0.26044077
53	0x3d88cc11	0.066795476
54	0x3f1aceda	0.6047188
55	0x3f75cb6e	0.96013534
56	0x3f4ebcd1	0.8075686
57	0x3f169401	0.58819586
58	0x3e909583	0.28239068
59	0x3f53c25b	0.8271844
60	0xbebb209a	-0.3654831
61	0xbf29dab9	-0.6634937
62	0x3f6f6d7d	0.9352644
63	0x3de78eeb	0.11306556

autoencoder.decoder.0.bias f4 [8]
0	0x3eb6bf50	0.35692835
1	0xbec58add	-0.38582507
2	0xbe88a0aa	-0.26685077
3	0x3e431e09	0.19054426
4	0x3e878e8f	0.2647595
5	0xbea8b825	-0.3295299
6	0xbf2f41c7	-0.68459743
7	0xbe965eb6	-0.29369134

autoencoder.decoder.2.weight f4 [8, 16, 3, 3]
0	0x3e6c533d	0.23078628
1	0x3d71fbf4	0.05907817
2	0xbd950cc1	-0.07277823
3	0xbcfd90f6	-0.030952912
4	0x3dbc55f9	0.091960855
5	0xbe485232	-0.19562605
6	0xbe225813	-0.1585391
7	0xbcc6bbd8	-0.024259493
8	0x3e696bd6	0.22795042
9	0x3c8448cb	0.016147992
10	0xbda10d58	-0.07863873
11	0x3de4e788	0.111769736
12	0xbd213676	-0.03935858
13	0xbc043c98	-0.008071087
14	0xbe67af71	-0.2262552
15	0x3e0b0b9f	0.13578652
16	0x3e3af024	0.18255669
17	0xbedef100	-0.43543243
18	0xbd105ce8	-0.035244852
19	0x3e9995eb	0.2999719
20	0xbe661b36	-0.22471318
21	0xbdcb40f7	-0.099245004
22	0x3dcb84bd	0.09937427
23	0xbe463535	-0.19356234
24	0xbe2f8fcb	-0.17144696
25	0xbdceec16	-0.101036236
26	0xbe3fb8ad	-0.18722792
27	0xbed14c61	-0.40878585
28	0xbead14c7	-0.33804914
29	0x3e56db17	0.20982014
30	0xbd2e7305	-0.04259016
31	0x3c8cd5cb	0.017191788
32	0xbd35fbea	-0.044429697
33	0xbebf7f6e	-0.3740191
34	0xbe4646aa	-0.19362894
35	0x3de464b6	0.111520216
36	0xbc723c41	-0.014784873
37	0x3e944fba	0.28967077
38	0xbd4e9df5	-0.05044361
39	0xbd04da70	-0.03243488
40	0xbda3580a	-0.079757765
41	0xbd6c5dd1	-0.057706658
42	0x3d88141c	0.066444606
43	0x3e91d8b0	0.28485632
44	0xbd433fbd	-0.047668207
45	0x3d6785a0	0.05652392
46	0xbe92bd85	-0.28660217
47	0xbed58a98	-0.417073
48	0xbe3b2977	-0.18277536
49	0xbddcd570	-0.107828975
50	0xbe8f0e14	-0.27940428
51	0x3df747b1	0.12074221
52	0xbd7d6eeb	-0.061873358
53	0xbe2b8e11	-0.16753413
54	0xbe57af6a	-0.21063009
55	0x3e8d9fe0	0.27661037
56	0xbb7dbe9f	-0.0038718355
57	0xbe7a9f03	-0.2447472
58	0x3dc1582e	0.09440647
59	0x3d4d82b8	0.05017349
60	0xbc8dbdf1	-0.017302485
61	0xbe1291d2	-0.14313439
62	0xbdbc940c	-0.09207925
63	0x3e49a7b3	0.19692878
64	0xbe8c2349	-0.2737067
65	0xbdab9284	-0.08377555
66	0xbe947c2c	-0.29000986
67	0xbc2835fd	-0.010266778
68	0x3b643fb7	0.0034828016
69	0x3d066c06	0.032817863
70	0xbeb36f9e	-0.35046095
71	0xbd75456e	-0.059880666
72	0x3c25f1f4	0.010128487
73	0x3dabd42a	0.083900765
74	0x3d9773e3	0.073951505
75	0x3e3b9f41	0.1832247
76	0x3e3ed1bf	0.186347
77	0xbf2107b7	-0.62902397
78	0xbd6bd09a	-0.057571985
79	0x3da476bd	0.0803046
80	0xbe760c3d	-0.24028106
81	0x3dc15731	0.094404586
82	0xbdf3fd60	-0.11913562
83	0xbea6c1d0	-0.32569742
84	0x3e21bd2a	0.15794817
85	0x3e75e352	0.24012497
86	0x3d286c8a	0.041119136
87	0x3d617a84	0.05504848
88	0xbe4f606c	-0.20251626
89	0xbe0c58bf	-0.13705729
90	0xbe217d57	-0.1577047
91	0xbd26d153	-0.04072697
92	0x3d01287f	0.03153276
93	0xbde8ae91	-0.11361421
94	0x3e2a16ab	0.1661021
95	0x3e35b80e	0.17745993
96	0x3d4d2c2b	0.05009095
97	0x3dd7eba3	0.10542991
98	0x3e24c4df	0.16090725
99	0x3e6c54ca	0.2307922
100	0xbdab2980	-0.08357525
101	0xbda93745	-0.08262495
102	0x3e80548f	0.25064513
103	0x3ded84cc	0.115975946
104	0x3e35e234	0.17762071
105	0x3db510ee	0.0884112
106	0x3dc8addd	0.09798787
107	0x3e4de982	0.20108607
108	0xbd1c90ab	-0.038223904
109	0xbb313a1d	-0.0027042695
110	0x3dc83c61	0.09777141
111	0xbe2fb2d1	-0.17158057
112	0x3baa3bf4	0.0051951353
113	0xbce93322	-0.028466765
114	0xbe965af5	-0.2936627
115	0x3d8884c6	0.066659495
116	0x3dd2e221	0.10297037
117	0xbebac037	-0.36474773
118	0x3d7720ef	0.060334142
119	0xbd89ca88	-0.06728083
120	0xbed263de	-0.41091818
121	0x3d3cbbd7	0.046077576
122	0xbd49b3d7	-0.049243774
123	0x3e266d32	0.16252592
124	0xbf389b27	-0.72111744
125	0xbe2c15e3	-0.16805224
126	0xbea8441a	-0.32864457
127	0x3da1ab73	0.078940295
128	0x3c820243	0.01587022
129	0xbea5448d	-0.32278863
130	0xbc0572b8	-0.008145027
131	0x3c8600de	0.016357835
132	0x3d3c23a6	0.045932434
133	0xbed246f8	-0.4106977
134	0x3d9e142a	0.0771869
135	0xbc48f6dc	-0.012265887
136	0x3e8a4d82	0.2701226
137	0xbedd1f68	-0.43188024
138	0xbe96a83d	-0.2942523
139	0x3ee8969f	0.45427415
140	0x3de293c3	0.110633396
141	0x3c8ea8f3	0.017414546
142	0x3de4e9af	0.11177384
143	0xbe498534	-0.19679719
144	0xbd8a536a	-0.06754191
145	0x3cf01289	0.029305713
146	0x3918de95	0.00014578768
147	0x3e43c050	0.1911633
148	0x3d9fa834	0.07795754
149	0x3e5f1756	0.21786246
150	0x3e379b54	0.17930347
151	0x3caeb597	0.021326823
152	0x3cf1c925	0.029514858
153	0x3df79081	0.12088109
154	0x3d4ef386	0.05052521
155	0x3d8f75d5	0.070048966
156	0x3d751118	0.059830755
157	0xbe046520	-0.12929201
158	0xbcb4a20e	-0.02204993
159	0xbc766228	-0.015038051
160	0xbe2f9910	-0.17148232
161	0x3cc6fbf2	0.024290059
162	0x3d82ec3a	0.06392713
163	0xbda9810b	-0.08276566
164	0x3dec87ee	0.11549364
165	0x3e945359	0.2896984
166	0x3c38cd45	0.011279409
167	0x3d711a17	0.05886277
168	0x3e20dd3a	0.15709391
169	0x3eab283f	0.33429143
170	0x3d921e44	0.07134679
171	0x3ed6e822	0.41973978
172	0xbde5759d	-0.112040736
173	0x3e18f52c	0.14937276
174	0x3de1c2b0	0.11023462
175	0xbe80bdac	-0.25144708
176	0x3ea18eb5	0.3155419
177	0x3d9bae8f	0.07601654
178	0xbe1b7bac	-0.15183896
179	0xbd186e96	-0.037214838
180	0xbd6303e1	-0.05542362
181	0xbe015701	-0.12630846
182	0xbdf93e50	-0.12170088
183	0x3da4c595	0.08045498
184	0xbe512d9b	-0.20427553
185	0x3e88aaa2	0.26692683
186	0xbe3a89c3	-0.18216614
187	0xbe07065d	-0.13186021
188	0xbe9bb328	-0.30410123
189	0x3d532c67	0.051556017
190	0x3d4dc908	0.050240546
191	0x3e967eb4	0.29393542
192	0xbbe24e77	-0.0069063264
193	0xbe137d12	-0.1440318
194	0x3e15620c	0.14588183
195	0x3cf0f9f8	0.02941607
196	0x3ea0ec01	0.31430057
197	0xbde3ef7c	-0.111296624
198	0x3e023730	0.12716365
199	0xbe48569d	-0.1956429
200	0xbb8bb8fc	-0.004263995
201	0x3dc7162d	0.097210266
202	0x3d9f58c9	0.07780606
203	0x3e2d8767	0.16946183
204	0x3e072df0	0.13201118
205	0x3d3259b1	0.043542568
206	0xbd740c7c	-0.05958222
207	0xbd670ce8	-0.056408793
208	0x3e1c70f9	0.1527747
209	0x3e6a6729	0.22890915
210	0x3b26ef6e	0.00254723
211	0x3e582de6	0.21111259
212	0x3e848d83	0.25889215
213	0xbd0876a1	-0.03331626
214	0x3f219d91	0.6313105
215	0xbdb46940	-0.08809137
216	0x3d16e353	0.036837887
217	0xbd933f41	-0.07189799
218	0xbddec9cf	-0.10878336
219	0xbe368254	-0.17823154
220	0xbf0585a4	-0.52157044
221	0x3dc4f322	0.096166864
222	0xbdd84274	-0.1055955
223	0xbdd7749b	-0.105202876
224	0xbd9a21d0	-0.075259805
225	0xbd389650	-0.045065224
226	0xbd9cdfb2	-0.07659854
227	0x3e648ace	0.22318575
228	0xbd0c9be6	-0.034328364
229	0xbcb1a783	-0.021686321
230	0xbe958147	-0.29200193
231	0x3df26bff	0.11837005
232	0x3ebd045c	0.36917388
233	0xbd93b79d	-0.07212756
234	0xbd8c11d1	-0.06839336
235	0x3e2b3cae	0.16722366
236	0xbd51a33c	-0.051181063
237	0xbe4b36ff	-0.19845198
238	0x3ea1b1aa	0.3158086
239	0x3e15e0bb	0.14636509
240	0xbea1f4ae	-0.31631988
241	0x3db81593	0.0898849
242	0x3e9a7aa7	0.301717
243	0xbe04db17	-0.12974201
244	0x3e6a01d6	0.22852263
245	0xbd9a144b	-0.07523402
246	0xbe495cfe	-0.1966438
247	0xbba1bbb7	-0.0049357074
248	0x3bbfe992	0.005856701
249	0xbe80f168	-0.25184178
250	0xbf0cf6c8	-0.5506406
251	0xbe5b4729	-0.21413864
252	0xbda9f0a9	-0.082978554
253	0xbe1335fb	-0.1437606
254	0x3ca0130d	0.019540334
255	0x3d9c8296	0.07642095

autoencoder.decoder.2.bias f4 [16]
0	0xbf45e445	-0.77301437
1	0x3f636b91	0.8883601
2	0xbec68735	-0.3877503
3	0xbec474cf	-0.38370368
4	0x3c0350ca	0.008014867
5	0xbdce200c	-0.10064706
6	0xbe2b5ad3	-0.16733865
7	0xbe9edbc6	-0.3102705
8	0x3f0748a3	0.5284521
9	0x3f095e45	0.5365947
10	0xbe342047	-0.17590438
11	0xbe8b6e42	-0.27232558
12	0xbeac5a27	-0.3366253
13	0xbe97c354	-0.2964121
14	0x3dcbce6f	0.099514835
15	0x3ce6a0f5	0.028152922

autoencoder.decoder.4.weight f4 [16, 8, 5, 5]
0	0xbdda39a0	-0.10655522
1	0xbce8ef2c	-0.028434359
2	0xbdbca744	-0.09211591
3	0x3c63b20b	0.013897429
4	0xbe0469f0	-0.12931037
5	0xbc8df3c7	-0.017328156
6	0xbda2eb22	-0.07955004
7	0xbe06fb00	-0.13181686
8	0x3d25436d	0.040347505
9	0x3dec96ab	0.11552175
10	0x3c4cb465	0.012494181
11	0xbe245ca2	-0.16050962
12	0xbe00e76a	-0.12588277
13	0xbd4e0765	-0.05030002
14	0x3e13eb4b	0.14445226
15	0x3d069ea4	0.032866135
16	0xbe29cd95	-0.1658233
17	0x3da84f73	0.08218279
18	0x3d63a450	0.055576622
19	0xbc53c7f8	-0.012926094
20	0x3c4c01b7	0.012451581
21	0xbd517aa3	-0.051142346
22	0xbd2deca3	-0.042462002
23	0xbe5117b5	-0.204192
24	0xbdd5d1bc	-0.10440394
25	0xbdba81a6	-0.0910676
26	0x3dd760dc	0.10516521
27	0x3de8f6aa	0.113751724
28	0x3d821414	0.06351486
29	0xbd2a8c50	-0.04163772
30	0xbccb3320	-0.024804652
31	0xbcbf4e52	-0.023352776
32	0x3db77e8b	0.08959683
33	0xbd5006cd	-0.050787736
34	0xbe02cb70	-0.12772918
35	0xbdd365e4	-0.103221685
36	0x3b925dfb	0.0044667698
37	0x3e58bfb5	0.2116688
38	0xbe75adc4	-0.23992068
39	0x3e22e73d	0.15908523
40	0xbc4ce2f4	-0.012505282
41	0xbd26e70f	-0.0407477
42	0x3e39ac3b	0.18132107
43	0x3c95dd8f	0.018294124
44	0x3dccb28b	0.09994992
45	0xbd57f4c2	-0.052723654
46	0xbc9a7251	-0.018853338
47	0xbbd92fff	-0.006628036
48	0xbe365958	-0.1780752
49	0xbb96e101	-0.0046044593
50	0xbdac7744	-0.084211856
51	0xbd343ec7	-0.04400518
52	0xbb339b19	-0.0027405678
53	0x3d9009e7	0.07033139
54	0x3e1f1110	0.15533853
55	0x3d89088d	0.06691084
56	0xbe02b3fb	-0.1276397
57	0xbe3ab231	-0.18232037
58	0xbe1962ef	-0.14979146
59	0xbe136aab	-0.1439616
60	0x3c64e1c3	0.013969841
61	0xbdbbb1da	-0.09164782
62	0xbc5c0a8e	-0.013430251
63	0xbe1e878e	-0.15481398
64	0x3dc757a4	0.09733513
65	0xbe14829f	-0.14502953
66	0xbcdbea4b	-0.026845118
67	0x3c553ae4	0.013014529
68	0xbc76558c	-0.015035044
69	0xbda6e1a6	-0.08148508
70	0xbc93109b	-0.017952254
71	0x3d69e078	0.057098836
72	0xbc9988ed	-0.01874205
73	0x3da7ab1a	0.08186932
74	0xbce1bfef	-0.027557341
75	0xbd34564f	-0.044027623
76	0x3cdc21d3	0.026871597
77	0x3da4f585	0.08054642
78	0xbbc81f28	-0.0061072297
79	0xbbcb51ff	-0.006204843
80	0xbb4b2660	-0.0030998215
81	0xbd204a11	-0.039133135
82	0x3df0b9e0	0.11754203
83	0xbdcc25df	-0.09968161
84	0xbccd952f	-0.02509555
85	0x3d6397b5	0.0555646
86	0xbc9beb60	-0.019033134
87	0x3ea7bb66	0.3276016
88	0xbcbae812	-0.022815738
89	0x3daaefc6	0.083465144
90	0xbc3b2358	-0.011422001
91	0x3d9edaea	0.07756598
92	0x3e89c08d	0.26904717
93	0x3d4a5d03	0.04940511
94	0x3d4f8d40	0.050671816
95	0x3da5ccba	0.08095689
96	0x3ddc6481	0.10761357
97	0x3dc12e78	0.09432691
98	0x3ce64b1b	0.028111985
99	0x3d6a0aac	0.057139084
100	0xbd454652	-0.048162766
101	0xbc7065b6	-0.014672687
102	0x3d329538	0.043599337
103	0x3d944f69	0.07241709
104	0xbd9d7e4c	-0.07690105
105	0x3d8d0db9	0.06887383
106	0xbd9285ed	-0.071544506
107	0x3c4baf4a	0.012431929
108	0x3d5b1663	0.053488147
109	0xbdc6d9e1	-0.09709526
110	0x3dd04c16	0.10170762
111	0xbe253347	-0.16132842
112	0x3e22db97	0.1590408
113	0x3e27a378	0.16370952
114	0x3df5b08b	0.119965635
115	0x3b5291a4	0.0032130266
116	0x3c58c6f8	0.013231032
117	0x3e062e9b	0.13103716
118	0x3e2863b9	0.16444291
119	0x3c165ccf	0.009177401
120	0xbcac7944	-0.021053918
121	0x3ce0a0b6	0.027420383
122	0x3ad8d78f	0.0016543734
123	0x3d025a47	0.031824376
124	0xbc596f35	-0.013271143
125	0x3d26ceda	0.040724613
126	0x3d638532	0.055546947
127	0xbc8a969a	-0.016917516
128	0x3db45838	0.08805889
129	0xbd2027d1	-0.039100472
130	0xbda1c867	-0.07899552
131	0xbe2f7545	-0.17134579
132	0xbddbd968	-0.10734826
133	0xbd4f033c	-0.050540194
134	0x3d9b44ef	0.075815074
135	0x3c366653	0.011132794
136	0xbdb4e874	-0.088333994
137	0x3d08faf9	0.03344247
138	0x3e3c0f82	0.18365291
139	0x3b0eb5e8	0.0021775905
140	0xbe75dc13	-0.24009733
141	0x3da5d1db	0.080966674
142	0xbe5a8414	-0.21339446
143	0x3e06dbe4	0.13169819
144	0x3d61b2c7	0.055102136
145	0xbe086a15	-0.13321717
146	0xbdcee57a	-0.10102363
147	0xbe4cae09	-0.19988264
148	0xbd5fd1e9	-0.054643545
149	0xbbc668ee	-0.006054989
150	0xbdba2e66	-0.09090881
151	0xbd725324	-0.05916132
152	0xbd834215	-0.064090885
153	0xbdfd1e55	-0.12359301
154	0x3d4c9314	0.049944952
155	0x3e1ddd7d	0.15416522
156	0xbd2a769c	-0.04161702
157	0xbe5571f3	-0.2084425
158	0xbe2c89f4	-0.168495
159	0x3d559893	0.05214746
160	0x3e262d0d	0.16228123
161	0xbe26607e	-0.16247746
162	0xbdb7c5fc	-0.089733094
163	0x3c3ca30a	0.011513481
164	0x3e33a881	0.17544748
165	0x3b6e3a48	0.0036350656
166	0xbc991e2c	-0.018691145
167	0xbd0ef2dc	-0.034899577
168	0xbc43ead4	-0.011957843
169	0x3d0d2b60	0.034465194
170	0xbc08b40c	-0.008343708
171	0xbbc6b7a5	-0.0060643726
172	0xbd908ec2	-0.07058479
173	0x3d071ed0	0.03298837
174	0x3c53466e	0.01289521
175	0xbc05d7fd	-0.008169171
176	0xbd082a6b	-0.033243578
177	0x3d4ee462	0.05051077
178	0x3d7ec9a8	0.062204033
179	0x3d82dbd9	0.06389589
180	0x3ccc3b8b	0.024930736
181	0x3b31cc15	0.00271297
182	0xba451483	-0.000751801
183	0xbd4c9e1c	-0.049955472
184	0x3d301463	0.042988192
185	0x3d53189b	0.051537137
186	0xbccd5b67	-0.025067998
187	0xbbc656de	-0.006052836
188	0x3c22547c	0.009907838
189	0x3de07a74	0.10960856
190	0x3dbabc86	0.09117989
191	0x3b8bc661	0.004265592
192	0x3c150f8a	0.009097943
193	0x3d0d47c5	0.034492273
194	0xbc502587	-0.01270426
195	0x3c943bd5	0.018094936
196	0xbd5f1bf1	-0.054470006
197	0x3d0af2a6	0.033922814
198	0xbdcdf8ef	-0.10057246
199	0xbcd2be55	-0.025725523
200	0xbd3ad2e3	-0.045611273
201	0xbddb8089	-0.107178755
202	0xbe5aa8ba	-0.21353427
203	0x3d15f592	0.036611147
204	0xbdc72012	-0.09722914
205	0xbd6138a9	-0.054985676
206	0xbe0d5ab1	-0.13804127
207	0xbe9a5d15	-0.3014914
208	0xbdcf068e	-0.10108672
209	0xbe883676	-0.2660405
210	0x3cbdfc47	0.023191584
211	0xbcdef07f	-0.027214287
212	0xbe6c87a6	-0.23098621
213	0xbe91723b	-0.28407463
214	0xbe007e9a	-0.12548295
215	0xbe17041a	-0.14747658
216	0xbde93267	-0.113865666
217	0xbe15256d	-0.14565058
218	0xbdf1d98c	-0.11809072
219	0xbd7f7320	-0.06236565
220	0xbe031f19	-0.12804832
221	0xbe1f98a9	-0.15585579
222	0xbe5144b8	-0.2043637
223	0xbdd3e5b0	-0.10346544
224	0x3c65f61c	0.014035728
225	0xbcc718b8	-0.024303779
226	0xbd42075e	-0.047370307
227	0xbd5600c3	-0.05224682
228	0xbd65b3c7	-0.056079652
229	0xbdbb9f4c	-0.09161243
230	0xbdf43c1b	-0.11925527
231	0x3d36c804	0.044624344
232	0xbe02eeb6	-0.12786373
233	0xbdab440b	-0.083625875
234	0xbde5aeca	-0.11214979
235	0xbe0b281e	-0.13589522
236	0xbceffe81	-0.029296162
237	0xbe0de023	-0.13855033
238	0xbe1066c4	-0.14101702
239	0x3d619430	0.055072963
240	0x3c231983	0.009954813
241	0x3b84b512	0.0040499056
242	0xbdecd315	-0.11563698
243	0x3c015637	0.00789409
244	0xbe35223c	-0.1768884
245	0xbd5c5c65	-0.05379905
246	0xbe0b4531	-0.13600613
247	0xbde5584d	-0.11198483
248	0xbe13c210	-0.14429498
249	0xbd00f822	-0.031486638
250	0x3c113c91	0.008864538
251	0xbdbde86f	-0.09272849
252	0xbd5399e1	-0.051660422
253	0xbc86c44b	-0.016451022
254	0x3d91394f	0.07091009
255	0xbd25234f	-0.040316876

autoencoder.decoder.4.bias f4 [8]
0	0xbf0aa1fe	-0.5415343
1	0xbf06454f	-0.52449507
2	0xbef09ad9	-0.4699314
3	0xbf2c4b19	-0.6730209
4	0xbf224ac1	-0.63395315
5	0xbf1a5605	-0.60287505
6	0xbf117aa3	-0.56827754
7	0xbd3a8490	-0.045536578

autoencoder.decoder.6.weight f4 [8, 1, 2, 2]
0	0xbd968de9	-0.07351286
1	0xbe51a8c5	-0.20474537
2	0xbe717870	-0.235811
3	0xbebd75e3	-0.37004003
4	0xbe5d6749	-0.21621431
5	0x3cb65e2c	0.022261702
6	0xbc7511f3	-0.014957893
7	0x3e67d7a4	0.22640854
8	0xbd1eb291	-0.038744513
9	0xbe436761	-0.19082405
10	0xbe5cac0b	-0.21550004
11	0xbebc2346	-0.36745661
12	0x3ec6305f	0.3870878
13	0x3f0666ba	0.525005
14	0x3e5501da	0.20801488
15	0x3eb17f7a	0.3466757
16	0x3e958b6f	0.29207942
17	0xbdec90c3	-0.115510486
18	0x3ee22f39	0.44176653
19	0x3cf516b6	0.029918056
20	0xbe821921	-0.25409797
21	0xbe85368a	-0.26018173
22	0xbe7f103e	-0.2490854
23	0xbe823491	-0.2543073
24	0xbe7e6687	-0.24843799
25	0x3d98ac73	0.07454767
26	0xbda6f009	-0.08151252
27	0x3e7a60ab	0.24450938
28	0xbd8a0725	-0.06739644
29	0xbd8ac3e8	-0.067756474
30	0xbd82cb74	-0.06386462
31	0xbd802492	-0.06256975
