save_config_2/17/model_state.pth (torch, 28664 bytes, 13 tensors)

autoencoder.encoder.0.weight f4 [16, 1, 3, 3]
000000 e2 06 06 be e0 6d 63 3d 47 0f e3 3e 12 2a 04 3e
       -0.13088563 0.055524707 0.44347593 0.12906674
000010 b9 b8 93 3e f9 1d 25 3f f6 ff 69 be f2 e5 eb 3c
       0.2885187 0.6449886 -0.22851548 0.02879617
000020 0d 85 9a 3e 6f 3c ba be 2c 0e 54 be e7 15 88 be
       0.30179635 -0.36374232 -0.20708531 -0.2657921
000030 bd 6e eb be 22 6f ba be e6 fb bd be b7 03 14 bf
       -0.45982924 -0.36412913 -0.37106246 -0.5781817
000040 45 ed b8 be ef f0 18 bf 84 07 e0 3d fe 2b 8e 3e
       -0.36118522 -0.59742635 0.109389335 0.27767938
000050 25 5b 96 be 0c 59 dd 3e 7b b7 f0 3e 8b 1a d4 ba
       -0.29366413 0.43232 0.47014984 -0.0016182227
000060 17 a5 24 3e e3 6a 0a 3e 8d 82 9b be 40 80 47 be
       0.16078602 0.13517337 -0.3037304 -0.19482517
000070 af 0e fb bd 7a 10 95 3e b0 a8 95 3c 5d ef b7 bb
       -0.1225866 0.29114133 0.018268913 -0.005613251
000080 16 5f 4d 3d a9 70 00 3f ad c5 0d 3f b9 21 05 3e
       0.05013951 0.50171906 0.55379754 0.13001145
000090 4f 39 5c bd 5e cf 1a 3e bf 86 f4 3d 13 7e 1b bd
       -0.05376559 0.15118167 0.11939763 -0.03796203
0000a0 9e fa 6e 3d a2 87 9e 3d a9 e8 30 3e 06 c3 57 3e
       0.058344476 0.07740714 0.17276253 0.2107049
0000b0 a3 fb 51 bd 9d 2a d4 bc 77 4d 5c be 21 95 2f bf
       -0.05126537 -0.025899226 -0.21513925 -0.6858693
0000c0 18 7a 61 3d 22 db 13 be 69 2e 10 bf 6f d9 5b 3d
       0.05504808 -0.14439061 -0.56320816 0.053674158
0000d0 b8 c6 88 bc 0d 27 1a bf 3f 03 09 bf 13 57 d7 be
       -0.016696319 -0.60215837 -0.5352058 -0.4205862
0000e0 0d a5 3a be 0b 99 8d be c9 d1 53 be 50 1d 22 3e
       -0.18227024 -0.27655825 -0.20685495 0.15831494
0000f0 3f af 84 bd 6d ce 5d be e0 8c 30 3d a0 34 00 bf
       -0.06478738 -0.21660776 0.0431031 -0.500803
000100 d2 25 e1 3b 63 36 03 3f 52 40 0c bf 3f c8 7c bc
       0.0068709636 0.5125486 -0.54785645 -0.015428602
000110 b6 a5 19 3e f9 65 d7 be ee 45 34 be 65 82 81 3d
       0.1500462 -0.42069986 -0.17604801 0.06323699
000120 76 47 01 3f 34 54 32 be 58 f1 03 bf 4d 77 3e 3f
       0.50499666 -0.17414933 -0.51540136 0.7440079
000130 c3 b4 08 bc 15 80 93 be 20 29 5c 3f 03 15 35 be
       -0.008343878 -0.28808656 0.8600025 -0.17683797
000140 de 76 dc be 1a 4a 15 3f 65 da f9 3e 02 84 bb 3e
       -0.43059438 0.58316195 0.48799434 0.3662415
000150 ba 77 2d 3e 27 71 bd 3d ce 87 7b 3d a6 7c e5 3d
       0.16940203 0.09250098 0.06140881 0.112054154
000160 e5 70 50 3e b9 c9 7e 3e 42 da cf 3d b0 f2 5d 3d
       0.20355566 0.24881639 0.10149051 0.054186523
000170 e8 34 1a 3d 36 6b 25 be 72 0d b4 39 d6 ac a8 bc
       0.03764811 -0.16154179 0.00034342293 -0.020590227
000180 d6 a7 2d bf e4 7d 11 bf 29 7b f7 be 14 6d 18 bd
       -0.6783422 -0.5683272 -0.4833615 -0.0372134
000190 4e 5a 24 bf e7 83 3d bf a7 d7 73 3e d3 92 b3 be
       -0.64200294 -0.7402939 0.23812734 -0.35072955
0001a0 51 9c 00 bf 8a 81 53 3d 22 5f f6 be b0 54 37 bf
       -0.5023852 0.05163721 -0.48119456 -0.716136
0001b0 c8 92 78 3e a3 ad 08 be 62 b9 6e be 70 df 01 3f
       0.24274743 -0.13347487 -0.23312905 0.50731564
0001c0 7e 2d 7c 3e 39 75 8f 3e d8 7a f3 3e 1e 94 3d 3e
       0.24626729 0.2801912 0.4755466 0.18513533
0001d0 11 78 f8 3e a3 0a bf 3e 87 ea 98 3e 74 01 89 3e
       0.48529103 0.37312803 0.2986643 0.2675892
0001e0 df 53 11 3d 2d 99 b8 3d f7 1e 01 3e c3 39 e0 be
       0.035480376 0.09013591 0.12609468 -0.4379407
0001f0 eb a6 d0 be e0 f8 9b be 93 f3 0a 3e e7 c7 ea 3e
       -0.40752348 -0.30463314 0.13569479 0.45855638
000200 fd 9a a9 3e 92 96 f9 3c b3 80 60 3e 51 9d e8 3d
       0.3312606 0.030467305 0.21924095 0.11358131
000210 16 dd f5 3c 73 9e 1c 3e 4c bb f0 bd 96 87 08 bf
       0.030012649 0.15294819 -0.11754474 -0.5333189
000220 5c 78 18 bf 95 c4 36 be 7e ea 5c be 78 5b 53 be
       -0.59558654 -0.17848428 -0.21573827 -0.20640361
000230 10 44 2f 3e 76 c3 fe bd 09 b4 26 be 0d 37 d5 3d
       0.17115808 -0.12439625 -0.16279615 0.10410891

autoencoder.encoder.0.bias f4 [16]
000000 c0 88 73 bd 64 48 3c 3e 79 69 e6 bd 23 18 35 be
       -0.059456587 0.1838699 -0.11250586 -0.17684989
000010 00 62 7f 3f cd 49 92 3f 98 91 a9 be 48 d9 9d bd
       0.9975891 1.1428772 -0.33118892 -0.07707459
000020 32 84 2a be d2 d6 5a bd 20 82 2a 3f fb 56 1f 3e
       -0.16651991 -0.053427525 0.66604805 0.15560524
000030 92 39 e0 bd ed 9f 9c 3e ff 9c 48 bf ff b3 ac 3f
       -0.10948481 0.30590764 -0.7836456 1.349243

autoencoder.encoder.3.weight f4 [8, 16, 3, 3]
000000 38 13 55 be 59 42 1c 3d b3 27 11 3e 00 51 b6 3b
       -0.20808113 0.03814921 0.141753 0.005563855
000010 d3 54 e8 bd 91 3c 38 be 29 21 5e 3e d2 fa 92 be
       -0.11344304 -0.17991854 0.21692337 -0.28706986
000020 e4 8e 4d bc 67 80 88 3c 9a fc 22 3d 45 5a 40 be
       -0.012546275 0.01666279 0.03979168 -0.18784435
000030 bc fc 04 be af 22 5a 3e 8a 06 17 be 31 b8 9b be
       -0.12987036 0.21302293 -0.14748588 -0.30413964
000040 71 c5 09 bd a5 1f 08 be 95 4e d6 3d 5f 5f 3b 3c
       -0.03363556 -0.13293321 0.10464207 0.011436312
000050 9c e3 b6 3c d0 ba bc 3d b5 6f 9b bc a9 f8 b7 bc
       0.02232533 0.09215319 -0.018974165 -0.022457438
000060 27 d2 93 bb 13 8c 3b be f0 b8 ac 3b 20 61 50 bd
       -0.004511136 -0.18315153 0.0052710697 -0.050873876
000070 34 d1 44 be 71 f5 ca 3d ab 68 2a 3c 95 5d 94 bd
       -0.1922043 0.099100955 0.010400931 -0.07244412
000080 e0 4e ec 3c 01 df 4b 3d e8 3b 85 be 4e 73 bd bd
       0.028846204 0.04977322 -0.26022267 -0.09250508
000090 eb 0d 36 be 75 15 9a bc 41 c3 db 3b c6 2d e5 bd
       -0.17778747 -0.01880906 0.0067066257 -0.11190371
0000a0 0f b4 49 bd f2 ad 4c be 0b 52 21 3d ba 29 bf 3e
       -0.049243983 -0.1998823 0.039384883 0.37336522
0000b0 d5 4c 89 bd c1 ff 92 be 03 74 6b 3e d8 5d 4d be
       -0.06704108 -0.2871075 0.22993474 -0.2005533
0000c0 75 01 e5 3d 3d 15 bd 3e 3f 19 86 be 40 66 e6 3e
       0.111819185 0.36930266 -0.26191136 0.44999886
0000d0 6d af dc 3e 84 84 9c bc 98 db 1e 3e 28 7c ce 3d
       0.4310259 -0.019106157 0.15513456 0.10082275
0000e0 c9 d6 65 bd 62 b2 1a 3d 36 e5 85 bc 14 74 36 3e
       -0.05611304 0.037767775 -0.016344648 0.17817718
0000f0 44 e3 02 be 4d 80 43 be 64 e2 36 3e 2b b0 a3 3d
       -0.12782007 -0.19091912 0.17859799 0.07992586
000100 ee 67 77 be 18 ed b8 bd a5 83 2b 3e 14 52 2e be
       -0.2416074 -0.09029597 0.16749437 -0.17023498
000110 da f5 70 bd d4 99 13 be 31 b8 3f bd 5a ec 02 bd
       -0.058828212 -0.1441415 -0.046806518 -0.031963684
000120 8f 9c a1 3d 2b cc d0 3d 9e 3f 10 3d 0a ec db 3d
       0.07891189 0.10195192 0.03521692 0.1073838
000130 9e b5 12 be 69 26 27 3e 94 3c 08 3e c7 4b c3 bd
       -0.14327094 0.16323246 0.13304359 -0.09535938
000140 9f d9 26 3e 5c c3 2f bd 64 47 90 bd d6 7c 89 3d
       0.16293953 -0.04291092 -0.07044867 0.06713264
000150 9f 4c ce bd c6 2b f0 bd 8b f5 23 be 80 ef 08 3e
       -0.10073208 -0.11727099 -0.16011636 0.13372612
000160 d9 38 ce be bc 94 96 bc d6 dd c3 3c ea 8b 8a 3e
       -0.40277746 -0.018381469 0.02390949 0.2705987
000170 fa 48 ea 39 c7 a7 16 3e 7f 23 78 3e 5d 9d 43 bd
       0.0004468633 0.1471244 0.2423229 -0.047757495
000180 02 22 d4 bd 14 82 de 3e 7a 99 54 3c 7b 6f 0d be
       -0.10358049 0.43458617 0.012976045 -0.13812058
000190 c2 88 e9 3d 0a a3 0f be df f8 c3 bd e5 94 6c 3e
       0.114030376 -0.14027038 -0.09568953 0.23103674
0001a0 4b 00 6e be 94 43 83 bd 4f 50 07 be 87 2e 3d be
       -0.232423 -0.06409374 -0.13214229 -0.1847478
0001b0 3f 64 49 bc c8 68 37 bd 68 4a 18 3d 46 cf 46 3c
       -0.012291967 -0.04477766 0.037180334 0.012134379
0001c0 c6 fb 42 bd 6b 44 33 bd 88 c3 fa 3d 25 e7 6a be
       -0.04760339 -0.04376642 0.12244326 -0.22939737
0001d0 71 22 f3 3b 9d 6a a0 3d 03 7a 6a bb 7e 0e 38 bd
       0.007419877 0.07832835 -0.003577829 -0.044935696
0001e0 9b a1 7c be 45 eb 80 3d 6c 7f b0 be 23 17 9e 3c
       -0.24671023 0.06294874 -0.34472215 0.019298142
0001f0 dd 91 3b be 4e 6b d3 3d 0a dc 29 3e a2 19 47 be
       -0.18317361 0.10323201 0.16587844 -0.19443372
000200 88 41 b5 3d 05 63 23 3d 09 c8 89 be ac 30 9c 3d
       0.0885039 0.039889354 -0.26910427 0.07626471
000210 98 2d 05 be 31 4b f9 be bf 2e af 3c d7 2b 7f be
       -0.13005674 -0.4869018 0.021384595 -0.24919067
000220 c7 0f 64 3e b3 2e b4 be f0 dc 73 be 09 52 27 3e
       0.22271644 -0.3519188 -0.2381475 0.16339888
000230 2e b3 ce be b8 f4 68 bd ba 71 04 3f ca 90 9e 3d
       -0.40371078 -0.056874007 0.5173603 0.0774246
000240 9d 53 17 3e 7d f3 1e bd 87 0c 83 bc 31 6c 80 be
       0.1477799 -0.038806427 -0.015997184 -0.25082543
000250 6b 8b 07 bc 31 17 f2 bd 50 d0 04 3e ab 78 c2 3d
       -0.008272986 -0.1182083 0.1297009 0.09495672
000260 8b 76 18 3e 99 a9 38 bd f4 03 9e bc 4a 07 86 3d
       0.1488897 -0.045083616 -0.019288994 0.06544359
000270 83 e5 c0 3d 3a dd 09 be d4 36 bb bd fe 88 2e bc
       0.09418776 -0.13463297 -0.09141317 -0.010652779
000280 33 d0 a6 3d 27 55 3a 3d ee d6 a7 3d 79 51 01 3d
       0.081451796 0.045491364 0.081952915 0.03157184
000290 df e1 f1 bb 48 c6 36 be 57 75 3e be ec 14 38 bc
       -0.0073816623 -0.17849076 -0.18599449 -0.011235457
0002a0 e2 44 87 3d 1e 9f f9 bd 00 7d b0 3c 9d 13 1b 3e
       0.06604935 -0.12188552 0.02154398 0.151442
0002b0 b8 e0 ab bb 31 cb 8a bb ab 99 3a be 45 f1 1e bd
       -0.0052452944 -0.004235648 -0.18222682 -0.03880431
0002c0 80 d8 8e bd 61 79 b0 3d 46 72 20 bd c2 6c 69 3d
       -0.06974888 0.08616901 -0.03917148 0.056988485
0002d0 48 d2 0f 3e e0 76 20 3e 58 ed 2c 3e 81 17 03 3c
       0.1404506 0.15670347 0.16887414 0.008001209
0002e0 95 bb 83 3d 71 f9 17 3e 4c 4a 0b 3e 11 b5 ee 3d
       0.06432263 0.14841248 0.13602561 0.116556294
0002f0 90 46 63 3e eb dd 38 be 3c 2d d0 bd ee c9 a0 b9
       0.22194886 -0.18053405 -0.10164878 -0.00030668027
000300 58 14 99 3d 74 e2 f3 bd 93 1e 6f bd e9 6d 2d be
       0.074745834 -0.11908427 -0.058378767 -0.16936459
000310 73 66 d5 bb 50 ce 2a be fd 65 b9 bc 57 2c 0a be
       -0.006512457 -0.16680264 -0.02263164 -0.13493477
000320 f2 c6 16 be b0 c5 51 3a 00 49 8e be 7d 2b ef bd
       -0.14724329 0.0008002175 -0.2779007 -0.116782166
000330 e0 70 07 bd 4d e4 35 be 37 6e bf bd c9 27 ea bd
       -0.03306663 -0.17762871 -0.09347194 -0.1143337
000340 f9 ae 85 bd 55 af 50 3e ea bd 59 bd c8 35 8c be
       -0.06527514 0.20379384 -0.05315963 -0.27384782
000350 61 14 42 bd 24 46 85 3d 23 ec 97 bd c2 91 ac 3d
       -0.047382716 0.06507519 -0.074180864 0.084262386
000360 58 eb 16 be bd 9b ec 3d 1f 49 62 3d c9 e2 c1 bd
       -0.14738214 0.11553142 0.055245515 -0.09467084
000370 b2 f2 66 bd ec 1f c6 3c 73 01 c4 3d 0b 71 00 bd
       -0.056383796 0.024185143 0.09570589 -0.031357806
000380 3f fb 77 bd bd 6c 30 3e 8d 30 8b 3b 9c ec a0 3d
       -0.06054234 0.1722898 0.004247731 0.0785763
000390 cd 00 04 3c 68 55 5e bd 6b 56 a9 bb 2b b1 91 3d
       0.008056832 -0.05428067 -0.0051677725 0.0711387
0003a0 0e d6 36 bd 50 c5 15 3e 49 4b 4f be 59 e0 29 3d
       -0.044637732 0.1462605 -0.20243563 0.04147372
0003b0 34 46 44 3d 15 f2 27 be e4 b0 0f be 4a 1a 32 bc
       0.047918513 -0.1640094 -0.14032322 -0.010870526
0003c0 1a df 1f be a8 c7 88 3d 69 45 a3 bc c7 aa 77 bd
       -0.1561245 0.066787064 -0.019930558 -0.0604656
0003d0 1c 45 d9 3d 35 7f 3e 3b d7 17 20 3e 77 9d e0 bd
       0.10608885 0.002906752 0.15634094 -0.10967534
0003e0 cf 16 a5 bd c2 19 a7 3d d2 cf 1d 3e 9a cc d3 3c
       -0.08060991 0.0815921 0.15411308 0.025854398
0003f0 5b 0c 23 3e 6a b3 0e bd 9a 2a 93 3d 7f be 36 be
       0.15922682 -0.03483907 0.0718586 -0.17846106

autoencoder.encoder.3.bias f4 [8]
000000 6e 7c 29 3e 6c fd 41 3e 4c b5 8f 3e 57 6e 36 3e
       0.16551372 0.18944329 0.28068006 0.17815529
000010 cb b8 83 3d 6d 97 0e be ba 4d 0d 3e 02 a8 95 3d
       0.06431731 -0.13924952 0.13799182 0.073074356

autoencoder.encoder.6.weight f4 [2, 8, 2, 2]
000000 30 2e 14 3f 15 a4 0f 3f 03 a3 e3 3e 1c 14 38 3f
       0.57882977 0.56109744 0.44460306 0.71905684
000010 99 b1 f8 be d4 36 b4 be 09 16 e9 be 22 37 91 be
       -0.48572996 -0.3519808 -0.45524624 -0.28362375
000020 e4 a4 37 be 90 46 a3 be 88 15 ce be b9 94 c1 be
       -0.17933995 -0.31889772 -0.40250802 -0.3780878
000030 24 2f 95 be 73 d3 dc be ca c9 e1 be 57 5f 9c be
       -0.29137528 -0.43130073 -0.44099265 -0.3054149
000040 39 18 21 be db 60 8c 3e 94 3d fd 3e 13 59 e7 3e
       -0.15731896 0.27417645 0.49461043 0.45185146
000050 b2 b3 62 3f d7 18 5c 3f e2 b3 72 3e 3f f7 df bd
       0.88555443 0.859754 0.23701432 -0.1093583
000060 3d d9 1c bd d5 70 dc 3e 99 47 26 be 90 e9 56 3d
       -0.038293112 0.43054834 -0.1623825 0.052468836
000070 8d 72 30 be 7b 46 9a be 79 6d c6 be ad 05 92 be
       -0.17231198 -0.30131897 -0.38755396 -0.28519955
000080 d9 64 0a 3f 33 af 29 3f e0 f3 22 3f 2b 2b 14 3f
       0.5406013 0.6628296 0.63653374 0.5787837
000090 90 7b 2f 3d 66 33 92 3d 8d 5a b5 3e 8a 9c d9 3e
       0.042842448 0.0713871 0.35420647 0.42502242
0000a0 a6 5e 9f 3e de d2 7f be 59 ae 12 3e a5 50 84 bf
       0.311269 -0.24982783 0.14324321 -1.0337111
0000b0 d0 a3 24 3e e7 f6 c9 3e 22 a1 06 3e 39 d7 92 3e
       0.16078115 0.39446184 0.13147405 0.28679827
0000c0 1e f4 95 bf b5 e8 6b be 64 5d e3 bf 77 35 a7 be
       -1.1715124 -0.2303799 -1.7762876 -0.32657978
0000d0 ab 30 b3 3f 1d 63 c0 3d 5f a3 ab 3d 28 d9 2b bf
       1.3999227 0.09393904 0.0838077 -0.6712823
0000e0 56 9e f6 3c 46 28 85 3f 9b 51 8c 3e cf 16 b3 3e
       0.030104797 1.0402915 0.2740601 0.3497834
0000f0 ce 82 b8 be 89 dd 83 be d2 5d a6 be b3 cd 87 be
       -0.36037296 -0.25754955 -0.32493454 -0.26524124

autoencoder.encoder.6.bias f4 [2]
000000 62 89 32 be 7c 4b 40 3c
       -0.1743522 0.011736747

autoencoder.decoder.0.weight f4 [2, 8, 2, 2]
000000 f5 a2 93 3d 20 b7 ce 3e 29 15 c2 3e 6f f2 9e be
       0.07208816 0.40374088 0.3790677 -0.31044337
000010 36 71 fc be cd a0 88 be a8 d2 e8 be 45 f4 48 bd
       -0.49305123 -0.2668518 -0.45473218 -0.04906108
000020 aa 6b ff be 6b 69 a7 bc d1 1b 6f be 4b 5a fa bd
       -0.4988683 -0.02043601 -0.23350455 -0.12224253
000030 b6 48 96 bd f7 21 0e bf fd 24 86 3c 37 c1 97 38
       -0.07338087 -0.55520576 0.01637506 7.23623e-05
000040 2e aa 4d 3e 40 5b b6 39 e0 ca a0 3d 4f 88 ce be
       0.2008445 0.00034781732 0.07851195 -0.4033837
000050 30 32 8f 3e 47 b4 42 3e 0b b9 92 3e f0 da 33 3e
       0.27967978 0.19014083 0.28656802 0.17563987
000060 51 31 f9 bd 5a c1 5a 3c 3d 8b aa 3e 00 70 63 3d
       -0.121676095 0.013351763 0.33309355 0.055526733
000070 46 a7 52 3e da 99 b8 ba 92 38 f6 3d dc 82 97 bd
       0.20571622 -0.0014083937 0.12022509 -0.07398006
000080 b6 56 28 3f a0 c4 33 be 0b 6e aa 3f 63 9b b5 be
       0.6575731 -0.17555475 1.3314832 -0.35470113
000090 16 bd c8 bd 4c 6e 6d 3e 8d 24 92 3e 70 25 83 3d
       -0.0980169 0.23186606 0.2854351 0.06403625
0000a0 34 83 28 bf aa 6e de 3e 93 85 66 3f bc 6a da 3e
       -0.658252 0.43443805 0.9004757 0.42659557
0000b0 64 7d 06 3f 89 83 f9 be 43 8b 10 3e d6 12 f0 bd
       0.5253508 -0.48733166 0.14115624 -0.11722343
0000c0 47 10 4e bb 11 88 81 3e b5 38 16 3a d6 0f 72 3e
       -0.0031442808 0.25299123 0.0005730496 0.23638853
0000d0 1f de 2c 3e 52 0e 27 be ad 52 7a 3e cc 8a 74 be
       0.16881607 -0.16314057 0.24445601 -0.23881072
0000e0 93 40 19 bf 56 18 76 3f cf ad 4f 3f 6b a8 56 3f
       -0.5986416 0.96130884 0.81124586 0.83850735
0000f0 a7 cd 0d bf 23 5b 63 bf 92 16 54 bd 0f 55 f8 be
       -0.55391926 -0.8881094 -0.051779337 -0.48502395

autoencoder.decoder.0.bias f4 [8]
000000 c9 f5 10 be 95 7f ce be ef 51 f0 3e 70 1f 94 3e
       -0.1415626 -0.40331712 0.4693751 0.28930235
000010 c8 fc 8f 3f a3 da 20 be 01 5a 25 bf 8d 73 7f 3e
       1.1249018 -0.15708403 -0.6459046 0.24946423

autoencoder.decoder.2.weight f4 [8, 16, 3, 3]
000000 9b 41 88 be 98 f6 77 3e 9a 79 49 3e fc 27 9c bc
       -0.26612553 0.24215162 0.19675294 -0.019062035
000010 c1 83 74 3e 0b 04 8e 3e e2 ad 5c bd e4 6d 0f 3f
       0.23878385 0.2773746 -0.053876765 0.56027055
000020 43 68 9c be 5c 77 81 3e 52 ad 8d 3d 26 14 78 3e
       -0.30548295 0.25286376 0.06917824 0.24226436
000030 85 4a c1 3e 6c 01 12 be 8f 70 42 3e 1b bd 8b 3e
       0.37752166 -0.14258355 0.1898825 0.27292714
000040 a3 29 b7 3d 55 ff c4 3c 26 4b f1 3d 32 37 76 3e
       0.089434884 0.024047533 0.117819116 0.24044493
000050 02 97 b2 3e cf 2d 61 3e 1c bd fc 3e 33 24 3c 3e
       0.34880835 0.21990131 0.4936303 0.18373184
000060 0a 6c f7 3d 15 64 ca 3e 5e a5 e7 3e 64 b2 e2 3b
       0.12081154 0.39529482 0.45243353 0.0069182385
000070 f9 b6 3f bb 4a 09 69 bb 8f 5e 7a 3d d3 41 bb bd
       -0.0029253347 -0.0035558515 0.061125334 -0.09143414
000080 7f 09 59 3e 9f b2 1e 3d ed a7 ed 3d 06 1f 7f bd
       0.21195029 0.038744565 0.11604295 -0.062285446
000090 1a 69 2b bd f3 cd 81 3d 49 d0 ab 3e e6 48 5a 3e
       -0.04184828 0.0633811 0.33557346 0.21316871
0000a0 d8 7c b7 3d a1 42 25 be 27 07 dc 3e c6 15 8a be
       0.08959359 -0.16138698 0.42974207 -0.26969737
0000b0 fd 4d ae bc 59 5d 6e 3e e6 75 ac 3e a8 47 99 be
       -0.021277422 0.23277797 0.336837 -0.29937482
0000c0 72 be 12 3e e8 dd 67 3e ef 7f 5d be c5 57 9c 3e
       0.14330462 0.22643244 -0.21630834 0.30535713
0000d0 4c 9f a6 3d a6 c7 0d bf 45 64 2c 3e 03 01 2d 3e
       0.08135852 -0.55382764 0.16835125 0.16894917
0000e0 3c 91 07 3d 38 c8 27 be a0 46 39 3d 92 aa 6e 3e
       0.03309749 -0.16384971 0.04523337 0.23307255
0000f0 38 9e 48 3e 60 da 27 be ff 92 5c be c4 39 30 be
       0.19591606 -0.16391897 -0.2154045 -0.17209536
000100 e6 90 92 bd ed 12 bd 3e 73 21 f7 3d 1c 92 3d 3d
       -0.071565434 0.36928502 0.12066927 0.04628192
000110 fc d1 16 3e 42 da fb 3d 36 48 04 3e f0 7d 33 3e
       0.1472854 0.12297489 0.12918171 0.1752851
000120 44 99 de 3d 9b 0a 79 be 76 2d 96 3e 30 8e 35 3e
       0.10869077 -0.24320452 0.2933156 0.17730021
000130 c6 81 44 be 26 a8 8e 3e 39 ec 97 3e 44 35 27 3e
       -0.1919013 0.27862662 0.2967241 0.16328913
000140 12 d9 c2 3d f0 41 31 3e 84 77 97 3e 34 26 5c 3d
       0.09514059 0.1731031 0.2958337 0.05374737
000150 29 3c 78 bd f9 fe 4d 3b 8b 89 67 3e 7d ef 1e 3e
       -0.06060425 0.0031432493 0.22611062 0.15521045
000160 9b e3 a6 3e 12 82 1d 3d d6 1c 03 be 5e 5f 84 3e
       0.32595524 0.038454123 -0.12803969 0.2585401
000170 95 b3 fb 3d 53 99 3f 3e 27 e5 27 3d d3 7e 17 3e
       0.12290112 0.18710832 0.04099002 0.14794473
000180 4c 87 db 3d f2 91 64 be 2a e2 39 3e 90 8e 52 3e
       0.10719165 -0.22321299 0.18152681 0.20562196
000190 c6 a1 78 bd a5 ee 08 3e 5f d6 76 3e 19 8e e6 3c
       -0.060701154 0.13372286 0.24105214 0.02814393
0001a0 35 ef ea 3e a8 26 24 be ba d6 cc 3e 67 66 53 3e
       0.45885625 -0.16030371 0.40007573 0.20644532
0001b0 00 92 65 be d4 4a 96 3c b8 72 69 3d f5 74 89 3e
       -0.22418976 0.018346228 0.05699417 0.26847044
0001c0 46 b1 44 3d 94 fd 42 bd f1 9c a5 3d c5 e6 cb bc
       0.048020624 -0.047605112 0.08086575 -0.024890313
0001d0 cc 5e 97 3e 42 c6 d0 bc c1 8c 22 3e 88 7d d2 3d
       0.29564512 -0.025485162 0.15874006 0.102778494
0001e0 8c f9 08 bf 4a 6c 99 3e 91 b0 8d bc 51 cf fd be
       -0.5350578 0.2996543 -0.017296107 -0.49572232
0001f0 87 cc 9c 3e 34 08 3d 3d da 74 83 3e a1 5a f4 3d
       0.30624792 0.0461504 0.25675088 0.119313486
000200 81 a0 06 3d 05 68 9c be 94 71 6b 3d 21 8c 86 3d
       0.032867912 -0.3054811 0.057481363 0.06569696
000210 91 70 44 bd 64 95 59 be de 56 1f 3e ea b3 7a 3e
       -0.047958914 -0.21248394 0.15560481 0.24482694
000220 7b 94 58 3e 80 97 5f be 30 7c 71 bc 8a 21 d8 bd
       0.21150391 -0.21835136 -0.014739081 -0.10553272
000230 0e 8d a1 3b 6d a4 db 3d b7 60 34 3e 95 96 9b bd
       0.004930145 0.10724721 0.17615019 -0.075970806
000240 51 6c 4f be 54 46 99 bc 9c 76 4d 3e fc 88 4c 3e
       -0.20256163 -0.018710293 0.20064777 0.1997413
000250 ea 5e b1 3e 30 b7 95 3e 2e 3c a2 bd 16 10 f2 bd
       0.34642726 0.29241323 -0.079216346 -0.118194744
000260 c4 bf 21 3d 0a 98 20 bd bd fd 3e 3e 31 30 5d 3e
       0.039489523 -0.039207496 0.18651481 0.21600415
000270 71 cb 45 3e ec d7 49 be 95 4c 8a 3d f5 6c 01 bd
       0.19315888 -0.19711274 0.06752888 -0.03159805
000280 0a 86 27 3e b3 98 87 3e 1e c2 8e bd f4 d1 c4 be
       0.16359726 0.26483688 -0.06970619 -0.38441432
000290 dc 6a 53 bd d0 14 81 3e e1 b2 fb be 41 35 01 bf
       -0.05161558 0.2521119 -0.4915991 -0.50471884
0002a0 3b 04 09 be a4 cc cc 3e 4e 3a ce bc b2 b6 98 3d
       -0.1338052 0.39999878 -0.025174286 0.07456721
0002b0 ce b4 b1 3e ef 32 3f 3d f5 56 e4 bd 40 63 33 3e
       0.34708256 0.046679433 -0.11149398 0.1751833
0002c0 1d b2 5f 3e b6 e8 4a 3d e3 67 0e 3e 0b cd 11 3e
       0.21845289 0.049538337 0.13906817 0.14238374
0002d0 71 3b 9d 3e f1 4f a1 be 66 68 96 3e 20 18 98 bd
       0.30709413 -0.31506303 0.29376525 -0.074264765
0002e0 42 48 a1 bc 16 2e 5f 3d c1 11 18 be 97 96 1e be
       -0.019687776 0.05448731 -0.14850523 -0.15487133
0002f0 6d 62 f3 bd b0 05 51 3d 46 14 d5 be 15 50 27 bc
       -0.118840076 0.051030815 -0.4161703 -0.010211964
000300 56 0c 6f bd a8 de cb be c9 f2 e4 3c ca c6 a1 3d
       -0.058361374 -0.3981831 0.0279478 0.07899244
000310 40 31 39 3e a3 fe 90 3e 51 8d af 3e 78 d6 03 3e
       0.18085194 0.28319272 0.34287503 0.12874782
000320 dd 75 af bc 52 1c 59 3e cc 18 ec 3e 59 9e 88 3d
       -0.021418506 0.2120221 0.4611267 0.066708274
000330 8e 56 3b 3e cb f7 3b 3e 09 f8 be 3d 1b e2 f8 3d
       0.18294737 0.18356244 0.09324653 0.12152501
000340 ef 31 8d 3d 76 a7 52 3d 60 f3 89 bc 49 d3 89 3c
       0.0689429 0.051429234 -0.016839683 0.016824381
000350 b8 8f 1e be 71 d2 f2 bc 92 01 96 3d aa c6 68 be
       -0.15484512 -0.029641362 0.07324518 -0.22732034
000360 87 82 83 be e6 6c 3f 3e f0 92 32 be f6 bd 5f be
       -0.25685522 0.18693885 -0.17438865 -0.21849808
000370 0b 91 e2 bd 78 45 3d 3e db 00 ab 3d 5d 69 c9 bd
       -0.11062821 0.18483531 0.083497725 -0.098345496
000380 a0 7b 70 bc 6d 48 ed ba 33 00 55 3d 27 49 8a 3c
       -0.014677912 -0.001810325 0.052002143 0.016880585
000390 f9 b9 df 3d 3b 62 74 be 31 ce 8e 3e 54 1b 76 3d
       0.10924143 -0.23865597 0.27891687 0.060084656
0003a0 17 58 c7 bc 1a f7 49 3e a8 3b f0 bb 34 e0 de 3d
       -0.024333997 0.19723168 -0.0073313303 0.10882607
0003b0 ab 52 86 be d3 ae c4 3e 44 91 31 3e ae 12 aa 3d
       -0.26234946 0.3841463 0.1734057 0.08304344
0003c0 2d b2 45 3e ac c2 92 3e 1d 41 37 3d e4 db 4f 3d
       0.1930625 0.28664148 0.04473983 0.050746813
0003d0 17 3f 43 be c7 6c 6c 3d 56 ac 37 3e 4d c7 fd 3d
       -0.19067036 0.057720926 0.17936835 0.12391529
0003e0 ab 6e fd be 75 03 29 be 82 f3 25 bf 87 ef 4e be
       -0.49498495 -0.16505225 -0.6482469 -0.2020856
0003f0 41 03 b8 3d 60 43 a6 bd fc a4 86 be f9 ce 9f 3e
       0.08984996 -0.081183195 -0.26297748 0.31212595

autoencoder.decoder.2.bias f4 [16]
000000 5d 83 12 bf 37 f9 a2 3d b1 d4 7c be 27 0a 7e be
       -0.57231694 0.0795769 -0.2469051 -0.2480856
000010 27 b2 31 bf 8b fd bc bc 96 5d 6d bf 0c d0 00 be
       -0.69412464 -0.023070117 -0.92720926 -0.12579364
000020 60 15 01 bf 1a 77 e0 be 38 04 ea be 8c 37 23 bf
       -0.5042324 -0.43840867 -0.45706344 -0.6375663
000030 79 ca 28 bf 01 c9 06 bf 80 e8 49 bf 3a 01 97 3e
       -0.6593395 -0.5265046 -0.7887039 0.29493123

autoencoder.decoder.4.weight f4 [16, 8, 5, 5]
000000 5c 0c b0 3d a0 a5 00 3e d3 cf bb bd 3a 30 fe bd
       0.08596107 0.12563181 -0.09170499 -0.12411542
000010 1a 39 8a 3d ad 47 42 3d bd 4d 17 3e 77 bc 64 bb
       0.067491725 0.047431637 0.14775749 -0.0034902373
000020 28 4e 99 bd 86 5e d1 bd 52 aa f6 3c e9 29 0b bb
       -0.0748561 -0.10223107 0.030110512 -0.0021234697
000030 fb 63 27 3e 24 dd de 3c 99 b6 9b bc 36 7f d1 bc
       0.16346733 0.027205057 -0.019007968 -0.025573354
000040 1c 9f c2 3c 59 4a 21 3d 69 66 a0 3d 8d 81 db b9
       0.02375751 0.039377544 0.07832033 -0.00041867458
000050 c8 92 88 3e ef 0c 5a 3e 97 e4 31 3d bb d7 68 bc
       0.26674485 0.21293996 0.04343089 -0.01421159
000060 1f 94 3a bd 8f a7 27 bd e3 80 5f 3e 1b 09 84 3d
       -0.045551416 -0.04093128 0.2182651 0.06447049
000070 35 d5 b3 bc 0b a3 fc 3c 29 19 c9 3c 3e 5b 26 3e
       -0.021952251 0.030839464 0.02454813 0.16245744
000080 f3 82 34 bc a4 c9 d4 3b a8 3f e2 3d 21 94 20 3d
       -0.011017549 0.006493764 0.11047298 0.039203767
000090 de 29 76 3c c4 78 0e 3e 76 69 5b 3d 34 cd 02 3d
       0.01502463 0.13913256 0.053567372 0.03193398
0000a0 1d 79 b1 3d 89 28 a8 3d 42 26 ce 3d 64 7d b4 3c
       0.08665679 0.082108565 0.10065891 0.022032447
0000b0 ad 83 c4 bd 8f 15 b2 3d 06 c5 f0 bb e2 77 b1 bd
       -0.09595428 0.08695518 -0.007347706 -0.08665444
0000c0 10 58 10 be 66 65 32 be 99 70 01 3d 3a 4b bd bd
       -0.14096093 -0.17421493 0.031601522 -0.09242864
0000d0 f5 52 3e 3e 76 2f 19 bd 9f 14 25 3b 0b cc 79 3d
       0.18586333 -0.037398778 0.0025189293 0.060985606
0000e0 22 0f c3 bd cd aa 84 bd d2 fc 70 3d b8 ed 45 bb
       -0.09524371 -0.0647789 0.05883486 -0.0030201506
0000f0 eb 16 a3 3d 48 45 eb 3d 63 78 27 3d 58 2b 9f bd
       0.07963356 0.11487824 0.040886294 -0.07771939
000100 e5 c2 ec 3d d2 22 8b 3c ab 37 e9 3d dc 7c 04 3e
       0.11560611 0.016984377 0.11387571 0.12938255
000110 e3 ff a1 3d 22 42 94 bc 30 d6 3c bd 3b d5 1e 3e
       0.07910135 -0.01809794 -0.046102703 0.15511028
000120 67 1e 42 3d 4e 3f 0e 3e e9 7a 4b 3c 9e 6b 2c bd
       0.047392275 0.13891336 0.012419441 -0.04209482
000130 42 88 56 bc 38 76 10 3e a8 0a c3 3d f1 67 21 3c
       -0.01309401 0.14107597 0.09523517 0.009851442
000140 ad 70 d7 bd ab 47 a9 3d 73 1a 60 3e dd 88 94 3d
       -0.10519538 0.08265623 0.2188509 0.07252667
000150 29 22 78 bd df f4 f2 bd b4 89 c0 3d db e0 d2 3e
       -0.060579453 -0.11863112 0.09401265 0.41187176
000160 4f e7 68 3e 49 1b a6 3d 0a 8a 47 bc a7 c7 9e 3e
       0.22744487 0.08110673 -0.012178907 0.31011698
000170 09 7a b5 3e 5d b8 86 3e 72 53 f5 3d d4 97 4c bd
       0.35444668 0.26312533 0.119788066 -0.049949482
000180 55 f8 42 3e 9c 19 71 3e 25 4f 33 3e 3e 69 d4 3b
       0.19040044 0.23544925 0.1751066 0.0064822724
000190 14 4a 98 bd 41 30 89 bb b1 c8 23 3d 9f 90 aa 3d
       -0.07436004 -0.0041866605 0.039986316 0.083283655
0001a0 e3 e8 ef 3c 81 d3 6d bd 28 57 d4 3c 79 f0 2d 3e
       0.029285854 -0.058063034 0.025920466 0.16986264
0001b0 b9 f0 cc 3d 62 72 b1 3d b7 d6 11 be 8d b4 2b be
       0.10006852 0.08664395 -0.14242063 -0.16768093
0001c0 91 9b 82 3e 55 5b 7c 3e f1 4f 0b 3e 16 85 c7 bc
       0.25509313 0.24644215 0.13604714 -0.024355453
0001d0 e3 68 7a bd ba 99 9a 3e 7e a9 58 3e 05 6d d4 3d
       -0.061135184 0.3019541 0.21158406 0.10372356
0001e0 fd 83 9f bd 1c 62 7c 3c af a4 4c 3e a0 2a ef 3d
       -0.07788847 0.0154042505 0.19984697 0.11678052
0001f0 fb 95 58 bd 57 0f ce 3d f2 6d d1 bc 59 dd 3c 3e
       -0.052877408 0.100615196 -0.025565121 0.18443812
000200 7f fe 96 bc 35 30 1e bc d7 16 e5 3d 6f 79 90 bb
       -0.0184319 -0.009655048 0.11185997 -0.0044090073
000210 ba 64 99 3d 4f e0 20 3e 2e 2e 5c bd 00 c3 18 3e
       0.07489915 0.15710567 -0.053754978 0.14918137
000220 e7 52 0f 3e 43 d7 1b 3e 37 fc 27 bc 97 35 05 3e
       0.13996468 0.15218835 -0.010253004 0.13008724
000230 00 13 8a 3c 6a c8 62 3e ba d9 2b 3d e5 86 74 3d
       0.016854763 0.22146764 0.041955687 0.059698958
000240 ed 12 22 bd f6 51 83 3c 7e 99 84 3d ce f6 35 be
       -0.03956883 0.016030293 0.06474589 -0.1776993
000250 bb 8c b2 3d 3a 69 e0 bc ef f4 51 3e d5 51 8d bd
       0.087182485 -0.027393926 0.20503591 -0.06900374
000260 5c 24 80 bd 3e db 3c 3e 32 54 00 bd 27 ac 1e 3e
       -0.06256935 0.1844301 -0.031330295 0.15495358
000270 eb 01 98 bc 5c b5 6a 3e 2c 6c e8 3d 0a f4 8a bc
       -0.018555602 0.22920746 0.11348757 -0.01696207
000280 92 5e 4d 3c 08 89 c7 bd 8d 7e d1 bd d1 b5 4f bc
       0.012534754 -0.097429335 -0.10229216 -0.012677626
000290 bd 5d ce bd 5b 5a dd 3d bb 63 66 bd 51 4c 90 bd
       -0.10076473 0.108082496 -0.056247454 -0.07045806
0002a0 2f 13 32 be 95 63 34 bd 11 64 73 bd e7 16 8f 3e
       -0.1739013 -0.04404028 -0.059421603 0.2794716
0002b0 37 f1 26 3d db ee c9 3d 96 21 5f be 45 a2 33 3d
       0.040757384 0.09860011 -0.21790156 0.043855924
0002c0 c3 c1 6f 3d eb 74 0d 3d e8 31 78 3e c7 59 50 bd
       0.058534395 0.03453533 0.24237788 -0.05086687
0002d0 f1 98 c1 bd 2b 31 10 3e 22 c3 7a bd a5 50 eb bd
       -0.094529994 0.14081256 -0.06122125 -0.11489991
0002e0 56 b8 15 bc 16 bd 39 bd fa 34 44 be f1 e1 a4 3c
       -0.009138187 -0.045346342 -0.19160834 0.020127269
0002f0 6a 05 ec 3d ee 1a 3a be 89 28 88 3e 49 7d 12 3e
       0.1152447 -0.18174335 0.26593426 0.14305605
000300 4d cf 80 bc c8 7c d3 3c fd 13 36 3d 6d a9 a2 3d
       -0.015723849 0.025816336 0.044452656 0.07942472
000310 78 d2 23 be e7 cc 7b 3e e5 93 ce bb 22 39 c7 3d
       -0.15998256 0.24589883 -0.0063042515 0.09727694
000320 c7 60 32 3d a7 48 5a be 65 ba 9b bb 4c c2 4b bd
       0.043549325 -0.21316777 -0.0047524446 -0.049745843
000330 1c 7d 3f be 56 a6 cc 3c 19 a1 66 be a2 de 40 bd
       -0.18700069 0.024981659 -0.22522391 -0.04708732
000340 2b 7c 3e be ab 49 2f be f3 cc 57 38 22 a9 6e bd
       -0.18602054 -0.17117946 5.145087e-05 -0.058266766
000350 63 42 81 bd 8c 20 ce bd cb 36 88 be ad a7 bb 3c
       -0.063114904 -0.100648016 -0.26604304 0.022907102
000360 68 b9 c2 3d 2a 6b b0 bd 05 c3 00 be 26 0d 15 be
       0.0950802 -0.0861419 -0.12574394 -0.14555797
000370 a7 14 2b 3b d0 e6 f3 bd ab 8b c8 3d fc fc 0d 3c
       0.002610484 -0.11909258 0.097922646 0.008666273
000380 10 f0 cf bd d4 ab da bc 4d f6 15 be 3e 90 07 be
       -0.1015321 -0.026693262 -0.14644738 -0.13238618
000390 50 af 38 bd 8b 51 26 be c4 25 04 be f5 32 2a be
       -0.045089066 -0.16242044 -0.12905031 -0.16621001
0003a0 28 67 1c be 21 49 4c be e8 46 c5 bd 2c 0e 48 3c
       -0.15273726 -0.19949771 -0.09632665 0.01221041
0003b0 1e fb 30 be 20 00 10 be 77 76 47 be 3e 46 84 bd
       -0.17283294 -0.14062548 -0.19478785 -0.0645871
0003c0 e0 59 06 3d ed 7d 95 bd d0 08 2a be ac e4 4f be
       0.032800555 -0.07299409 -0.16604924 -0.20302075
0003d0 ac 66 55 bd 8e 66 6e 3d 73 a6 87 3d a4 9f 03 be
       -0.05209987 0.058203273 0.066235445 -0.12853867
0003e0 02 92 f1 bd a5 5a 0c 3d 23 12 9f 3d e3 c8 8b bd
       -0.11795427 0.034266133 0.07767131 -0.068254255
0003f0 f3 6b 10 be fb 1c b3 bd 4e 91 e9 3a 0e 1f 62 bd
       -0.1410368 -0.08745762 0.0017819793 -0.055205397

autoencoder.decoder.4.bias f4 [8]
000000 d5 31 25 bf 88 6a df be 90 f9 f5 be 58 65 17 bf
       -0.6452916 -0.43635964 -0.48041964 -0.59139013
000010 aa 2c 07 bf cc 78 10 bf 5e 48 12 bf e1 b9 1c bf
       -0.52802527 -0.5643432 -0.57141674 -0.6122113

autoencoder.decoder.6.weight f4 [8, 1, 2, 2]
000000 82 87 69 be ad c2 4d be d8 a5 cc be 28 59 be be
       -0.22805598 -0.20093794 -0.3997028 -0.37177396
000010 e3 97 dd be 40 e1 ec bb 65 cd 87 be 4c 30 34 3e
       -0.43279943 -0.0072290003 -0.2652389 0.17596549
000020 82 66 69 be 2c 5d 10 be d3 a9 04 bf 8f da db be
       -0.2279301 -0.14098042 -0.5182163 -0.42940184
000030 09 09 b3 3e f6 de 69 3f c2 ba ab 3e 3e d6 69 3f
       0.3496783 0.91355836 0.33540922 0.9134253
000040 a0 74 45 3f 61 73 88 3d d6 82 4d 3f 78 d1 9f 3d
       0.7713108 0.06662632 0.80277765 0.07803625
000050 5f d1 27 bd e2 33 d7 be a8 ef 80 3e 36 6d 12 be
       -0.040971156 -0.4203177 0.25182843 -0.14299473
000060 2a cd f5 be 6d a9 8b be e2 12 d6 be 25 52 50 be
       -0.4800809 -0.272777 -0.4181128 -0.20343836
000070 72 b8 55 be bf 9d cd be 68 65 93 be 8a 9d f8 be
       -0.20871142 -0.40159413 -0.28788304 -0.48557693
