save_config_2/15/model_state.pth (torch, 28347 bytes, 13 tensors)

autoencoder.encoder.0.weight f4 [16, 1, 3, 3]
-0.490765 -0.5752187 0.21981834 -0.3064323 -0.47228298 0.061587736 -0.48037705 -0.66541404
-0.12972751 0.34821758 -0.28869042 -0.0630322 0.44105807 -0.101813436 0.094971195 0.43911204
-0.10126433 0.018069088 -0.13808832 0.37542543 -0.046985235 -0.01917071 0.08146579 -0.22574309
0.14249185 0.1108664 -0.07134555 0.39010984 -0.4003673 -0.8001235 0.46255445 0.014209931
-0.7384824 0.63258415 0.11473412 -0.92678356 0.42027807 0.13866413 0.10257576 -0.006598945
0.053242847 -0.3784078 -0.33599618 -0.34052572 -0.79618937 -0.087987565 -0.4483457 -0.44269958
-0.09027268 -0.3225221 -0.114745334 0.013897406 -0.18125887 -0.18427247 -0.36812234 0.1698336
0.7494889 -0.04357947 0.24591236 0.4382 -0.014053704 0.011636787 0.01715206 -0.51422954
0.031036142 -0.0054360274 -0.58387494 0.012566084 -0.013080226 -0.5851329 -0.058730263 0.022978943
0.54267955 0.38040793 0.7693898 0.2910557 0.25943413 0.3778681 0.040544473 -0.0073402617
0.107049115 -0.037582196 0.14861718 0.33439007 0.10330313 0.17947996 0.5488615 0.43985972
0.6883228 0.9566162 -0.60520333 -0.5470671 -0.09938684 -0.093569055 0.12303661 0.27180535
0.6957815 0.35504988 -0.068581745 0.15977512 0.27760237 0.072247095 0.4907028 0.57338023
0.049273048 0.77446145 0.6406768 -0.116729684 0.9155856 0.46408787 0.0403701 0.3558242
-0.0007014933 -0.042207897 0.07283844 -0.11220201 0.018741895 -0.23972993 -0.5774304 -0.91905195
-0.49276355 -0.6304978 -0.5320918 -0.78666323 -0.3071231 -0.570147 0.30996987 0.19980982
-0.115591325 0.20512316 0.21580595 -0.21824335 0.08818378 0.11895503 -0.58418006 -0.31965426
0.18179601 0.14200649 -0.47603768 0.21961235 0.26811746 -0.70404726 0.235082 0.5200239
00000000: 8d45 fbbe 8841 13bf 0f18 613e b2e4 9cbe
00000010: 13cf f1be 6c43 7c3d fbf3 f5be 9358 2abf
00000020: 4ad7 04be 9349 b23e 3bcf 93be 0717 81bd
00000030: 5dd2 e13e 9083 d0bd 4280 c23d 4bd3 e03e
00000040: ac63 cfbd a005 943c 0667 0dbe c337 c03e
00000050: 9773 40bd e50b 9dbc 89d7 a63d 3229 67be
00000060: 62e9 113e ec0d e33d 9e1d 92bd 7abc c73e
00000070: f1fc ccbe e5d4 4cbf f0d3 ec3e c5d0 683c
00000080: 2f0d 3dbf 09f1 213f b9f9 ea3d b041 6dbf
00000090: b02e d73e f8fd 0d3e 3d13 d23d f63b d8bb
000000a0: 2c15 5a3d abbe c1be b107 acbe 6359 aebe
000000b0: 11d3 4bbf d332 b4bd 918d e5be 85a9 e2be
000000c0: e2e0 b8bd 9e21 a5be 9aff eabd f2b1 633c
000000d0: ed9b 39be ecb1 3cbe 887a bcbe dce8 2d3e
000000e0: 81de 3f3f 6380 32bd 73d0 7b3e c05b e03e
000000f0: 8241 66bc 39a8 3e3c 7a82 8c3c 8ca4 03bf
00000100: 823f fe3c b420 b2bb d478 15bf fae1 4d3c
00000110: 724e 56bc 45cb 15bf 258f 70bd 563e bc3c
00000120: 0ced 0a3f d4c4 c23e bbf6 443f 4105 953e
00000130: 8dd4 843e ed77 c13e f611 263d 9486 f0bb
00000140: 913c db3d caef 19bd 1a2f 183e 2d35 ab3e
00000150: 9790 d33d 98c9 373e 3082 0c3f 4b35 e13e
00000160: ec35 303f cde4 743f 9bee 1abf 970c 0cbf
00000170: 548b cbbd 22a1 bfbd 9efa fb3d 122a 8b3e
00000180: bd1e 323f 19c9 b53e 9674 8cbd 179c 233e
00000190: e621 8e3e 49f6 933d 663d fb3e 0cc9 123f
000001a0: 89d2 493d 1b43 463f 6503 243f f90f efbd
000001b0: d163 6a3f ed9c ed3e 1e5b 253d 972e b63e
000001c0: 6be4 37ba 30e2 2cbd 522c 953d 2bca e5bd
000001d0: 9a88 993c c37b 75be 7bd2 13bf fd46 6bbf
000001e0: 814b fcbe 4e68 21bf 2b37 08bf c362 49bf
000001f0: 3d3f 9dbe 27f5 11bf 5fb4 9e3e f29a 4c3e
00000200: 25bb ecbd ce0b 523e 3cfc 5c3e 2f7b 5fbe
00000210: b399 b43d b29e f33d d38c 15bf b9a9 a3be
00000220: bc28 3a3e 266a 113e 36bb f3be 0fe2 603e
00000230: b146 893e 713c 34bf 56b9 703e 4920 053f

autoencoder.encoder.0.bias f4 [16]
0.3770322 0.73675925 1.2463008 -0.09269972 0.059737597 1.4443048 -0.044429608 1.1344116
0.29251084 -0.040474582 0.9877088 -0.13053001 0.10991928 0.50966614 0.75698227 0.37842488
00000000: 5d0a c13e 419c 3c3f c986 9f3f 5ad9 bdbd
00000010: 69af 743d fbde b83f d2fb 35bd 6634 913f
00000020: fbc3 953e adc8 25bd 7cda 7c3f a9a9 05be
00000030: 5c1d e13d 7b79 023f 97c9 413f e8c0 c13e

autoencoder.encoder.3.weight f4 [8, 16, 3, 3]
0.019033996 -0.077714875 -0.22726245 0.1678752 -0.036437333 -0.2540887 -0.28465217 0.1473904
-0.031113237 0.1704442 -0.104434416 0.06462113 0.122468285 -0.2086288 -0.10719316 0.22735304
0.11481308 0.17904128 -0.0694582 0.0190518 0.18130344 0.3569878 -0.017000215 0.19752888
0.5715279 -0.2725574 -0.019980509 0.01748412 -0.044973053 0.238732 0.077237 -0.34557003
0.13086186 0.22871628 -0.16709667 0.47136098 -0.13830668 0.09650859 -0.011971126 0.08455977
0.264282 -0.021797718 -0.15729268 -0.086123966 0.21438769 0.20304224 0.22646956 0.179755
0.4322413 0.17012681 0.2317313 0.7627901 0.16999643 -0.076436184 0.01985657 0.2376966
0.1201485 -0.20840892 -0.047602005 -0.08256654 0.09236238 -0.12794499 0.11304098 0.2672543
0.118324 -0.09353339 0.32549757 0.014261505 0.1089111 -0.07314102 0.24554801 0.061979774
0.25041857 0.033616092 -0.024260232 -0.14185205 -0.090854526 -0.28839612 0.2243692 -0.29000524
-0.025637051 0.17526008 0.19872427 -0.026874421 -0.058720347 -0.17356525 -0.40347493 0.29909658
-0.19690236 0.016671302 0.037817866 -0.17963521 0.10105308 -0.029700143 -0.016106302 -0.07606497
0.14955756 0.20135924 0.0909579 0.19234423 -0.11608044 -0.0687593 -0.26366147 0.009039714
-0.28168178 0.036432646 -0.25893492 0.28685394 0.2982558 -0.036694273 -0.0058982573 -0.20611227
-0.16914953 -0.1948968 0.002454617 -0.2328491 0.21438095 0.07249652 -0.15264021 -0.26844457
0.20419306 0.116764195 -0.09401507 0.09894364 0.038064398 -0.5019501 0.0083390055 -0.043840896
0.267849 0.08164546 -0.013730347 0.056839794 0.46481785 -0.2357707 0.025783267 -0.033443615
-0.115693584 0.107089095 -0.023341507 -0.15642811 -0.064021386 -0.2041127 0.12561749 0.077751376
-0.052346766 -0.1982396 0.32358932 0.113930136 0.28892177 0.13174288 -0.21827883 -0.1270771
0.2939085 -0.069352776 -0.056901827 0.11052503 0.12234772 -0.07152258 -0.037636183 -0.02815989
0.07073239 -0.072008185 0.033265706 -0.2590252 0.20255737 0.14505875 -0.115027875 0.08062142
0.10068747 0.062003106 0.0093506025 -0.23351939 0.06998638 -0.12609144 -0.057194497 0.06567421
-0.026957477 -0.072084144 0.18043469 0.08856239 0.28318584 0.09565034 0.04674537 0.22471528
0.004742335 0.10728924 -0.1973517 -0.078485325 0.025820173 -0.037310578 -0.051180534 0.37686363
-0.08307436 0.33968854 0.3451125 -0.15434207 -0.20150127 0.09623078 0.18043403 -0.26723686
0.24579285 -0.17692988 -0.06018539 -0.0041022254 0.09043949 -0.007482675 0.10149064 0.14626308
0.29150736 0.5651111 0.050751965 0.4634838 -0.062881745 -0.13302264 -0.27760834 -0.24071538
0.05537157 -0.25099826 0.26403052 -0.3108079 -0.10385143 0.076000206 -0.093159415 0.14031897
0.19233194 0.23001358 -0.40408733 0.25385875 -0.08398332 -0.22359806 -0.0635051 0.05993947
0.01726681 0.3519045 0.3942051 -0.01931016 0.19835281 -0.08626646 0.018317064 -0.19322555
0.10105959 -0.06394024 -0.29424652 0.13011308 0.035767794 0.28752127 0.061832927 -0.17220512
-0.1460058 -0.18858294 -0.10141486 0.12265142 0.0067107314 0.12115351 0.36218 -0.069285505
00000000: 2fed 9b3c fa28 9fbd 7db7 68be 7ae7 2b3e
00000010: 503f 15bd ea17 82be eebd 91be 82ed 163e
00000020: 30e1 febc ed88 2e3e b6e1 d5bd 1558 843d
00000030: a7d0 fa3d caa2 55be 1688 dbbd 3ccf 683e
00000040: 1f23 eb3d 9956 373e 1a40 8ebd 8512 9c3c
00000050: 9ca7 393e 1bc7 b63e 0944 8bbc 0345 4a3e
00000060: a74f 123f a58c 8bbe 2aae a3bc db3a 8f3c
00000070: aa35 38bd 2976 743e 6f2e 9e3d 8eee b0be
00000080: a700 063e 9a34 6a3e 641b 2bbe 3a56 f13e
00000090: 44a0 0dbe 4ca6 c53d 8b22 44bc ac2d ad3d
000000a0: f84f 873e 2191 b2bc 5511 21be c361 b0bd
000000b0: 7288 5b3e 4eea 4f3e a3e7 673e b211 383e
000000c0: bb4e dd3e b935 2e3e f84a 6d3e 3646 433f
000000d0: 8b13 2e3e 938a 9cbd 3faa a23c bd66 733e
000000e0: 6b10 f63d 2669 55be 52fa 42bd a518 a9bd
000000f0: 7d28 bd3d 0304 03be 0882 e73d 8ed5 883e
00000100: da53 f23d 6f8e bfbd 9ea7 a63e 16a9 693c
00000110: c80c df3d f6ca 95bd f070 7b3e 81de 7d3d
00000120: dd36 803e 07b1 093d 65bd c6bc aa41 11be
00000130: f011 babd a8a8 93be 0ac1 653e 917b 94be
00000140: cb04 d2bc 6177 333e 607e 4b3e bf27 dcbc
00000150: bf84 70bd 17bb 31be 4494 cebe 3023 993e
00000160: c6a0 49be 4192 883c e8e6 1a3d 4bf2 37be
00000170: ebf4 ce3d b74d f3bc 5df1 83bc f3c7 9bbd
00000180: 9e25 193e 1e31 4e3e 2348 ba3d e3f5 443e
00000190: 95bb edbd add1 8cbd a3fe 86be 4f1b 143c
000001a0: 9838 90be 663a 153d 1e93 84be 85de 923e
000001b0: fcb4 983e bc4c 16bd 2b46 c1bb 180f 53be
000001c0: 8935 2dbe 0793 47be a4dd 203b ff6f 6ebe
000001d0: ae86 5b3e 0e79 943d b74d 1cbe 9171 89be
000001e0: fc17 513e 1122 ef3d f98a c0bd f7a2 ca3d
000001f0: 6ae9 1b3d cd7f 00bf 53a0 083c 8392 33bd
00000200: 8123 893e bc35 a73d 40f5 60bc d8d0 683d
00000210: 9bfc ed3e e06d 71be 6e37 d33c 2cfc 08bd
00000220: c2f0 ecbd 8751 db3d b036 bfbc b12e 20be
00000230: a51d 83bd eb02 51be dfa1 003e 1d3c 9f3d
00000240: 9069 56bd 52ff 4abe 80ad a53e 3454 e93d
00000250: 8eed 933e 9be7 063e 7c84 5fbe 8020 02be
00000260: 2d7b 963e d408 8ebd e411 69bd f25a e23d
00000270: 7191 fa3d 6e7a 92bd 6628 1abd 92af e6bc
00000280: 25dc 903d 0779 93bd 9f41 083d f39e 84be
00000290: 336b 4f3e 488a 143e bc93 ebbd d81c a53d
000002a0: 3b35 ce3d f8f6 7d3d 4533 193c b51f 6fbe
000002b0: 0555 8f3d 1d1e 01be c744 6abd 3380 863d
000002c0: edd5 dcbc daa0 93bd dfc3 383e 3360 b53d
000002d0: bcfd 903e 53e4 c33d 1378 3f3d c31b 663e
000002e0: 9765 9b3b 76ba db3d 9016 4abe eabc a0bd
000002f0: d484 d33c fad2 18bd aea2 51bd 45f4 c03e
00000300: e422 aabd a8eb ad3e 96b2 b03e d90b 1ebe
00000310: 5956 4ebe a514 c53d b3c3 383e 45d3 88be
00000320: 1fb1 7b3e 1b2d 35be f584 76bd f66b 86bb
00000330: 5738 b93d 3a31 f5bb 53da cf3d fdc5 153e
00000340: 7440 953e 1fab 103f 4be1 4f3d c04d ed3e
00000350: 25c8 80bd 1637 08be ae22 8ebe 187e 76be
00000360: 4dcd 623d d882 80be 022f 873e 3722 9fbe
00000370: 0fb0 d4bd ffa5 9b3d 5dca bebd c7af 0f3e
00000380: aaf2 443e ae88 6b3e 89e4 cebe c6f9 813e
00000390: 72ff abbd e4f6 64be f60e 82bd 1783 753d
000003a0: 2073 8d3c d42c b43e 40d5 c93e 5730 9ebc
000003b0: 001d 4b3e 78ac b0bd ab0d 963c ebdc 45be
000003c0: 55f8 ce3d 1af3 82bd 7ba7 96be 5d3c 053e
000003d0: 4081 123d fd35 933e 8644 7d3d 8a56 30be
000003e0: 8b82 15be e31b 41be 98b2 cfbd ab30 fb3d
000003f0: b2e5 db3b 551f f83d a86f b93e 8fe5 8dbd

autoencoder.encoder.3.bias f4 [8]
-0.023995437 -0.10757187 0.17654079 0.03956001 0.12601814 0.23024063 0.08965555 -0.0498113
00000000: 1492 c4bc a44e dcbd 1cc7 343e ad09 223d
00000010: e60a 013e 33c4 6b3e 549d b73d ef06 4cbd

autoencoder.encoder.6.weight f4 [2, 8, 2, 2]
0.6550209 -1.1580341 0.14545375 -0.34139925 -0.11165737 -0.45056048 -1.353734 0.46981293
0.070299946 0.433537 -0.032008473 1.273365 0.6759151 0.9769385 0.09978729 -1.4615357
-0.31305125 -0.07446963 0.7828171 -0.18368343 0.45027158 0.50558543 0.56062496 0.53228945
-0.103451446 -0.036529303 0.1269802 -0.059247106 0.22331241 0.7152683 0.73959786 0.14894237
0.78928787 -0.6125917 0.3585729 0.087626696 0.06325624 0.669086 -0.32117406 0.5152875
-1.2397138 -0.04169956 0.80109704 0.28707078 -0.010441033 1.4533937 -0.4250971 -0.19835792
-0.2054518 -0.38140675 1.3841039 0.32708645 -0.21270777 -0.3304418 -0.007540903 -0.12350739
-0.57554644 -0.65847844 -0.12917191 -0.5257788 -0.9237917 0.042165708 -0.9332236 -0.35843316
00000000: 73af 273f 763a 94bf d4f1 143e e2cb aebe
00000010: 9fac e4bd ddaf e6be 2847 adbf 528b f03e
00000020: 6bf9 8f3d 90f8 dd3e 511b 03bd a0fd a23f
00000030: c608 2d3f a418 7a3f 475d cc3d 9a13 bbbf
00000040: 4148 a0be 8983 98bd b466 483f 8217 3cbe
00000050: ff89 e63e 0c6e 013f 1e85 0f3f 1f44 083f
00000060: 5ade d3bd c09f 15bd 1907 023e 18ad 72bd
00000070: 02ac 643e d31b 373f 4956 3d3f 5984 183e
00000080: c50e 4a3f cfd2 1cbf de96 b73e a075 b33d
00000090: 7d8c 813d 3849 2b3f ed70 a4be e2e9 033f
000000a0: f1ae 9ebf 28cd 2abd b214 4d3f f1fa 923e
000000b0: de10 2bbc ce08 ba3f 54a6 d9be 571e 4bbe
000000c0: f561 52be bf47 c3be 512a b13f e077 a73e
000000d0: 11d0 59be ab2f a9be ae19 f7bb 71f1 fcbd
000000e0: 0357 13bf 0b92 28bf a445 04be 7099 06bf
000000f0: 9d7d 6cbf f3b5 2c3d bee7 6ebf 8d84 b7be

autoencoder.encoder.6.bias f4 [2]
0.1135966 -0.060432427
00000000: 56a5 e83d fe87 77bd

autoencoder.decoder.0.weight f4 [2, 8, 2, 2]
0.5477088 1.0450883 -0.4111895 -0.8016849 0.4731355 0.022520393 0.7827974 -0.85037297
-0.060890492 0.19142176 -0.14637639 0.70738494 -0.80485106 -0.811243 -0.38600415 -0.95633316
-0.031773232 0.47217467 0.71092594 0.7374582 0.3091298 0.23040617 0.12624985 -1.1257948
0.49803668 0.41390038 0.5297784 0.07057628 0.083397776 0.21152297 -0.15449153 0.73762566
0.5721403 0.2650548 -0.24979909 0.08425707 0.044013146 -0.6738333 0.18835297 -0.6658822
0.18786128 -0.8400587 -0.29957 -0.36014664 -0.3110647 0.28843042 -1.0335671 -0.17197804
-0.718196 -0.043361768 0.63997537 0.5519337 -0.21558055 -0.25808895 0.051368155 0.24114092
-0.03775845 0.005704514 -0.564266 -0.2513892 0.40706685 -0.2696713 1.9122465 1.162934
00000000: a536 0c3f 74c5 853f 6e87 d2be 393b 4dbf
00000010: d13e f23e b07c b83c 6965 483f 0bb2 59bf
00000020: 4f68 79bd 1104 443e b1e3 15be 2e17 353f
00000030: b80a 4ebf 9fad 4fbf 56a2 c5be 40d2 74bf
00000040: a624 02bd e1c0 f13e 3eff 353f 10ca 3c3f
00000050: 4346 9e3e 98ef 6b3e a447 013e 0b1a 90bf
00000060: aafe fe3e c0ea d33e 8f9f 073f 4c8a 903d
00000070: 74cc aa3d 7a99 583e 0733 1ebe 09d5 3c3f
00000080: c977 123f 43b5 873e 55cb 7fbe f98e ac3d
00000090: 2147 343d 5780 2cbf 9adf 403e 4177 2abf
000000a0: b55e 403e 160e 57bf 3d61 99be 2465 b8be
000000b0: df43 9fbe 27ad 933e ed4b 84bf 031b 30be
000000c0: b1db 37bf 1c9c 31bd 6dd5 233f 874b 0d3f
000000d0: 26c1 5cbe 3c24 84be 6a67 523d a5ed 763e
000000e0: 9ba8 1abd efec ba3b bd73 10bf 16b6 80be
000000f0: 116b d03e 5b12 8abe 7ec4 f43f 05db 943f

autoencoder.decoder.0.bias f4 [8]
-0.008563506 -0.5430304 0.09184253 -0.21674511 -0.04302277 -0.7222197 0.2914418 0.011969658
00000000: f34d 0cbc 0a04 0bbf f017 bc3d 6ef2 5dbe
00000010: a538 30bd 64e3 38bf dc37 953e 621c 443c

autoencoder.decoder.2.weight f4 [8, 16, 3, 3]
-0.007169938 -0.31788164 0.045654565 -0.013072574 -0.5046138 0.09141805 0.08661314 -0.004951126
0.2802027 -0.30453312 -0.3424798 0.03708011 0.025117481 -0.0058021806 -0.0557909 -0.08972644
-0.11980119 0.074401386 -0.03633843 0.17981286 0.021300573 -0.1830352 0.0036711511 -0.17180003
-0.1671714 -0.08376593 -0.03697678 -0.071536265 -0.13462074 -0.20364244 -0.018283267 0.061467476
-0.013725769 -0.009774385 -0.2952292 0.08702514 -0.15390721 -0.5386847 -0.055544395 0.00403957
-0.1493022 -0.05238983 0.13501045 -0.102610365 -0.25543228 -0.12927753 -0.28570867 0.011273431
0.34446287 0.3331958 -0.14097354 0.110557176 0.10928084 -0.23638189 -0.09674162 0.038104117
-0.28919455 0.09036078 0.1783496 -0.006241702 0.03560948 -0.17543472 -0.019207468 -0.09293902
-0.008627014 0.068983115 -0.08467375 -0.017329786 -0.15382801 -0.06699543 -0.26178557 0.102068566
-0.12961528 0.040516526 -0.035100147 -0.1495478 0.079134844 -0.52259684 -0.17042762 0.23982778
0.05355595 -0.107247084 0.07157807 0.20565058 0.09359154 0.16475008 0.002137918 -0.1112692
-0.28676713 0.23129606 0.09465105 0.016707452 -0.10583154 0.08898879 0.01923999 0.2504279
-0.04958963 0.03277682 0.1901406 0.0070729083 -0.48088428 0.07651408 0.12785226 -0.27670726
0.1616878 -0.09180207 0.13949625 0.03971247 -0.14722484 -0.042743932 -0.12524858 0.14527042
-0.12249187 0.061554298 -0.14140809 -0.19910596 -0.19402672 -0.19806312 0.029919628 -0.24432038
-0.21735822 0.15682505 -0.47089022 -0.17252707 0.062996365 0.1148179 -0.0034548307 -0.04419301
-0.1466137 -0.15096492 -0.14830822 -0.07618014 -0.21618739 -0.3087329 -0.06412434 -0.25576153
0.012308882 -0.21593076 -0.47904754 -0.0039525935 0.030708196 0.015744066 -0.054887444 0.111668326
-0.07710207 0.16192544 -0.022824543 0.15281643 0.15732253 -0.26246873 -0.07794881 0.08930778
-0.22622868 0.06293253 -0.02695826 -0.14385204 -0.41475835 0.20038176 -0.49631703 -0.067816526
-0.030872518 -0.087710224 -0.026103012 0.06456057 -0.16255343 0.24564572 0.10574594 -0.26726606
0.22871265 0.3165624 -0.00308983 0.05772062 -0.1432901 -0.1694006 0.11804667 0.20139667
-0.060089663 0.02606357 0.11351995 -0.20521118 -0.095799685 -0.100148834 -0.038663954 0.10634143
-0.027695375 0.030801268 0.16264166 -0.15677273 -0.027372142 0.01720606 -0.016643392 0.15920606
-0.10374625 0.13156003 0.076709636 0.05757369 -0.055581097 0.16925335 0.2387933 0.03025821
-0.03751323 0.16281371 -0.11027555 -0.005989913 0.073102765 0.40463555 -0.14481081 -0.078682974
0.06634745 0.1843535 0.2214989 -0.17973697 -0.36629707 -0.21758194 0.18783022 -0.20502456
0.117888436 -0.6220915 0.049687307 0.20344579 -0.32390404 -0.11808336 0.014383965 -0.41662088
-0.15098481 -0.1412152 -0.18905333 -0.3799153 0.011298501 0.289173 0.029716184 0.110165164
0.22391155 -0.07795861 -0.013080721 -0.011773845 -0.07615996 -0.03985298 -0.16209982 -0.0069805933
0.21630558 0.17558521 -0.19596094 0.06556742 0.23501611 0.06919412 -0.1794989 -0.13395905
-0.33577812 0.028609818 -0.06670207 -0.18535072 0.17847826 -0.49344274 0.18644042 0.13528574
00000000: cdf1 eabb 62c1 a2be 4800 3b3d 592e 56bc
00000010: 5f2e 01bf 6339 bb3d 3b62 b13d 0e3d a2bb
00000020: ba76 8f3e c4eb 9bbe 8359 afbe 50e1 173d
00000030: 2dc3 cd3c 3820 bebb 0085 64bd 7fc2 b7bd
00000040: 545a f5bd c15f 983d 9bd7 14bd dd20 383e
00000050: 8a7e ae3c 946d 3bbe b297 703b 59ec 2fbe
00000060: fb2e 2bbe 798d abbd f774 17bd 9b81 92bd
00000070: 05da 09be a587 50be cac6 95bc 52c5 7b3d
00000080: 0ce2 60bc be24 20bc 4828 97be 3d3a b23d
00000090: da99 1dbe 3ee7 09bf 8582 63bd 5f5e 843b
000000a0: ade2 18be b896 56bd 2e40 0a3e 6225 d2bd
000000b0: 05c8 82be 5461 04be 6848 92be 32b4 383c
000000c0: 705d b03e a498 aa3e 5e5b 10be cd6b e23d
000000d0: a2ce df3d 180e 72be 7820 c6bd 1013 1c3d
000000e0: 4f11 94be 130f b93d 47a1 363e 3187 ccbb
000000f0: 3fdb 113d 29a5 33be fb58 9dbc d056 bebd
00000100: 5258 0dbc 0547 8d3d 6e69 adbd 32f7 8dbc
00000110: 1785 1dbe e634 89bd c208 86be 5309 d13d
00000120: deb9 04be a8f4 253d 2cc5 0fbd 0f23 19be
00000130: 7311 a23d e8c8 05bf 9484 2ebe 6a95 753e
00000140: 7c5d 5b3d 5ca4 dbbd 8697 923d 1196 523e
00000150: ecac bf3d 3fb4 283e 501c 0c3b 1be1 e3bd
00000160: 24d3 92be e0d8 6c3e 69d8 c13d 11de 883c
00000170: 35be d8bd c13f b63d 2f9d 9d3c 1638 803e
00000180: 7f1e 4bbd fd40 063d 38b4 423e dbc3 e73b
00000190: 7736 f6be 6ab3 9c3d b4eb 023e 93ac 8dbe
000001a0: 7d91 253e b902 bcbd 1bd8 0e3e 8ba9 223d
000001b0: 1cc2 16be 4314 2fbd 2a41 00be c5c1 143e
000001c0: 04dd fabd 5c20 7c3d 48cd 10be 6fe2 4bbe
000001d0: f1ae 46be 0fd1 4abe 021a f53c 1f2f 7abe
000001e0: 2793 5ebe bf96 203e 8618 f1be f0aa 30be
000001f0: 3d04 813d a625 eb3d 716a 62bb bb03 35bd
00000200: e721 16be 8c96 1abe 1cde 17be 5504 9cbd
00000210: 3a60 5dbe 3d12 9ebe 9f53 83bd 2df3 82be
00000220: 31ab 493c f41c 5dbe b845 f5be c284 81bb
00000230: c18f fb3c b3f9 803c a8d1 60bd 5db2 e43d
00000240: b1e7 9dbd c8cf 253e 89fa babc e97b 1c3e
00000250: 2819 213e 4d62 86be a0a3 9fbd ffe6 b63d
00000260: 7ea8 67be c5e2 803d 92d7 dcbc f34d 13be
00000270: 355b d4be e030 4d3e 441d febe 64e3 8abd
00000280: 5de8 fcbc 6ba1 b3bd fcd5 d5bc 5538 843d
00000290: 6874 26be 8d8a 7b3e 5491 d83d 19d7 88be
000002a0: a633 6a3e 7814 a23e bf7e 4abb 756c 6c3d
000002b0: a4ba 12be 5a77 2dbe 74c2 f13d ee3a 4e3e
000002c0: 9420 76bd 4583 d53c 267d e83d e122 52be
000002d0: a032 c4bd d51a cdbd 185e 1ebd 89c9 d93d
000002e0: 69e1 e2bc f152 fc3c 898b 263e 0889 20be
000002f0: 8b3b e0bc b9f3 8c3c b957 88bc ea06 233e
00000300: ea78 d4bd acb7 063e f119 9d3d 64d2 6b3d
00000310: 01a9 63bd c050 2d3e 3b86 743e 11e0 f73c
00000320: 79a7 19bd a3b8 263e 26d8 e1bd 0847 c4bb
00000330: e7b6 953d 642c cf3e 4949 14be 8a24 a1bd
00000340: 2ce1 873d 2ac7 3c3e 9cd0 623e f80c 38be
00000350: 4a8b bbbe cdcd 5ebe 9156 403e f5f1 51be
00000360: 7e6f f13d 6341 1fbf eb84 4b3d 1854 503e
00000370: c0d6 a5be b0d5 f1bd b9aa 6b3c 554f d5be
00000380: c39b 1abe b89a 10be 3297 41be 4284 c2be
00000390: 591d 393c 7c0e 943e 5b6f f33c 469e e13d
000003a0: 1249 653e c4a8 9fbd 8550 56bc 16e7 40bc
000003b0: c1f9 9bbd e13c 23bd 7ffd 25be 76bd e4bb
000003c0: 367f 5d3e 9ccc 333e fca9 48be 3648 863d
000003d0: 10a8 703e a6b5 8d3d 8fce 37be 902c 09be
000003e0: 1ceb abbe 235f ea3c 189b 88bd 94cc 3dbe
000003f0: 01c3 363e 87a4 fcbe 3dea 3e3e 5888 0a3e

autoencoder.decoder.2.bias f4 [16]
-0.24736059 -0.25286692 -0.57001656 -0.4257808 -0.52955765 -0.5493551 -0.2434722 -0.26441044
-0.48994654 -0.20656914 -0.62791246 0.24038386 -0.21895447 -0.32543355 0.31054917 -0.4219877
00000000: 184c 7dbe c677 81be 9bec 11bf f1ff d9be
00000010: 1791 07bf 89a2 0cbf c750 79be ce60 87be
00000020: 46da fabe dc86 53be dfbe 20bf 3027 763e
00000030: 9a35 60be 3a9f a6be 4d00 9f3e c60e d8be

autoencoder.decoder.4.weight f4 [16, 8, 5, 5]
0.014204236 0.06183676 0.106816724 0.01760692 -0.081149615 0.018954378 -0.021271583 0.2222918
0.010796852 -0.038121674 0.08817346 0.20779204 0.2020033 0.06847601 -0.03940864 0.022537032
0.03903865 0.11334924 0.06253367 -0.04683957 0.070734054 0.11600781 0.10019078 0.03890934
0.05578086 -0.02314367 0.077737086 0.10030142 0.04356575 -0.023403997 0.042236783 -0.077100806
0.39535585 -0.05341713 -0.006990992 0.17794272 0.03193557 -0.06252898 -0.12303349 0.031922612
0.14892307 -0.3042068 -0.3415558 -0.25803274 -0.19571882 0.19071719 0.033287697 -0.2962849
-0.0092382245 -0.0014834706 0.16956273 0.029805677 -0.15048878 -0.027010616 0.069450006 -0.056059036
0.044144716 0.112736434 -0.055392534 0.08353968 0.14927557 0.01702681 -0.013904489 0.048056096
0.021498632 0.15661822 0.049255144 -0.052077413 -0.16780505 -0.052758083 0.06728637 -0.070502944
-0.14010702 0.12016546 0.05329505 0.14671384 -0.008176667 -0.046533015 -0.09418905 0.0133787235
0.14219421 -0.14618514 -0.20811784 -0.045190413 0.12322237 0.16369301 -0.12172575 -0.17453362
-0.13729893 -0.024646714 -0.14145301 -0.025537806 0.0646717 -0.10290047 0.17599383 -0.049378622
-0.08073547 0.1814577 -0.17614183 0.15064615 0.018147603 0.10867618 0.1712804 0.047700506
-0.08854487 0.087323494 0.06103186 0.33210194 0.094559416 -0.0031332434 0.08975678 0.25066862
0.24184422 0.080628924 -0.039027024 -0.014938281 -0.0028656696 0.055698723 0.03918183 -0.04259052
0.0075040236 0.05519349 0.036736358 -0.038027767 0.0048130807 -0.04190447 -0.016662389 0.042572897
0.12780362 -0.060303714 -0.04962146 -0.1382351 0.105642535 0.12220703 0.03666258 -0.21968679
-0.13438778 0.24245308 0.12833507 0.034938127 -0.01251492 -0.06738009 0.10760112 0.020310346
-0.05356664 -0.0073395083 -0.18737805 0.055317152 0.008131075 0.05205257 -0.088036954 0.024245976
-0.021261523 0.004746239 0.02204913 -0.074586384 0.0020495723 0.025188915 -0.088066526 0.05914684
-0.13794892 0.10416772 0.15273455 -0.09124829 0.04707822 0.07735427 0.15308368 0.06091059
-0.113598086 -0.07554352 0.09089118 -0.0007903582 0.058762964 -0.011824985 0.10328434 -0.12237415
-0.019336509 -0.053795062 -0.076426364 0.08702157 0.10980966 -0.14767842 -0.16580406 0.014111313
0.07917981 0.115369864 -0.21368715 -0.23298107 -0.1730612 0.096752934 -0.065701716 -0.09229627
0.008641067 0.04239137 0.12932307 0.041306008 -0.10314278 -0.09530522 -0.05626806 0.12499721
0.050878365 0.14490062 0.010721293 -0.02227939 0.05804656 0.07824143 0.05975611 -0.03481855
0.017535558 0.031464726 0.046488598 -0.076374754 -0.1335745 -0.13123837 -0.059221245 -0.016948445
-0.05762239 -0.1858624 -0.12702283 -0.07897399 -0.032010365 -0.070384465 -0.14413258 -0.07135735
-0.117751025 0.08360218 0.2211226 0.07228831 0.15078852 0.16783701 0.04640568 -0.011446059
0.21581385 0.19166896 0.062944874 0.06542413 -0.013637592 0.05740643 0.26557377 0.112671964
0.16495179 0.08029683 0.13520473 0.14318971 0.06628017 -0.08340133 -0.048615675 0.063920565
0.15474887 0.14886345 -0.05330604 -0.20779069 0.08216348 0.15463033 0.075645305 -0.013981734
00000000: e2b8 683c 8b48 7d3d bac2 da3d 633c 903c
00000010: c531 a6bd 3646 9b3c be41 aebc 76a0 633e
00000020: 48e5 303c 7925 1cbd 4994 b43d 70c7 543e
00000030: f4d9 4e3e 263d 8c3d f46a 21bd 959f b83c
00000040: fee6 1f3d a523 e83d a711 803d d9da 3fbd
00000050: 04dd 903d 8195 ed3d d330 cd3d 665f 1f3d
00000060: 797a 643d cb97 bdbc 9f34 9f3d d56a cd3d
00000070: 0072 323d bdb9 bfbc 7a00 2d3d 07e7 9dbd
00000080: 156c ca3e eccb 5abd b114 e5bb 9e36 363e
00000090: dfce 023d 320f 80bd fbf8 fbbd 49c1 023d
000000a0: 4a7f 183e fec0 9bbe 67e0 aebe de1c 84be
000000b0: 846a 48be 5e4b 433e ae58 083d a8b2 97be
000000c0: ec5b 17bc 0371 c2ba daa1 2d3e 092b f43c
000000d0: bb19 1abe 5e45 ddbc ce3b 8e3d 299e 65bd
000000e0: 17d1 343d 5ce2 e63d 48e3 62bd da16 ab3d
000000f0: b2db 183e cf7b 8b3c a7cf 63bc 78d6 443d
00000100: e61d b03c 8760 203e c3bf 493d 204f 55bd
00000110: 16d5 2bbe dc18 58bd 70cd 893d d963 90bd
00000120: 3778 0fbe 4f19 f63d e94b 5a3d 273c 163e
00000130: 6df7 05bc 6799 3ebd 30e6 c0bd 6f32 5b3c
00000140: 5c9b 113e 8fb1 15be d81c 55be 9519 39bd
00000150: 035c fc3d 249f 273e 5a4b f9bd f1b8 32be
00000160: 1798 0cbe e8e7 c9bc 0fd9 10be a934 d1bc
00000170: 9972 843d 7bbd d2bd ba37 343e 3d41 4abd
00000180: a358 a5bd 0cd0 393e 865e 34be fc42 1a3e
00000190: 48aa 943c 9e91 de3d 2164 2f3e 9b61 433d
000001a0: 0357 b5bd a9d6 b23d 8bfc 793d 4409 aa3e
000001b0: 5ea8 c13d 1a57 4dbb 67d2 b73d a357 803e
000001c0: 03a6 773e c720 a53d cdda 1fbd b1bf 74bc
000001d0: f5cd 3bbb 5824 643d 207d 203d 6673 2ebd
000001e0: 50e4 f53b 9212 623d dd78 163d 01c3 1bbd
000001f0: 0cb7 9d3b 06a4 2bbd 907f 88bc eb60 2e3d
00000200: f4de 023e 0701 77bd df3f 4bbd 818d 0dbe
00000210: 1d5b d83d ae47 fa3d 802b 163d 93f5 60be
00000220: f39c 09be 9f45 783e 456a 033e 481b 0f3d
00000230: 610b 4dbc 93fe 89bd fa5d dc3d e261 a63c
00000240: b168 5bbd 4280 f0bb 08e0 3fbe 3d94 623d
00000250: 3338 053c 1335 553d b84c b4bd 7f9f c63c
00000260: a52c aebc 5786 9b3b 61a0 b43c bfc0 98bd
00000270: 1e52 063b fc58 ce3c 395c b4bd f543 723d
00000280: 7b42 0dbe e355 d53d 7266 1c3e 62e0 babd
00000290: 17d5 403d ea6b 9e3d f8c1 1c3e 627d 793d
000002a0: 1da6 e8bd 90b6 9abd 2825 ba3d 0a30 4fba
000002b0: 6fb1 703d 95bd 41bc bd86 d33d 4c9f fabd
000002c0: 9967 9ebc 3658 5cbd 6d85 9cbd 5d38 b23d
000002d0: e3e3 e03d 0339 17be 8ac8 29be 2333 673c
000002e0: 0629 a23d 0947 ec3d ced0 5abe 9792 6ebe
000002f0: f536 31be 6726 c63d 9f8e 86bd d405 bdbd
00000300: 4393 0d3c 93a2 2d3d 446d 043e 7d30 293d
00000310: 863c d3bd 622f c3bd 5679 66bd 8afe ff3d
00000320: d565 503d d460 143e 5da8 2f3c 4483 b6bc
00000330: 3bc2 6d3d 0b3d a03d d3c2 743d e59d 0ebd
00000340: bba6 8f3c 28e1 003d d46a 3e3d 5e6a 9cbd
00000350: c1c7 08be 5a63 06be fa91 72bd 77d7 8abc
00000360: 7505 6cbd b752 3ebe 4612 02be 1ebd a1bd
00000370: 4d1d 03bd bb25 90bd 7e97 13be cd23 92bd
00000380: 7327 f1bd 9f37 ab3d f66d 623e e50b 943d
00000390: 4e68 1a3e 77dd 2b3e e213 3e3d 4088 3bbc
000003a0: 4efe 5c3e de44 443e 3ee9 803d 16fd 853d
000003b0: 3570 5fbc 0123 6b3d 49f9 873e 8fc0 e63d
000003c0: 1fe9 283e aa72 a43d 1c73 0a3e 53a0 123e
000003d0: e6bd 873d 51ce aabd 3b21 47bd c9e8 823d
000003e0: 7d76 1e3e a96f 183e 6f57 5abd 15c7 54be
000003f0: 5445 a83d 6a57 1e3e edeb 9a3d a513 65bc

autoencoder.decoder.4.bias f4 [8]
-0.23461705 -0.4907151 0.09989073 -0.4606112 -0.2727125 -1.0098413 -0.9403535 0.09754393
00000000: 743f 70be 023f fbbe 8393 cc3d 3bd5 ebbe
00000010: f9a0 8bbe 7b42 81bf 02bb 70bf 1dc5 c73d

autoencoder.decoder.6.weight f4 [8, 1, 2, 2]
0.3857207 0.3534901 0.040719964 0.00842677 -0.37160894 -0.37366608 -0.35164607 -0.3527863
0.2346008 0.2403759 0.23106916 0.23741792 -0.33499315 -0.34494132 -0.33505136 -0.34330618
0.17340799 0.2100396 0.4873394 0.52300936 0.244732 -0.15574494 0.24848351 -0.1567228
-0.13037455 0.2832949 -0.14891672 0.2684098 0.2844789 0.28874707 0.28598988 0.28874874
00000000: 2f7d c53e a8fc b43e fac9 263d 6f10 0a3c
00000010: 8743 bebe 2951 bfbe f40a b4be 68a0 b4be
00000020: 313b 703e 1a25 763e 659d 6c3e af1d 733e
00000030: 3984 abbe 269c b0be da8b abbe d4c5 afbe
00000040: dd91 313e 9f14 573e 8d84 f93e f1e3 053f
00000050: 079b 7a3e 9a7b 1fbe 7672 7e3e f17b 20be
00000060: e880 05be 070c 913e a07d 18be 026d 893e
00000070: 38a7 913e a8d6 933e 446d 923e e0d6 933e
