save_config_3/2/model_state.pth (torch, 28664 bytes, 13 tensors)

autoencoder.encoder.0.weight f4 [16, 1, 3, 3]
0	0xbed1799c	-0.40913093
1	0xbdeed78a	-0.116622046
2	0x3f16e4f9	0.58943135
3	0xbed093e9	-0.40737846
4	0xbe32dd07	-0.17467128
5	0x3ed34b7e	0.41268533
6	0xbd297ca5	-0.041378636
7	0xbe1dd140	-0.15411854
8	0x3e7b18a7	0.24521123
9	0x3e3d2834	0.18472368
10	0xbd9473c5	-0.07248644
11	0xbe711ef4	-0.23546964
12	0x3e995029	0.2994397
13	0xbe065580	-0.13118553
14	0xbee3d1fe	-0.4449615
15	0x3f5d437e	0.8643111
16	0xbd89f692	-0.06736483
17	0xbe314c5f	-0.1731429
18	0x3e16e253	0.14734773
19	0x3f2a52c5	0.66532546
20	0x3dd9cf86	0.10635285
21	0xbe66720f	-0.22504447
22	0x3e2c433b	0.16822521
23	0xbec0be51	-0.376452
24	0xbd65cafc	-0.056101784
25	0x3ef79861	0.48358443
26	0xbd3889c0	-0.045053244
27	0x3d05c9d3	0.032663178
28	0xbde63c8c	-0.11242017
29	0x3dd602ca	0.10449751
30	0xbd632e8c	-0.055464312
31	0xbe176683	-0.14785199
32	0x3dfe8db3	0.12429371
33	0x3e67f706	0.22652826
34	0x3e8f3342	0.27968794
35	0x3f61acf6	0.8815454
36	0x3d120955	0.03565343
37	0x3cea6bed	0.028615916
38	0xbda29df4	-0.079402834
39	0x3cbb6b9c	0.02287846
40	0xbd12f6b0	-0.03587979
41	0xbe2561e4	-0.16150624
42	0x3f17b532	0.5926086
43	0x3ef1c28b	0.47218737
44	0x3e2c1da3	0.1680818
45	0xbe8faac5	-0.28059974
46	0xbf2355b1	-0.6380263
47	0xbf16dd1a	-0.58931124
48	0x3e3d647d	0.18495364
49	0x3c0a3c3f	0.008437215
50	0xbf03eb99	-0.5153137
51	0x3f32cb0a	0.69841063
52	0x3ebc7c04	0.36813366
53	0x3d3823e9	0.04495612
54	0x3f332599	0.69979244
55	0xbe67b0cb	-0.22626035
56	0xbeb6fbed	-0.3573908
57	0x3e9adb37	0.30245373
58	0xbda761b5	-0.08172933
59	0xbe5e24e7	-0.21693765
60	0xbe683516	-0.226765
61	0xbed3e983	-0.41389093
62	0xbeab3f95	-0.33446947
63	0xbe97c42a	-0.2964185
64	0x3e610477	0.2197436
65	0x3f1aa8b9	0.604137
66	0xbf1db107	-0.6159825
67	0x3bf3afa7	0.007436711
68	0x3e3e5cf1	0.18590142
69	0xbe923d25	-0.28562275
70	0xbef9ac1a	-0.48764116
71	0xbf0b6567	-0.544516
72	0x3ec23ac6	0.37935466
73	0x3dd47d78	0.10375494
74	0xbee579e3	-0.44819555
75	0x3e3701e4	0.17871815
76	0x3ed45c34	0.41476595
77	0x3eab4271	0.33449128
78	0xbf112d90	-0.5671015
79	0xbe6ba146	-0.2301074
80	0x3f00e90b	0.50355595
81	0x3d7201f1	0.059083883
82	0x3d6cf8b5	0.057854373
83	0x3f3d4afb	0.73942536
84	0x3e2e6c06	0.17033395
85	0x3c056353	0.0081413565
86	0x3e30092c	0.17190999
87	0xbd46ab4d	-0.04850321
88	0x3d93aa53	0.07210221
89	0x3e5e9f82	0.21740535
90	0xbf70cf26	-0.94066083
91	0xbeadca78	-0.33943534
92	0xbeab419d	-0.33448496
93	0xbdeac9c9	-0.11464269
94	0xbe043ea6	-0.12914523
95	0x3c1d10dd	0.00958654
96	0xbed2a881	-0.41144183
97	0xbe7e0d0f	-0.24809669
98	0xbf05f1fa	-0.5232235
99	0x3f0833fa	0.5320431
100	0xbdffde37	-0.12493556
101	0x3ddc2457	0.10749119
102	0x3f048883	0.517708
103	0x3cea08df	0.028568683
104	0x3e0d82d7	0.13819443
105	0x3e332fc8	0.17498696
106	0xbe4207f7	-0.18948351
107	0xbcac2b2d	-0.021016682
108	0xbe0bf339	-0.13667001
109	0xbeb68b49	-0.3565314
110	0xbee3e21a	-0.4450844
111	0xbed41ed2	-0.41429764
112	0xbdfc648b	-0.123238645
113	0xbd497dd9	-0.049192283
114	0xbec59867	-0.38592836
115	0x3e1e6b16	0.15470538
116	0x3f4af3d5	0.7927831
117	0x3e435bed	0.19078036
118	0x3ebecc57	0.37265274
119	0x3eadad0a	0.3392108
120	0x3d9b8374	0.07593432
121	0x3d105803	0.035240185
122	0xbe91d309	-0.2848132
123	0xbe8f93c6	-0.2804243
124	0xbea96afd	-0.33089438
125	0xbead8926	-0.33893698
126	0xbecce69c	-0.4001969
127	0x3e4fcd29	0.20293106
128	0x3ecbe5c3	0.39823732
129	0x3d5d004c	0.05395536
130	0x3e82b0db	0.25525555
131	0x3e1299e1	0.14316513
132	0x3ee6551f	0.44986817
133	0xbca63b36	-0.020291906
134	0xbed4ff87	-0.41601202
135	0xbe9e85e0	-0.30961514
136	0xbed1d3ab	-0.40981802
137	0xbe17e023	-0.14831595
138	0x3cd2c96d	0.025730813
139	0x3d48ca93	0.049021315
140	0x3e8d1a19	0.27558973
141	0x3ea6fb89	0.3261378
142	0x3e75b8c7	0.23996268
143	0xbd6a99f0	-0.057275712

autoencoder.encoder.0.bias f4 [16]
0	0xbdbb2875	-0.09138576
1	0xba65b9a0	-0.0008763317
2	0xbee6b9c7	-0.45063612
3	0xbe8a5151	-0.27015164
4	0x3f3cdc7f	0.7377395
5	0xbe30da91	-0.17270876
6	0xbe7e016c	-0.2480523
7	0xbd868447	-0.06568199
8	0xbdc3393c	-0.09532401
9	0x3f19c406	0.60064733
10	0x3eaf4fe7	0.34240648
11	0xbeb7e2b7	-0.35915157
12	0xbe1eef5c	-0.15520996
13	0x3ec84cdc	0.3912114
14	0xbecaf46f	-0.39639613
15	0x3f069704	0.5257418

autoencoder.encoder.3.weight f4 [8, 16, 3, 3]
0	0x3d20c6f1	0.039252225
1	0xbd09dc2a	-0.03365723
2	0x3c1a1120	0.009403497
3	0xbf268860	-0.6505184
4	0x3e2f72b9	0.17133607
5	0x3d903f90	0.070433736
6	0x3d6dd846	0.058067583
7	0xbd9127fa	-0.07087703
8	0xbe908c4c	-0.28232038
9	0x3da46262	0.080265775
10	0xbcab267c	-0.020892374
11	0x3e15ec50	0.14640927
12	0xbe8778ca	-0.26459342
13	0xbd2a11d9	-0.041520927
14	0xbd93c841	-0.0721593
15	0xbcd9e069	-0.026596265
16	0xbdcce31e	-0.10004257
17	0xbd63a8e0	-0.055580974
18	0x3cbb17dd	0.022838527
19	0x3d21a999	0.03946838
20	0xbb87115a	-0.0041219415
21	0xbe86a103	-0.26294717
22	0x3daf0cf4	0.085473925
23	0xbddabd73	-0.10680666
24	0xbcbb6cd7	-0.022879047
25	0x3eaa62d5	0.33278528
26	0xbf213e6c	-0.62985873
27	0xbe151783	-0.1455975
28	0x3da3311c	0.07968351
29	0x3d2b718f	0.041856345
30	0xbe9f0375	-0.31057325
31	0x3e05e9b0	0.13077426
32	0xbdac055d	-0.083994605
33	0xbe4fb5a3	-0.20284133
34	0x3c1cd752	0.009572821
35	0xbd697da7	-0.057004597
36	0x3e2454e3	0.16048007
37	0xbd83b2e5	-0.06430606
38	0xbd6ba9db	-0.057535034
39	0xbba29988	-0.00496215
40	0xbdb7191b	-0.08940335
41	0xbeb3fb62	-0.35152727
42	0x3e451788	0.19247258
43	0x3d4c85f6	0.049932443
44	0x3e8b957e	0.2726249
45	0xbe7f8dd3	-0.24956445
46	0x3cc80f53	0.02442137
47	0xbdc5e9b7	-0.09663718
48	0xbdd841df	-0.10559439
49	0xbe7eb537	-0.24873815
50	0xbf042859	-0.51624066
51	0xbee7158f	-0.45133635
52	0x3e157179	0.14594068
53	0xbeb61999	-0.35566404
54	0x3d5ba800	0.053627014
55	0xbc2b7bb1	-0.010466502
56	0xbc8da712	-0.01729158
57	0x3d79439c	0.060855493
58	0x3ef18d6f	0.47178218
59	0x3d82d969	0.06389124
60	0xbe835b3f	-0.25655553
61	0xbb369dd8	-0.0027865078
62	0xbe61d0ad	-0.2205226
63	0xbe1888ce	-0.14895937
64	0x3ac06d1a	0.0014680952
65	0xbe8792cd	-0.26479188
66	0x3c961f90	0.018325597
67	0xbe71b0e3	-0.23602633
68	0xbd92b44a	-0.07163294
69	0xbe91316e	-0.28358024
70	0xbd24f31e	-0.040270917
71	0xbed9a300	-0.42507172
72	0xbde8247a	-0.11335082
73	0xbd10e66c	-0.035375997
74	0x3d82e120	0.063905954
75	0xbe822b5c	-0.25423706
76	0xbee59d96	-0.4484679
77	0xbecfab3d	-0.40560332
78	0xbe4e47c3	-0.20144562
79	0xbd9cadda	-0.07650347
80	0xbf21ce42	-0.6320535
81	0xbd6f1962	-0.058373816
82	0xbd35c2bd	-0.04437517
83	0xbda92aaa	-0.08260091
84	0xbeaffa51	-0.34370664
85	0x3c0c8425	0.008576428
86	0xbe3a6c21	-0.1820531
87	0x3e1a1fdf	0.1505122
88	0x3df52864	0.119705945
89	0x3f31a83c	0.6939733
90	0x3d45e574	0.048314527
91	0xbdbda548	-0.092600405
92	0xbcf159ac	-0.029461704
93	0x3eb761a7	0.3581669
94	0xbc6612aa	-0.014042536
95	0x3e147c70	0.14500594
96	0xbdfae0bd	-0.12249897
97	0x3e783a5d	0.24241014
98	0x3dd45a32	0.10368766
99	0x3cf4b5c3	0.029871827
100	0xbe4191b7	-0.18903242
101	0xbe2e0a42	-0.169961
102	0xbe1c8d72	-0.15288332
103	0x3f20c0b3	0.62794036
104	0x3c36f311	0.01116635
105	0xbd8f3d80	-0.06994152
106	0x3ef3245b	0.47488675
107	0xbe35cbe5	-0.17753561
108	0xbc4f8ad2	-0.012667375
109	0xbe4a6684	-0.19765669
110	0xbe376ca3	-0.17912535
111	0x3f09daef	0.5384969
112	0x3e5b505e	0.21417376
113	0x3dad12c5	0.08450846
114	0xbd7f00f7	-0.06225678
115	0xbdf1b83a	-0.118027166
116	0x3e93df1b	0.28881153
117	0xbcd57813	-0.026058232
118	0xbe4af75f	-0.19820927
119	0xbdeaec4b	-0.114708506
120	0x3ebf09c4	0.37312138
121	0xbe0befd3	-0.13665704
122	0xbc4a5c54	-0.012351114
123	0x3d40f96a	0.04711286
124	0xbe867e08	-0.2626803
125	0x3e9971da	0.29969674
126	0xbd8faf49	-0.07015855
127	0xbc5bce21	-0.013415844
128	0x3c81fcfb	0.0158677
129	0xbe16b211	-0.14716364
130	0xbc98a388	-0.018632665
131	0xbd8fefd5	-0.07028166
132	0xbe1f11d9	-0.15534152
133	0xbe62043b	-0.22071926
134	0x3d051382	0.032489307
135	0x3ccc09de	0.024907049
136	0xbe218e8e	-0.15777037
137	0xbe71df55	-0.2362035
138	0x3e9ebf4c	0.31005323
139	0xbe836073	-0.25659522
140	0xbebe26f9	-0.3713911
141	0x3e097c60	0.13426352
142	0xbe08239e	-0.13294837
143	0x3f0ffb61	0.5624295
144	0xbd732b32	-0.059367366
145	0xbe50c9dc	-0.20389503
146	0x3c80ab34	0.015706636
147	0xbc437ee4	-0.011932109
148	0x3c2b34ac	0.01044957
149	0x3e0c4493	0.13698034
150	0xbd8ba4b0	-0.06818521
151	0x3d54a7b4	0.051917747
152	0xbe87e023	-0.2653819
153	0x3dd5b5fd	0.10435102
154	0xbda8c6e1	-0.08241058
155	0xbc44e8fe	-0.01201844
156	0x3e3ab91d	0.18234678
157	0xbe6e1ca6	-0.23253116
158	0x3e45d0b8	0.19317901
159	0xbf29ce47	-0.6633038
160	0xbdcea860	-0.10090709
161	0x3e053767	0.13009416
162	0x3cbdb16a	0.023155887
163	0xbd316a23	-0.04331411
164	0x3d8c3704	0.06846431
165	0x3d868dd9	0.06570024
166	0xbc014605	-0.007890229
167	0x3e404fdd	0.18780465
168	0xbe93a494	-0.288365
169	0x3e16c191	0.14722277
170	0x3defc331	0.11707152
171	0x3e32d944	0.17465693
172	0x3de7873a	0.11305089
173	0x3dbf0895	0.09327809
174	0x3ddf11b4	0.108920485
175	0xbdde6e30	-0.1086086
176	0x3e9d3166	0.3070175
177	0xbee17334	-0.44033206
178	0xbe2c4afb	-0.16825478
179	0xbe818c17	-0.25302193
180	0x3e64c2d1	0.22339942
181	0x3cca08c3	0.024662381
182	0x3dfb019f	0.122561686
183	0xbdf8d67c	-0.12150285
184	0xbed63926	-0.41840476
185	0x3e296c02	0.16545108
186	0xbf47efaa	-0.78100073
187	0xbdb0e0a2	-0.08636595
188	0xbd64afd6	-0.055831753
189	0x3da5a7dc	0.08088657
190	0x3d7e774d	0.062125493
191	0x3c8bfe39	0.017088996
192	0x3cb68c29	0.02228363
193	0x3e24bede	0.16088435
194	0xbe3e1667	-0.18563233
195	0xbde71c87	-0.11284738
196	0xbef90378	-0.4863546
197	0xbd954e99	-0.07290382
198	0xbe68a411	-0.22718836
199	0xbd606c26	-0.05479064
200	0x3bbfc66e	0.005852512
201	0x3e00ad4c	0.12566108
202	0x3e88c28d	0.2671093
203	0x3d002430	0.03128451
204	0x3df5ec29	0.120079346
205	0x3d33fc72	0.043941922
206	0x3e1ec04f	0.15503047
207	0xbd7bd4fd	-0.06148242
208	0xbd33897a	-0.04383228
209	0xbd76b6b3	-0.06023283
210	0xbe1e18a4	-0.15439087
211	0xbd0521c8	-0.03250292
212	0xbe13d918	-0.14438283
213	0x3d000967	0.031258967
214	0xbe47339b	-0.1945328
215	0xbd8fbc71	-0.07018364
216	0x3e662fc4	0.22479159
217	0x3d8d902d	0.06912265
218	0x3a94b1f7	0.0011344542
219	0xbe518ee6	-0.20464668
220	0x3c052637	0.008126787
221	0x3d93b818	0.072128475
222	0x3da487ce	0.08033715
223	0xbd612156	-0.054963432
224	0xbdc0e441	-0.09418536
225	0x3e2b22c3	0.1671248
226	0x3e064e78	0.13115871
227	0x3e17b264	0.14814144
228	0x3e235c90	0.15953279
229	0x3d2a923d	0.04164337
230	0xbc290112	-0.010315197
231	0x3cefabb5	0.029256681
232	0x3c51d3e8	0.01280687
233	0x3eb1906d	0.346805
234	0xbe14361a	-0.14473763
235	0x3c846848	0.016163006
236	0x3de2eee3	0.1108072
237	0xbcab36d1	-0.020900162
238	0x3ebf7162	0.37391192
239	0xbe8d6f01	-0.27623752
240	0x3f505199	0.8137451
241	0x3e5ae8da	0.21377888
242	0x3ec4b52d	0.38419476
243	0x3e23bf7b	0.15991013
244	0x3d95752f	0.072977416
245	0x3d959fad	0.07305846
246	0x3e0631a8	0.1310488
247	0xbe712214	-0.23548156
248	0x3e84a4da	0.25907022
249	0x3e9c61fa	0.305435
250	0x3d97d0b0	0.07412851
251	0xbc9e7053	-0.01934067
252	0xbe5b9ee5	-0.21447332
253	0x3d085e88	0.033293277
254	0xbc15d4e1	-0.009144993
255	0xbb023850	-0.001986999

autoencoder.encoder.3.bias f4 [8]
0	0xbf05c59b	-0.52254647
1	0xbec33db1	-0.38133004
2	0xbca7bc83	-0.020475632
3	0x3e1ed6e6	0.15511665
4	0xbc332c64	-0.0109358765
5	0xbe20f1b2	-0.157172
6	0x3d86a385	0.065741576
7	0x3ea41314	0.32045805

autoencoder.encoder.6.weight f4 [2, 8, 2, 2]
0	0x3dc80004	0.09765628
1	0xbdb31715	-0.08744637
2	0x3f7da257	0.99075836
3	0x40018796	2.0239005
4	0x3ec52db0	0.3851142
5	0xbc442acc	-0.011973094
6	0xbe098ae5	-0.1343189
7	0x3dbb8ecc	0.09158096
8	0xbeed824e	-0.46388477
9	0xbe8e5890	-0.27801943
10	0xbea7ac34	-0.32748568
11	0xbe545e22	-0.20739034
12	0xbd34bfdd	-0.044128288
13	0xbe53f009	-0.20697035
14	0xbe382495	-0.17982705
15	0xbdde4154	-0.10852304
16	0x3e9e8970	0.30964231
17	0x3ebf6a3b	0.37385735
18	0x3ec92900	0.39289093
19	0x3e0ba11b	0.13635676
20	0x3e5c8e0c	0.21538562
21	0x3d7dcb2a	0.06196133
22	0x3f324ecf	0.696515
23	0x3f13eeb0	0.57786083
24	0xbf3f84e4	-0.7481215
25	0xbe8da2a1	-0.27663139
26	0xbf56b963	-0.8387663
27	0xbe969cf6	-0.29416627
28	0xbe005f7b	-0.12536423
29	0xbf051024	-0.51977754
30	0xbf10c4f4	-0.56550527
31	0xbea0be79	-0.3139532
32	0x3cfe87b0	0.03107056
33	0x3df7a8cb	0.120927416
34	0xbd522e87	-0.051313903
35	0xbec1677b	-0.37774262
36	0x3f03030c	0.51176524
37	0x3e8acbd9	0.27108648
38	0x3fbc7d40	1.4725723
39	0x3f7542c9	0.9580503
40	0x3e5a0e5c	0.2129454
41	0x3f07e77b	0.53087586
42	0x3ed8b17e	0.42322916
43	0x3eb3d956	0.35126752
44	0xbef9f76c	-0.4882158
45	0xbeaf7315	-0.34267488
46	0xbf114ccf	-0.56757826
47	0xbee92307	-0.45534536
48	0xbef1191c	-0.4708947
49	0xbf0807aa	-0.53136694
50	0xbf55108e	-0.83228385
51	0xbd4e24e0	-0.050328135
52	0x3ca92bbc	0.020650737
53	0xbd10829d	-0.035280813
54	0xbe9b102c	-0.30285776
55	0xbebe41dd	-0.37159625
56	0x3e9f0e88	0.31065774
57	0x3dcc5933	0.09977951
58	0x3f09af85	0.53783447
59	0x3e5ab459	0.2135786
60	0xbee69a74	-0.45039713
61	0xbf450f4c	-0.76976466
62	0xbf366090	-0.7124109
63	0xbe78eb9f	-0.24308632

autoencoder.encoder.6.bias f4 [2]
0	0xbe1f2a84	-0.15543562
1	0xbe12bcd2	-0.14329842

autoencoder.decoder.0.weight f4 [2, 8, 2, 2]
0	0xbd8b438d	-0.06799994
1	0x3caa34dd	0.02077716
2	0x3f233a54	0.63760877
3	0x3dee6db9	0.11642022
4	0xbf344799	-0.7042175
5	0xbe252b8d	-0.16129895
6	0xbe873622	-0.26408488
7	0xbea603c5	-0.3242475
8	0xbe7b9a4e	-0.24570581
9	0x3e688314	0.22706252
10	0x3df0393a	0.11729665
11	0x3f015e65	0.5053466
12	0x3f0742e5	0.5283645
13	0xbf292c56	-0.66083276
14	0x3ec2d97a	0.38056546
15	0x3f928351	1.1446325
16	0x3f4f3673	0.8094246
17	0x3f1cd0de	0.61256206
18	0x3f2551d7	0.64578
19	0xbed80a44	-0.42195332
20	0x3e948c16	0.29013127
21	0x3e5a0d29	0.21294083
22	0x3ec503b4	0.38479388
23	0xbe9b4e9e	-0.30333418
24	0x3f19c84d	0.6007126
25	0x3ea13d3f	0.3149204
26	0x3f1fe0cd	0.62452394
27	0x3eb57283	0.35438928
28	0x3ed749fe	0.4204864
29	0x3d30f5cd	0.043203164
30	0xbe648b1c	-0.22318691
31	0xbf4da344	-0.8032725
32	0x3effb547	0.4994299
33	0x3efabc39	0.48971727
34	0x3f5b8d98	0.8576293
35	0x3dcb6674	0.09931651
36	0xbe5c0af3	-0.21488552
37	0xbe155a8f	-0.14585327
38	0x3ef25477	0.47330067
39	0xbebf1be6	-0.37325972
40	0xbee5d7f5	-0.44891325
41	0x3e832905	0.25617233
42	0xbf2d59c2	-0.67715085
43	0x3f0c5392	0.5481502
44	0xbe6e36ba	-0.23263064
45	0xbe933eed	-0.28758946
46	0x3e64408f	0.22290252
47	0xbec2e937	-0.38068554
48	0xbe8b62a8	-0.27223706
49	0x3ec726e1	0.3889685
50	0xbf1d77b4	-0.6151078
51	0x3d0519a3	0.032495152
52	0xbea16baa	-0.31527454
53	0xbebd4969	-0.3697007
54	0xbe566059	-0.20935191
55	0x3f17aa85	0.5924457
56	0xbf3fea63	-0.7496702
57	0x3eb1947a	0.3468359
58	0xbcb07d9b	-0.021544268
59	0xbebcd0df	-0.36878106
60	0xbe2649b2	-0.1623905
61	0xbf2e4cc3	-0.6808588
62	0xbed06bbf	-0.40707204
63	0xbd09239b	-0.03348122

autoencoder.decoder.0.bias f4 [8]
0	0x3fd42b63	1.657574
1	0xbf4f9d28	-0.81099176
2	0xbdf79162	-0.120882764
3	0x3d039ff7	0.032134976
4	0x3ea0ccb9	0.3140619
5	0x3fee00b2	1.8593962
6	0xbf6faf62	-0.9362699
7	0xc0324f21	-2.7860796

autoencoder.decoder.2.weight f4 [8, 16, 3, 3]
0	0x3eb2763f	0.3485584
1	0x3d8e2fc7	0.069427066
2	0xbe6a36ef	-0.22872518
3	0x3e5a18ba	0.21298495
4	0x3e71d74f	0.2361729
5	0xbd0ef1d7	-0.034898605
6	0x3d6f2261	0.058382396
7	0x3d9c4744	0.0763078
8	0x3e53c49f	0.20680474
9	0x3e819e88	0.25316262
10	0x3e144876	0.14480767
11	0xbd587cc5	-0.052853364
12	0xbc143f3a	-0.0090482775
13	0xbea8adc7	-0.32945082
14	0xbeafead2	-0.3435884
15	0x3de66e97	0.11251562
16	0xbf064687	-0.52451366
17	0x3dff04af	0.12452065
18	0x3dcb422e	0.09924732
19	0xbeae1f7d	-0.340084
20	0xbe15d074	-0.146303
21	0x3e9a6b59	0.30160025
22	0x3d0288f8	0.031868905
23	0x3e9fb253	0.31190738
24	0xbaf7f577	-0.0018917759
25	0xbd225113	-0.0396281
26	0x3d8793a3	0.06619956
27	0x3e574d60	0.2102561
28	0x3e4a83fb	0.19776909
29	0x3c94b278	0.018151507
30	0x3e26cad9	0.16288318
31	0xbe5a921b	-0.21344797
32	0xbd2a9542	-0.04164625
33	0xbd704e4d	-0.058668423
34	0x3b86356d	0.0040957243
35	0x3ebab8ea	0.36469203
36	0xbdb874a6	-0.09006624
37	0x3e3e1270	0.18561721
38	0x3e8e9720	0.27849674
39	0xbe444913	-0.191685
40	0xbddea99d	-0.10872195
41	0x3e1a0134	0.15039521
42	0x3d0a825e	0.033815734
43	0xbd817806	-0.06321721
44	0xbd264cce	-0.04060059
45	0x3b004749	0.001957374
46	0x3e1b5495	0.15168984
47	0xbd6ab1ad	-0.05729835
48	0x3e2a10ad	0.16607924
49	0xbde4f149	-0.11178834
50	0xbe76e273	-0.24109821
51	0x3f420d7d	0.7580183
52	0x3da0c72d	0.0785049
53	0x3e35229d	0.17688985
54	0xbd0bc2d5	-0.034121353
55	0x3eb3931f	0.35073182
56	0xbdc32ac0	-0.09529638
57	0xbe46a0a0	-0.19397211
58	0xbc8f058f	-0.017458705
59	0xbdd8011f	-0.10547089
60	0x3e3d9d6a	0.1851708
61	0x3e2e1cc5	0.17003162
62	0x3d5078ab	0.050896328
63	0xbc77cd55	-0.015124639
64	0xbe968fde	-0.29406637
65	0x3ce929df	0.028462349
66	0x3cc7e5b2	0.02440152
67	0xbe85569f	-0.2604265
68	0x3dbd609e	0.09246944
69	0x3e9550b9	0.2916315
70	0xbdd81d90	-0.105525136
71	0xbe012869	-0.12613072
72	0x3decc08c	0.11560163
73	0x3c91fb7a	0.017820109
74	0xbe07871d	-0.13235135
75	0x3e63e89a	0.22256699
76	0xbeca847e	-0.3955421
77	0xbeb37aab	-0.35054526
78	0x3da759cc	0.08171424
79	0xbe419b79	-0.18906964
80	0xbda68186	-0.081301734
81	0xbce109c0	-0.02747047
82	0xbe54e01c	-0.20788616
83	0x3b28ccfa	0.0025756941
84	0xbf59dbbe	-0.85100925
85	0xbdd154fe	-0.10221289
86	0x3e92b24f	0.28651664
87	0x3da520ed	0.08062921
88	0x3bf99c16	0.007617484
89	0xbed830f8	-0.4222486
90	0x3d9e7b0f	0.07738315
91	0x3ef717b6	0.48260278
92	0x3de21841	0.11039782
93	0x3edf6be1	0.43636993
94	0x3ecc021f	0.39845368
95	0x3d3c2e14	0.04594238
96	0x3e0bfd11	0.13670756
97	0x3e807b5f	0.25094125
98	0x3da952ba	0.08267732
99	0x3e343871	0.17599656
100	0x3e422095	0.18957742
101	0x3d381fcf	0.04495221
102	0xbf596570	-0.84920406
103	0xbf1cf905	-0.61317474
104	0x3e8cd1c2	0.27503783
105	0x3d7fd3e0	0.06245792
106	0xbea4d4eb	-0.32193694
107	0x3e203c25	0.15647943
108	0xbdea4e3f	-0.114407055
109	0x3daf0e56	0.08547656
110	0xbd75704f	-0.05992156
111	0xbca7fd71	-0.020506592
112	0x3e60381d	0.21896406
113	0x3df62966	0.12019615
114	0xbcfbbc3f	-0.030729411
115	0xbc927180	-0.017876387
116	0xbe92e172	-0.28687626
117	0x3e0e582f	0.13900827
118	0x3e6ecc88	0.2332021
119	0xbbe49f73	-0.0069770156
120	0xbd9d4f34	-0.076811224
121	0xbea993cb	-0.3312057
122	0xbe571391	-0.21003558
123	0x3afc237e	0.0019236652
124	0xbf1efa5e	-0.6210078
125	0xbe8a48a5	-0.27008548
126	0x3e574447	0.2102214
127	0x3dfd26b8	0.12360901
128	0xbdd16065	-0.10223464
129	0xbed70bdb	-0.42001233
130	0x3e6f74d1	0.23384406
131	0x3e23f25f	0.16010426
132	0x3bcab4c5	0.0061861
133	0xbb85efdb	-0.004087431
134	0xbe201497	-0.15632854
135	0x3dda60a9	0.10662968
136	0x3d29c644	0.041448846
137	0x3e1124e1	0.14174224
138	0x3d6daad9	0.05802426
139	0xbea3785e	-0.3192777
140	0xbc90b5a0	-0.01766473
141	0x3da2848f	0.0793544
142	0x3f0fc45a	0.56158984
143	0x3db740c7	0.08947902
144	0xbe00f870	-0.12594771
145	0xbd1b8d5b	-0.037976604
146	0xbe1df5a6	-0.15425739
147	0x3e1995fb	0.1499862
148	0x3e0f1c09	0.13975538
149	0x3be16625	0.0068786317
150	0xbe1db658	-0.1540159
151	0xbce489fc	-0.027897827
152	0xbdd73f6f	-0.10510146
153	0xbe157b07	-0.14597712
154	0xbde95e49	-0.113949366
155	0xbd384c6d	-0.04499476
156	0xbe9acd37	-0.30234692
157	0xbea0cda5	-0.31406894
158	0x3d2855e1	0.041097526
159	0x3d65ee7b	0.056135636
160	0x3dc06d7e	0.09395884
161	0xbe5c942a	-0.21540895
162	0x3d244b10	0.040110648
163	0xbcd9add7	-0.026572151
164	0x3d501448	0.05080059
165	0xbdc8d255	-0.09805743
166	0xbecf91be	-0.4054088
167	0xbcd48430	-0.025941938
168	0x3e0a83ad	0.13526793
169	0xbc774be2	-0.0150937755
170	0xbe71cf4e	-0.23614237
171	0x3c02f34e	0.007992579
172	0x3de2579f	0.11051869
173	0x3dec722b	0.11545213
174	0x3cd81af3	0.026380038
175	0x3d265495	0.040608007
176	0x3ecef4bd	0.40421095
177	0xbd65aa81	-0.05607081
178	0xbe6fe56c	-0.23427361
179	0xbd91d9ea	-0.07121642
180	0xbde62646	-0.11237769
181	0xbe457121	-0.19281437
182	0xbdfe6c84	-0.124230415
183	0xbd4ca5e4	-0.049962893
184	0xbdbba0cd	-0.0916153
185	0x3e091296	0.13385996
186	0xbe04523d	-0.12921996
187	0x3dda66ae	0.10664116
188	0xbe109141	-0.1411791
189	0xbee38bdb	-0.4444264
190	0xbd57cdec	-0.052686617
191	0x3e6ea73b	0.23305981
192	0xbe03b4e7	-0.12861978
193	0x3c3aa706	0.011392361
194	0x3da1c8de	0.078996405
195	0xbe386ab7	-0.18009458
196	0x3d7f3b61	0.062312488
197	0xbe900efe	-0.28136438
198	0x3cbe96d9	0.02326529
199	0x3d1b9926	0.03798785
200	0xbc7d710a	-0.015468845
201	0x387290db	5.7832203e-05
202	0x3dd96731	0.10615385
203	0xbe107f53	-0.1411107
204	0x3d37b64b	0.044851582
205	0xbd9b8797	-0.07594221
206	0x3d9b993c	0.075975865
207	0x3ce55564	0.027994819
208	0xbdd71f81	-0.10504056
209	0xbe6b5549	-0.22981752
210	0x3e2c4ac9	0.16825403
211	0x3e6bcf66	0.23028335
212	0x3dcfb6a6	0.10142259
213	0x3c079620	0.008275539
214	0x3e61ad9d	0.22038884
215	0xbe7ab1c4	-0.24481875
216	0xbe5a78d6	-0.21335158
217	0xbe33b3b4	-0.1754902
218	0xbe1e4500	-0.15456009
219	0x3bf80f0d	0.0075701536
220	0x3dc348d5	0.09535376
221	0xbf1882a8	-0.59574366
222	0xbddeaee8	-0.108732045
223	0xbde4c94c	-0.11171207
224	0xbe987870	-0.29779387
225	0x3daa9e53	0.08330979
226	0x3d96b30b	0.073583685
227	0x3ad89f5a	0.0016526983
228	0x3e63cfaa	0.22247186
229	0xbea4ff6a	-0.32226115
230	0x3e53d31a	0.20685998
231	0xbe1ef128	-0.15521681
232	0xbe337806	-0.17526254
233	0x3d948ca0	0.072533846
234	0xbe3b5897	-0.18295513
235	0xbe9b7c7c	-0.30368412
236	0xbe042c17	-0.12907444
237	0xbf10dfae	-0.5659131
238	0xbdfd7961	-0.12376667
239	0xbdd5cf7d	-0.10439966
240	0xbe854ed8	-0.26036716
241	0x3e23ee7f	0.16008948
242	0xbc8b25fd	-0.016985888
243	0x3db16d72	0.08663453
244	0x3da2de75	0.079525866
245	0x3e4072fa	0.1879386
246	0x3e693a2d	0.22776099
247	0x3d5f0593	0.054448675
248	0x3d8fb4c8	0.07016903
249	0x3d76a8b1	0.06021947
250	0x3b8ad790	0.004237123
251	0x3e4ce86a	0.20010534
252	0x3ca8ef5c	0.020621948
253	0x3e10e31d	0.14149137
254	0x3e2d1f2d	0.16906424
255	0x3e2d3ef7	0.1691855

autoencoder.decoder.2.bias f4 [16]
0	0x3e0378a4	0.1283899
1	0x3fbf9b4b	1.4969267
2	0x3ed2aa51	0.41145566
3	0x3f33d709	0.7024999
4	0x3f3c22c6	0.7349056
5	0xbde8642c	-0.11347231
6	0xbef8d695	-0.48601213
7	0xbf20166a	-0.625342
8	0x3f28d939	0.65956455
9	0xbf7c1347	-0.98466915
10	0xbf96417d	-1.1738735
11	0x3e2bbb83	0.16770749
12	0xbfa44cc0	-1.2835922
13	0x3f8899c9	1.0671932
14	0x3c041a9d	0.008062986
15	0x3be1da39	0.0068924692

autoencoder.decoder.4.weight f4 [16, 8, 5, 5]
0	0x3e1fe272	0.15613726
1	0x3d5dec0f	0.0541802
2	0x3d4935eb	0.049123686
3	0xbd9c20dc	-0.07623455
4	0xbd4ac632	-0.04950542
5	0x3d1e057f	0.03857946
6	0xbc233254	-0.00996073
7	0xbe4d8b68	-0.2007271
8	0xbc6e8457	-0.014557919
9	0x3e2b74db	0.16743796
10	0x3cbb27f4	0.0228462
11	0x3e175cdb	0.14781515
12	0x3d3bb747	0.045829084
13	0xbd4225a1	-0.047399167
14	0x3e34bf4d	0.176511
15	0xbc0b925f	-0.008518784
16	0x3d6ef23b	0.058336478
17	0xbc8ee3c1	-0.017442586
18	0x3e166c47	0.14689742
19	0x3d83f6a2	0.06443526
20	0x3b092913	0.0020929023
21	0xbdf47a91	-0.1193744
22	0x3df4029a	0.11914559
23	0x3e13fa8c	0.14451045
24	0xbcfbc13a	-0.030731786
25	0x3e48c3c1	0.19605924
26	0xbd31248d	-0.04324775
27	0xbd08d33a	-0.033404566
28	0xbe3f16d9	-0.1866106
29	0xbd95e815	-0.07319657
30	0xbd31b4f4	-0.04338546
31	0xbdfd23dd	-0.12360356
32	0xbe193425	-0.14961298
33	0x3c0b96b0	0.008519813
34	0xbda6ad17	-0.08138483
35	0xbcd66098	-0.026169106
36	0xbd85e662	-0.06538083
37	0x3c872c86	0.016500723
38	0x3e0b1a50	0.13584256
39	0x3dfd4094	0.12365833
40	0xbdb5a655	-0.08869616
41	0x3d5d64de	0.054051273
42	0x3db22b03	0.0869961
43	0xbcf4b2cf	-0.029870419
44	0xbdf1122a	-0.11771043
45	0x3de949b6	0.11391012
46	0xbcae8b40	-0.021306634
47	0xbe1495e2	-0.14510301
48	0x3dd4ecb0	0.10396707
49	0x3dfb6540	0.12275171
50	0x3e0eb271	0.13935257
51	0x3dcac38c	0.09900579
52	0x3d01bc15	0.03167351
53	0xbd467986	-0.048455738
54	0x3cfa8e31	0.03058538
55	0x3e62e05b	0.22155897
56	0x3de5683c	0.11201522
57	0xbdd1e7d0	-0.10249293
58	0xbdcfe36e	-0.10150801
59	0x3d8f883c	0.070084065
60	0xbd4d7547	-0.050160673
61	0xbe3f6efa	-0.18694678
62	0xbe86a7da	-0.26299936
63	0xbe11ffb5	-0.142577
64	0x3d32f805	0.04369356
65	0xbdbd7698	-0.092511356
66	0xbdc6cba5	-0.09706811
67	0xbd045fe2	-0.032318003
68	0xbd2d8303	-0.04236127
69	0x3d409e21	0.047025803
70	0x3da5cff8	0.080963075
71	0x3e1cab5e	0.15299746
72	0x3dd6be3d	0.10485504
73	0x3e34ba60	0.17649221
74	0x3db12d0c	0.0865117
75	0x3e3fe205	0.18738563
76	0x3bed0655	0.007233421
77	0xbd766eb3	-0.060164165
78	0x3dc765c2	0.09736206
79	0x3e40ebe9	0.18839993
80	0x3e21dbb7	0.15806471
81	0xbe5981d2	-0.21240929
82	0xbe79e1df	-0.24402569
83	0xbe7e6674	-0.2484377
84	0x3dec3efc	0.11535451
85	0xbe0a79bd	-0.13523002
86	0xbd3717d5	-0.044700462
87	0xbe693f49	-0.22778048
88	0xbe83d63d	-0.25749388
89	0xbd309f4d	-0.04312067
90	0x3e25b103	0.16180806
91	0xbc85d48e	-0.016336706
92	0x3de8ff04	0.11376765
93	0x3d7eeece	0.06223946
94	0xbadb6571	-0.0016738606
95	0x3dbb9607	0.09159475
96	0x3d0c31d9	0.034227226
97	0x3e24ccd6	0.16093764
98	0x3cbac809	0.022800462
99	0xbbf4f7de	-0.007475837
100	0x3e32b374	0.17451268
101	0x3df1f051	0.11813415
102	0xbdd73fd3	-0.105102204
103	0xbeab0147	-0.33399412
104	0xbd9b063d	-0.07569549
105	0x3d25a5ce	0.040441327
106	0xbd6a11c6	-0.057145856
107	0xbebc642e	-0.3679518
108	0xbe619dfe	-0.22032925
109	0xbd58109b	-0.05275021
110	0x3d676192	0.056489535
111	0xbd560533	-0.052251052
112	0xbce1b81b	-0.027553609
113	0x3d3fb513	0.046803545
114	0x3dc835f2	0.09775914
115	0x3d738b09	0.059458766
116	0x3e80be14	0.25145018
117	0x3e832710	0.2561574
118	0x3deb91ce	0.115024194
119	0x3ccd62de	0.025071558
120	0xbd041fdf	-0.032256957
121	0x3cfde9db	0.0309953
122	0xbdbfd8de	-0.09367536
123	0x3e1d5e4a	0.15368
124	0x3e289e03	0.16466527
125	0x3d349e1d	0.0440961
126	0xbddb1072	-0.10696496
127	0xbea6352d	-0.32462445
128	0xbdb9eaf3	-0.09078016
129	0xbdf8c496	-0.12146871
130	0x3d9d4295	0.07678715
131	0x3ab136e1	0.0013520384
132	0xbe9e6052	-0.30932862
133	0xbe81f138	-0.25379348
134	0x3e423d24	0.18968636
135	0x3e1fc156	0.15601096
136	0x3db8ed5c	0.09029648
137	0xbe2d38df	-0.16916226
138	0xbe9e9e40	-0.3098011
139	0x3de98ded	0.11404023
140	0x3b0e72b1	0.0021735842
141	0xbd2ab02e	-0.041671924
142	0xbdd8bc69	-0.105828114
143	0x3dc635ce	0.09678231
144	0x3ea40b53	0.3203989
145	0xbe21ebe6	-0.15812644
146	0xbda2be19	-0.079464145
147	0xbc8c3a14	-0.017117538
148	0xbde6ba60	-0.11266017
149	0xbde34fbe	-0.11099194
150	0xbe085d01	-0.13316728
151	0x3d91ee94	0.07125583
152	0xbd6b4644	-0.057440057
153	0x3b2a2e08	0.0025967378
154	0x3e7939d3	0.24338464
155	0x3e024b08	0.12723935
156	0x3c43f60c	0.011960518
157	0xbe52872a	-0.20559373
158	0xbc1b6ce5	-0.009486412
159	0x3d9c6809	0.07637031
160	0xbda07d72	-0.07836427
161	0xbbd394ee	-0.006456963
162	0x3dc1aa34	0.09456292
163	0x3e54ea53	0.20792513
164	0xbe02ddbe	-0.127799
165	0x3de59420	0.11209893
166	0x3dda31e2	0.10654046
167	0x3e37df65	0.17956312
168	0xbd69ce18	-0.057081312
169	0x3cfa43fb	0.030549994
170	0xbed40da7	-0.41416666
171	0x3e033dc8	0.12816536
172	0xbd801bd3	-0.06255307
173	0x3c57d781	0.013173939
174	0xbe23867b	-0.15969269
175	0x3dc3fb1f	0.09569382
176	0xbe1a5a23	-0.15073447
177	0xbbb968ca	-0.005658244
178	0x3e11d072	0.14239672
179	0x3ec4ff3c	0.38475978
180	0x3d329947	0.043603208
181	0xbdee18e2	-0.1162584
182	0x3b7ed12e	0.0038882005
183	0xbe55244a	-0.20814624
184	0xbe644ac4	-0.22294146
185	0x3d8faceb	0.07015403
186	0x3bfa77c2	0.007643671
187	0xbda0a37e	-0.07843684
188	0xbe1300b2	-0.14355734
189	0xbbce6ea3	-0.00629981
190	0xbc851854	-0.016246952
191	0xbd64a50a	-0.055821456
192	0x3dc6f718	0.09715098
193	0xbd97fff7	-0.07421868
194	0x3d64e9bf	0.05588698
195	0x3d4e6c83	0.050396454
196	0xbdcab75d	-0.09898255
197	0xbed1a264	-0.40944207
198	0x3d095352	0.033526726
199	0x3dd4868c	0.10377225
200	0xbd725096	-0.059158884
201	0xbcf916ad	-0.03040632
202	0x3ddc17c7	0.10746723
203	0x3dd5fd6f	0.10448729
204	0x3de1d3e1	0.11026741
205	0x3d8ca2b3	0.0686697
206	0xbe2bd428	-0.1678015
207	0xbd3e1e38	-0.046415538
208	0x3c5a0b4f	0.01330836
209	0x3e3cb034	0.18426591
210	0x3d9d944a	0.076942995
211	0xbe8fdeb5	-0.280996
212	0xbe1e70a2	-0.15472654
213	0xbde35bbc	-0.11101481
214	0x3d88ed6b	0.06685909
215	0xbdaa8dc1	-0.08327819
216	0xbd856330	-0.06513059
217	0xbda2e023	-0.07952907
218	0xbd0ccd14	-0.034375265
219	0x3d08c071	0.03338665
220	0x3d91da14	0.07121673
221	0xbd9e8cec	-0.077417225
222	0xbdd6d90e	-0.10490619
223	0x3c18fab1	0.009337113
224	0x3def7e8f	0.11694061
225	0x3d82dbfc	0.06389615
226	0xbd80e16e	-0.06292997
227	0xbdc30183	-0.09521773
228	0x3dfccbcd	0.123435594
229	0x39030b32	0.00012497304
230	0xbe0fc82d	-0.14041205
231	0xbdd3444e	-0.103157625
232	0xbe352d6e	-0.17693111
233	0x39969573	0.00028721578
234	0xbd7031d3	-0.058641266
235	0xbda8448c	-0.08216199
236	0xbee96dab	-0.45591483
237	0xbec3f1b8	-0.38270354
238	0xbe28bff6	-0.16479477
239	0x3d49c724	0.04926218
240	0xbeddb1ca	-0.43299705
241	0xbe7ecb93	-0.24882345
242	0xbe5b996a	-0.21445242
243	0x3e0e57b1	0.13900639
244	0xbe184ec0	-0.1487379
245	0xbdb68c67	-0.08913498
246	0xbe2bb9cb	-0.16770093
247	0xbe2e934c	-0.17048377
248	0x3c8b0776	0.016971331
249	0x3de92cc0	0.113854885
250	0x3db89810	0.090133786
251	0xbd08d7bb	-0.03340886
252	0xbe0d4ccf	-0.13798831
253	0xbd8e8bc6	-0.069602534
254	0x3d060af7	0.0327253
255	0x3d71f542	0.059071787

autoencoder.decoder.4.bias f4 [8]
0	0xbf06993c	-0.5257757
1	0xbeb8dff7	-0.36108372
2	0xbf1cf6a0	-0.6131382
3	0xbf0e6493	-0.55622214
4	0xbeac90cf	-0.3370423
5	0xbf7482af	-0.9551191
6	0xbf4c84b8	-0.7989001
7	0xbf042e30	-0.51632977

autoencoder.decoder.6.weight f4 [8, 1, 2, 2]
0	0xbe283421	-0.16426136
1	0xbe9d0e22	-0.30674845
2	0xbe8a0d4d	-0.26963273
3	0xbed06522	-0.40702158
4	0xbeb51f88	-0.3537562
5	0x3e863a4e	0.26216358
6	0xbd92f552	-0.071756974
7	0x3f0aaa71	0.5416632
8	0x3f15a438	0.584537
9	0x3eab54ff	0.33463284
10	0xbe50d41a	-0.2039341
11	0xbedf4ab4	-0.4361168
12	0x3f07a177	0.5298075
13	0x3f46845f	0.7754573
14	0x3f2148d3	0.63001746
15	0x3f5eefee	0.87084854
16	0x3f32e50c	0.6988075
17	0x3e82ec80	0.2557106
18	0x3f69a89c	0.912729
19	0x3ee96845	0.45587364
20	0xbf2de104	-0.6792147
21	0xbf2dc17d	-0.67873365
22	0xbedc6796	-0.4304778
23	0xbedf4bd5	-0.43612543
24	0xbf039ba7	-0.5140938
25	0xbeb684d4	-0.35648215
26	0xbed508f8	-0.41608405
27	0xbe845c5e	-0.2585172
28	0xbe8a4fc1	-0.27013972
29	0xbeee6202	-0.4655915
30	0xbeab33ae	-0.33437866
31	0xbf070b5b	-0.527517
