save_config_3/4/model_state.pth (torch, 28664 bytes, 13 tensors)

autoencoder.encoder.0.weight f4 [16, 1, 3, 3]
0	0xbf260018	-0.64843893
1	0xbde62150	-0.112368226
2	0xbddafbd8	-0.10692567
3	0xbe971972	-0.295116
4	0xbe670c3b	-0.2256326
5	0xbf225e42	-0.63425076
6	0x3f4088bf	0.7520866
7	0x3e1a6fb0	0.15081668
8	0xbec4c821	-0.38433936
9	0x3d8d2d9c	0.06893465
10	0xbf0b48c3	-0.544079
11	0xbf4ae4ce	-0.7925538
12	0x3ec4a4c9	0.3840697
13	0xbca7d7dd	-0.020488674
14	0xbefd3250	-0.49452448
15	0x3f43ffc5	0.7656215
16	0x3f26b648	0.6512189
17	0x3e3884eb	0.18019454
18	0xbf164f1e	-0.58714473
19	0xbe920c7c	-0.2852515
20	0xbf75e569	-0.9605318
21	0xbd197bca	-0.03747157
22	0x3d03a6f9	0.03214166
23	0xbe4c066e	-0.19924328
24	0xbf0bffe5	-0.5468734
25	0xbe9d95ef	-0.30778453
26	0xbfa80820	-1.312748
27	0xbdf24749	-0.11830003
28	0x3f1e4b64	0.61833787
29	0xbe29c3c6	-0.16578588
30	0xbde2650a	-0.11054428
31	0x3e911ed6	0.28343838
32	0xbeeb73d0	-0.45986795
33	0x3ed1f2fb	0.41005692
34	0x3e849d3b	0.25901207
35	0xbee90f4e	-0.4551949
36	0x3f680aa4	0.90641236
37	0xbe28f430	-0.164994
38	0xbd3efaeb	-0.046626013
39	0x3f0523bb	0.52007645
40	0xbe846eaf	-0.25865695
41	0xbdc68238	-0.09692806
42	0xbe118477	-0.14210688
43	0xbf0b6379	-0.5444866
44	0xbdb36540	-0.08759546
45	0xbf556c41	-0.8336831
46	0xbecad8d7	-0.3961856
47	0xbe7ba6d6	-0.24575362
48	0xbe3b9739	-0.18319406
49	0xbd30ef27	-0.043196823
50	0xbec7682c	-0.38946664
51	0xbf437a16	-0.76358163
52	0xbe33b028	-0.17547667
53	0x3f0c75cd	0.5486725
54	0x3e5d2d61	0.21599342
55	0xbe32e5ad	-0.17470427
56	0xbf27e75d	-0.6558741
57	0x3f001339	0.5002933
58	0xbe28e804	-0.16494757
59	0xbf09b872	-0.53797066
60	0x3f85d8b6	1.045676
61	0x3e902856	0.28155774
62	0xbe668b70	-0.22514129
63	0xbf18a609	-0.5962835
64	0xbf16737b	-0.5876996
65	0xbea884c6	-0.32913798
66	0xbeaa0f63	-0.33214864
67	0xbdfbc8c9	-0.12294156
68	0x3e93889b	0.2881516
69	0x3ed665c3	0.41874513
70	0x3f178bd7	0.59197754
71	0x3efb2b34	0.490564
72	0x3d218d89	0.03944162
73	0xbcfeaee7	-0.03108926
74	0x3c93cac4	0.018041022
75	0xbdc9832d	-0.09839473
76	0xbeab2b6c	-0.33431566
77	0x3d9aaf4f	0.07552969
78	0x3ed3834b	0.41311106
79	0x3ef1a6b9	0.47197512
80	0x3f9d2f92	1.2280142
81	0x3d47be8c	0.048765704
82	0x3e3dbf03	0.18529896
83	0x3ec4286e	0.38312095
84	0xbdcf7712	-0.10130133
85	0xbd2a5991	-0.041589323
86	0x3d0fe89b	0.03513394
87	0xbd4f3e0f	-0.050596293
88	0x3e339112	0.17535809
89	0xbdcbecbf	-0.09957265
90	0x3eda79fb	0.4267119
91	0x3ea67f86	0.32519168
92	0x3e0a066c	0.13479012
93	0x3ecce504	0.40018475
94	0xbb84d013	-0.0040531247
95	0xbd4dac4b	-0.05021314
96	0x3f430f64	0.7619536
97	0xbd6112b6	-0.054949485
98	0x3e883181	0.26600268
99	0xbe4e32e7	-0.20136605
100	0x3cb90616	0.02258591
101	0x3f040ba0	0.5158024
102	0xbed414d8	-0.41422153
103	0xbe223bbc	-0.158431
104	0x3ecdb9a5	0.40180698
105	0xbeae2a4c	-0.34016645
106	0xbe20df64	-0.15710217
107	0x3ef727d0	0.48272562
108	0xbeff4eb6	-0.4986474
109	0xbdcbf913	-0.099596165
110	0x3ee7ce31	0.452745
111	0x3e2ac10f	0.16675209
112	0x3eefdb81	0.46847156
113	0x3ed98fb6	0.42492455
114	0x3ed3a93c	0.41340053
115	0x3c1ce72e	0.009576602
116	0xbeb87717	-0.36028358
117	0x3d96893b	0.073503934
118	0x3ee4f4ed	0.44718114
119	0x3f273d2e	0.6532773
120	0xbec4c7c6	-0.38433665
121	0xbd392414	-0.045200422
122	0x3dd83e75	0.10558788
123	0xbf1288eb	-0.5724017
124	0xbee8921a	-0.45423967
125	0xbf348430	-0.705142
126	0x3eb9a95b	0.3626202
127	0x3e3bb8d9	0.18332233
128	0xbeae7477	-0.3407323
129	0x3e8e20b3	0.27759323
130	0x3edd3767	0.4320633
131	0x3e0ca6a5	0.13735445
132	0xbf263151	-0.64919
133	0xbd2d542f	-0.04231661
134	0x3eea78f7	0.45795414
135	0xbde606ad	-0.11231742
136	0xbda7524a	-0.08169992
137	0x3d309041	0.04310632
138	0xbe085a93	-0.13315801
139	0xbe0b05b5	-0.13576396
140	0x3e392cd1	0.18083502
141	0x3bf0baec	0.0073465016
142	0x3da6e997	0.081500225
143	0x3e5289cc	0.20560378

autoencoder.encoder.0.bias f4 [16]
0	0x3ce5be67	0.028044892
1	0xbd29b0e3	-0.041428458
2	0x3eb940f9	0.36182383
3	0xbe7c9c31	-0.24668957
4	0xbd9bdeda	-0.07610865
5	0x3def17d8	0.1167447
6	0xbca33573	-0.019922948
7	0xbeeb2531	-0.45926812
8	0xbd581867	-0.052757647
9	0x3f5e64e9	0.86872727
10	0xbf0c81d5	-0.5488561
11	0xbe84127a	-0.25795346
12	0xbe3d1703	-0.1846581
13	0xbe21b395	-0.15791161
14	0x3e9ca309	0.30593136
15	0x3ff02973	1.8762649

autoencoder.encoder.3.weight f4 [8, 16, 3, 3]
0	0x3dc067ff	0.09394836
1	0x3e6a77de	0.22897288
2	0xbb99ab83	-0.0046896352
3	0xbe390fa6	-0.18072376
4	0xbe35beec	-0.17748612
5	0x3e131290	0.1436255
6	0x3da18b33	0.07887878
7	0x3e9348d2	0.28766495
8	0xbe8f785f	-0.28021523
9	0xbced04e2	-0.028932992
10	0xbd814192	-0.06311335
11	0xbd7759ab	-0.06038825
12	0x3d41c22b	0.047304314
13	0xbdf7856a	-0.120859936
14	0x3e1ed472	0.15510729
15	0x3c951590	0.018198758
16	0x3e499fa0	0.19689798
17	0xbea5ff2e	-0.3242125
18	0x3d8063dd	0.062690474
19	0xbe504075	-0.20337088
20	0xbd8b58f6	-0.06804077
21	0xbe930475	-0.28714338
22	0xbebf2f9a	-0.37341005
23	0xbe4f96c3	-0.20272355
24	0x3ea941ee	0.33058113
25	0x3d37a1b3	0.044831943
26	0x3d8deaf7	0.069295816
27	0x3dca2ec8	0.09872204
28	0x3cc88a6d	0.024480069
29	0x3dd3c6cb	0.10340651
30	0x3e06c11b	0.13159601
31	0x3e22e274	0.15906698
32	0xbe1b7452	-0.15181091
33	0xbe4f293e	-0.20230576
34	0xbe1de1f1	-0.15418221
35	0x3eaf7da6	0.3427555
36	0xbdcde0b4	-0.10052624
37	0xba217c1c	-0.00061601563
38	0x3e001011	0.12506129
39	0xbe921176	-0.28528947
40	0x3df0e48a	0.1176234
41	0xbe685b38	-0.22691047
42	0x3c2be527	0.010491646
43	0xbeb796d3	-0.35857257
44	0x3ed07f4c	0.4072212
45	0x3e344a06	0.17606363
46	0x3de8db3d	0.113699414
47	0xbdb758fd	-0.0895252
48	0xbe73424a	-0.23755756
49	0xbe1ab78a	-0.15109077
50	0x3d8862ec	0.06659493
51	0x3e77ebaa	0.24210992
52	0x3ecd4a0a	0.4009555
53	0xbd329ba8	-0.043605477
54	0x3d897fcf	0.06713831
55	0x3e34dc6f	0.17662214
56	0xbe388e44	-0.1802302
57	0x3eb5160a	0.35368377
58	0x3d98b5e8	0.07456571
59	0xbdb6a8a2	-0.08918883
60	0x3a5dcee9	0.0008461313
61	0xbd87e386	-0.066351935
62	0x3e1677ad	0.1469409
63	0x3ddd37b9	0.10801644
64	0x3e7536d0	0.2394669
65	0x3e15968e	0.14608213
66	0xbec6c3ea	-0.38821346
67	0x3bda95b2	0.006670677
68	0xbe09eb49	-0.1346866
69	0x3c6ec264	0.0145727135
70	0x3e2cc259	0.16871013
71	0xbc149042	-0.009067597
72	0xbddf1acb	-0.10893782
73	0x3d990c16	0.07473008
74	0x3d4b55ca	0.04964236
75	0x3d883ac2	0.06651832
76	0x3d0a1b46	0.033717416
77	0x3daff80b	0.08592232
78	0xbe942155	-0.2893168
79	0xbc75d294	-0.015003819
80	0x3de761a9	0.11297924
81	0xbdf3779f	-0.1188805
82	0xbc8c4642	-0.017123345
83	0x3ddd365d	0.108013846
84	0x3ea224d4	0.31668723
85	0xbd6c4be0	-0.057689548
86	0x3e0a6e79	0.13518704
87	0x3c5a67b6	0.013330391
88	0x3e4159d0	0.18881917
89	0x3e8b6e7d	0.27232733
90	0xbd81b757	-0.063337974
91	0x3d5d004c	0.05395536
92	0xbb379b30	-0.0028016083
93	0xbd64a917	-0.05582532
94	0x3d010a4a	0.031503953
95	0xbde75efe	-0.11297415
96	0xbe4274a7	-0.18989812
97	0xbe334a95	-0.1750892
98	0xbd3f5ce5	-0.04671945
99	0x3cb10828	0.021610335
100	0xbd159bd6	-0.03652557
101	0xbdc830b3	-0.09774914
102	0x3e62c28e	0.22144529
103	0xbdafd6dc	-0.08585903
104	0xbb6654bf	-0.0035145727
105	0xbe518469	-0.20460667
106	0x3e807662	0.2509032
107	0xbe04cf2c	-0.12969655
108	0x3d0830e7	0.033249762
109	0x3e3f399a	0.18674317
110	0x3e114975	0.14188178
111	0xbe8af76a	-0.27141887
112	0x3b9089b1	0.0044109453
113	0xbcaa4ba0	-0.020788014
114	0xbe39318e	-0.1808531
115	0x3d6f02c0	0.058352232
116	0x3e5b3003	0.21405034
117	0xbeb5f571	-0.3553882
118	0xbeafe217	-0.3435218
119	0xbd64b97c	-0.055840954
120	0xbdd464c7	-0.10370784
121	0xbc6ca922	-0.014444621
122	0x3d929487	0.071572356
123	0xbd41c0a8	-0.047302872
124	0xbe092b6f	-0.13395475
125	0xbea3ea8b	-0.3201488
126	0xbd2c17a7	-0.042014744
127	0xbe52624e	-0.20545313
128	0xbda28776	-0.079359934
129	0x3e3365d5	0.17519315
130	0xbd56793d	-0.052361716
131	0x3e282a9f	0.16422509
132	0xbe25936a	-0.16169515
133	0xbdeced46	-0.11568694
134	0xbe884afb	-0.26619706
135	0xbdf525cd	-0.119701006
136	0xbe47311c	-0.19452327
137	0x3ca3fdea	0.020018537
138	0x3df5ecd7	0.12008064
139	0xbe29e605	-0.16591652
140	0x3e78c918	0.24295461
141	0x3e8adfcf	0.27123877
142	0x3e989233	0.2979904
143	0x3f1a3d08	0.60249376
144	0x3de3e76c	0.111281246
145	0xbe04fc59	-0.12986888
146	0xbed4f558	-0.41593432
147	0x3e068015	0.13134797
148	0xbeec40f3	-0.46143302
149	0xbe5e6010	-0.21716332
150	0xbdf4b516	-0.11948602
151	0x3ccb08fa	0.024784554
152	0x3e57185e	0.21005389
153	0x3c2fab7c	0.010722037
154	0xbe5ed17f	-0.21759604
155	0xbe7d3c33	-0.24729995
156	0x3e282589	0.16420569
157	0xbea7a326	-0.3274166
158	0xbedde975	-0.43342176
159	0xbe068d7c	-0.1313991
160	0xbe0b81ee	-0.13623783
161	0x3d6778ec	0.056511804
162	0xbccf8d18	-0.025335833
163	0x3e18bd91	0.14916064
164	0x3d723ab2	0.059138007
165	0x3ea9cc71	0.3316379
166	0x3ed22392	0.41042763
167	0x3e0f2599	0.13979186
168	0x3c06e1d7	0.008232555
169	0x3e73089f	0.23733757
170	0xbe523662	-0.20528558
171	0xbde23c0f	-0.110466115
172	0xbd3b55b2	-0.045736022
173	0x3e631229	0.22174896
174	0xbdf33207	-0.11874776
175	0x3ea47bcb	0.32125697
176	0x3d2c4313	0.042056154
177	0x3e472f80	0.19451714
178	0xbd08bc24	-0.03338255
179	0xbe6e1f8c	-0.23254222
180	0xbdb24052	-0.087036744
181	0xbe780d2b	-0.24223773
182	0x3dc7d3c4	0.09757188
183	0xbe7bd5a5	-0.24593218
184	0x3f142474	0.57868123
185	0x3e6ed4d6	0.23323378
186	0x3e599122	0.2124677
187	0x3e54c825	0.20779474
188	0xbe74f027	-0.23919736
189	0xbd97a52e	-0.074045524
190	0xbe05885a	-0.13040295
191	0xbda924bc	-0.0825896
192	0x3e0daa7c	0.13834566
193	0x3f24dae4	0.643965
194	0x3de04efe	0.109525666
195	0x3e81bef6	0.25341004
196	0xbda40bb8	-0.08010048
197	0x3e52c1b3	0.20581703
198	0xbd0a82ec	-0.033816263
199	0x3dac427c	0.084111184
200	0x3e2a20f3	0.16614132
201	0xbe1e8aa5	-0.15482576
202	0x3daca094	0.08429065
203	0xbe29df74	-0.16589147
204	0xbd92443f	-0.07141923
205	0x3e07dbef	0.13267492
206	0xbe9b7519	-0.30362776
207	0xbd3aac87	-0.04557469
208	0xbe90aecf	-0.28258368
209	0xbe3839e3	-0.17990832
210	0x3da5729c	0.08078501
211	0x3e2d3b95	0.1691726
212	0x3ed7137b	0.4200705
213	0x3e74f443	0.23921303
214	0xbcddf228	-0.027093008
215	0x3ef096ca	0.46990043
216	0xbcac307e	-0.021019217
217	0x3e28f795	0.16500695
218	0x3e7dce35	0.24785693
219	0xbe3419eb	-0.17588012
220	0x3e7846f9	0.24245824
221	0xbeacd11f	-0.33753297
222	0x3db871ab	0.090060554
223	0xbd784090	-0.060608447
224	0x3e901535	0.2814118
225	0xbce7b4fa	-0.028284539
226	0xbed079ad	-0.4071783
227	0xbe3a2772	-0.1817911
228	0xbe6006bf	-0.21877573
229	0xbcef6be7	-0.029226257
230	0xbeec9353	-0.4620615
231	0x3e75b2d0	0.23993993
232	0x3ed616a7	0.41814157
233	0x3c790574	0.015199054
234	0x3e2b5722	0.16732457
235	0x3c98e3c2	0.01866329
236	0x3c561ff4	0.013069142
237	0xbe815d64	-0.25266564
238	0x3f143159	0.578878
239	0xbd6c0e25	-0.057630677
240	0x3da6b86f	0.08140647
241	0x3ed21510	0.41031694
242	0x3e9df67e	0.3085212
243	0xbca978f2	-0.020687554
244	0x3d174207	0.036928203
245	0x3e587ca3	0.21141295
246	0xbe8a3edd	-0.27001086
247	0x3e4b5d02	0.19859698
248	0xbee3c9df	-0.44489953
249	0xbe595c8e	-0.21226713
250	0xbe0546b4	-0.13015252
251	0xbebcc758	-0.36870837
252	0xbd8bf01f	-0.06832909
253	0xbe904a2d	-0.28181592
254	0x3d9be8b9	0.07612748
255	0xbe393d46	-0.1808978

autoencoder.encoder.3.bias f4 [8]
0	0xbd9e103f	-0.077179424
1	0xbec77fd6	-0.3896472
2	0x3d58663c	0.052831873
3	0xbdc555e0	-0.0963552
4	0x3dabd651	0.08390487
5	0xbd66e708	-0.056372672
6	0xbd6a208d	-0.05715995
7	0xbd42f6d9	-0.047598694

autoencoder.encoder.6.weight f4 [2, 8, 2, 2]
0	0xbe22d20c	-0.15900439
1	0xbf564eec	-0.83714175
2	0xbf5c54f9	-0.8606716
3	0x3f3ab73a	0.7293583
4	0xbe927958	-0.28608203
5	0x3ed296d6	0.41130704
6	0xc0089e28	-2.134653
7	0x3f51f44c	0.8201339
8	0x3d88ffe1	0.0668943
9	0x3cc3c7ef	0.023899047
10	0x3ed54a4f	0.41658255
11	0x3f1ab24a	0.604283
12	0xbdf03c0b	-0.11730202
13	0x3e585205	0.21125038
14	0xbea98f20	-0.33117008
15	0x3cdf12cf	0.027230648
16	0x3e2c5c81	0.16832162
17	0x3dcdbc08	0.1004563
18	0x3d997a26	0.07494001
19	0x3f156fb4	0.5837357
20	0x3ece4e33	0.40294036
21	0x3e8f9df4	0.28050196
22	0x3f26ce5f	0.6515865
23	0x3f056be4	0.52117753
24	0x3e867c82	0.26266867
25	0x3e36d99a	0.17856446
26	0x3e5fd75d	0.21859498
27	0x3e40bbad	0.18821593
28	0xbec6f53a	-0.38858968
29	0xbf0850f5	-0.5324853
30	0xbd91fa3d	-0.07127807
31	0xbecc0c41	-0.398531
32	0x3d6e0db8	0.058118552
33	0xbe099a94	-0.13437873
34	0xbf384af0	-0.71989346
35	0x3edb479c	0.4282807
36	0xbd3e4436	-0.04645177
37	0x3d3174e6	0.043324374
38	0xbde028de	-0.10945295
39	0xbf36756f	-0.7127294
40	0x3e78e18c	0.2430479
41	0xbddeaa9a	-0.108723834
42	0x3faeda57	1.3660382
43	0x3f9096f6	1.129607
44	0xbe5a173b	-0.21297924
45	0x3eda3129	0.4261563
46	0xbfc4ed7f	-1.5384978
47	0xbcc5551f	-0.02408844
48	0xbf4a1b1c	-0.78947616
49	0xbf0ca71a	-0.54942477
50	0xbdba667e	-0.0910158
51	0xbee5c753	-0.44878635
52	0xbc145acb	-0.00905485
53	0xbe7c5d1d	-0.24644895
54	0xbd416660	-0.047216773
55	0x3c7413a1	0.014897258
56	0xbe162fd7	-0.14666687
57	0xbed4a993	-0.41535625
58	0xbec8d7bd	-0.39227095
59	0xbee8a72a	-0.45440036
60	0x3da03f64	0.07824591
61	0xbdcd1e67	-0.100155644
62	0xbed76af4	-0.42073786
63	0xbec34b90	-0.38143587

autoencoder.encoder.6.bias f4 [2]
0	0xbc855e15	-0.016280213
1	0x3be5996f	0.007006816

autoencoder.decoder.0.weight f4 [2, 8, 2, 2]
0	0xbf99f1c2	-1.2026904
1	0x3f131003	0.57446307
2	0x3f0aa7e1	0.5416241
3	0xbb374d28	-0.0027969573
4	0x3e1e2380	0.1544323
5	0xbe5d6cf2	-0.2162359
6	0xbdc12281	-0.09430409
7	0x3f33f537	0.70296043
8	0x3e970ca0	0.2950182
9	0x3eb645fc	0.3560027
10	0x3edbfac1	0.42964748
11	0x3f3df3d9	0.74200207
12	0x3dc8f701	0.09812737
13	0x3f33244c	0.6997726
14	0x3de80bb4	0.11330357
15	0x3d93d48b	0.07218274
16	0x3e7c77cd	0.24655075
17	0xbee47847	-0.44623014
18	0x3f1bae27	0.6081261
19	0x3e48e4d9	0.19618548
20	0xbedfab14	-0.4368521
21	0xbdd65cbb	-0.10466906
22	0x3d445309	0.04793075
23	0xbeee11b9	-0.46497896
24	0x3ea465f7	0.32109043
25	0xbce9194a	-0.028454442
26	0xbddda3a9	-0.10822231
27	0xbf8f8441	-1.1212236
28	0x3d9a7f27	0.07543784
29	0x3ecbb139	0.39783648
30	0x3f8f4ba0	1.1194954
31	0xbf11ad84	-0.5690539
32	0xbf66e998	-0.90200186
33	0xbe100e41	-0.14067937
34	0xbf508f2c	-0.8146846
35	0xbe28f512	-0.16499737
36	0x3e19d149	0.15021242
37	0xbf7e24ea	-0.99275076
38	0x3ec9a0fa	0.39380628
39	0xbf3e3f07	-0.7431492
40	0x3f68dcd8	0.9096198
41	0x3e638056	0.22216925
42	0x3e6456a5	0.22298677
43	0x3fce5b67	1.6121644
44	0x3e41389e	0.18869254
45	0xbeb58e2f	-0.3546004
46	0x3eed6aaa	0.4637044
47	0x3e4942f3	0.19654445
48	0xbd165e5e	-0.03671109
49	0x3e9c2b1d	0.30501643
50	0xbf452058	-0.7700248
51	0x3e6113ed	0.21980257
52	0xbeb5e706	-0.3552782
53	0xbe5ab96b	-0.21359794
54	0x3dd0d504	0.101968795
55	0xbfcbf5c0	-1.5934372
56	0x3e11a96d	0.14224787
57	0x3f850fb2	1.0395415
58	0xbe02ad3d	-0.12761398
59	0xbf33cd32	-0.7023498
60	0x3d9e6f3f	0.07736062
61	0xbe4c572e	-0.19955131
62	0xbc511e46	-0.012763565
63	0x3da29541	0.07938624

autoencoder.decoder.0.bias f4 [8]
0	0xbf439451	-0.7639819
1	0xbfebdfbd	-1.8427655
2	0xbd6c312e	-0.05766409
3	0x3fca335a	1.5796921
4	0x3fa2d63a	1.2721627
5	0x3f7ab206	0.9792789
6	0x3f843c48	1.0330896
7	0xbf48cad4	-0.7843449

autoencoder.decoder.2.weight f4 [8, 16, 3, 3]
0	0xbe027a7b	-0.12742035
1	0xbcb33989	-0.02187802
2	0x3e1f192a	0.15536943
3	0xbe8fcd1a	-0.28086168
4	0x3ea515db	0.32243237
5	0xbde310bc	-0.11087176
6	0xbf0bd272	-0.5461799
7	0x3ea3a93d	0.31965056
8	0xbe720ac8	-0.23636925
9	0xbcdb9da0	-0.02680856
10	0x3da95b6d	0.08269391
11	0x3e11594c	0.1419422
12	0x3e26a9a6	0.16275653
13	0xbf71e384	-0.94487786
14	0xbe63c448	-0.22242844
15	0xbdad3484	-0.08457282
16	0x3e1eecbb	0.15519993
17	0xbd0937d0	-0.033500493
18	0x3cdd2183	0.026993519
19	0xbd607966	-0.054803275
20	0x3da970a8	0.082734406
21	0xbd5838a8	-0.052788407
22	0xbc66fbd0	-0.014098123
23	0x3b78512b	0.0037890177
24	0xbe1db4a1	-0.15400936
25	0xbea1200d	-0.31469765
26	0xbe17fa15	-0.14841492
27	0x3e51d984	0.20493132
28	0xbd037fa4	-0.03210415
29	0x3c4f79d8	0.012663327
30	0xbde3c062	-0.111206785
31	0xbf38b9e6	-0.7215866
32	0x3e9f99f6	0.3117215
33	0x3e4228ec	0.18960923
34	0xbf1aaca1	-0.6041966
35	0xbe23d7ba	-0.16000262
36	0x3dc118f9	0.09428591
37	0x3e388042	0.18017676
38	0x3e0f3b8f	0.13987564
39	0xbe613e17	-0.21996342
40	0x3c531d3b	0.012885387
41	0x3e3d64cd	0.18495484
42	0xbe151875	-0.14560111
43	0x3d24b907	0.04021552
44	0xbd363246	-0.04448154
45	0x3d8e82bd	0.0695853
46	0xbdf47be9	-0.119376965
47	0xbe2a98f9	-0.16659917
48	0x3e1c7477	0.15278803
49	0xbda7d747	-0.08195358
50	0xbac524b1	-0.0015040842
51	0x3de5a2fc	0.112127274
52	0xbeb0d8f7	-0.3454053
53	0x3ead14e9	0.33805016
54	0x3e85f43d	0.26162902
55	0xbde660c3	-0.112489246
56	0xbd9a3b46	-0.07530837
57	0x3d9d7479	0.07688231
58	0x3d621934	0.055199817
59	0x3ea69eb9	0.3254297
60	0xba6431e4	-0.0008704944
61	0xbd184325	-0.03717341
62	0xbdb46ff5	-0.088104166
63	0xbd6b27a5	-0.057410855
64	0xbe4c78a7	-0.199679
65	0x3dc6c296	0.09705083
66	0xbe868efd	-0.26280966
67	0xbc660578	-0.01403939
68	0xbc1aa34b	-0.009438346
69	0xbd2d805f	-0.042358752
70	0xbe315a80	-0.1731968
71	0xbe2df180	-0.16986656
72	0xbd15a7f6	-0.036537133
73	0xbd70abd8	-0.058757633
74	0x3d856972	0.06514253
75	0xbe02a55e	-0.12758395
76	0xbe0b5bb1	-0.13609196
77	0x3e213936	0.1574448
78	0x3d2823de	0.04104983
79	0xbdfe8e12	-0.124294415
80	0xbe3b1041	-0.18267919
81	0x3ba98204	0.00517297
82	0xbd99331e	-0.07480453
83	0xbdea2aea	-0.114339665
84	0xbe468365	-0.1938606
85	0x3f2f4474	0.68463826
86	0x3e1e2062	0.1544204
87	0x3cbc1a06	0.022961628
88	0xbdf2c66b	-0.118542515
89	0xbf45e4e5	-0.7730239
90	0x3d61e374	0.055148557
91	0xbdc4fd0f	-0.096185796
92	0x3dd09b93	0.101859234
93	0xbe4cc960	-0.19998693
94	0x3dd188c8	0.10231167
95	0x3e315231	0.1731651
96	0xbc0934ee	-0.008374436
97	0xbee27596	-0.44230336
98	0xbedb5e06	-0.42845172
99	0xbd8b1281	-0.06790639
100	0x3c9e4a42	0.019322518
101	0x3d763806	0.060112022
102	0xbe737cae	-0.2377803
103	0x3da9a850	0.08284056
104	0x3e982de5	0.29722515
105	0xbea4ab8f	-0.3216214
106	0xbe9fa3e2	-0.3117972
107	0xbec9ef02	-0.3944016
108	0x3e026014	0.12731963
109	0x3d4d78d4	0.05016406
110	0xbe9effa7	-0.31054422
111	0x3e9c7a60	0.30562115
112	0xbe3b2186	-0.18274507
113	0xbf493a20	-0.78604317
114	0xbe232579	-0.15932263
115	0x3e14188b	0.14462487
116	0xbd8ee800	-0.06977844
117	0xbe05ba38	-0.13059318
118	0x3d18c628	0.03729835
119	0xbd502edc	-0.05082594
120	0xbde98404	-0.11402133
121	0x3dc45f9b	0.09588548
122	0x3e2ad9b7	0.16684614
123	0xbeb4b80b	-0.35296664
124	0xbe2fa426	-0.17152461
125	0xbebc58fe	-0.36786646
126	0x3a3fb080	0.00073123723
127	0xbd0ee270	-0.034883916
128	0xbea2f39c	-0.31826484
129	0xbe238c02	-0.15971377
130	0x3e655a43	0.22397713
131	0xbe310ec9	-0.17290796
132	0xbc8955cb	-0.016764542
133	0xbde90538	-0.113779485
134	0xbdbde6fb	-0.09272572
135	0xbe359c79	-0.17735471
136	0xbd2a93fd	-0.04164504
137	0x3d8fa95e	0.07014726
138	0xbe510135	-0.20410617
139	0x3ed379f5	0.41303983
140	0x3e599e66	0.2125183
141	0xbd506dd8	-0.050886005
142	0x3d43165d	0.04762875
143	0x3e695539	0.22786416
144	0xbe23c7cc	-0.15994185
145	0x3e52f822	0.20602468
146	0xbf000782	-0.50011456
147	0xbd79d33a	-0.060992457
148	0x3f270687	0.65244335
149	0xbf4b1519	-0.7932907
150	0xbe0c9141	-0.13727285
151	0x3f11005f	0.5664119
152	0xbedf1834	-0.43573153
153	0xbb982d6a	-0.0046440857
154	0x3e17c17b	0.148199
155	0xbd5fbc32	-0.054622836
156	0x3e0113ce	0.12605211
157	0xbf191a20	-0.5980549
158	0x3be315a3	0.0069300695
159	0xbebec226	-0.37257499
160	0x3e3304a8	0.17482245
161	0xbcfd668b	-0.030932685
162	0x3cc6d214	0.024270095
163	0x3c90bd18	0.017668292
164	0xbe03eb4b	-0.12882726
165	0xbe449ece	-0.19201204
166	0x3d70c7ad	0.058784176
167	0xbe9e35a3	-0.30900297
168	0xbeddd880	-0.4332924
169	0x3dc86bdd	0.09786198
170	0xbe5f5775	-0.21810706
171	0x3e33d142	0.17560294
172	0xbf2a4237	-0.66507286
173	0x3d532970	0.05155319
174	0x3ea7fc57	0.32809708
175	0xbfa25f20	-1.268528
176	0x3e71559c	0.23567814
177	0x3e6235b5	0.220908
178	0x3cd656ce	0.026164439
179	0x3dd07518	0.10178584
180	0x3cc60eaa	0.024176914
181	0xbdd84ecc	-0.10561904
182	0xbd4d8c04	-0.050182357
183	0xbf1d16cc	-0.6136291
184	0xbebdd19b	-0.3707398
185	0xbe344cbc	-0.17607397
186	0xbecbd4ec	-0.39810884
187	0xbe4e8ce8	-0.20170939
188	0xbdde0e0e	-0.108425245
189	0xbe3233f8	-0.17402637
190	0xbf1cfeff	-0.61326593
191	0xbe798826	-0.24368343
192	0xbdfca579	-0.12336249
193	0xbf29c108	-0.6631017
194	0x3e3dd51b	0.18538325
195	0xbd8946b6	-0.0670294
196	0xbe90bc6c	-0.28268754
197	0x3d9a24e7	0.0752657
198	0xbea66da5	-0.32505527
199	0xbd217d04	-0.039425865
200	0x3e39785d	0.18112321
201	0xbd352110	-0.044220984
202	0xbee83462	-0.45352465
203	0x3e949f9d	0.29028025
204	0xbcaf8d25	-0.021429608
205	0x3cd0cc1e	0.025487956
206	0xbdb2b97c	-0.087267846
207	0xbe4266c8	-0.1898452
208	0xbea23422	-0.316804
209	0xbe5dfa2f	-0.21677469
210	0xbea13820	-0.31488132
211	0xbdda7dde	-0.106685385
212	0xbe2b1f15	-0.16711076
213	0xbf0c89dc	-0.54897857
214	0xbe84fc85	-0.25973907
215	0xbb9a1606	-0.0047023324
216	0x3e80d586	0.25162905
217	0x3d9eff1f	0.07763504
218	0x3a813b7d	0.0009859648
219	0x3e97f8d7	0.29682037
220	0x3e13d651	0.14437224
221	0xbe19898d	-0.14993878
222	0x3d9c8bad	0.076438285
223	0x3e97f9bf	0.2968273
224	0xbd241526	-0.04005923
225	0x3dd38a73	0.103291415
226	0xbe623e52	-0.22094086
227	0x3d91f67e	0.07127093
228	0xbe9bbe61	-0.30418685
229	0x3df7122f	0.12064015
230	0xbe25194c	-0.16122931
231	0xbeb372cb	-0.35048518
232	0xbede7033	-0.43444976
233	0xbe880a23	-0.26570234
234	0x3e2d870d	0.16946049
235	0xbd0ca9c1	-0.034341577
236	0xbddfc493	-0.109261654
237	0x3e82e99c	0.25568855
238	0xbcc8603d	-0.024459952
239	0x3e292418	0.16517675
240	0xbefc30aa	-0.49255878
241	0xbe8a3b00	-0.26998138
242	0xbd8fb1c5	-0.07016329
243	0xbdc0bff9	-0.09411616
244	0x3c96af87	0.018394245
245	0xbedf8cb2	-0.4366203
246	0xbf6a9b13	-0.91642874
247	0xbddb2a13	-0.107013844
248	0xbf0e5aa5	-0.5560706
249	0xbf16791d	-0.58778554
250	0x3d14e865	0.03635444
251	0xbed94868	-0.42438054
252	0xbe13056d	-0.14357539
253	0x3df345ad	0.11878524
254	0x3d96774d	0.073469736
255	0xbe1fad77	-0.15593515

autoencoder.decoder.2.bias f4 [16]
0	0xbf523359	-0.821096
1	0x3f81ac6d	1.0130745
2	0x3ee74eaa	0.45177203
3	0x3f5deb93	0.8668758
4	0x3f49949c	0.78742385
5	0x3f28db89	0.65959984
6	0x3facda07	1.3504037
7	0x3fae7392	1.3629019
8	0xbecd5f35	-0.401117
9	0x3e77e494	0.2420829
10	0x3ea1d370	0.31606627
11	0xbf182891	-0.594369
12	0x3eb89d22	0.36057383
13	0xbe94f2e2	-0.29091555
14	0xbf5aeed4	-0.8552067
15	0xbf27c0dd	-0.6552866

autoencoder.decoder.4.weight f4 [16, 8, 5, 5]
0	0x3d8f90b7	0.07010024
1	0xbd6d631f	-0.057955857
2	0x3e0c38b5	0.13693507
3	0x3e0913f9	0.13386525
4	0x3dcbd6dc	0.099530905
5	0x3c4bbd7d	0.012435314
6	0x3e5694de	0.20955226
7	0x3e3997d2	0.18124321
8	0x3e2b847d	0.16749759
9	0x3e0b4d21	0.13603641
10	0x3bde4e7a	0.0067842575
11	0x3d6cf14d	0.05784731
12	0x3cc7b02b	0.024375996
13	0x3d421516	0.04738339
14	0x3d294e1d	0.04133426
15	0x3de60aad	0.11232505
16	0x3e0b6656	0.13613257
17	0x3e3c0883	0.18362622
18	0x3db59b78	0.08867544
19	0x3cf4e9f7	0.02989672
20	0x3e2b6a4c	0.16739768
21	0x3cde353b	0.027124992
22	0x3e0c11f2	0.1367872
23	0x3d8ca693	0.06867709
24	0x3dde1b35	0.10845033
25	0x3d42337d	0.047412384
26	0x3e297cd4	0.16551524
27	0x3d8d344b	0.0689474
28	0x3e8e6647	0.27812406
29	0x3eb18c59	0.3467739
30	0xbe8ff7f7	-0.2811887
31	0x3e6e93bf	0.23298548
32	0x3e583b75	0.21116431
33	0x3e9f8b14	0.31160796
34	0x3eafae5b	0.3431271
35	0xbdd350d7	-0.10318153
36	0x3d311b0e	0.043238692
37	0x3ee68a95	0.45027605
38	0x3ea6bc3f	0.32565495
39	0x3e3aa986	0.1822873
40	0xbe0fe211	-0.14051081
41	0x3e3c6ec5	0.1840163
42	0x3e9d72f1	0.30751756
43	0x3ed4a8dd	0.41535082
44	0x3c95b5e6	0.018275212
45	0x3c69a6cc	0.014260959
46	0x3e2e532c	0.17023915
47	0xbc919378	-0.017770514
48	0x3eaad3c7	0.33364698
49	0x3d4d7f37	0.05017015
50	0x3de35094	0.110993534
51	0x3e090989	0.13382544
52	0xb9fdd0ff	-0.00048411635
53	0x3ead5d73	0.3386036
54	0xbde26dc6	-0.11056094
55	0x3e344ac3	0.17606644
56	0x3e94def6	0.29076356
57	0x3e61e89f	0.22061394
58	0x3eb65b7a	0.35616666
59	0x3d470e43	0.048597585
60	0x3d75eadc	0.060038432
61	0x3ec3054e	0.38089985
62	0x3ec1a2f8	0.37819648
63	0x3eb1977d	0.3468589
64	0x3cbab5d4	0.02279178
65	0x3e297a0a	0.1655046
66	0x3e511b8c	0.20420665
67	0xbe1c802d	-0.1528327
68	0x3eb3054d	0.34964982
69	0x3d457d59	0.048215244
70	0xbaf2d34a	-0.0018526104
71	0x3d98a431	0.07453192
72	0x3e858ed0	0.2608552
73	0x3debf304	0.11520961
74	0x3dd78b29	0.105245896
75	0xbe5ae6ac	-0.21377057
76	0xbd65da61	-0.056116465
77	0x3e11973d	0.14217849
78	0x3e456b72	0.19279268
79	0x3dc08f21	0.094023
80	0xbe1bce66	-0.15215454
81	0x3d3f8ba5	0.046764035
82	0x3e615289	0.22004141
83	0x3e8c9d6e	0.2746386
84	0x3dd4f58c	0.10398397
85	0xbe01166d	-0.12606211
86	0xbd62dd7e	-0.055387013
87	0x3e99bd8a	0.3002742
88	0x3de5b25e	0.112156615
89	0x3d3b609a	0.045746423
90	0x3c3c2159	0.01148256
91	0x3e8b70d9	0.27234533
92	0x3e7d6cea	0.24748579
93	0x3e733249	0.23749651
94	0xbccfc5ee	-0.025362935
95	0x3dfcb7ae	0.123397216
96	0x3e19b572	0.15010622
97	0x3dd3c94e	0.1034113
98	0x3e6a47b8	0.22878921
99	0xbcf0008c	-0.029297136
100	0x3e877378	0.26455283
101	0x3e7c9e54	0.24669772
102	0x3e6a49ed	0.22879763
103	0x3e854f84	0.26037228
104	0x3e910089	0.2832072
105	0x3e6bd440	0.23030186
106	0x3ea4776f	0.3212237
107	0x3e056a12	0.13028744
108	0x3e7271fd	0.23676296
109	0x3ee42ff4	0.44567835
110	0x3c91cc4e	0.017797615
111	0xbd7c057b	-0.061528664
112	0x3e8bdde1	0.27317718
113	0x3e89b884	0.26898587
114	0xbdd02c28	-0.10164672
115	0x3ea9f4d7	0.3319461
116	0x3e694174	0.22778875
117	0x3ded7641	0.11594821
118	0x3e0df4d3	0.13862924
119	0xbce09e17	-0.027419133
120	0x3bf37b77	0.0074304896
121	0x3d5db007	0.05412295
122	0x3eb25dda	0.34837228
123	0xbbe5ce62	-0.007013128
124	0xbdc47c37	-0.095940046
125	0xbdedc626	-0.116100594
126	0x3e32d287	0.17463122
127	0x3e4b92d2	0.19880226
128	0x3e67df93	0.2264388
129	0x3e846c38	0.25863814
130	0xbe28a54a	-0.16469303
131	0x3e5c037f	0.21485709
132	0x3eb15693	0.34636363
133	0x3ebb50af	0.36584994
134	0x3e6b6d81	0.22990991
135	0xbd5bbecf	-0.053648766
136	0x3e01c012	0.12670925
137	0x3e9d4f03	0.30724344
138	0x3e5f8982	0.21829799
139	0x3e097102	0.13422015
140	0x3ca54a09	0.020176904
141	0x3e7cd34c	0.24689978
142	0x3e89e649	0.26933506
143	0x3e9d03a1	0.3066683
144	0xbd78c18a	-0.06073145
145	0x3e445836	0.19174275
146	0x3da6c850	0.08143675
147	0x3d6c4b6c	0.057689115
148	0x3e345dda	0.17613927
149	0x3d2b942d	0.04188936
150	0xbeb231c4	-0.34803593
151	0xbe6d64d1	-0.2318299
152	0x3e1a99b5	0.15097697
153	0x3c0b8257	0.008514962
154	0x3c92d479	0.01792358
155	0xbdb42358	-0.08795804
156	0x3d1ab9e9	0.037774954
157	0x3ecb10a6	0.3966114
158	0x3e94e001	0.2907715
159	0x3df43fb6	0.119262144
160	0x3ab0080e	0.0013430135
161	0x3aa1c78a	0.0012342792
162	0x3e8ee5d7	0.2790973
163	0x3cf4eabc	0.029897086
164	0x3d000a29	0.03125969
165	0xbe34ce92	-0.17656925
166	0xbd2afc70	-0.04174465
167	0x3df26733	0.1183609
168	0x3e37eeca	0.17962185
169	0x3d315b28	0.043299824
170	0x3df63416	0.12021653
171	0x3e20484f	0.15652584
172	0x3dfd79d6	0.12376754
173	0x3e8be619	0.27323988
174	0xbc953020	-0.018211424
175	0xbcbfba19	-0.023404168
176	0x3d36c63a	0.044622637
177	0x3d67ba83	0.056574356
178	0xbe571eca	-0.21007839
179	0x3e14edfa	0.14543906
180	0x3d7982c4	0.060915723
181	0xbddfd98c	-0.10930166
182	0x3e82bc5c	0.25534332
183	0x3dbba56f	0.09162413
184	0x3e906188	0.2819941
185	0x3e29ff1d	0.16601224
186	0xbd0a7afb	-0.03380869
187	0x3eb073da	0.34463388
188	0x3d56bfee	0.052429132
189	0x3e06c140	0.13159657
190	0x3de34135	0.11096422
191	0x3d0c921b	0.034319025
192	0x3eab24d3	0.33426532
193	0x3e78ece8	0.24309123
194	0x3d7f7cd7	0.062374916
195	0xbcefd31e	-0.029275473
196	0x3dd9c0ec	0.106325
197	0xba77f27f	-0.0009458437
198	0x3e846ee8	0.25865865
199	0xbbeef8e2	-0.0072928527
200	0x3d39c454	0.04535325
201	0xbd4fcab6	-0.05073043
202	0xbce9243d	-0.028459663
203	0x3db8f1ed	0.09030519
204	0x3dce6b6d	0.100790836
205	0xbdcf7987	-0.101306014
206	0x3ca9b607	0.02071668
207	0xbd915a3f	-0.07097291
208	0x3e14d731	0.14535214
209	0x3d89e882	0.067338005
210	0xbdaf94da	-0.08573313
211	0xbd875c5e	-0.066094145
212	0xbe04fddc	-0.12987465
213	0x3c1344ed	0.008988601
214	0xbcc32cd6	-0.02382509
215	0xbdb172e5	-0.086644925
216	0x3bda6cf8	0.006665822
217	0xbd8274a6	-0.06369905
218	0xbdc5f9f5	-0.09666816
219	0xbdc4ef43	-0.09615948
220	0x3bb15254	0.0054114256
221	0x3d8baaf6	0.068197176
222	0x3deb556d	0.11490903
223	0xbdef86b2	-0.11695613
224	0xbd90b685	-0.07066063
225	0x3d874ac9	0.06606061
226	0xbdb660d8	-0.0890519
227	0x3d2283f8	0.039676636
228	0xbc576d55	-0.013148625
229	0xbe178fec	-0.14800996
230	0x3ccbb8ae	0.024868336
231	0x3ddb74fb	0.10715672
232	0xbc55156a	-0.013005594
233	0xbe0822b9	-0.13294496
234	0xbe02917b	-0.12750809
235	0x3e110db4	0.14165384
236	0xbe0a3caa	-0.13499704
237	0xbf12110c	-0.5705726
238	0xbebcf722	-0.36907297
239	0x3da55bd7	0.08074158
240	0xbdc3afe3	-0.09555032
241	0xbde1bc49	-0.11022241
242	0xbef1671e	-0.47148985
243	0xbe8b420e	-0.27198833
244	0x3d512521	0.0510608
245	0x3bc6384e	0.0060491925
246	0xbd0185f3	-0.031621885
247	0x3e817939	0.25287798
248	0x3d7a5b60	0.0611223
249	0x3d3e4c8f	0.04645973
250	0x3df0b9a1	0.11754156
251	0xbda61cff	-0.08110999
252	0x3c302725	0.01075152
253	0xbdc242ba	-0.09485383
254	0x3cd476dd	0.025935585
255	0xbe511d8f	-0.20421432

autoencoder.decoder.4.bias f4 [8]
0	0xbef9a44d	-0.48758164
1	0xbf01baae	-0.50675476
2	0xbf34ec84	-0.70673394
3	0xbed01a4a	-0.40645057
4	0xbeef624e	-0.46754688
5	0xbf0cdef5	-0.55027705
6	0xbed34dc2	-0.41270262
7	0xbef60bd3	-0.48055896

autoencoder.decoder.6.weight f4 [8, 1, 2, 2]
0	0x3db81b38	0.089895666
1	0xbe5a5b52	-0.21323898
2	0x3cbfffe9	0.023437457
3	0xbe8b362a	-0.2718976
4	0x3f4a7d7d	0.7909773
5	0x3e93af90	0.2884488
6	0x3f14865d	0.5801752
7	0x3da80e4c	0.08205852
8	0xbf15e7b5	-0.5855668
9	0xbf3347ee	-0.7003163
10	0xbf2f92d6	-0.6858343
11	0xbf46f7bb	-0.77721757
12	0xbe0e21b2	-0.13880041
13	0xbe8785c6	-0.2646925
14	0x3ec5876a	0.38579875
15	0x3e7ecc47	0.24882613
16	0x3ecba786	0.39776248
17	0x3ef29018	0.4737556
18	0x3ef1c05a	0.47217065
19	0x3f09ddc7	0.5385403
20	0xbeffea17	-0.49983284
21	0x3ef75061	0.48303512
22	0xbeb97058	-0.36218524
23	0x3f19aea8	0.6003213
24	0x3f1a31dc	0.6023233
25	0x3f17aaf3	0.5924522
26	0x3e863285	0.26210418
27	0x3e6da293	0.23206548
28	0xbf018113	-0.50587577
29	0xbf11ce4e	-0.5695542
30	0xbf06e6cc	-0.5269592
31	0xbf11cfd6	-0.5695776
