test_runs/15/model_state.pth (torch, 882022 bytes, 20 tensors)

autoencoder.encoder.1.weight f4 [100, 784]
00000000: 9c2d 0500 c094 1200 7c8e 0d80 bcaa 0c00
00000010: 4f19 0f00 125e 0380 b493 1280 8bfb 0b80
00000020: a7a6 0f00 f158 0600 261e 0100 0c2e 1300
00000030: 23b3 4bb7 b046 1639 7888 8a25 4d41 8523
00000040: ef72 0500 39d3 0e80 69e6 0380 6880 0480
00000050: 20ec 1000 45d5 0100 4f4b 0a80 8875 0580
00000060: 0234 0980 2dc7 1380 ad33 0c00 2767 0f00
00000070: f93c 1100 bf4c 0e80 c9fe 0080 db40 0c00
00000080: 2b73 db30 2fd9 8036 b394 adb9 b133 76b9
00000090: 497e acb8 c36e d938 fd5d 39b9 d408 b9b9
000000a0: a027 8039 4289 8f38 73ee b2ba 5df1 4abb
000000b0: 9b67 24ba d2e3 31ba cc52 92ba fc8d 51b9
000000c0: cf90 acb6 b924 c337 db98 8fb5 599d 9532
000000d0: af24 0e80 da91 0b00 237e 0580 5fea 0480
000000e0: 3093 1500 e8b2 1380 edfe 2da9 5044 e729
000000f0: 93ff e735 0ec9 f338 60ac b8b8 d8dd 6eb9
00000100: f0cf ae39 e8bb 0aba 8f41 88b9 b9c4 bc38
00000110: 3fb7 8fba ca5a f8bb 8c85 b9bb edd8 9ebb
00000120: 0a8b da3a 4c63 a93b 3817 7a3b ece0 783b
00000130: 9117 6fbb 1928 a0b9 50a4 3d38 f88e b5b9
00000140: c2ee 9d36 9f3e 37b8 adec 0680 7ac8 1500
00000150: 6b7a 0b80 8150 0480 fe95 4aaf 4504 3333
00000160: c761 fa39 6a42 2d39 e843 c538 7198 abba
00000170: b461 ec39 fca3 723a 2d91 9e3b 4ab3 913b
00000180: ee9e febb 0938 31bc c027 43bc 549a 93bb
00000190: d95a 7c3b 6c61 4b3b 5b49 b53b 7f68 7f3a
000001a0: c395 f6bb 4ff6 24bb 08a6 2d3b fb25 503b
000001b0: 8a49 473b 094e 5d3b 029b 0bbb 9674 0280
000001c0: 7866 0800 f285 2a30 5706 f538 ad87 e539
000001d0: b2ce 903a d45a e238 1805 933b 6f3a 8ebb
000001e0: dc9b 8fba 5e4c 21ba aaf9 3fbc 1dfa 15bc
000001f0: 016e b93a c496 9c3b d864 c83b d7aa f83b
00000200: 6f00 323c 988a 123c 1c55 1f3b ddeb 8b3b
00000210: fa82 983b 3f6a 0139 7cc9 263b 9a77 843b
00000220: cf09 b83b ae67 803b 9fe1 6dba 920f 84b3
00000230: 448a 0880 1ae2 2fb7 7c9e b639 3ae4 e43a
00000240: 0c49 21ba ad06 563b e16f 45bc ff3a 84bc
00000250: 0101 32bc 9c88 74bc 002d a9bc d5f6 88bc
00000260: bbd4 68ba 5b81 f43a b8c7 143c 6ba6 ed3b
00000270: 6b5a 303b c70e 963b 4df2 f3bb edef c93b
00000280: 12a3 da3a 5109 30ba 09cc 293c 07e4 843c
00000290: be22 853c c1b5 293c 773b a638 03c6 fa35
000002a0: eda6 0580 ca4f 792a 1227 d6b8 b657 60ba
000002b0: 0c31 8d3a e148 023b c2d6 c3bc 3f9a 8cbc
000002c0: 3512 42bc 8026 86bc bdfe 4dbb 0cf7 133c
000002d0: 7e8b 8c3c 93bd af3c 2cbb 4a3c b2de 1fbb
000002e0: f732 a3bc 3682 8abb 5654 a439 a726 6cbb
000002f0: e8fb 0bbb aa1f 10bb e7e5 1ebb 3e19 e83b
00000300: 17ce 9db8 f302 d9b9 3d9e 7a39 6b86 ab37
00000310: 4206 ffa4 b674 2038 4ff3 b9ba 2923 45bb
00000320: f70a 2ebb e1e8 06bc 8f5f dbbc 390a 7dbc
00000330: 430e a8bb 1ad7 fbb8 e6e1 be3b f145 3a3c
00000340: 4b4a 0f3c 6cc5 293b aee8 16bb ddec 78bc
00000350: 2904 b8bc 5bfe a0bc 7b9d d4bb 49d6 d7bb
00000360: d057 08bb 46ee c6bb 7d01 1bbc 73d7 c9bb
00000370: 7d40 6fbb 9f84 4e3a aa8d d13a 7c02 dfb8
00000380: b61d fcb5 019b f339 8430 a8ba 195d 88bb
00000390: ae13 23bc ae39 ccbb d6ff 5dbc 4d35 7ebc
000003a0: 0323 26bc 65b1 5f3a 6d6f 0dbb 9550 10bc
000003b0: b308 93bc 3a94 5ebc ed09 18bc 4c88 0bbc
000003c0: 48a5 20bc bffb 86bc b029 3cbc 2274 c33b
000003d0: 2bbc 093c 9f51 28bc 0f17 23bc 1baa 29bc
000003e0: 48d7 39bc 83b7 d4bb 4b3b 86bb 6cd8 19b9
000003f0: d6da 5939 aee3 4939 5425 09b8 be33 55bb
4.75539e-40 1.7064e-39 -1.244975e-39 1.163274e-39 1.386611e-39 -3.09253e-40 -1.706025e-39 -1.100427e-39
1.437316e-39 5.82919e-40 1.02651e-40 1.761393e-39 -1.2141451e-05 0.00014331448 2.403166e-16 1.4447545e-17
5.00408e-40 -1.36147e-39 -3.58162e-40 -4.13405e-40 1.554074e-39 1.68342e-40 -9.4537e-40 -5.0134e-40
-8.45176e-40 -1.816325e-39 1.120564e-39 1.414537e-39 1.583076e-39 -1.313228e-39 -9.14e-41 1.125292e-39
1.596708e-09 3.8399808e-06 -0.0003310792 -0.00023479645 -8.2251216e-05 0.00010367997 -0.00017677988 -0.00035292527
0.00024443585 6.8443376e-05 -0.0013651386 -0.0030966618 -0.0006271542 -0.0006785962 -0.0011163591 -0.00019984687
-5.1428574e-06 2.3262912e-05 -1.0698817e-06 1.7417436e-08 -1.298857e-39 1.062512e-39 -5.04427e-40 -4.51418e-40
1.981346e-39 -1.809054e-39 -3.863483e-14 1.0270311e-13 1.7285223e-06 0.00011624592 -8.805911e-05 -0.00022780092
0.00033342792 -0.00052922824 -0.00025988786 9.001181e-05 -0.0010964646 -0.0075791823 -0.005661672 -0.004847637
0.0016673517 0.005169308 0.0038160812 0.003797586 -0.0036482553 -0.00030547453 4.521414e-05 -0.0003462953
4.7067597e-06 -4.368892e-05 -6.35916e-40 2.000463e-39 -1.054106e-39 -3.96221e-40 -1.8425081e-10 4.168057e-08
0.00047756566 0.00016523307 9.4063405e-05 -0.0013091696 0.00045086222 0.0009256003 0.0048390836 0.0044464217
-0.0077704107 -0.0108165825 -0.011911333 -0.0045044813 0.0038506298 0.003103341 0.0055324263 0.0009743049
-0.007525177 -0.0025171225 0.0026496667 0.003176092 0.0030408823 0.0033768436 -0.0021302109 -2.25494e-40
7.71443e-40 6.203599e-10 0.00011683691 0.0004377937 0.0011047928 0.00010793438 0.004486691 -0.004340462
-0.0010956484 -0.0006153042 -0.011717239 -0.00915387 0.0014147164 0.004778715 0.006115537 0.007588725
0.010864361 0.008944176 0.0024312204 0.0042700605 0.0046542855 0.00012341978 0.0025449684 0.004042578
0.0056164037 0.0039186096 -0.00090744527 -6.149561e-08 -7.84284e-40 -1.0483456e-05 0.00034831825 0.0017463036
-0.00061525474 0.0032657788 -0.0120506 -0.016141413 -0.010864497 -0.014925148 -0.02065134 -0.016719261
-0.0008881797 0.0018654274 0.00908082 0.0072525046 0.0026909362 0.0045793983 -0.007444656 0.0061626346
0.0016680679 -0.00067152554 0.010363587 0.016222013 0.016251918 0.010358275 7.926573e-05 1.868408e-06
-5.19059e-40 2.2143325e-13 -0.000102115926 -0.0008557992 0.0010772063 0.0019879865 -0.023906115 -0.017163394
-0.011845161 -0.01637578 -0.0031432353 0.0090310685 0.017156359 0.0214527 0.012373727 -0.0024394211
-0.019921763 -0.004226948 0.00031343353 -0.003603378 -0.0021359865 -0.002199153 -0.002424592 0.007083087
-7.5247306e-05 -0.00041391663 0.00023900806 2.0447382e-05 -1.1059922e-16 3.825567e-05 -0.0014186891 -0.0030080772
-0.0026556829 -0.008234234 -0.026778964 -0.015444332 -0.0051286533 -0.000120086785 0.005825269 0.011369214
0.00874574 0.0025905026 -0.0023026871 -0.015193191 -0.022462921 -0.019652536 -0.0064884997 -0.006586824
-0.0020804293 -0.006070885 -0.009460804 -0.0061597168 -0.0036506944 0.00078780385 0.0015987654 -0.000106339314
-1.878411e-06 0.0004646406 -0.0012831842 -0.0041614887 -0.0099534225 -0.006232462 -0.013549766 -0.015515638
-0.010140183 0.0008533209 -0.0021581308 -0.008808275 -0.017948484 -0.013585145 -0.00927971 -0.008516382
-0.009805031 -0.016477464 -0.011484548 0.005964772 0.008406679 -0.010273366 -0.009954228 -0.010355498
-0.011342831 -0.006491603 -0.0040964237 -0.0001467184 0.00020776255 0.00019253671 -3.269811e-05 -0.0032532061

autoencoder.encoder.1.bias f4 [100]
00000000: 93aa d4bb 779d db3d fb38 b2bd c45a 2abc
00000010: 45f8 cdbe 66d6 983d c0b2 d23d ffae 97bc
00000020: c379 433e efa6 b7bc 6cfd b3ba 8347 34bc
00000030: fbe0 84bc fa47 81bc c260 38be f734 b5be
00000040: 70b6 3e3e aa42 90be ea7d 733c 434c 5fbc
00000050: dcb9 f5bd 014a 1c3c 10ad b1be 3079 40bd
00000060: fe8d 8abc ca9b 853b f20d 8ebc 58c8 b63d
00000070: c40c fabc 251c 0abf e0b0 95be 15c2 7b3d
00000080: 9589 8fbc 455e 933d b9e7 5cbc bdf5 f8bd
00000090: 1001 393d 385d a53d 0b8d 8f3b fe57 ffbb
000000a0: bb8a 553e 90ea 4c3b 9f81 a23e 7195 2dbc
000000b0: 54ae 60bb 9dd6 03bd 3d7b ca3a a43a 643e
000000c0: e183 7dbc 6b80 34bd eb95 333e 3a99 f03d
000000d0: da21 9cbb a0a8 98be 6917 ed3c 6f41 a83e
000000e0: 4775 b7bd 1a22 30be 88d2 543e df04 bfbd
000000f0: 50ad f33b 0250 7a3d 9512 e7bb 535e 593c
00000100: 9285 8abd 1ce0 afbe 7807 08bd 514d 07be
00000110: 0a22 61bc dd08 513e 4f5b 88bc 7276 9dbe
00000120: 37b7 18be 3191 9bbc 743d 06bc d5c4 21be
00000130: bde6 0ebd 9426 a4bd c7d8 03bc ccd7 62bb
00000140: 1405 913d deb4 333d c5b1 f4bd 6c57 b23c
00000150: ccf1 babc 5cc6 dabd 4a71 4ebe 124e e1bc
00000160: 5c9a 833d 4d1f e0bb ab0c 553c 7112 80ba
00000170: 6197 e3bc 08a8 2b3d ac3a cfbd 4047 09bc
00000180: d6b5 cc3d 95a0 b53b 6f99 3e3e 9b28 92be
-0.0064900606 0.107233934 -0.087022744 -0.010397617 -0.40228477 0.07462768 0.10288 -0.018516062
0.19089417 -0.022418467 -0.0013732142 -0.011003378 -0.01622056 -0.015781391 -0.1800566 -0.3539197
0.18624282 -0.2817586 0.014861563 -0.013629022 -0.119983405 0.009539128 -0.3470235 -0.046990573
-0.01691341 0.0040774094 -0.017340634 0.08924931 -0.030523665 -0.53949195 -0.29236507 0.061464388
-0.017521659 0.07195715 -0.013482981 -0.12156246 0.04516703 0.08074421 0.0043808273 -0.007792472
0.20853703 0.003126774 0.31739518 -0.010594712 -0.0034283595 -0.032187093 0.0015448105 0.22287995
-0.015473337 -0.04406778 0.17537658 0.11747976 -0.0047647776 -0.2981615 0.028941827 0.32862422
-0.08957916 -0.17200509 0.20783436 -0.09327101 0.007436432 0.061111458 -0.0070517757 0.013267118
-0.06763758 -0.3435067 -0.033210248 -0.13213088 -0.013741026 0.20413537 -0.016645102 -0.3075443
-0.14913641 -0.018990131 -0.0081933625 -0.15797742 -0.034888018 -0.08015171 -0.008047289 -0.0034613488
0.07081047 0.04387366 -0.11947969 0.021770202 -0.022820376 -0.10682365 -0.20160404 -0.027503047
0.06425926 -0.006839669 0.013003509 -0.0009771121 -0.027782144 0.041908294 -0.10118613 -0.008378804
0.0999562 0.0055428245 0.18613218 -0.28546605

autoencoder.encoder.3.weight f4 [100, 100]
00000000: ff13 453b 3b3d ce3d 02c0 50bd e729 d33c
00000010: 8ebb 2bbd 0623 f0bc b533 083e 9f09 b0bb
00000020: c440 683e cca4 313e 3a18 1b3c e5ae a0bb
00000030: 4c87 c7bb daed 57bc 5f6f 06be ffad 0f3f
00000040: 356f 813e 4b4a bebd b873 013c 8690 6d3d
00000050: 52f3 813d 605d b5bb f6e6 023e 1593 493e
00000060: 5fc0 c9b9 4293 83bb 3118 33bc 6be9 0ebd
00000070: d948 123d bb60 cebd 481a 733c be07 0bbe
00000080: ee83 cb3c 2263 1c3d 1e04 ef3a a8fd a43d
00000090: 546c 3ebe e511 7a3e 9930 76bc c793 8638
000000a0: 5e2c 67bd b2a1 5f3c f9f9 163e fa66 2abc
000000b0: 2a1a b83b b570 873f 6a15 b23b fdbc 7dbd
000000c0: 45af 7abc 8085 ac3d 2a8c f8bc 4973 6e3e
000000d0: b6a1 a3bb d450 483c 6ea8 b8bd 4e1a 31bd
000000e0: 4415 12be 706a 163c 1c90 95be b5d8 a63d
000000f0: 9174 823b c7a2 e03c 1aed a83a f0aa 433a
00000100: 48ce d53d 3152 463e 4a79 8b3b bc4f 223b
00000110: d73b 0f3c 03e8 dd3d a840 f2bb 8959 543e
00000120: 26cc f43d ba56 933d eac2 bbba e6f7 9b3d
00000130: a3cd b3bc 189b bd3d 5187 01bb 5318 dbba
00000140: a220 df3d c6c3 463e 42ec 823d 4a1b 403c
00000150: 6d24 2abc f498 22bd 50b4 a63e cd72 96bc
00000160: 90ad 0e3e 482d c43d 4f40 9d3b 3ea4 c5bb
00000170: 1e6e adbc 1331 71bd fc47 da3d 40b2 81ba
00000180: 6c59 84bc ca93 c23d f1b5 9ebe 636a ddb9
00000190: 809e d1bb 8290 f03e 68bc e9bd f425 0cbb
000001a0: a21d d93c f424 30bd 04ed 9ebd 17b7 833c
000001b0: 0b92 9fbe af1c 3abd 5a94 c33a 3640 223c
000001c0: bb88 823c f157 bdbb 32a8 0b3d d8c5 62bd
000001d0: 6281 ebbc 14aa 30bd b415 333c 6259 98be
000001e0: 40af e63d 1735 083c 879f 443c 0529 163b
000001f0: 33c6 f03a 856e dbbc c26d c23b 10d5 0d3d
00000200: bddd 193d 1ab0 f33d 5374 a9bc ccf8 d53c
00000210: 418f 5f3c eeff 583e b811 57bc af0a 113e
00000220: b5df bdbd 1183 19be 47e1 8fbb 66f7 4cbc
00000230: ccca 523c 842b 66bc f624 9dbe 6818 923a
00000240: c727 98bc 644e 24bb 77f4 a43c 2890 a6bd
00000250: e244 34bc 758b febd d394 a13b ce5c 49bd
00000260: bbfb 1e3c a177 c7bd 4bf5 ae3d 0811 3cbe
00000270: 4d35 e63c 11de f6bc 1b0f 83bd 5312 a5bd
00000280: 13b3 9a3d af46 dcbb 4d50 903b bc2b 83bd
00000290: 4bf7 4fbe 6c8c 66bd 2eea 0f3e f799 3e3d
000002a0: b2c4 773c c0a3 a0bc 129d e53b d6c3 ddbd
000002b0: 5b2c a53e 2a02 b0bd 739d 3a3c e31a 2c3e
000002c0: b63f e8bb 0cb9 11be 4805 e83b bd2f eebb
000002d0: 555a 0f3c 92c3 28bd 8a32 893c f493 c73c
000002e0: 38e9 2e3b de78 dabd 41fd 79be 48a2 5abc
000002f0: 8c71 9cbc 4980 783e a7b2 c33c 5b67 2dbc
00000300: 90d3 e0ba 594b f63c 81f8 a2bd 5296 58bb
00000310: 2088 10bd 8143 28bd fa79 2abd 4a7c 153d
00000320: 27ac 5b3b 2d89 99bb 8fe2 ba3b 08dc 4cbb
00000330: c5e2 a13b aa5f 14bb 497f 343b 60ee ecb7
00000340: 1ce5 86b9 4a49 aa3b 734e 8aba 0948 813b
00000350: 20b0 003b 4bce e0ba 7cbd b63b 5c9d 5539
00000360: db63 9b3b 61f9 4abc 3bfd 853b 8478 78bb
00000370: cad7 abbb 3d20 fc3a 06ae 523b 9d82 3ebc
00000380: 97e3 f43a fe9c 0435 04ca caba ef7c 18b8
00000390: 0c29 1abb fac3 0fbb 0ed0 5fbb 13d2 823a
000003a0: 3b05 b639 f189 52b8 c0cd 1fb9 9df4 3fbb
000003b0: cc9e bcba 56c0 993b ffb8 75ba 5821 1f3a
000003c0: 6cf6 5fbb ba43 50bb ce8e d239 6ff1 7d3a
000003d0: a820 6abb a539 563b 31df 0a3a 1c91 a43b
000003e0: c55f 43bb 4117 b1ba 6b4d 3639 7cca dbb8
000003f0: 49d9 593b a10b 1f3b c830 0dbb 33ea b1ba
0.0030071733 0.100702725 -0.050964363 0.025776817 -0.041926913 -0.029313575 0.13300975 -0.0053722407
0.22680956 0.17348021 0.009466225 -0.0049036616 -0.0060891267 -0.013179267 -0.13128422 0.5612487
0.25280157 -0.09291514 0.007901125 0.057999156 0.06345238 -0.005534813 0.12783417 0.19685014
-0.00038481035 -0.0040153572 -0.010931061 -0.034890573 0.035714004 -0.100770436 0.014837809 -0.13577172
0.024843182 0.038180478 0.001823548 0.080561936 -0.18596011 0.24420889 -0.015026235 6.4171436e-05
-0.056438796 0.013649391 0.14743795 -0.010400528 0.0056183534 1.058127 0.0054346817 -0.06194781
-0.015300577 0.084239006 -0.030340273 0.23286165 -0.0049936427 0.012226302 -0.090165004 -0.043237977
-0.14265925 0.00918065 -0.2921151 0.08146802 0.003981181 0.027421368 0.0012888045 0.00074641313
0.10439736 0.19367291 0.004256402 0.0024766764 0.008742294 0.10835268 -0.0073929615 0.2073728
0.11953001 0.07194276 -0.0014325057 0.07615642 -0.021948641 0.092580974 -0.0019764493 -0.0016715623
0.10894896 0.19410619 0.06392719 0.011725256 -0.010384661 -0.03969665 0.32559443 -0.018365288
0.13933396 0.09578949 0.004798926 -0.006031542 -0.021170672 -0.05888469 0.10658261 -0.0009895042
-0.01615592 0.09500845 -0.30998185 -0.0004223167 -0.0063970685 0.4698525 -0.11412889 -0.0021384927
0.026503388 -0.04300399 -0.07760051 0.016078515 -0.3116611 -0.04543751 0.0014921532 0.009903004
0.015934339 -0.0057783057 0.03409595 -0.05536446 -0.028748218 -0.04313095 0.010930467 -0.29755694
0.11263895 0.008313439 0.012000925 0.0022912633 0.0018369615 -0.026786098 0.0059334943 0.03462702
0.03756498 0.11898823 -0.02068535 0.026119612 0.013644994 0.2119138 -0.013126783 0.14164232
-0.09271184 -0.14991404 -0.004390869 -0.012510156 0.012865733 -0.014048461 -0.3069226 0.001114619
-0.018573655 -0.0025071139 0.020136101 -0.081329644 -0.011002751 -0.12428943 0.0049310713 -0.04916077
0.009703572 -0.09739614 0.0854288 -0.18365872 0.028101588 -0.030135186 -0.063993655 -0.08060136
0.07553687 -0.0067222933 0.004404104 -0.06404826 -0.20309179 -0.05628626 0.14054176 0.04653355
0.015122579 -0.019609332 0.0070072496 -0.10828368 0.32260403 -0.08594163 0.011390078 0.16807131
-0.007087673 -0.14230746 0.0070807077 -0.0072688744 0.008749564 -0.041202135 0.016747732 0.024362542
0.0026689302 -0.10667585 -0.24413015 -0.013344355 -0.019097112 0.24267687 0.023888899 -0.010583724
-0.0017152894 0.030065225 -0.079575546 -0.0033048582 -0.03528607 -0.04108 -0.041620232 0.036495484
0.003351936 -0.004685542 0.0057032774 -0.0031259079 0.004940363 -0.0022640028 0.0027541688 -2.8244394e-05
-0.00025729171 0.005196725 -0.0010551944 0.003945355 0.0019636229 -0.0017151324 0.0055767875 0.00020371884
0.0047421283 -0.012388558 0.0040890253 -0.003791363 -0.00524423 0.0019235682 0.0032147183 -0.01162782
0.001868355 4.9402286e-07 -0.0015471582 -3.6355977e-05 -0.0023523 -0.002193688 -0.003415111 0.000998082
0.00034717642 -5.019637e-05 -0.0001524007 -0.0029290088 -0.0014390587 0.0046921177 -0.0009373575 0.0006070337
-0.0034173978 -0.003177865 0.0004016072 0.00096871605 -0.003572503 0.0032688167 0.00052975403 0.005022181
-0.0029811722 -0.0013510959 0.00017385713 -0.000104804494 0.0033241084 0.0024268406 -0.0021543968 -0.0013573825

autoencoder.encoder.3.bias f4 [100]
00000000: 9c6a 4bbe 29e0 61bd 925d bf3a 2db1 3e3b
00000010: 5231 3cbb e0d0 e9bd fa69 39be aa52 f8bd
00000020: 357a 2a3b 853e ae3d 255a 87bd b914 27ba
00000030: 82c4 66be 3d58 13bb 7569 20be f565 2a3c
00000040: 2710 e1bd 4625 4a3b b632 063b 639e 13bd
00000050: 6a6a 97bd ddeb a5bd 00c0 51bd b218 0ebe
00000060: bf30 1f3b 189b 74bd bef2 a9ba 1438 acbc
00000070: 73e7 08be c372 14be 49cb cfbd a596 883d
00000080: cf65 01bb dd9b e2ba a06f 833d a141 5d3e
00000090: 47cb b5bd 5772 1dbc 3e17 043e 7ae4 13bb
000000a0: 65c2 433c ec20 3a3d 7ac9 d53d 8b93 e33d
000000b0: ba20 c1bc a7d1 983c 88c7 bcbc ef65 573d
000000c0: 63e2 993d c218 bc3d 5e41 c6bd a716 83bd
000000d0: 580d 24bd 2b79 20bd ebd1 dd3c 7837 013c
000000e0: 4576 00bb c58e 21bb 82df 483b af1b 21bc
000000f0: 3368 a13d a6e7 dfb9 bc0a 633d 8619 34bd
00000100: 70c9 90ba 93ab 86bd d919 beba e261 e7bc
00000110: ddc6 e7ba 513d 35bd bd99 3b3b 4c4f 97bc
00000120: 1644 bcbc a3d7 813d 4fba 24be 52f6 03bc
00000130: 38db f4bd 94d5 583e 2ab3 603c 9562 b6bd
00000140: 13b3 023e 2336 de3d 10d9 463c 414b dcbd
00000150: 60f5 e33a a91c 10bb ebe5 23bd b587 3bbd
00000160: a9a5 18bd 3a94 c73d 0d86 07bb cbb5 e5bd
00000170: 539a 5bbd eed6 96bc 0d86 853d 77ca 25bb
00000180: 53e9 053b 5312 83bd cef3 3fbc 4389 71bd
-0.19864887 -0.055145416 0.001460003 0.0029097304 -0.002871592 -0.11416793 -0.18106833 -0.12125142
0.0026012782 0.085080184 -0.066089906 -0.00063736324 -0.225359 -0.0022483014 -0.15665229 0.010400285
-0.10989409 0.003084497 0.0020477003 -0.03603972 -0.07393344 -0.08101628 -0.051208496 -0.13876608
0.002429053 -0.05971822 -0.001296602 -0.021022834 -0.13369541 -0.14496903 -0.101461954 0.06669358
-0.001974452 -0.0017288883 0.06417775 0.21607067 -0.08876663 -0.00960978 0.12899491 -0.0022566603
0.011948203 0.045441553 0.10438819 0.11112126 -0.023575176 0.018654658 -0.023044363 0.052587446
0.07513883 0.0918441 -0.096804366 -0.06400805 -0.040051788 -0.039178055 0.027077636 0.00788676
-0.0019601744 -0.0024651748 0.00306508 -0.00983326 0.078812025 -0.00042706466 0.05543016 -0.043969654
-0.0011046361 -0.06575694 -0.0014503553 -0.028244916 -0.0017683167 -0.04424793 0.002862557 -0.018470429
-0.022981685 0.063399576 -0.16086696 -0.008054333 -0.11955875 0.21175224 0.013714591 -0.08905522
0.12763624 0.108501695 0.012136713 -0.10756541 0.0017391853 -0.002198974 -0.04001419 -0.045783717
-0.03726736 0.09745069 -0.0020679266 -0.11216315 -0.053613972 -0.018413033 0.06519709 -0.002529768
0.0020433262 -0.063999794 -0.011715842 -0.058968794

autoencoder.encoder.5.weight f4 [100, 100]
00000000: 5a5b d8bc 9277 1d3c ee0e 18ba b3ac a339
00000010: b678 18b9 cb46 05bb 68d7 95bd 0dab 2c3c
00000020: 5078 6839 100d 21bd f545 a9bc ef1d ea39
00000030: 0877 273d 34f8 e0b9 8f07 633d ff94 36bd
00000040: a537 a53d e729 43bd a02d f9ba a7c8 403d
00000050: dda0 4dbc 301b f23c c0c1 bdbb da35 073e
00000060: d5c7 cbb9 9956 9e3d 3af2 423c b471 d7bc
00000070: 3947 0dbc bd5f fdbc 3af0 913d 7bd5 ab3d
00000080: 5f63 7b3c 6918 bfbb 4bed 86bd bbdb 5ebe
00000090: 3d2b 213c a2de 37bd 7092 b6bd a238 cebc
000000a0: db4a 8cb9 0058 96bc b64d 2f3b c6bf a5ba
000000b0: c595 bebb d64c d6ba 2899 51bd 0b7b 91be
000000c0: c4a3 cf3b 7a5f 7d3c 3c12 c73b aafc fd3c
000000d0: 2362 003e 94e7 62bb 831e 8dbc 13ad 3b3d
000000e0: cfc9 d83a b96f 943b ebca 60bb 81ab 90bc
000000f0: 89a5 413d 8fbf 513a 8138 80bd 2ad6 7cbc
00000100: b35a 503a 797e 02bd dafe 6a3b 8e1f 9cbc
00000110: 9ab1 be3a 592a e53d c930 f939 c75d 99bc
00000120: 8bf0 39bd ebd2 bfbc 1d80 52bd 1059 51bd
00000130: b4cf 383d b75e 07bd 07ea 663d 716b f6bd
00000140: d80b 0bbc be47 fd3d e0d0 d5bd 2699 c2bc
00000150: a562 663d d4e5 bb3a 4634 a6bc 2f5b 05bd
00000160: 3c22 01be c053 6a3b fd85 013b 97c2 e7bd
00000170: 186f b6bc 8bd1 4fbd 82a7 53bc 10c1 1f38
00000180: 9fc0 b8ba f8ef 62bd 0423 2a3e 41b6 113c
00000190: de48 c8bc 7e1a ab3c e082 6cbb 5e2a c7bb
000001a0: fb47 b03b 0b7b 80bd 42c6 4cbe 9d1a 903d
000001b0: 4538 d6bb 3b15 503d 364d 80bc 6a83 623b
000001c0: d060 28be f8e3 cf3b 264c 473d 6bf0 34be
000001d0: 1a1c 533d 30cf 62bd e00c 99bb a0b3 6bbd
000001e0: 8b46 eb3b add4 19be b44c 8e3c d2b0 bdbc
000001f0: 7373 c2bb bf7d c1bd c4fd 043a c201 8d3a
00000200: ea43 babd 41fd b4ba 2745 283d 47ed 043e
00000210: fd2d 8c3b 37b0 6f3a 00ce ff3b 9dab 92be
00000220: 3933 90bc 7def e23c 12d1 8ebc e93e c6bb
00000230: 3259 46bd c76e c0bc 2607 873b 5483 6bbd
00000240: 6c1e 243c 1455 0e3e 852a b9bd d21d 263e
00000250: d10d 4dbe bdc5 d8bb d1e1 75bd 6a65 10be
00000260: a9f1 22be bd25 9b3d 9e14 a4bd 9ff9 c83d
00000270: a4e1 f03b 0871 ad3b e9b4 03bc 1355 1cbd
00000280: 8670 943d 87ef 0e3b 32f1 09be a59b 033e
00000290: 6a25 923b 71f8 08bb 743e bb3b f13c a43d
000002a0: f984 b93b ad5f 8a3c 1999 cabb d568 edbc
000002b0: 0374 123d 99ae 8dbd 39a8 53bc 41b0 573d
000002c0: a87b f23c 2f1e 6abc 8381 aabe 4ac8 00be
000002d0: cf10 b63d 072a 5e3e f628 61bc 81b2 ef3d
000002e0: f06d f03c 26e6 943b bd99 c5bc cb71 253d
000002f0: 3f93 a3bd 81b2 123a b8b8 9c3b 5444 97bd
00000300: be5f d43c 5bc5 84bd 64c5 89bd 2b12 d73b
00000310: c1a0 cabb c0c0 39be 0490 45be 56ac 153c
00000320: 84fd 003c 4c09 88bb db33 b9ba 898c 033b
00000330: 2b42 17bb a292 0dbc bc52 18ba 19fa 4c3b
00000340: 60a2 093b 3431 8cba d9bb 3b3b 463f 75ba
00000350: f50a a2bc 1008 23bb 6f3e 0c3b aca9 9a3c
00000360: 1f91 2e3c e3b8 df38 88a7 a839 fd9e 703b
00000370: 6267 803b 3143 11bb e5dc 223c 2af5 69bc
00000380: 72d7 da3a ca15 f53b b9a5 b93b d6d4 223c
00000390: 7348 753a 1947 533b bedc 97bb 8567 07bb
000003a0: 53f3 823b e9f2 0abb bb9b 843b f427 943a
000003b0: c979 753b 84d7 77bb 2065 4bbb 0a7b 2cbb
000003c0: 0b3e 9bbc bf6b ab3b ba6c ba3c a03f a43b
000003d0: 565b 8c3a 3176 853b 6d96 70ba 6354 52bb
000003e0: 7924 5f3c 9352 f03b 281e f43b 4522 83bb
000003f0: e530 7d3b 218f e23a b1c8 8abb ff74 c039
-0.026410747 0.009611027 -0.00058005645 0.00031218454 -0.00014540818 -0.0020336385 -0.07316476 0.010538829
0.00022170064 -0.039319098 -0.02066324 0.0004465426 0.040885 -0.00042909535 0.05542713 -0.044575687
0.08067254 -0.047647383 -0.001901079 0.047066357 -0.01255056 0.02955398 -0.005790919 0.13204136
-0.00038868064 0.07731361 0.011898572 -0.026299335 -0.008622938 -0.03092944 0.07125898 0.083903275
0.015343516 -0.0058317673 -0.06588229 -0.21763508 0.009836969 -0.044890054 -0.089146495 -0.025173489
-0.00026758653 -0.018352509 0.00267492 -0.0012645654 -0.0058161938 -0.0016349803 -0.05117145 -0.28414187
0.006336661 0.015464658 0.0060751718 0.031004269 0.12537436 -0.0034622895 -0.017226463 0.045819353
0.0016539636 0.00452992 -0.0034300636 -0.017659904 0.047277007 0.0008001262 -0.06260777 -0.01543192
0.00079480855 -0.031858895 0.003585747 -0.019058015 0.0014548779 0.11189718 0.0004752933 -0.018721474
-0.045395415 -0.023416003 -0.05139171 -0.051110327 0.045119956 -0.03304931 0.05637553 -0.120322116
-0.0084867105 0.12367199 -0.1044023 -0.023754667 0.05624642 0.0014335462 -0.020288598 -0.032557663
-0.12610716 0.0035755485 0.00197637 -0.11316412 -0.02226977 -0.050736945 -0.012918355 3.8088358e-05
-0.0014095491 -0.055404633 0.1661492 0.00889355 -0.024448808 0.020886656 -0.003608875 -0.0060780486
0.0053796745 -0.062734686 -0.19997504 0.07036326 -0.0065374696 0.050801497 -0.015661817 0.0034563192
-0.16443181 0.0063443147 0.048656605 -0.17669837 0.05154047 -0.05537337 -0.0046707243 -0.05754435
0.0071800402 -0.15022536 0.01737056 -0.023155604 -0.005934173 -0.09447812 0.00050732144 0.001075797
-0.09094985 -0.0013808386 0.041081574 0.12981139 0.004277943 0.00091433845 0.0078065395 -0.28646556
-0.01760255 0.027702088 -0.017433677 -0.00604998 -0.048424907 -0.023490323 0.004120725 -0.05749829
0.010017019 0.13899642 -0.09041313 0.16222313 -0.20024802 -0.006615369 -0.06002981 -0.14101186
-0.15912499 0.075755574 -0.08011745 0.098132364 0.007351117 0.0052930154 -0.008038738 -0.03816707
0.07248025 0.002181025 -0.13470915 0.12852342 0.0044600265 -0.0020900036 0.005714232 0.08019436
0.0056616035 0.016891325 -0.0061828014 -0.028980652 0.03575517 -0.069180675 -0.012918525 0.052658323
0.02959998 -0.014289423 -0.33301935 -0.12576404 0.08889925 0.2169572 -0.013742676 0.11703969
0.029349297 0.0045440374 -0.02412116 0.040391725 -0.07987069 0.0005596057 0.0047827624 -0.073860794
0.02592456 -0.06482955 -0.067271024 0.006563445 -0.006183714 -0.18139935 -0.19293219 0.009135326
0.007872943 -0.004151499 -0.0014129834 0.002007278 -0.002308021 -0.008640917 -0.0005810668 0.0031277
0.0021001324 -0.0010695816 0.0028645901 -0.0009355437 -0.019780615 -0.0024876632 0.0021399518 0.018879734
0.010654717 0.000106679065 0.00032168278 0.0036715858 0.003918574 -0.0022165293 0.009940361 -0.014279643
0.0016696288 0.007479404 0.0056655076 0.009938439 0.0009356804 0.0032238422 -0.004634469 -0.0020661068
0.0039962917 -0.0021201915 0.004046885 0.0011303411 0.0037456623 -0.0037817666 -0.0031035617 -0.0026318454
-0.018950483 0.00523135 0.022756923 0.0050124675 0.0010708373 0.0040729274 -0.00091776886 -0.0032093755
0.013619536 0.0073340624 0.007449884 -0.004001888 0.003863388 0.0017285087 -0.00423535 0.00036708263

autoencoder.encoder.5.bias f4 [100]
00000000: 8079 e0bc ca70 893d 1840 0c3b 8e33 41bb
00000010: b4c5 35ba 8426 0cbe b672 02be 6178 9dbd
00000020: a1c5 54bd 43ac 6b3b 4128 dcba 8f02 f5bd
00000030: 8e95 233e 532a 893e 445e 6e3b 9827 bf3d
00000040: 6589 463b 8297 d0b9 9a5b a5b9 8a6c ad3b
00000050: b2c0 c23a 7f38 e9bd ac33 54be 364c 10ba
00000060: c0fd 093b a861 f33a 4949 aa3a 2553 5bbb
00000070: c46c f139 7d1b 183c 05df 513c 04eb b3bd
00000080: 047c db3a e83b 7bbd df7e 883d e81a d1bd
00000090: ba83 10bb 0fb2 063a 27cb 563b ea40 8dbd
000000a0: f0aa 33bb f785 65bd b42e 0fbb 1dc4 263b
000000b0: 88a4 073b b9d9 f6ba 701f 3cbd 7210 bc3c
000000c0: b2f5 21be a761 6ebb 0990 dc39 7c1d e6bd
000000d0: bb37 24be bca5 07be 0956 eb3a 860a c638
000000e0: 6375 95bb 50e1 d83a 0381 713c 0270 22be
000000f0: 8dfc 383c 7374 4dbd 8daf 16be ea87 dbb9
00000100: 0fa6 133d 569a 8a3c 264e 02bb a57c c939
00000110: 4f9f 3439 8558 53bd d984 91bd 7bf0 90bb
00000120: f68e 9bbc 63c4 973a 9986 50bb 66d4 c53c
00000130: 0f58 0fbe 377c c2ba db17 443b c30e 20bb
00000140: 5a6d f93d f635 5b3a 5c33 543b a9d0 8839
00000150: d09d 943a 6cff 213b ee41 23bb d059 68bd
00000160: b883 713b 17e4 993c fcfc ee3a cbaa 69bd
00000170: 6b77 76be d023 c0ba 5437 a13d cab3 f63c
00000180: 3631 42b9 eafe 653b 885a 5c3b 8f1c 82bb
-0.027401686 0.06710966 0.0021400508 -0.0029480192 -0.0006934062 -0.13686568 -0.12739071 -0.07688976
-0.051946286 0.003596083 -0.0016796665 -0.11963379 0.1597502 0.26790103 0.0036372105 0.09333724
0.0030294296 -0.00039785734 -0.000315395 0.00529248 0.0014858453 -0.11387729 -0.20722836 -0.00055045204
0.0021055788 0.0018568533 0.0012991811 -0.0033466306 0.0004604814 0.0092838975 0.01280952 -0.0878506
0.0016745334 -0.061336428 0.06664824 -0.1021021 -0.0022051171 0.0005138227 0.0032774897 -0.06897147
-0.002741512 -0.056035962 -0.0021847906 0.0025446482 0.0020697434 -0.0018833197 -0.04592842 0.02295706
-0.15816382 -0.0036374123 0.00042068984 -0.112360924 -0.16036884 -0.13246816 0.0017954718 9.443336e-05
-0.0045611127 0.001654664 0.014740231 -0.1586304 0.011290682 -0.050159883 -0.14715405 -0.000418722
0.036047038 0.016919296 -0.0019883006 0.00038430575 0.00017225485 -0.05159809 -0.07105417 -0.0044231988
-0.018989068 0.0011578914 -0.0031818508 0.024149131 -0.13998435 -0.0014838044 0.0029921446 -0.0024422861
0.1217906 0.0008362228 0.0032379245 0.00026095405 0.0011338536 0.0024718894 -0.0024911123 -0.056726277
0.0036852192 0.01878552 0.0018233354 -0.057047646 -0.24068992 -0.001465911 0.07871881 0.030115027
-0.00018519614 0.0035094568 0.0033623297 -0.0039706896

autoencoder.encoder.7.weight f4 [100, 100]
00000000: 47ed 753d 13d5 003d a89d 7bba 5fc2 8c35
00000010: 1778 42b8 a3dc 993d 0a61 bf3d ea1c 87b9
00000020: 2211 5d3d e47c 0cb8 6137 1dbb 8c7f 2a3d
00000030: e71b e0bd 7995 26bd 1031 fd3a fbae 2dbd
00000040: 8c53 153b 8c8b 29bb 8bbe 4839 52a6 d5b9
00000050: 3733 72b9 c39d 633d 92c3 903d b3e1 1ebb
00000060: 83d6 e13a 506a a03a 6662 123a 52b0 07ba
00000070: f330 61ba ab37 b53b 0422 b23c 6864 0ebd
00000080: 4f38 12ba e359 1f3d 3a73 bc3b 3202 1fbd
00000090: c9bb 93ba 6cde 68bb 5882 87b9 f42f 7e3d
000000a0: cdfc 8cba ebc2 1ebd 8d06 00bb 5ce5 fb3a
000000b0: 7248 213a abf5 ee3a 0b74 753c 7b4f 2ebd
000000c0: 474e a23d e1fd 07bb ed53 1cbb 8686 e43d
000000d0: ae34 ff3a 334c 453d d0d7 843a 90a8 62ba
000000e0: 595b 98ba 42ac 86b9 a94f 2b3d 1127 813a
000000f0: 1100 a7bc 3c30 223a f9a1 953d 0368 253a
00000100: 3268 8cbc d7c9 a73b 11e0 81ba cef8 50ba
00000110: e2a8 7bb8 d4ab 273d d91a 013a 8890 c3ba
00000120: 7380 853c f024 a4ba faed 19bb 6981 49bd
00000130: e7e4 993d 7adf 933c 1f03 5aba b053 82ba
00000140: 9383 0cbd ea6c ffb9 afb6 523a 9e92 ca3a
00000150: 314d c8b7 bc73 6739 ec5c c9b7 5d26 d03b
00000160: 9c5a d839 3051 03bd f1ac f73a 5129 c4bd
00000170: 87aa 913d 053a aa3c 5b6f e43a c780 533d
00000180: 8ae0 8aba 132f b73a 1af8 513a 7772 0cba
00000190: dd41 693d 1fea fc3c 150f 94ba 7e48 f039
000001a0: 45d1 94ba 0d6d 9d3d 9c49 ba3d 7a7c a5ba
000001b0: b266 793d 9597 a9ba 2f87 0abb 2ccc 3f3d
000001c0: 5936 05be a766 05bd 396b 4339 fcc6 19bd
000001d0: 59c8 d33a ff49 2ebb 99e0 3f3a db1c 02bb
000001e0: bc10 78ba 348a 813d ee1d 773d f727 2bbb
000001f0: d01c 313a abb6 97b8 9c59 363a 26e9 83ba
00000200: c876 b5ba d6a2 c43b c5d6 ad3c dbf2 dfbc
00000210: 0a02 d0ba 93e4 2a3d e2bd 963b f054 8bbd
00000220: 959a d1b9 8a02 50bb 2c6a aeba 615f 6a3d
00000230: bc1f db39 d424 3dbd dc9c bcb9 2efa d53a
00000240: 6f48 8f39 b1be 103b 4a1b cc3c 7200 2dbd
00000250: 6bf8 b63d c29c 92ba 7628 24bb 6d71 db3d
00000260: d51b f63a fe0d 5f3d c448 4739 f910 9dba
00000270: 9323 5db9 0563 aeba 2912 a83c 4101 c3bb
00000280: e8cd f2bc ddaa 333c 5526 a93d 0646 0c3a
00000290: ce5c 98bc 925c cd3b 7460 0b3a f715 e1b9
000002a0: 2f5b 90b8 4190 233d 603b 1bba 6334 d5b9
000002b0: 79f7 b23b e811 a0ba 7527 daba fb33 09bd
000002c0: 74a6 9f3d 24f1 803c b0d0 86ba dc64 cb39
000002d0: 7a12 ddbc 2abf 0cba d482 9438 d3c7 cf3a
000002e0: 3dd6 0e3a 398f bfba dc6b a03a 29cd 5f3b
000002f0: 8a42 f1b9 6a8d 9abc 752d c23a 026a d1bd
00000300: 9576 a43d e58a a73c 14fa 38bb 1eab 7a3d
00000310: 75ba c1ba b9d9 243a f64f c4b9 7ffe 083a
00000320: ead0 a8bc bd7d 9fbc 6b63 0c3b 14e8 9939
00000330: 0252 35ba 2cce 39bc d52b d8bc 4010 a6bd
00000340: b7fe 83bb e3b0 82b8 c59c 143a 9ed2 61bc
00000350: e852 57bd da07 2e3d be88 d3b9 0240 8bbd
00000360: 9f54 143a 8e70 63b8 57c3 3b3a 1c42 71ba
00000370: ed70 b5ba d0cf 6ebc 742c 07be 3b05 13ba
00000380: 1499 59ba e560 93b9 2c68 763a e504 98ba
00000390: da10 4eba 3589 283b f888 ebbc 4fdf 2cbd
000003a0: 4bbd 3bba aa58 9d3c 6f3b 873b e2b7 203d
000003b0: cd58 1139 de11 18ba 3b66 79ba 73a4 72bc
000003c0: 242e a1b9 8a8f bdbd 38e3 6a3a acca 643a
000003d0: 0ee9 9a37 54bb 4a3a a400 cbbc bce0 0fbe
000003e0: 98e9 82bc 6d20 38b8 929f f4ba 1e00 5cbd
000003f0: 79eb 15bd 6152 7ebc 9470 91b9 bb02 7cba
0.06004074 0.031453203 -0.0009598383 1.0487382e-06 -4.6365047e-05 0.07512786 0.093446806 -0.0002577075
0.053971417 -3.3494915e-05 -0.0023989307 0.041625544 -0.10942822 -0.040669892 0.001931699 -0.042403203
0.0022785394 -0.002587053 0.00019144469 -0.00040750444 -0.00023097997 0.055570375 0.07068552 -0.0024243414
0.0017230067 0.0012238715 0.00055841205 -0.0005176115 -0.0008590363 0.005530318 0.021744736 -0.034763724
-0.00055778486 0.038904082 0.0057510408 -0.038820453 -0.0011271174 -0.0035532964 -0.0002584632 0.06205745
-0.0010756493 -0.038760107 -0.0019535155 0.0019218135 0.0006152458 0.0018231174 0.01498128 -0.042556267
0.079250865 -0.002075069 -0.0023853735 0.11158471 0.0019470656 0.048168372 0.0010135118 -0.00086463336
-0.0011623903 -0.00025686814 0.041824017 0.0009853562 -0.020385774 0.0006186997 0.073062845 0.00063097494
-0.017139528 0.0051204967 -0.0009908696 -0.0007971645 -6.0000348e-05 0.040935352 0.000492496 -0.0014920393
0.0162966 -0.0012523215 -0.0023487792 -0.04919568 0.07514363 0.018050898 -0.0008316505 -0.0009943154
-0.034305166 -0.00048718537 0.0008038086 0.0015455072 -2.3877803e-05 0.00022072991 -2.4004337e-05 0.0063522295
0.0004126624 -0.03205985 0.0018896145 -0.09578193 0.07112604 0.020779619 0.0017428206 0.051636484
-0.0010595482 0.0013975821 0.00080096873 -0.0005357633 0.056947578 0.030873356 -0.0011295999 0.00045830378
-0.0011353871 0.076868154 0.09096071 -0.0012625598 0.060888954 -0.0012938852 -0.0021137705 0.046825573
-0.13009013 -0.0325686 0.00018636593 -0.037543282 0.0016157731 -0.0026594398 0.00073195394 -0.0019853625
-0.0009462943 0.06325188 0.060331278 -0.002611635 0.00067563076 -7.234266e-05 0.0006956102 -0.001006399
-0.0013844604 0.006000857 0.021220574 -0.027337482 -0.0015869748 0.04172189 0.0046002725 -0.0680331
-0.0003997876 -0.0031739795 -0.0013306788 0.057219867 0.0004179458 -0.0461777 -0.00035975024 0.001632517
0.00027329053 0.0022086317 0.024915356 -0.042236753 0.08934101 -0.0011185633 -0.002504853 0.107149936
0.0018776605 0.054456703 0.00019005226 -0.0011983208 -0.00021089455 -0.0013304657 0.020516472 -0.005951077
-0.0296392 0.01096603 0.082592644 0.00053510105 -0.01859894 0.0062671388 0.0005316802 -0.0004293171
-6.883439e-05 0.039932493 -0.00059216283 -0.00040665557 0.00546163 -0.0012212368 -0.0016643839 -0.033496838
0.0779542 0.015739985 -0.0010285582 0.00038794323 -0.02698635 -0.0005369062 7.0815586e-05 0.0015852399
0.0005448794 -0.0014614827 0.0012239176 0.0034149385 -0.00046016678 -0.01886626 0.0014814573 -0.102252975
0.0803043 0.020451972 -0.002822523 0.061198346 -0.00147803 0.0006288547 -0.0003744361 0.0005225911
-0.02060743 -0.019469136 0.0021421562 0.00029355346 -0.0006916822 -0.011340659 -0.026388088 -0.08108568
-0.004028167 -6.231831e-05 0.00056691124 -0.013783125 -0.0525693 0.042487957 -0.00040346937 -0.06799318
0.00056583615 -5.4225842e-05 0.0007162592 -0.00092032715 -0.0013842859 -0.014575914 -0.13200551 -0.00056083844
-0.00083007035 -0.00028110217 0.0009399678 -0.0011598138 -0.00078607874 0.0025716547 -0.028751835 -0.04220515
-0.0007161691 0.019207317 0.004126958 0.039237864 0.00013861358 -0.0005801002 -0.000951383 -0.014809716
-0.0003074269 -0.092558935 0.000896025 0.000872771 1.8466755e-05 0.00077336025 -0.024780579 -0.14050573
-0.015980527 -4.3899217e-05 -0.0018663278 -0.05371105 -0.036601517 -0.01552257 -0.00027740432 -0.0009613444

autoencoder.encoder.7.bias f4 [100]
00000000: 32c9 bfbd 29af d0bd ad7a 283d 241c 6c3a
00000010: 16df bbbd dfb3 9abd 50f8 0dba f6cc 74bd
00000020: d5de cdbd bdac 723d 72a2 ebbd b0d2 98bd
00000030: 156d 3dba 9db2 6839 2c9d 353d 66b1 5b37
00000040: ef54 d5bd 3999 ecbc a84a aabd 94a8 be3d
00000050: e2c7 3e3e f55d 5bba a4a1 b7bd 00b9 b6bd
00000060: c7c2 943d d829 4a3e 5bce c1b9 5118 96ba
00000070: d0bf 013e 7557 bfbd ca3e 6bb9 ad45 dcbd
00000080: 905d c6bd 020e 47b8 8876 c5bd a2f5 e9b9
00000090: f43c 80bd 0221 d3bd 7cd6 773d 1c36 83bd
000000a0: c8d7 07ba d8a2 a03d 1bcd ecbd 8bde fcb9
000000b0: e1d2 c0bd f8c7 c9bd 06a3 83bd 882f b6bc
000000c0: 0459 c0b9 319b 51ba 1a87 0d3a 9bc2 b23d
000000d0: bdd5 563e 1d24 cbba 896f a53d 59d8 84bd
000000e0: c954 0bb7 003e 183a 6740 e33d efca 923a
000000f0: 2c80 88bd f2eb 63bb 8de5 63bd 4a25 803d
00000100: eba2 9b3d ed8e 5f3a 1ea1 7eba e554 303a
00000110: bdc4 1fbe 99c2 3cbd f8da 5f3d 0429 a33d
00000120: 7097 c3bd 3079 5239 99ae b13d a2e1 d5bd
00000130: 773f 9f3d 1e69 2a3a 9005 0b3a 8197 32b9
00000140: d222 2bbe 0ed4 f23d 12c4 abbd 64cc dabd
00000150: be7d b439 0aad fdb8 b184 c1bd 43bc dbbc
00000160: 0c62 7539 8a47 5abd 1042 d0bd 4a18 743a
00000170: 6e85 e3bd bacf e6bd 6a9d 933d e332 c9bd
00000180: d6a9 eb3d 3843 91bc 813a e5bd 526e 15be
-0.09364547 -0.10189659 0.041132618 0.0009006879 -0.0917341 -0.07553839 -0.00054157246 -0.05976578
-0.100522675 0.059246767 -0.11505593 -0.074620605 -0.00072260323 0.00022191783 0.044339344 1.3094721e-05
-0.104165904 -0.028881656 -0.08315021 0.093094975 0.18630937 -0.00083681877 -0.089663774 -0.08922005
0.07263713 0.19742525 -0.00036965575 -0.0011451339 0.12670827 -0.09342853 -0.00022434737 -0.10755477
-0.096858144 -4.7458343e-05 -0.09641749 -0.00044624234 -0.06261626 -0.1030903 0.060507283 -0.06406805
-0.0005181995 0.0784356 -0.11562558 -0.00048230993 -0.09415222 -0.09852594 -0.06427579 -0.022239462
-0.00036687416 -0.00079958426 0.0005398855 0.08728524 0.20979972 -0.0015498433 0.08077914 -0.064865775
-8.304786e-06 0.00058075786 0.11096268 0.0011199395 -0.06665072 -0.0034778086 -0.05563884 0.06257112
0.075994335 0.00085280725 -0.00097133394 0.00067265175 -0.15602393 -0.04608402 0.054652184 0.079668075
-0.09550369 0.00020072307 0.0867588 -0.10443427 0.07775777 0.0006500649 0.0005303258 -0.00017031842
-0.16712502 0.118568525 -0.08387007 -0.10683516 0.0003442596 -0.00012096211 -0.09449137 -0.026823169
0.00023401546 -0.05329088 -0.101688504 0.00093114807 -0.11109434 -0.112700894 0.07207759 -0.09824159
0.11507003 -0.017732248 -0.11192799 -0.14592865

autoencoder.encoder.9.weight f4 [2, 100]
00000000: daf3 f4bd 2058 0dbe ed37 a53d 9e79 cf38
00000010: 3ff3 17be 1f96 8fbc ca72 2eba e74a 19bf
00000020: 7efd a0bc 6f1b 8e3d e79d a1be b288 aabd
00000030: dff7 33ba e83b 05b6 fe92 833d 74f8 36b8
00000040: e8c7 c5be d3c0 9e3e 44e9 d5bd 9e62 e43d
00000050: fd6a b03e 9782 f7b8 5ea0 fabd 0161 ecbd
00000060: 2542 963d 0abd 72bd 3517 b737 3ea9 5ebe
00000070: 861e 8b3e 5b14 05be 720f 53b9 8fd1 75be
00000080: b60b 0ebe 74da 1539 e8f3 58be c3cf 9637
00000090: df13 dfbd 0b9c 17be 8501 893d bd97 953e
000000a0: 2c8b 13b9 f36e 2d3e e680 17bf 9e5d 0838
000000b0: a738 08be 989d eabd 3f8e 89bd b7c7 63bc
000000c0: 0bb9 a0bd e48d 22b9 979f 9b38 2d51 a33e
000000d0: c90e 8b3e 6bad da38 7661 0b3e 5546 3abe
000000e0: 5afb f4b7 da5a 3438 cc6b 8b3e b7b5 bbb6
000000f0: 2b20 dabd f3f7 39b9 9f92 503e e877 923d
00000100: e5ac 4e3e 5dfe 6e37 9f00 4b37 263e 9e38
00000110: 6218 6abe 3422 863e 9477 503e 13ca 523e
00000120: 0ef1 13be da71 0ab8 9e95 553e d955 33be
00000130: f880 2b3e 2827 b038 b0eb e4b7 8c00 71b7
00000140: 0cc9 e0be f5a6 543e 376d cfbd 2c20 b6be
00000150: 4313 7039 aa23 03b9 0e85 ebbe 749a 6c3d
00000160: 6f6d 8a38 a220 27bd 491e 66be e48d 5037
00000170: 96c9 37be f8ef 0cbf 9a85 e63e 90cd fbbd
00000180: 1957 2a3e c7cd 52be 7c79 a5be ff76 c6be
00000190: 797e 3cbe e68f 5abe 82b4 253c d98f 28b8
000001a0: 2295 30be 3289 03be 8b91 0f39 06f2 92bd
000001b0: a914 abbe 7f4c cb3d 2e23 68be bd1e c5bd
000001c0: 16f1 0b39 24cd c338 72f6 be3c a19b c538
000001d0: 8b56 d0bd f2e8 afbe d9fd e9bd 45e4 483e
000001e0: aec8 423e 63f5 6b38 381e 8cbe acd1 0abe
000001f0: d2a7 453e d6ec a53e 8820 6139 044c 943e
00000200: 703f 673e 17a2 14be cbfd d136 3887 91be
00000210: 8e5f 22be 9353 4ab9 ecdd edbd 5036 3239
00000220: 22bd 0fbe 5581 49be cdb4 913d bd9e e4be
00000230: de8e 8238 bd9d fb3d a136 c5be 77d7 8239
00000240: 695f 16be 0713 70be c5b4 93bd 4f58 87bc
00000250: 3193 8d3d a394 0739 0700 3e37 cf6c 4e3e
00000260: cdcb 7a3e 17e0 68b9 2be2 ad3d aee1 a0bd
00000270: 33ec a638 67ca 87b7 e9e5 533e 7d7b 6db8
00000280: 08c8 83be ac20 1239 470e 01bf 7abe 1e3e
00000290: eb7c 133e 03cb 29b9 fb4f 7839 2ca8 fab7
000002a0: 7f76 dfbe 2ddc b1be 2f99 8fbd 34ad 103e
000002b0: 40d5 12be 96e9 23b7 a69f 673e 281a 35be
000002c0: 943c e73d cb90 7cb8 5fb3 56b6 7ab2 c0b8
000002d0: 0622 dcbe bba0 f23d d31e f9bd ce34 1ebe
000002e0: ebe0 1939 0b40 2939 d0ae bcbe 84a7 c8bd
000002f0: be43 78b8 393f 82bd 90cd 35be 1475 38b9
00000300: d529 71be 55bf b1bd b68b f4bc 6481 7dbe
00000310: 12f2 283e b734 b43e d13f 52be 321d 32be
-0.119605735 -0.13803148 0.080673076 9.893182e-05 -0.14838885 -0.017527638 -0.0006654678 -0.59879917
-0.019652124 0.06938826 -0.31565782 -0.08326854 -0.0006865244 -1.9853414e-06 0.06424521 -4.362357e-05
-0.3862908 0.31006488 -0.104448825 0.11151622 0.34456626 -0.00011802202 -0.12237619 -0.115419395
0.07336835 -0.059262313 2.1826107e-05 -0.21744248 0.27171725 -0.12996046 -0.00020128282 -0.24005722
-0.13871655 0.00014291127 -0.21186793 1.797814e-05 -0.10892462 -0.1480562 0.06689743 0.2921733
-0.00014070858 0.16936855 -0.5918106 3.2512115e-05 -0.13302861 -0.1145584 -0.067165844 -0.013902596
-0.07847794 -0.00015502382 7.420702e-05 0.3189787 0.27159718 0.00010427352 0.13611397 -0.18190892
-2.9204111e-05 4.2999956e-05 0.2723068 -5.5941887e-06 -0.10650667 -0.00017735343 0.20368432 0.071517766
0.20183142 1.4245129e-05 1.20998875e-05 7.545603e-05 -0.22860864 0.2619797 0.20358115 0.20584898
-0.14447424 -3.3007796e-05 0.20857856 -0.17513217 0.16748416 8.3996274e-05 -2.7289469e-05 -1.4364847e-05
-0.43903387 0.20766814 -0.10128253 -0.3557142 0.00022895359 -0.0001250642 -0.4599995 0.057764485
6.6007364e-05 -0.040802605 -0.2247249 1.2430803e-05 -0.17947993 -0.55053663 0.45023805 -0.12295067
0.16634788 -0.2058631 -0.32319248 -0.38762662 -0.1840762 -0.21343955 0.010113837 -4.018829e-05
-0.1724439 -0.12845305 0.00013691762 -0.071750686 -0.334142 0.099267 -0.2266967 -0.096250035
0.00013345885 9.336535e-05 0.023310874 9.42268e-05 -0.10172757 -0.3435741 -0.11425371 0.19618328
0.19021866 5.62569e-05 -0.27366805 -0.13556546 0.193023 0.32407254 0.00021469791 0.28964245
0.22582793 -0.14514957 6.2582308e-06 -0.28423476 -0.15856764 -0.00019295355 -0.11614594 0.00016995636
-0.14036992 -0.19678243 0.07114563 -0.44652358 6.225494e-05 0.122859456 -0.3851824 0.00024956066
-0.14684834 -0.23444758 -0.072122134 -0.016521601 0.0691284 0.00012929975 1.1324889e-05 0.20158695
0.24491806 -0.00022208724 0.08490404 -0.07855545 7.959492e-05 -1.6187505e-05 0.20693173 -5.662021e-05
-0.2573855 0.00013935816 -0.5041241 0.15502349 0.14403121 -0.00016192724 0.00023680918 -2.9880634e-05
-0.43645093 -0.34738293 -0.07011639 0.14128572 -0.14339161 -9.769943e-06 0.22619495 -0.17685759
0.11290851 -6.021633e-05 -3.1992893e-06 -9.188517e-05 -0.42994708 0.11847063 -0.121640824 -0.15449831
0.00014675006 0.00016140954 -0.3685212 -0.09797576 -5.9190897e-05 -0.06359715 -0.17754197 -0.00017591222
-0.23551114 -0.08679072 -0.029851776 -0.2475639 0.16498592 0.35196468 -0.20532157 -0.1739395

autoencoder.encoder.9.bias f4 [2]
00000000: 7663 313e 7bf6 873e
0.17323098 0.26555237

autoencoder.decoder.1.weight f4 [100, 2]
00000000: 0e53 e23e 8ccc 11bf 71db d93e f010 d9bd
00000010: e6c6 163f a84a 35be 2950 d93d cb29 83bd
00000020: 65e7 0cbf 07a3 2a3f 716c 7ebe 2d69 83be
00000030: afe4 633e bf38 74be d816 12bd 1a71 6f3e
00000040: 8627 d5be 61e1 5abd e982 92ba 9bf7 98ba
00000050: 611e 863e f4d4 083e 55e5 c5bd 73c1 f0be
00000060: 940c 09bf 7df8 183f 950d d3be c6a6 58bd
00000070: e102 c63e 3872 eabe 1f62 41bd 6663 03bf
00000080: 9c90 09bf f004 0d3e f0d5 68bd 03f1 b93e
00000090: a4e6 1b3f 6f59 00bf 7789 a83e 90c7 d9be
000000a0: 82fc 183e cbfa 913e 05de 0ebd b40c 873e
000000b0: 7ccb d6be f7e9 56bd 7dac ecbe 17f6 143f
000000c0: 415a f1bd 2c7a debe 4ce8 8d3e 0b8f 8bbe
000000d0: 1571 96bd c5e4 02bf 7378 9b3e 2e9a 04bf
000000e0: a6d1 9bbd 43ff 01bf 7dc3 8438 7a5d 3937
000000f0: 1b93 b7bd 9b58 f8be 8d12 923d 14e6 443e
00000100: 99fa f43e b9fe b9be 912b 3ebe 58a4 3b3e
00000110: 8138 253e f274 fd3e 03ae 01bf 94c9 233f
00000120: 170e e2bd c94a c23d 39e3 ecbe 604e c23d
00000130: cc61 113f f03c 33bf 9962 f63d db9a 29be
00000140: 6cb1 64be 88cc 983e a97e ccbd 5371 f2be
00000150: c78c 183f 9677 d2be 2e7f 07bf d820 083e
00000160: 06ff 893e 80e9 693d c78b 51be 0f97 a3be
00000170: 6eb1 d43e 77bf 90be 2cbd 9d3e 3dd7 1fbe
00000180: 2bfa 99bd 0a9f 02bf 509e f5bd 86a9 ddbe
00000190: ef56 babd 4970 983e 51cb 97bd 1984 01bf
000001a0: 0238 82be a645 c03e d34a 203e d5af 51be
000001b0: 446e b538 d6c7 1cb9 6e4a 3f3e 6591 b13e
000001c0: 8303 82b9 fad3 d7b9 8608 24be e5e5 8b3e
000001d0: a013 b73e 5bc0 f33e 5bca d53d c041 b53e
000001e0: 2723 a0bd 2c68 053d 95af a93e d3f6 0dbd
000001f0: c88b 22bf db04 023f e2b2 b3be f11e f63e
00000200: 20c4 b43c c6ad 82bd 5437 943e 007c a3be
00000210: 3aff e63d f86b c73d e2ab 9e3d 82bb 473d
00000220: 77b3 9dbd 124e 01bf 6d1f 29bd 6e9c c53e
00000230: bb54 35bd ef7e 843d a417 aabd 7267 ffbe
00000240: 0520 ddbe c718 dfbc fc47 0ebf 09be d73e
00000250: 0118 3139 a5c6 ce38 05bc e73e 3bad 623d
00000260: a9c7 d6be aa24 57bd 9b8f d6be f98a 58bd
00000270: 44ee 253f 1586 85be d449 2cbb a9e0 403e
00000280: 5b96 2d3e a9f3 ad3e 945e b4be db85 fe3e
00000290: fc79 673e 6519 6ebe ebfc e03e ba6f 12bf
000002a0: 834f 693e af21 ad3e a613 00bd 207e 3b3d
000002b0: ab3f c9bd 7f26 b53d f98b 363e 6e02 ce3c
000002c0: 331c 0ebf 13ba de3e 0aaa 40be 9038 b0be
000002d0: c221 573d 8acf 8b3e 739e a8be a4be 803e
000002e0: 1e8e 99bd c517 03bf f967 ecbd fffe e0be
000002f0: 8083 b2bd c547 fbbe 486b a6bd 4f48 01bf
00000300: b257 7c3e 3f41 493b 0bd0 533e d4e0 923e
00000310: abdd 8fbc 534c 843e d411 29bd 3b95 933c
0.4420399 -0.5695274 0.42550233 -0.10598934 0.58897245 -0.1770426 0.106109925 -0.06404456
-0.5504058 0.6665501 -0.24846055 -0.2566618 0.22255205 -0.23849772 -0.035666317 0.23382989
-0.41631716 -0.053437594 -0.001117793 -0.0011670472 0.26195052 0.13362485 -0.09662882 -0.4702259
-0.5353482 0.59754163 -0.412213 -0.052893423 0.3867407 -0.45790267 -0.047212716 -0.51323545
-0.5373628 0.13771415 -0.05684465 0.3631669 0.60898805 -0.50136465 0.32917377 -0.42535067
0.14940074 0.28511652 -0.034879703 0.2637688 -0.4195212 -0.05246922 -0.46225348 0.58188003
-0.11784793 -0.43452585 0.2771629 -0.2725757 -0.073457874 -0.51130325 0.30365333 -0.5179776
-0.07608347 -0.50780123 6.330663e-05 1.10486235e-05 -0.08963605 -0.485051 0.071324445 0.19228393
0.4784744 -0.3632715 -0.18571307 0.18324411 0.16134836 0.49503285 -0.50656146 0.6397946
-0.11037844 0.094869204 -0.46267107 0.09487605 0.5678985 -0.7001486 0.12030525 -0.16562979
-0.22333306 0.29843545 -0.09985096 -0.47352085 0.5958981 -0.41106862 -0.52928436 0.13293779
0.2695238 0.05710745 -0.20463477 -0.31951186 0.41541618 -0.28271076 0.3080839 -0.1560945
-0.07518419 -0.51023924 -0.11993086 -0.432934 -0.090986125 0.29773167 -0.074118264 -0.5059219
-0.25433356 0.37553138 0.15653543 -0.20477231 8.651291e-05 -0.00014951764 0.18680736 0.3468124
-0.0002479815 -0.0004116593 -0.16018876 0.27323833 0.3575716 0.47607693 0.10438987 0.35401726
-0.07819205 0.03257005 0.3314177 -0.034659218 -0.6349454 0.5078866 -0.35097414 0.4807048
0.022066176 -0.06380801 0.28948462 -0.31930542 0.11279149 0.0973739 0.07747628 0.048762806
-0.07700246 -0.5050975 -0.041289736 0.3859591 -0.04427026 0.06469523 -0.0830529 -0.4988361
-0.4318849 -0.027233494 -0.5557859 0.42137173 0.00016888978 9.859846e-05 0.45260635 0.055340987
-0.41949204 -0.0525252 -0.41906437 -0.05286691 0.6481669 -0.2607886 -0.0026289122 0.18835701
0.16951887 0.3397496 -0.35228407 0.497115 0.22605127 -0.23251875 0.4394296 -0.5720173
0.22784238 0.3381476 -0.03126874 0.04577458 -0.09826597 0.08845233 0.17826833 0.025147643
-0.5551178 0.43501338 -0.18814865 -0.34418154 0.05252243 0.27306777 -0.32933387 0.25145447
-0.0749781 -0.51208144 -0.11543269 -0.43944547 -0.08716488 -0.49078193 -0.08125931 -0.5050096
0.24642828 0.0030709056 0.20684831 0.28687155 -0.017561754 0.2583948 -0.041276768 0.018015495

autoencoder.decoder.1.bias f4 [100]
00000000: d3cc abbe 2f7d 85be daa7 d6be 3fa9 7ebe
00000010: 7231 d4bd fa72 0dbe 1f4c 8e3e 39ef 5abe
00000020: 7acc 02be 5c0e c0ba 0b0e acbe ed36 b4bd
00000030: 8c71 383d c34e 00be a007 013f c6c1 f0bd
00000040: d41f 9ebd 8723 d0be fd58 823e aa08 a1be
00000050: a660 9fbe 3419 f9be ccdc 05be f8f4 5dbe
00000060: b589 cfbd 6e48 143f f8a4 d1bd 32bd b6bd
00000070: 24df c5bd 0ba8 7336 c1bc bdbd 1f6f 18bf
00000080: 7ff6 5e3e 35f6 fcbd a0aa 4abf df10 8ebe
00000090: cc13 0b3f c485 563d af43 cabe 57b2 d73e
000000a0: d747 0d3e c7c8 57bd 48d0 84be 4a3c 96bd
000000b0: 8093 19bf a103 02be d195 66be 9400 93bd
000000c0: 095d ccbd 34d9 d2bd b416 82be 4f49 c4bd
000000d0: f530 d33e ecfe 663f cd7f d8b9 e8eb 52bf
000000e0: 6fa8 2fba 6384 e3bc 561e 80bf 7a7d 15bf
000000f0: be95 273f 5868 09bf 6fb5 bbbd 5fe6 013f
00000100: c2ea 9b3e 8c40 d23e 735e 09bf 5a92 cdbe
00000110: 8da8 bebd 73b7 67be b849 a0bd 9ca7 c1bd
00000120: e1bb 20be 474e 8abd 9599 a738 2769 f0be
00000130: 0bd0 05be 3c20 05be 9a3d 47be 4657 febe
00000140: 85c9 3fbf 6030 d13e 767b bc3d dafd 78be
00000150: ef87 37bf bd58 3bbd 01e2 d83e 0d00 05bf
00000160: 78cc 8dbd 7a5d 05be 126d 97be c893 ccbd
00000170: 5f46 c6bd 80bf cebd af27 c0bd a588 9dbd
00000180: 6cee fabe 0d69 22bf 2bc5 49be 4491 793e
-0.33554706 -0.2607207 -0.41924936 -0.2486925 -0.103609934 -0.13813391 0.2779245 -0.21380319
-0.12773314 -0.0014652717 -0.33604464 -0.08799539 0.04503016 -0.12530045 0.5040226 -0.11755709
-0.077209145 -0.40652105 0.25458518 -0.31451923 -0.31128424 -0.4865204 -0.13072509 -0.2167548
-0.101336874 0.5792302 -0.102365434 -0.08922805 -0.09661701 3.6307636e-06 -0.092645176 -0.5954456
0.21773718 -0.12351648 -0.79166603 -0.27747247 0.5432708 0.052373663 -0.39504763 0.4212825
0.13796936 -0.05268171 -0.25940156 -0.07335718 -0.5999069 -0.12696697 -0.22518088 -0.07177845
-0.099786825 -0.102953345 -0.25407946 -0.09584295 0.4124829 0.9023273 -0.0004129395 -0.82391214
-0.0006700819 -0.027773088 -1.0009258 -0.5839459 0.65462863 -0.5367484 -0.09165465 0.50742143
0.30452543 0.4106487 -0.53659743 -0.4015072 -0.09309492 -0.22628574 -0.07826561 -0.09455797
-0.1569667 -0.067532115 7.9917874e-05 -0.46955225 -0.13067643 -0.13000578 -0.19457093 -0.4967596
-0.7491687 0.4085722 0.09203236 -0.24315587 -0.71691793 -0.045738924 0.42359927 -0.519532
-0.06923765 -0.1302394 -0.29575402 -0.099891245 -0.09681391 -0.100951195 -0.09382569 -0.076920785
-0.49010026 -0.63441545 -0.1970412 0.2437182
