save_config_2/4/model_state.pth (torch, 28347 bytes, 13 tensors)

autoencoder.encoder.0.weight f4 [16, 1, 3, 3]
000000 bc 64 0b bf 31 2c 8c 3d f1 54 35 3f 7a 19 07 bf
       -0.54450583 0.06844366 0.70832735 -0.5277325
000010 6a 88 db 3d 7c e1 9b 3e b0 0f c7 be 3b b9 17 bf
       0.10719378 0.30445468 -0.38879156 -0.59267014
000020 49 98 49 bf 03 5f 58 bf 68 8d ff bd 14 55 00 bf
       -0.78747994 -0.84519976 -0.12478143 -0.5012982
000030 a4 57 3e be 3a 08 b3 bc 71 85 ce be 17 e0 2d 3f
       -0.1858812 -0.021854509 -0.40336183 0.6792006
000040 f7 be 1c 3d c7 dd 24 bf 44 5f 68 bf 0a cf ec be
       0.038268056 -0.64400905 -0.90770364 -0.46251708
000050 52 5c 03 bf 31 41 54 be 92 d6 7e bd 9c 63 52 bd
       -0.51312745 -0.20727994 -0.06221635 -0.051364526
000060 8e ee 7b bf aa 50 b3 be bf ba 12 bf 21 4b ed 3d
       -0.9841088 -0.3502248 -0.573162 0.11586595
000070 77 7b 2c 3f ac b1 95 bd b7 39 20 3e 17 8c ee 3c
       0.6737589 -0.07309279 0.15647016 0.029119534
000080 0e 85 22 bf 85 82 85 3f 33 08 ce 3e a7 6e 93 bd
       -0.63484275 1.0430456 0.4024063 -0.0719884
000090 d7 b2 6f 3f a8 39 95 be f4 ee cf be 71 39 0f 3f
       0.9363226 -0.2914555 -0.40611994 0.55947024
0000a0 9c 43 5c be c6 cf d5 bd a4 50 90 3e 0b 1f d9 be
       -0.21510166 -0.1044002 0.28186524 -0.42406496
0000b0 69 15 e2 be 34 cb 1f bf cf 39 b0 bd 40 e1 08 bf
       -0.4415696 -0.6241944 -0.08604776 -0.53468704
0000c0 57 9f 12 bf 78 ef 46 be 6f 64 18 bf fd c9 b0 be
       -0.57274383 -0.19427288 -0.5952825 -0.34529105
0000d0 a6 a3 9f 3e 46 5a 4e 3f 38 a1 da 3b 69 39 3a bf
       0.3117954 0.80606496 0.006672051 -0.7274385
0000e0 d5 72 4d bf 8c af 21 3f e3 5f 73 be 91 d5 88 be
       -0.80253345 0.6315849 -0.23767047 -0.26725438
0000f0 1a 59 65 3f 00 72 fd 3e 74 61 97 3c 35 36 9f be
       0.89589083 0.49501038 0.018479086 -0.31096044
000100 01 a2 94 3d d0 cc 8c 3f df 17 2c bf b5 5a 0e be
       0.07257462 1.1000004 -0.67223924 -0.1390179
000110 63 29 e3 3e b3 9d 33 bf 66 3f 9e be fb 10 ec 3e
       0.44367513 -0.70162505 -0.30907744 0.46106705
000120 d3 43 a8 3c 00 ff 47 bd ae 85 b9 3c 9e 68 02 3d
       0.020540154 -0.04882717 0.022646751 0.031838052
000130 15 cb 4f be 71 7e 0f 3e c1 ee 98 3e 4a af 2e 3f
       -0.20292313 0.14013077 0.29869655 0.6823622
000140 ba c7 a2 3f 12 b8 00 be 79 b9 8d 3a 05 3e f2 3d
       1.2717202 -0.12570217 0.0010812721 0.118282355
000150 36 9e 55 bd b9 24 4b 3d 2a eb 1c 3c 21 c3 1b be
       -0.052152835 0.04959557 0.009577552 -0.15211155
000160 54 cd da 3d d2 49 1b bc c0 38 94 3e a3 94 1c 3d
       0.106836945 -0.009478049 0.28949547 0.03822769
000170 18 80 f4 3e 60 98 46 3e d4 b0 1a 3e 96 c9 ec 3e
       0.47753978 0.19394064 0.15106517 0.46247548
000180 49 b6 8e bc 25 d5 bb 3e 75 3b 73 3e ee 90 17 3f
       -0.017420905 0.36686054 0.2375315 0.5920552
000190 2d d0 cc 3e d3 36 11 bf bb 01 9f bc 3f 36 10 3f
       0.40002576 -0.5672428 -0.019410005 0.5633277
0001a0 6d 2a 81 bd f9 64 46 bf 24 0b c7 3e be 2f c7 3e
       -0.0630692 -0.7749782 0.38875687 0.38903612
0001b0 7d d4 20 bf af f3 12 3e 6a 4f 0c 3f 45 ff c0 bc
       -0.6282423 0.1435077 0.54808676 -0.023559222
0001c0 29 26 9e 3e 5f 37 91 3e 1f d8 00 3f 54 17 d9 3d
       0.3088849 0.28362557 0.50329775 0.106001526
0001d0 6f 4e da be 81 a1 c5 3e 17 fe 27 3f dc 80 ae 3e
       -0.42637965 0.3859978 0.65622085 0.34082687
0001e0 5f 31 3d be cc 4a d7 3b 1e 1d 07 bf d8 e3 2b bf
       -0.18475865 0.006570196 -0.52778804 -0.67144537
0001f0 ed f6 9a be 7c ad 0e bf 4a 57 80 3e 8d f2 f4 bd
       -0.30266514 -0.55733466 0.25066596 -0.119603254
000200 eb f5 c0 3e 45 dd 46 3f 2d 26 b2 3b e9 27 0e 3f
       0.3768762 0.7768138 0.00543668 0.5552965
000210 63 de 99 bc 47 9c 43 bf 20 62 bc 3c 8e 29 8b be
       -0.0187828 -0.76410335 0.022996008 -0.2718014
000220 d4 fa 45 bf 1c 0a 60 bc 8c 69 af be e6 0d 09 be
       -0.7733586 -0.013674285 -0.34260213 -0.13384208
000230 7f c6 25 3f 12 4e 35 3d 2f cb f0 3d b3 ad 1e 3f
       0.64756006 0.044263907 0.11757504 0.61983794

autoencoder.encoder.0.bias f4 [16]
000000 c4 af 97 3c 63 3b ce 3e 4c c7 ce 3e 75 a8 d4 3d
       0.018516429 0.40279683 0.40386426 0.10383693
000010 70 ff 25 be c9 33 ab bd d5 07 d5 3d 30 cc 06 be
       -0.16210723 -0.083594866 0.104018845 -0.13163829
000020 d9 59 0f 3f eb 3d 03 40 23 71 df be 37 20 10 be
       0.5599647 2.0506542 -0.43641004 -0.14074789
000030 81 b6 3e be 1b e5 4b be 1a ae 68 3e 9e 9b 71 be
       -0.18624307 -0.19911616 0.22722664 -0.2359452

autoencoder.encoder.3.weight f4 [8, 16, 3, 3]
000000 83 82 60 be cf 58 6c be 4e d1 65 bd 5c 20 32 3e
       -0.21924786 -0.23080753 -0.05610781 0.17395157
000010 ae f4 ad 3e 90 ca c6 3d ec 68 50 bc 5a 77 42 be
       0.33975738 0.097066045 -0.012720328 -0.18990842
000020 9b ad 00 bf e9 73 d6 3d b3 63 36 3e 53 ee e8 bd
       -0.502649 0.10471327 0.1781147 -0.11373582
000030 d3 b4 9b be 43 5f 75 be b3 d4 ce 3d 58 be b8 3e
       -0.30411395 -0.2396212 0.10099163 0.3608272
000040 f0 e4 6e 3e f6 4b 87 be 60 8f ea 3d 72 dc 8f 3d
       0.2332952 -0.2642514 0.11453128 0.070244685
000050 a2 01 f8 bd b1 11 be be 1d 02 d8 be 84 25 ca bd
       -0.121096864 -0.37122872 -0.42189112 -0.09870437
000060 12 78 3f 3e 0a e4 57 bc 18 17 6f 3e 11 c9 36 bd
       0.18698147 -0.013176927 0.23348653 -0.044625346
000070 0e 7e a2 3c c2 5e de 3d 65 64 c5 3e a6 24 f1 3d
       0.019835498 0.10857917 0.38553157 0.11774568
000080 1e 0d 77 be 88 5c 00 be 5f 81 61 be 4c ac 7d 3e
       -0.24126098 -0.12535298 -0.22022007 0.24772757
000090 9e e6 96 3d 68 45 40 bd 71 e5 38 3e bf 28 b2 3d
       0.073682055 -0.04694119 0.18056275 0.08699178
0000a0 69 f6 be 3d 0a 5c e1 be 59 6e ab ba d1 52 a1 be
       0.09324343 -0.44015533 -0.0013079151 -0.31508496
0000b0 7e bc e9 3e 46 54 b3 3d b1 d8 89 3e 0f 9d 0d be
       0.4565162 0.08756308 0.26923135 -0.13829444
0000c0 28 95 e4 be b8 d4 ee bd 3a 29 5c bd 9d 8d d4 3d
       -0.44645047 -0.11661667 -0.053750254 0.10378573
0000d0 f4 be 8b 3e b3 d2 0a be 0a a0 b7 bc 26 92 69 3e
       0.27294123 -0.13556938 -0.02241518 0.22809657
0000e0 52 e7 8a be 73 ed 35 3b f0 8c 52 3d fa 22 94 3e
       -0.27129608 0.002775994 0.05140394 0.28932935
0000f0 57 31 1b 3e 2b 7c 88 3e 91 91 da be 62 1b 11 3d
       0.1515554 0.26657233 -0.42689183 0.035426505
000100 53 b4 b4 3d 43 67 9e bd b5 24 f4 3e d4 b0 29 bd
       0.088234566 -0.07734539 0.47684255 -0.041428402
000110 46 55 3c 3c 00 5c 62 bd fe 64 9a 3e 3f 0a 35 bd
       0.01149494 -0.05526352 0.30155176 -0.044199225
000120 24 5c 52 be e6 21 20 3d 80 9e 73 bd 5f 94 83 3e
       -0.20542961 0.039094828 -0.05947733 0.25699136
000130 91 1c 1f 3d ad 47 7e 3e ad 64 53 be 63 8f 0c 3e
       0.038845602 0.2483203 -0.20643874 0.13726573
000140 69 1d 39 3d 98 6a ce bd 8b 22 54 bd 88 f1 cf 3e
       0.045194063 -0.10078925 -0.051790755 0.4061396
000150 02 92 e6 3e 2f cc ff b9 d3 a5 fe 3e 2c 99 14 3d
       0.4503327 -0.0004878952 0.4973589 0.03627889
000160 0a 38 01 be ce f5 47 3f a2 b7 c0 be 53 2d f1 bc
       -0.12619033 0.78109443 -0.376401 -0.029440558
000170 73 f1 b5 be 79 64 49 3c 8c 0d 2d 3e 56 6f 3e bd
       -0.35535774 0.012292021 0.16899699 -0.046492897
000180 2b a1 c1 bd 53 06 f1 3c 3d c9 c5 be b9 6b d5 3c
       -0.094545685 0.029421961 -0.38630095 0.026052343
000190 8f d8 61 be 16 5f 3a be c9 90 f4 3e 81 6a 39 3e
       -0.22055267 -0.18200335 0.47766712 0.18107034
0001a0 d9 28 27 3e 78 7e 29 bd b2 bd 60 3c bf af 5f be
       0.16324176 -0.041380376 0.013717102 -0.21844386
0001b0 7b a8 c5 bd 91 03 4e 3e 04 26 83 3d 6c 13 83 be
       -0.09651276 0.20118548 0.06403735 -0.25600755
0001c0 d0 3c a2 3d 88 41 4a 3d ea 6c e5 bd 09 11 da 3d
       0.07921755 0.0493789 -0.11202414 0.106477804
0001d0 49 9b 80 3e 8b df 82 be 31 78 89 be 51 c6 7f 3c
       0.25118473 -0.25561175 -0.2684951 0.015611247
0001e0 9b 8b eb be 32 ca 02 bd 00 7f 56 3d 21 fa 4e be
       -0.46004948 -0.03193111 0.05236721 -0.20212604
0001f0 80 6b 73 be 02 aa 95 bd 88 cb bc be 53 0b a3 be
       -0.23771477 -0.07307817 -0.36874032 -0.31844577
000200 fe 12 df bd aa 1e 34 be 16 3d c4 3d c9 05 9a 3e
       -0.10892294 -0.17589822 0.09581964 0.3008254
000210 7c 36 50 be c3 a4 41 be 19 33 62 be a1 7e 5a 3d
       -0.20333284 -0.18910508 -0.22089805 0.05334342
000220 51 fa b1 3e 27 74 0a 3d db 4d 06 bf 5c 74 84 bd
       0.3476129 0.033802178 -0.5246255 -0.06467506
000230 4e ac 04 be 40 73 22 3e 83 61 f0 3d 3a be 9c 3e
       -0.12956354 0.15864277 0.11737349 0.3061388
000240 0f 7b 45 3e aa f9 d2 be 5a 89 fb 3c c2 d0 75 3b
       0.19285224 -0.41206104 0.030705143 0.0037508463
000250 dc d1 9b 3e 56 e8 90 3e 88 ae 6d be db f3 37 be
       0.30433547 0.28302258 -0.2321111 -0.17964117
000260 ec cc 6c 3d d1 18 8a be 96 aa e1 be a9 63 a1 be
       0.057812616 -0.26972058 -0.4407546 -0.31521347
000270 4a cb 55 be 08 92 10 bd f2 05 84 3e a4 8d 05 be
       -0.2087833 -0.035295516 0.25785786 -0.13042313
000280 0b ca 91 3c ea 2e 0d 3e 78 07 8f be ab 4a ac be
       0.017796537 0.13787428 -0.27935386 -0.33650717
000290 7b ee d1 be c4 71 c0 bd 63 13 d7 3a f0 a6 b0 3e
       -0.4100226 -0.09396699 0.0016408976 0.34502363
0002a0 ab 67 1a bf 9d 10 55 be 17 10 58 3e 16 64 76 3e
       -0.60314435 -0.20807119 0.21099888 0.24061617
0002b0 d9 46 cb 3d 1f 13 ab bd 0c 3b a9 be a9 f0 37 3e
       0.099256225 -0.083532564 -0.33052862 0.17962898
0002c0 a7 17 85 be 48 fa 0d 3f 83 1f c2 3d 02 2b 98 3e
       -0.25994608 0.55460024 0.09478667 0.29720312
0002d0 50 33 6f 3d 89 f5 3a be a9 53 11 3d ca f4 bb be
       0.058398545 -0.18257727 0.035480175 -0.36710197
0002e0 44 e6 89 3d cc d0 08 be d8 7e 07 3e 0a 07 34 3d
       0.06733373 -0.133609 0.13231981 0.043952025
0002f0 27 38 c4 3d 16 2c ce bd 9f 99 cc be 85 4d dd bd
       0.09581023 -0.100670025 -0.39960954 -0.10805801
000300 86 d2 3e 3e a4 d0 93 be 23 82 83 3d ea 71 16 bd
       0.18634996 -0.28870118 0.06421306 -0.03672973
000310 9b 6e b1 3e 6f 5f 4d 3e 97 19 3f 3e 60 78 01 bd
       0.34654698 0.20055936 0.18662106 -0.03160894
000320 f6 1c 37 3e e0 3c e8 bd 52 86 73 3e 71 d7 08 3e
       0.17882141 -0.11339736 0.23781708 0.13363434
000330 12 7e 94 3e e9 74 78 3e 9a db 2d bd 63 cc 79 be
       0.29002434 0.24263348 -0.042445756 -0.24394374
000340 9c 8e e6 3d 16 99 e2 3e 74 45 da bd ab 34 27 be
       0.11257669 0.4425742 -0.106577784 -0.16328685
000350 d6 84 32 3e cc 72 ef bc 5c b9 47 bf f3 61 69 3e
       0.17433485 -0.029229544 -0.7801721 0.22791271
000360 c3 35 32 3e 61 65 66 3e d3 86 d8 bc 5b 6c da 39
       0.17403321 0.2249961 -0.026431477 0.0004166093
000370 0a 12 3a be 71 72 50 be 8d bc 06 3f 6e 4d aa 3e
       -0.18170944 -0.20356156 0.52631456 0.332622
000380 22 8f 34 3e fc 74 c6 bc f1 39 e6 3d 66 fe dd be
       0.17632726 -0.024225704 0.1124152 -0.43358153
000390 4c f7 81 be ae 29 e1 be ef 18 08 be 55 d7 c2 3e
       -0.25383985 -0.43977112 -0.13290761 0.3805491
0003a0 e7 d7 06 be 1a c5 36 3e 3a ce ea bd 2b db d5 3d
       -0.13168298 0.17848626 -0.11465116 0.104421936
0003b0 b9 fb f7 3d 19 b4 4d bd 64 3e 7b 3e 98 07 61 be
       0.12108559 -0.050220583 0.24535519 -0.21975553
0003c0 ef 24 60 3e a2 2d 2f 3e eb bd 45 3e 04 f9 2c 3e
       0.21889089 0.17107251 0.19310729 0.16891867
0003d0 a2 03 92 3e 5b 17 ef 3e 0c ad 43 be 80 31 8a 3e
       0.28518397 0.46697506 -0.19108981 0.2699089
0003e0 2d 65 06 3e 08 a7 8d 3e d1 a2 36 be e8 e0 ff bd
       0.13124533 0.27666497 -0.17835547 -0.12494069
0003f0 7e 24 bc bd 0a fb 59 3d df 35 41 3e bd 20 c3 bd
       -0.09186648 0.053217925 0.18868206 -0.09527729

autoencoder.encoder.3.bias f4 [8]
000000 2a 03 a2 3c dc 6d 75 be 93 2e c0 be b2 10 ab bd
       0.0197769 -0.2396769 -0.37535533 -0.08352794
000010 49 6a 01 bf 87 16 36 bd 7c bf f8 bd fc 7f 8e bd
       -0.50552803 -0.044455077 -0.12145898 -0.06958005

autoencoder.encoder.6.weight f4 [2, 8, 2, 2]
000000 ef 20 a9 be 9d c5 2f bf c0 f1 d9 be 55 e9 6b 3f
       -0.3303294 -0.6866091 -0.42567253 0.9215291
000010 06 bb 73 3f 9a 20 8c 3e 03 41 2e bf d7 52 44 3f
       0.9520725 0.27368623 -0.6806795 0.76688904
000020 21 87 ba bf cd 54 b2 3e 41 ee a1 bf 3b e8 b3 3e
       -1.4572488 0.34830323 -1.2650834 0.35138115
000030 f4 31 0f bf 01 96 93 be 4c 74 1a be 6d 26 db be
       -0.559356 -0.2882538 -0.15083426 -0.42802754
000040 9c 34 5d 3f b1 9e b8 bd 10 b0 70 3f fb b0 2e 3f
       0.864084 -0.09014643 0.9401865 0.682388
000050 7c b4 18 3f 79 d3 d3 3e 09 a9 6d 3e 6e f6 3f 3f
       0.596504 0.41372278 0.23209013 0.74985397
000060 0a a0 bd 3e bc ae 0f 3f fa d8 b3 3e 38 c4 e4 3e
       0.37036163 0.56126 0.35126477 0.44680953
000070 2c 44 0f 3e 09 c1 a4 be 04 6b f6 3e a3 16 e6 3d
       0.1399085 -0.32178524 0.4812852 0.11234786
000080 21 60 9c bd 72 73 0f bf f8 05 34 bf 08 9d 79 3f
       -0.07635523 -0.5603553 -0.7032161 0.97505236
000090 9f 73 7e 3f 14 54 21 3f b4 e3 8e be 02 1f 2c 3d
       0.99395174 0.6301892 -0.279081 0.04202176
0000a0 0e b1 22 bf 76 c1 46 be 4c 86 93 3e 2e ae b5 be
       -0.63551414 -0.19409737 0.28813398 -0.3548445
0000b0 89 33 81 bf c4 9c 3a bf 1c 97 17 bd 08 e5 de 3d
       -1.0093852 -0.72895455 -0.037009344 0.10883528
0000c0 09 47 4e bf f1 f6 44 3e 83 f1 92 bf c7 f9 3f bf
       -0.8057714 0.19234826 -1.1479954 -0.74990505
0000d0 a7 f6 f6 be 08 d1 b5 bd e9 d2 e0 bc 49 bc 94 be
       -0.48235056 -0.0887776 -0.02744432 -0.290499
0000e0 1f a9 f8 3d ec 46 fb bc 5d fb 60 be ee 43 13 bf
       0.12141632 -0.030673467 -0.21970887 -0.5752553
0000f0 21 cd 93 3e 4e 30 a1 3e ab 15 4a 3f c4 0b 75 3f
       0.28867438 0.31482166 0.7893931 0.9572108

autoencoder.encoder.6.bias f4 [2]
000000 c8 fb 63 bd ce ea 47 3d
       -0.05566004 0.04880791

autoencoder.decoder.0.weight f4 [2, 8, 2, 2]
000000 81 3d ec be 87 b8 8b 3f 1c be 70 3e ee 01 0b 3e
       -0.46140674 1.0915688 0.23510021 0.13574955
000010 81 c1 41 be f4 17 b4 be d5 53 85 be cf 71 28 3f
       -0.18921472 -0.35174525 -0.2604052 0.6579866
000020 7c 50 a2 bf c6 03 3e 3f 4c 56 80 3f b9 e8 20 3f
       -1.2680812 0.7422451 1.0026336 0.62855107
000030 e3 32 74 3e 3b 88 68 bd e5 64 50 3f a8 83 ea 3d
       0.23847537 -0.056770544 0.8140395 0.11450893
000040 69 2e a6 bf 57 61 19 bf 55 d8 1c 3f 7f b2 75 3e
       -1.2982913 -0.59914154 0.61267596 0.23993872
000050 85 f5 ba be 87 1f 70 3e 13 71 50 3d bd d5 1a bf
       -0.36515442 0.23449527 0.050889086 -0.6048239
000060 d7 1f 1f 3f 02 a6 43 3e c2 56 af 3d 46 62 87 bf
       0.6215796 0.19106296 0.085614696 -1.0576866
000070 58 a3 a3 bf 31 c5 b3 3d 1d f1 45 3e 6b b4 d6 bd
       -1.2784224 0.08777846 0.19330259 -0.10483631
000080 26 dc d0 be e1 6e 87 bf 4f 27 1e bf 0e 2d 1d 3b
       -0.4079296 -1.0580713 -0.6177873 0.0023983154
000090 6a 31 84 ba f7 b9 51 bf 80 74 00 3f 7a cf 67 bf
       -0.0010085527 -0.81924385 0.50177765 -0.9055096
0000a0 fc f4 e2 3e 7e 52 71 3f cd 6b 3c 3f 2d c6 23 3f
       0.44327533 0.942665 0.7360199 0.6397427
0000b0 de a1 ee 3d 49 3c 27 be 70 be bf 3f 53 37 63 3e
       0.116519675 -0.1633159 1.4979992 0.22189073
0000c0 6e 71 89 be 47 2c 60 3e a9 39 37 bf 8d 77 0e 3c
       -0.26844352 0.2189189 -0.7157236 0.008695495
0000d0 d7 8e e2 be 1f 48 8f 3e e2 a1 50 3e 5a 05 8d bf
       -0.44249603 0.27984712 0.20374253 -1.1017258
0000e0 77 70 1d 3f 7e 5f 97 3f 9b a1 64 3d 10 40 7a bf
       0.6149973 1.1826017 0.05581818 -0.97754
0000f0 61 84 bd 3f ae a5 90 3e 3a 02 83 3f e8 42 d9 3e
       1.4806024 0.28251404 1.0235054 0.42433858

autoencoder.decoder.0.bias f4 [8]
000000 ef 6a 94 bf 52 b7 21 bf 2f 8a 86 3d 65 1f b0 3f
       -1.1595134 -0.6317035 0.06569325 1.3759581
000010 a3 ef 9e bd e9 a8 fb 3f 20 31 8b 3f 88 e9 2a 40
       -0.07760551 1.9660922 1.0874367 2.6705036

autoencoder.decoder.2.weight f4 [8, 16, 3, 3]
000000 95 b2 15 bf b9 cd 20 be 61 41 b2 be 2a 21 e9 3b
       -0.5847562 -0.15703477 -0.34815505 0.007114549
000010 f8 7b 32 bd e2 db 06 3e 6c c7 ae be c8 85 31 3e
       -0.043575257 0.13169816 -0.34136522 0.1733619
000020 f4 ac fc bc 4c 5f 19 3d 80 2b 1f 3e be ca 26 bd
       -0.03084419 0.037444398 0.15543938 -0.040720694
000030 ae f7 dc 3c 44 8f b1 bc b4 a5 3a 3e 10 39 a2 3d
       0.026973572 -0.02167476 0.18227273 0.0792104
000040 3e db dc 3d 81 f0 64 3e ff 24 b2 3b ea 08 d2 bc
       0.10784005 0.2235737 0.005436539 -0.025639016
000050 c7 5b 06 be 82 c8 10 be bd 23 b7 3d dd 88 dc bd
       -0.13120948 -0.14138988 0.089423634 -0.10768292
000060 09 e5 c7 be 3b 5b 8c 3d 5a 6a bb be 50 bc c0 3c
       -0.39041927 0.06853338 -0.36604577 0.023527294
000070 35 6c d2 3c 5c 59 1a 3e 31 ae a8 3c df 41 54 bf
       0.025686363 0.1507315 0.020590873 -0.8291301
000080 97 be ac 3d 6e a0 c9 3d 11 c0 ad be 3a a6 6c be
       0.0843479 0.09845053 -0.33935598 -0.23110285
000090 54 c0 e5 3c 03 68 7f 3d 7c 4b 59 3b aa a0 ae be
       0.02804581 0.062355053 0.0033156564 -0.34106952
0000a0 b8 91 11 bf 89 b6 80 bd b1 ff 82 be 7f c6 8a be
       -0.56862974 -0.06284816 -0.25585702 -0.27104566
0000b0 54 7b b4 bd 4c a3 81 3c bd a9 a8 bc 5d a8 a1 3d
       -0.088125855 0.015824936 -0.02058875 0.07893441
0000c0 bd 26 43 bd 4f 4e 85 bc 0f 3f 20 bd 14 4f 01 be
       -0.047644366 -0.016272692 -0.039122637 -0.12627822
0000d0 cc 7c 07 bf 93 d1 36 3c 0d d7 31 be 9e a5 c8 bd
       -0.529248 0.011158365 -0.17367192 -0.09797214
0000e0 b9 25 08 3d 19 2f 1b be eb 70 89 3d 7b 95 e3 3d
       0.0332391 -0.15154685 0.067109905 0.111124955
0000f0 b3 79 37 bd 6c 4a c1 3c b9 27 7d 3c b7 90 33 bd
       -0.044793796 0.023595057 0.015451365 -0.043839183
000100 af ad c1 3c 02 d2 1b 3c 60 a0 96 be 77 f0 ad bc
       0.02364239 0.009510519 -0.2941923 -0.021232827
000110 2b 35 22 bf f5 e9 4f bd 89 ef 4d be 7f 13 8b bd
       -0.6336238 -0.05076023 -0.20110907 -0.06790828
000120 5c 22 6f be ff 48 b3 3d ca 3f 68 be ee 8f 1a bd
       -0.23352951 0.08754157 -0.22680584 -0.03773492
000130 cd 0f a3 be 86 4f 57 bc b6 10 dd bb 47 78 13 be
       -0.31847993 -0.013141518 -0.006746377 -0.14401351
000140 49 a5 c5 bd 11 89 c8 bd 8d 0b 42 be d2 2c 4a be
       -0.09650666 -0.09791768 -0.18949719 -0.1974366
000150 49 23 26 be a5 0d a4 3b f2 71 fd bb e8 a9 a3 be
       -0.16224398 0.0050065094 -0.0077345306 -0.31965566
000160 14 82 20 bf 0d 79 c3 be ea 80 00 bc 4c 4e ed bc
       -0.62698483 -0.38178292 -0.0078432355 -0.028967999
000170 87 72 1a 3e a6 25 27 3d a2 8a 36 3e 2e e5 9b 3c
       0.15082751 0.04080739 0.17826322 0.01903018
000180 11 86 36 ba 99 0a da bd 5e 6b 8e 3d 04 f1 9d be
       -0.00069627265 -0.106465526 0.069540724 -0.30847943
000190 29 fe a8 3c 04 53 70 be e9 5f 96 be 55 e6 e5 3d
       0.020629006 -0.23469168 -0.2937005 0.11225573
0001a0 09 3f 5e bf eb 7c f8 bd ca fc 52 3b d1 be 41 bd
       -0.86814934 -0.12133201 0.003219413 -0.047301117
0001b0 a0 0d 04 be 8b f0 8b be 64 ad 2e bc 3c 82 ff 3d
       -0.12895823 -0.27331957 -0.010661457 0.12476012
0001c0 f5 7c 8c bf 71 de 2c bf bc e8 0f bf 6b e3 68 be
       -1.0975634 -0.6752692 -0.562145 -0.22743003
0001d0 fd 42 20 be 8e 05 9e be a7 36 b3 bc 16 ba ee bd
       -0.15650554 -0.30863613 -0.021876646 -0.11656587
0001e0 42 3b 64 3b e3 83 3e be c3 7e f3 bd 4e 05 e1 3b
       0.003482536 -0.18604998 -0.11889412 0.0068670874
0001f0 a4 cd e2 3c be 5c ea be 51 d4 46 3d f9 dd e8 bb
       0.027685948 -0.45773882 0.048542324 -0.0071065393
000200 b9 bf 00 3e f5 4e b7 3c fa 87 23 3e 72 5b ee 3c
       0.12573136 0.022376517 0.1596984 0.029096339
000210 85 86 73 3d 8e a6 13 3d bc 82 98 bb e4 7c 53 bd
       0.05945446 0.03604751 -0.0046542566 -0.051632777
000220 76 1e 26 bd 59 35 84 3c 25 42 88 3d b9 3e 51 3e
       -0.040556394 0.01613872 0.06653241 0.20434083
000230 56 fd 3d bf 99 7c 7c bb 63 24 b3 3d d1 c2 30 be
       -0.74214685 -0.0038526414 0.087471746 -0.17261817
000240 df d6 16 be 54 3f 12 bc bf ab 3f 3c d6 06 64 3e
       -0.14730404 -0.008926231 0.011698662 0.22268233
000250 35 d7 ff 3d 5d 37 a6 be 27 06 bd bc 4b c5 ac bd
       0.12492219 -0.32464114 -0.023074223 -0.08436068
000260 5b 23 7f be 31 8a 81 be 4c ce 7f bd 70 90 a8 3d
       -0.24915831 -0.25300744 -0.0624526 0.08230674
000270 01 52 2d be 2d ca 8c 3d 71 ba ad 3e 51 59 7a 3b
       -0.16925813 0.068744995 0.33931306 0.003820021
000280 31 db 7a 3d 19 4e 32 3e d1 5d 34 bd b4 b6 b1 3d
       0.061244193 0.17412604 -0.044034783 0.08677426
000290 39 64 fa 3b 4c 57 5b 3d b8 2f 6e 3e 83 e4 8c be
       0.007641342 0.05355005 0.23260391 -0.2751809
0002a0 8b 84 b7 be d9 43 56 3e 88 ac ac be 38 c2 8e ba
       -0.3584331 0.2092432 -0.3372538 -0.0010891622
0002b0 c9 da 05 be a2 97 0d 3e b3 67 2e 3e 62 25 42 be
       -0.13071741 0.13827375 0.17031746 -0.18959573
0002c0 2a bb 74 3e 9e b3 d5 be 66 49 ee bc ba 6f 0f 3f
       0.23899522 -0.417386 -0.029087733 0.56029856
0002d0 f5 a1 82 bd cf 0d 8f bc e1 71 85 3d fd 1b 19 bf
       -0.06378547 -0.01746264 0.06515861 -0.5980833
0002e0 7e 0c ff be 25 e1 10 bd be 28 f7 be 1f 5b 17 be
       -0.49814218 -0.035370965 -0.4827327 -0.14780854
0002f0 63 4a 0a bd 52 6a 4b be 51 85 da be 26 47 1e be
       -0.033762347 -0.19864777 -0.42679837 -0.15456828
000300 d6 ab d7 be bb ba 57 be 1d 9e 85 3c a2 cd b9 3d
       -0.42123288 -0.21067326 0.016310746 0.090724245
000310 84 73 d8 3d 3e 30 8f 3e 34 35 74 be 3c 32 61 3e
       0.10568908 0.27966493 -0.2384842 0.21991819
000320 76 f1 46 3e 97 08 ec 3d b1 83 e8 3c 16 01 1c 3e
       0.19428048 0.11525076 0.028383108 0.15234789
000330 76 da cd bb f8 20 19 3e dd 3e a9 3e fb dc 7f bd
       -0.006282146 0.14953983 0.33055773 -0.062466603
000340 45 d6 00 3d 3d 12 76 bd c0 f0 88 be d9 54 d8 bd
       0.031454343 -0.060075987 -0.26746178 -0.105630584
000350 f7 8e 39 bd 55 e5 53 be 65 8b 5e be bb ac 5d 3e
       -0.045302358 -0.20692952 -0.21732862 0.21647923
000360 29 f0 ef 3c d9 74 be 3c ec c2 1a be 00 32 ff 3d
       0.029289322 0.023249077 -0.1511342 0.124607086
000370 d2 5a 9b 3c cf 4a fc be 52 9b 68 bd 01 11 83 3d
       0.018964205 -0.49275824 -0.05678875 0.063997276
000380 7b 75 a1 be 4c ea 9f 3d 1c 0e 09 be 9b fe a8 be
       -0.31534943 0.078083605 -0.13384289 -0.3300675
000390 68 18 da 3d f9 68 f4 be fd ea 6f be 97 82 8d bc
       0.106491864 -0.47736338 -0.23429485 -0.017274184
0003a0 58 57 e7 be b2 7e fa be 33 20 03 3e 9c 6e a1 bd
       -0.45183825 -0.48924786 0.12805252 -0.07882425
0003b0 57 07 99 bd ef 7c 77 3d 7a 14 82 3c 8d 0a 91 bd
       -0.07472103 0.06042188 0.015878905 -0.070820905
0003c0 7d 3a 79 bd 7c d0 7b 3e bf 04 37 3e 3c 5c d3 bd
       -0.060846794 0.24591249 0.17872904 -0.10320327
0003d0 39 f5 8e 3d 32 b7 cc bd 90 64 bd be 0a e8 e8 bc
       0.06980366 -0.09995879 -0.36990786 -0.028430957
0003e0 63 47 d5 be 7c 41 82 bd f7 67 ac be 5a 6b 5b bd
       -0.41656026 -0.063601464 -0.3367307 -0.053569175
0003f0 7b a8 b0 be 9b 2b 3e be 6c 00 6c 3d c5 ac 4e bf
       -0.3450354 -0.18571322 0.05761759 -0.80732375

autoencoder.decoder.2.bias f4 [16]
000000 39 49 7b be 7d 3d f6 3e 12 68 fb 3d 60 98 98 3f
       -0.24539651 0.48093787 0.12275709 1.1921501
000010 4b 45 90 3f b2 06 7a 3f ad cf 18 3f 32 50 6b 3f
       1.1271147 0.97666466 0.5969189 0.91919243
000020 be b4 bc be 42 3d c1 3e 9a 68 b7 3e ac f8 c7 be
       -0.36856645 0.37742049 0.35821992 -0.3905691
000030 ec 8c 6d 3f c0 9c 0e be 27 28 2b bf 02 d6 37 bd
       0.92793155 -0.13926983 -0.6685814 -0.044881828

autoencoder.decoder.4.weight f4 [16, 8, 5, 5]
000000 1a b9 b7 bb 7b 5d c0 3d 9a 2a b2 bd ce 78 cc bd
       -0.0056067826 0.0939283 -0.08699532 -0.09983979
000010 dc 15 b4 bd 42 f1 41 3c 65 cd 98 bc 9f 73 12 be
       -0.08793232 0.0118373055 -0.018652627 -0.14301918
000020 55 3e 35 3b d0 bd e5 3d ba cd cf bd 21 37 75 bd
       0.002765556 0.112178445 -0.10146661 -0.05986703
000030 95 06 55 3d 8c dc 80 bd 1d 75 35 bb ce 02 04 be
       0.05200823 -0.06292066 -0.0027688213 -0.12891695
000040 8a 62 b5 be be 97 e0 be 3c e1 ec bc 08 d0 6e 3d
       -0.35426742 -0.4386577 -0.028915994 0.058303863
000050 a5 13 b1 bd 9f 0f cd bd a6 91 c8 3c 74 a5 c5 3d
       -0.08646325 -0.10012745 0.024483513 0.09650698
000060 41 4f 09 3d e7 ff cf 3c f6 8b a9 bc fd f7 c3 3d
       0.033522848 0.025390578 -0.020696621 0.095687844
000070 9e be fc 3d f5 86 e4 3d b5 83 f3 bd f2 e5 40 be
       0.12341045 0.111585535 -0.118903555 -0.18837717
000080 1c 1e 05 3e 14 d5 1b 3e 53 de d2 3d 77 5a 4b be
       0.12999767 0.15218002 0.10296311 -0.19858728
000090 70 8d 9c bd 0d b4 c5 3e 28 5f 68 3e 7e 93 23 3c
       -0.076441646 0.3861393 0.22692549 0.009983895
0000a0 46 93 da bd da 6a 5c 3d 29 ac 0b 3f a1 f2 bf 3e
       -0.106726214 0.05381284 0.5455957 0.374898
0000b0 00 28 d1 3c 76 be e5 bc 4e 8e 4c 3d f8 90 8d 3e
       0.025531769 -0.02804492 0.0499404 0.27649665
0000c0 7f e0 70 3e 20 f6 9f bd 35 44 38 bd 4f 0b e2 bc
       0.23523138 -0.078106165 -0.044986922 -0.027593283
0000d0 56 10 bd bd 35 bb 8e 3d d5 27 03 3e 6b da 98 bc
       -0.092316315 0.06969301 0.12808163 -0.018658837
0000e0 2d 7b cf 3c e2 3f 0c 3e 08 d2 85 3e 39 b1 2d 3e
       0.02532729 0.13696244 0.26136804 0.16962136
0000f0 bc 90 82 bd 42 48 5c 3e 13 c3 09 3e db f4 27 3e
       -0.06375262 0.21511939 0.13453321 0.16401999
000100 21 e4 6f 3e 6e dc 95 3c f4 a5 4a 3d 1e 88 6c 3c
       0.23426868 0.018293586 0.04947467 0.01443675
000110 c6 71 d3 bd 82 6e b0 bd 5b 82 8c bc 3e e4 af 3d
       -0.10324435 -0.08614828 -0.017152002 0.085884556
000120 55 1d 3e bc 42 80 6e be 02 ce 9e bd 6a 2e 24 3e
       -0.011603673 -0.23291114 -0.077541366 0.1603333
000130 e6 59 3b be 26 93 f2 be c8 3e 4e 3c 3f 61 cc 3d
       -0.18296012 -0.4737789 0.01258821 0.09979486
000140 c3 87 70 3d 5b 66 a1 bd bf 8a 80 be 5f 7e 2e 3d
       0.058723222 -0.07880851 -0.25105855 0.042600986
000150 7c c3 b1 bd 30 f4 98 be 14 7a ab 3e d7 88 fa bd
       -0.08679864 -0.298738 0.33491576 -0.122331314
000160 b6 f3 c1 bd ae 10 01 be f1 3a 78 bd 9f ad ab bc
       -0.09470312 -0.12604019 -0.060603086 -0.020956812
000170 63 da e9 3d 9b 0e 44 3d 93 fa b9 bd 96 24 f2 3d
       0.11418607 0.04786549 -0.09080996 0.118233845
000180 74 5f 85 3e 0b 85 04 3e e4 73 ad bd ad 36 04 bd
       0.26049387 0.12941377 -0.0846937 -0.032278705
000190 c2 a6 f0 bd bf 8c 9a 3d a4 8d d9 3d d1 86 6d bc
       -0.117505565 0.075463764 0.10622719 -0.014497475
0001a0 6e 62 d5 3d 67 cc 51 be d9 d8 d0 3d 73 c8 e0 3d
       0.104191646 -0.2048813 0.101976104 0.10975733
0001b0 f8 2e 30 3c 19 2e 83 3d d1 85 94 bd f7 19 9b be
       0.010753386 0.06405277 -0.07252086 -0.30293247
0001c0 ba 8f 9a 3e e1 a2 ca 3d 0a 54 dc bb 7b c9 da 3d
       0.3018778 0.09894348 -0.0067238854 0.106829606
0001d0 b9 2e ec 3d ae 3c d5 bd a7 3f da bd 5c ca 53 bd
       0.11532349 -0.10411964 -0.10656672 -0.051706657
0001e0 fc 2b 01 3d 5c 68 bc 3d 14 56 74 3e 8f b3 55 bd
       0.031536087 0.091995925 0.23860961 -0.052173194
0001f0 bd ae 93 3d bc 4d e4 3b e1 d5 91 bd 80 d7 0c 3e
       0.07211063 0.0069672745 -0.07120872 0.13754082
000200 5b e7 a4 3d 2d 6f 04 3e 18 9e 4e be a3 6c eb bd
       0.0805194 0.12933035 -0.20177495 -0.1149533
000210 53 9c 64 3e 74 e6 04 3d 7b 9a 26 3e a2 8e 6d be
       0.22325258 0.03244634 0.16269867 -0.23198941
000220 f0 4a 78 3e 88 2f db 3e cd a1 a9 3c df b0 b5 3d
       0.24247336 0.428097 0.020707035 0.08871626
000230 c1 b2 d5 bd c8 38 8c 3e fb 31 f6 3e 36 be 33 3e
       -0.10434485 0.2738707 0.48085007 0.17553028
000240 35 8a 74 3d 8b eb b7 3c b6 b2 50 3e bd 94 38 3e
       0.059702117 0.022451183 0.20380673 0.18025489
000250 a7 fc a5 3d 72 0a bf bd 50 4a ad bc 1c bd 0a bd
       0.0810483 -0.09328164 -0.021153599 -0.033871755
000260 fb 72 93 bc 9d 00 84 bd 60 62 7c 3e 3b 46 ca bd
       -0.017999163 -0.064454295 0.24646902 -0.09876677
000270 00 61 f3 3d 6a 59 f0 3d 75 e5 0a 3e 74 84 3d 3e
       0.11883736 0.117358044 0.13564093 0.18507558
000280 65 ea 42 be 4f 9c 7b bc d4 de fd 3d f5 f6 13 bd
       -0.19034727 -0.015357091 0.12396017 -0.03612419
000290 9f 51 74 bd 95 98 cd bd 39 87 31 3e 3b 03 97 3e
       -0.059648152 -0.10038868 0.1733674 0.29494652
0002a0 ea 22 10 be 2a 33 ab bd 68 6f 39 3e f1 ed d4 3e
       -0.14075819 -0.08359368 0.18108904 0.41587785
0002b0 f6 06 f2 3e 1e 9b 07 3e 6f 1c f3 3d 02 73 71 3d
       0.47270936 0.13242766 0.11870658 0.05894757
0002c0 9d 4e 0a 3d b7 fa 12 be 99 23 6c 3d 9f c9 89 3c
       0.033766378 -0.14353453 0.057651136 0.016819773
0002d0 87 39 46 3e 92 d8 cd 3d 39 b5 1e 3b b5 ef a1 3d
       0.19357882 0.10051073 0.0024216904 0.079070486
0002e0 78 ce 5e 3d 33 45 96 3d 4e 32 35 3d 51 58 5d 3e
       0.054396123 0.073374175 0.044237427 0.21615721
0002f0 cb 62 01 3e be fb 0a bd b6 6a 18 bd 34 fd 2b be
       0.12635343 -0.033931486 -0.037211142 -0.16795808
000300 1e f4 74 3d 06 60 09 3d d2 2a 09 3d 01 a1 38 be
       0.05980312 0.03353884 0.033488102 -0.18030168
000310 82 88 3d bb 2e 78 ef 3d 31 a4 cb 3b e4 9b 30 bd
       -0.0028920476 0.11692844 0.0062146415 -0.04311742
000320 92 e6 eb bd dd d0 51 bc 43 b1 35 bd 87 13 90 bd
       -0.11518587 -0.012806145 -0.044358503 -0.070349745
000330 87 89 2e 3c 89 dc 07 be a4 c5 fd bb 73 c7 bf bd
       0.010652906 -0.13267721 -0.007744508 -0.09364214
000340 f1 09 cd bc 83 bc 18 be c4 70 80 3c 09 02 12 be
       -0.025029154 -0.14915662 0.01567877 -0.14258589
000350 db ad 9e bd ca b4 9e bd 64 66 16 bc ad 00 c5 bd
       -0.07748004 -0.077493265 -0.009179685 -0.096192695
000360 dd 8a 71 bd dc 34 e4 bc 20 e1 e6 bd 4e df 8d bc
       -0.05897032 -0.027857237 -0.11273408 -0.017318394
000370 f2 d6 29 3c a1 bf f0 bc 47 a5 ba 3d 25 db ac bd
       0.010366188 -0.02938825 0.091135554 -0.08440236
000380 7a 8e f8 bd dc ed a4 3c 51 83 8b 3c b9 d1 af bd
       -0.1213655 0.020132951 0.01703039 -0.08584923
000390 c8 af b3 be 23 86 43 3d 69 93 ae 3c a9 e8 00 3e
       -0.35095048 0.047735345 0.021310525 0.12588753
0003a0 47 08 60 be df 41 f2 be 5b 1b d5 bd 58 80 3f bd
       -0.21878158 -0.4731588 -0.10405608 -0.046753258
0003b0 7d e9 1d be 03 2d de be 89 c1 c3 be ac 4f 38 3d
       -0.154211 -0.43393716 -0.38233593 0.044997856
0003c0 3f 89 3b bc d5 60 d0 3c e4 a2 2e be 1b bc 6b bd
       -0.011446296 0.025436798 -0.17054325 -0.05755244
0003d0 29 77 47 3d 54 aa b6 3c c5 d8 06 3e 97 66 44 3d
       0.048697624 0.022298016 0.13168629 0.0479494
0003e0 56 e3 61 3d bd b2 13 3e c4 38 ce bd 4f b4 4d be
       0.055148445 0.14423652 -0.10069421 -0.20088314
0003f0 60 10 1b 3e e6 97 0c bd a6 0a 24 3e c8 a0 be 3c
       0.15142965 -0.03432455 0.16019687 0.023270026

autoencoder.decoder.4.bias f4 [8]
000000 bf 35 dc be a5 76 0f bf 84 11 31 bf 8e cd 30 be
       -0.43009755 -0.5604041 -0.6916735 -0.17265913
000010 7a b0 b9 be 6d e6 0c bf ed 87 a2 be c3 97 f9 be
       -0.36267453 -0.550391 -0.31744328 -0.48748598

autoencoder.decoder.6.weight f4 [8, 1, 2, 2]
000000 cf bc c9 3d e3 60 01 3e e5 8b a4 bd ea ec 2f bd
       0.098504655 0.12634616 -0.08034495 -0.04295055
000010 1d 8d 45 3f c0 f7 2e 3e 05 88 29 3f 20 11 54 3d
       0.77168447 0.17086697 0.66223174 0.051774144
000020 1c c2 01 bf 15 31 17 bf 7a 19 f4 be 52 ab 0a bf
       -0.5068681 -0.5905927 -0.47675687 -0.54167664
000030 2f 62 a8 3e 4a 72 9c 3e 8c 18 f5 3e 0f be df 3e
       0.32887408 0.30555946 0.4787029 0.4369969
000040 2b e2 87 3e a1 37 83 3e 19 da f1 3e 85 9a ed 3e
       0.2653974 0.2562838 0.47236708 0.46406952
000050 e3 99 a8 be e2 2f c4 3e 87 48 12 bc 67 53 30 3f
       -0.32929906 0.38317782 -0.008928425 0.6887726
000060 58 42 a0 3e 99 55 a0 3e 91 c2 4d be 82 74 50 be
       0.31300616 0.31315306 -0.20093752 -0.20356944
000070 f2 66 11 bf a8 62 16 bf ef b6 fb be 20 4a fe be
       -0.5679771 -0.5874429 -0.49163005 -0.49665928
