save_config_2/16/model_state.pth (torch, 28664 bytes, 13 tensors)

autoencoder.encoder.0.weight f4 [16, 1, 3, 3]
00000000: ed9e 83be 70ac 9b3e 3a10 3c3d 1e44 55be
00000010: e037 403e f51e 0e3e 97cf a8be 1a16 f53d
00000020: 09eb f53b f7fb 013f f926 583e c294 c63e
00000030: 605e 1d3d 211a 0abe 076f 9d3d a0bf 45be
00000040: 7c94 89be 8060 143d 6a2b 95bd b596 6f3d
00000050: bf0f 84bb 04ce 68be d942 5fbd fe1c e3bd
00000060: a34f ecbe 0ea7 f3be cece 25bf 4a6f 0e3f
00000070: 6ab3 7e3d 565a dfbd ffd1 1f3f 18be 1d3e
00000080: bb42 173e 3562 243f 8d85 a1bd 0642 9238
00000090: 86e1 1abf 65a1 30be 1088 c93d 85f2 09bf
000000a0: b8e2 fe3a cf6d 573e a498 06bf 25c5 c53c
000000b0: ffbe 433f 8309 dd3e 3a96 093f 16be 4f3e
000000c0: 1b64 413e b199 a43e 80f7 393c 2c13 bc3d
000000d0: 420c ba3e c942 b3bc 989c 58bf e104 33bf
000000e0: 8b60 b8be 2683 e6be bcf1 13be bae9 6d3d
000000f0: e9ff 10bd 35b1 06bc 81ac 723c 5486 f0be
00000100: 4ece b7bd 1a74 acbe 2cd9 07bf f255 e1be
00000110: 4c5c f2be bbce 20bf aa1c e4be e797 24bf
00000120: 0d0a 943e bc66 753e 950f 09bf b237 ab3e
00000130: 6e0b 273e 6a6a f2be 882b b23e 2fac 273d
00000140: 235e 01bf 6454 8cbc 6dfb 1cbf db0b 11bf
00000150: 5e05 433e 0964 79be 6ca7 32be 3571 ad3e
00000160: dd64 18be 0482 55be 0270 b43d 1fea 5c3e
00000170: 2349 803e 06e8 1b3e 969d 143e 36a4 043e
00000180: bfb6 5ebd d8a6 bebc 1ad7 213d 5bcd b9be
00000190: 556f 05bf a290 04bf db68 b1bd 15fd e13c
000001a0: 9f07 3d3e 41de ee3e 3805 033f 9374 723e
000001b0: 01c0 0ebe e9f3 7f3d a389 243e eb00 b23e
000001c0: 7874 e53e 6593 ba3e 898a c73e c51a 933e
000001d0: 1fcb 9f3e 048c 00be d724 39bd d499 aa3e
000001e0: 22d7 ebbd cb2d 16bd c0eb ea3e eb73 0f3e
000001f0: 8ca0 203e 3f9f e43e a174 05bd 42a0 f93d
00000200: 96e4 b8bd 6e79 d9bc c105 4c3d c8c1 ea39
00000210: fd84 933e 9f08 c93e cf16 033e 925c a2bd
00000220: 6d23 03bf b4e9 00bf 0258 873d 5e71 87be
00000230: 1be8 f9be 937f c8bb 31cd 23be 1e52 3cbf
-0.25707188 0.30404997 0.045913912 -0.20826766 0.18771315 0.13878997 -0.32970878 0.11967106
0.007504825 0.5077509 0.21108617 0.38785368 0.03842008 -0.1348653 0.076871924 -0.1931138
-0.26871097 0.036224842 -0.07283671 0.058493335 -0.0040301974 -0.22734839 -0.05450711 -0.11089514
-0.46154508 -0.4758839 -0.64768684 0.55638564 0.06218282 -0.10905902 0.62429804 0.15404546
0.1477155 0.6421235 -0.07886801 6.97412e-05 -0.6050037 -0.17249067 0.09840405 -0.5388568
0.001944623 0.21037982 -0.5257666 0.024141857 0.7646331 0.4317132 0.5374485 0.20287356
0.18885843 0.32148507 0.0113505125 0.09183344 0.36337477 -0.021882432 -0.84613943 -0.6992932
-0.36011156 -0.45021933 -0.14447683 0.058084227 -0.035400305 -0.00822096 0.014811636 -0.46977484
-0.08974896 -0.33682328 -0.53065753 -0.44010884 -0.47336042 -0.62815446 -0.4455312 -0.64294285
0.28913918 0.23964971 -0.535394 0.3344093 0.16312954 -0.47346812 0.34798837 0.04093569
-0.50534266 -0.017130084 -0.61321145 -0.56658715 0.19045016 -0.24354567 -0.17446679 0.33875433
-0.14882226 -0.20850378 0.08810426 0.21573685 0.250558 0.15225229 0.1451324 0.12953267
-0.0543735 -0.023272917 0.039511777 -0.36289486 -0.52123004 -0.5178319 -0.08662578 0.0275865
0.18459938 0.4665394 0.5117984 0.23677282 -0.13940431 0.06248847 0.16068129 0.34766325
0.4481542 0.36440578 0.3897288 0.2873136 0.31209657 -0.12553412 -0.04520115 0.33320487
-0.11515643 -0.036664765 0.45882988 0.14009063 0.15686244 0.44652745 -0.03258193 0.1218877
-0.09027974 -0.02654716 0.049810175 0.00044776336 0.288124 0.3926439 0.1280167 -0.07927813
-0.5122593 -0.503566 0.06608583 -0.2645368 -0.48809895 -0.0061187237 -0.15996243 -0.735628

autoencoder.encoder.0.bias f4 [16]
00000000: a177 3f3f b55c 813e 3aef 853f 98a0 f13d
00000010: c0e4 2fbe 8556 72bf a4f5 a33f 4906 833e
00000020: b387 b63e 72a4 5bbe f1e8 3a3f aff6 e8bd
00000030: 9c26 15be ea3c 85be 0065 263f 8c3a 153f
0.74791914 0.25266042 1.0463631 0.11798209 -0.17177105 -0.9466327 1.2809339 0.25590733
0.35650405 -0.2144945 0.7301169 -0.11375176 -0.1456551 -0.26023036 0.64997864 0.5829246

autoencoder.encoder.3.weight f4 [8, 16, 3, 3]
00000000: 4c1a 6e3d ca16 dd3d c710 7dbd 4ef6 f1bb
00000010: 02e6 08bd 99fc 3ebe 4a52 3c3e d9c1 5abe
00000020: 3a8e c7be a910 2f3d d9b6 3c3e 3bbe 92bc
00000030: ee3b 58bc 3fbc 9cbd 05c6 a3bd b6ff 5abd
00000040: 5d7d 3fbe 8257 cfbd 9398 bf3d b6b9 59be
00000050: 8ed8 3a3e b0a4 433e 561a 7b3e 8be7 183f
00000060: c73c 293e 01a9 9ebc cdf4 4ebe 1b7a 9fbd
00000070: a37d e03c 05bb 1bbd 41df 733c f9bd d13b
00000080: 5a1b 27be 79a8 00bd 7e9d a33d 05c7 dabd
00000090: 62dd 68be 70ab 673d 8082 5ebe 293c 1c3e
000000a0: 0bad 9d3e 8649 9cbc 0bbb 87bc 3caf 883e
000000b0: 8c11 80be 9f8a 183d 8a87 b93d 9b28 f93d
000000c0: be5d 95bd 676b 383e 2119 153d c418 a73e
000000d0: 352b 403e 1866 633e 0205 16be cae3 4fbe
000000e0: 8020 a73d 4cab 3b3e d72d 76be 51c1 e4bd
000000f0: bf1a 103f 8542 aabd c3d0 45be cf5e 293e
00000100: ed9e 7bbe a940 9d3d e4cd 763d f0b8 babe
00000110: b8cd 593d 63b9 cb3e fe4c 86bd f89e 9b3e
00000120: 15b9 a9bd e762 c2bc bf3a 4dbe 56a3 50bd
00000130: 0b70 913b 006f 9e3d 1206 c9be 0b75 af3d
00000140: 6f0c 2bbd 500f 853d 98fa 41be 6ac0 3f3e
00000150: 93c1 463e 52fb 193e c2bc e13d ad68 b9bd
00000160: 3dc3 7b3e 789b 913d 717b 9f3d 3c50 073d
00000170: 3069 bc3d 53f6 63bd 43df a9bd b6ba 8fbd
00000180: a8ce 5abd cf0b 4abe d6f3 51bd dac5 38bd
00000190: 778c d03d 78c7 96be d012 41bd d1d3 92bd
000001a0: 4b34 b5bd 368c 15bf b8ab a9bd 2355 bfbc
000001b0: e98d 593e ffc6 3f3c 7b1b 5e3d bc69 de3b
000001c0: 1e2d d4bc f247 233d 7bc7 a93c 6b6a 9e3d
000001d0: 6ca2 443e af7a 383e adbc 213c 5401 27bd
000001e0: f127 573c 70cb e93d 7328 843d 4f6f 8f3d
000001f0: e52e 58be bd54 473e 1f45 ff3d 8e93 633c
00000200: 11b1 b03d c793 963d faaf 8bbd 5086 0abd
00000210: c782 debd 0d0f 2fbd 5f7c 0d3d 57f4 133e
00000220: 60f7 6ebe 486d 913e f8a0 08be f7f5 19be
00000230: 36fa a83e 63c5 d8bd 36e9 88be 5fa5 663e
00000240: 7565 03be 34f8 09bd 97c9 013e 1f57 6ebb
00000250: 0399 ba3c 8858 ff3c 3050 403e 35e3 143e
00000260: 265d 193e ce44 3f3e 6844 b03d d4ec 663e
00000270: e80b 79bd ae42 52bd 8126 183d 8544 173d
00000280: 98f8 2f3e c1e0 343e 3786 17be 1a95 a63d
00000290: 7740 8ebe 043c 1b3e 88b5 7b3d e5ab abbc
000002a0: 809c a33e 01df 2c3c 8cfd 833e ed31 9d3e
000002b0: 92b1 1cbd 9baf 343e cf70 13bd 94cd 883d
000002c0: 9a55 a63d 148e 6f3d e8af 923c c75d dcbc
000002d0: 4bfa bbbe bf9f 1d3c 45f0 263c 6d28 9d3c
000002e0: 02fb 663e bcaf 22ba 1369 8ebe f6e8 2dbe
000002f0: 2e22 85bd c14f 303e 66b3 13bd 8b5e 2e3d
00000300: e577 22be 2cf0 1cbd bb2f f6bd 201e 3cbd
00000310: b5e8 fa3c b610 f0bc 33e8 d3bd 663a 1f3e
00000320: e306 62be c4bc cbbe 1347 06bd ce21 22be
00000330: fa3c c13d b5d0 c3bd bd80 253d 31f1 cabd
00000340: 46e0 0ebe 7599 5dbe 9529 ad3d 4b26 973c
00000350: 8bf6 1cbe 16fe 56bd 7da4 3d3d fdd8 b0bd
00000360: d1fd 4fbd bfa7 03be 6e3f 86be fc9f 9c3d
00000370: b810 013e c378 7fbd f050 933d ade5 e4bc
00000380: 9724 003e f692 e9bd e665 8fbd 86ba c2be
00000390: 4ef5 b2bd eb61 833d 75cf e5bd 0d72 5cbe
000003a0: 0c6a a5bd 81bd 7d3c eac8 2c3e 9a33 2e3d
000003b0: e73d 733e 367d 213d d800 01bd 14c6 923c
000003c0: 16c7 663e 1ac7 353e cef3 113e df67 36bc
000003d0: 929b a63d 7c14 e93d bc63 3dbd 76d5 af3d
000003e0: 5b5f 75be b23c 98bd 8947 45bd 0e62 19bc
000003f0: e135 be3d 2a53 7bbc cf55 3a3e b2d8 7d3d
0.058130547 0.10795362 -0.06178358 -0.007384098 -0.033422478 -0.18651046 0.18390766 -0.2136301
-0.38975698 0.042740498 0.18429126 -0.017912975 -0.013197882 -0.076530926 -0.079967536 -0.05346652
-0.18700166 -0.10124113 0.09355273 -0.2126225 0.18246672 0.19105792 0.24521765 0.59728307
0.16527091 -0.019367697 -0.20210572 -0.07786962 0.027403658 -0.038020153 0.014884771 0.0064008203
-0.16319028 -0.031410668 0.079890236 -0.10682491 -0.22740701 0.05655998 -0.2172947 0.15257324
0.30796084 -0.019078027 -0.016568681 0.26696193 -0.25013387 0.037241574 0.09059055 0.12165948
-0.072932705 0.1800972 0.036400918 0.32636082 0.18766482 0.22206914 -0.14650348 -0.20301738
0.08160496 0.18327063 -0.24040924 -0.11169685 0.5629081 -0.08313469 -0.19317918 0.16540073
-0.24572344 0.076783486 0.060254946 -0.3646922 0.053174704 0.39789876 -0.06557654 0.3039472
-0.08287255 -0.023728801 -0.20041941 -0.05093702 0.0044384054 0.07736015 -0.39262444 0.08567246
-0.041759904 0.06497061 -0.1894325 0.18725744 0.1940978 0.15037277 0.11022331 -0.090531684
0.24586196 0.071097314 0.077872165 0.0330355 0.091997504 -0.055654835 -0.08294537 -0.07018034
-0.05341974 -0.19731067 -0.05125793 -0.04511056 0.101830415 -0.29449058 -0.04713708 -0.07169307
-0.08847865 -0.5841707 -0.08284706 -0.023356026 0.2124554 0.011705159 0.054225426 0.006787507
-0.02590042 0.039863534 0.020725003 0.07735141 0.19202584 0.1801555 0.009871644 -0.04077275
0.013132081 0.11415756 0.064530276 0.07003652 -0.21111639 0.19465919 0.12464356 0.01389016
0.08627523 0.07352405 -0.06820674 -0.033819497 -0.108647875 -0.042738963 0.034542438 0.14448677
-0.23336554 0.28403687 -0.13342655 -0.15035234 0.33003396 -0.105845235 -0.26740426 0.22524022
-0.12831672 -0.03368397 0.12674557 -0.0036367846 0.02277804 0.031170145 0.18780589 0.14539798
0.1497694 0.1867859 0.086067975 0.2255128 -0.06080237 -0.051333122 0.037146095 0.03693058
0.17184675 0.17663862 -0.14797293 0.081339076 -0.27783558 0.15159613 0.06145242 -0.02095599
0.31955338 0.010551215 0.25779378 0.30702153 -0.03825528 0.17645113 -0.035996255 0.06679836
0.08121796 0.058485106 0.017906144 -0.026900185 -0.36714396 0.009620606 0.010189121 0.019184316
0.2255669 -0.0006205996 -0.2781454 -0.16983399 -0.0650066 0.17217924 -0.03605976 0.042570632
-0.15866049 -0.038314983 -0.120208226 -0.045927167 0.030628541 -0.029304843 -0.10347023 0.15549621
-0.2207294 -0.39792454 -0.032782625 -0.15833208 0.094354585 -0.09561292 0.040405978 -0.09909285
-0.13952741 -0.2164057 0.08455197 0.018450877 -0.15328424 -0.05248841 0.046299446 -0.08635137
-0.050779168 -0.12856959 -0.26220268 0.07647702 0.12604034 -0.062371027 0.07193172 -0.02794155
0.12513958 -0.11404984 -0.070018575 -0.3803293 -0.087381944 0.06415161 -0.1122121 -0.21527882
-0.080768675 0.015487076 0.16873518 0.04252968 0.23754083 0.03942605 -0.031494945 0.017916717
0.22536883 0.17751732 0.1425316 -0.011133163 0.081351414 0.1138086 -0.046237692 0.08585636
-0.23962156 -0.07433452 -0.048163924 -0.009361757 0.0928762 -0.015339652 0.18196796 0.061974235

autoencoder.encoder.3.bias f4 [8]
00000000: 1d0b 9dbe 1627 97bc 34c1 1d3d fa18 afbd
00000010: d462 a0be 9bef 3d3e ffa0 a03e 64eb bdbd
-0.3067254 -0.018451255 0.03851433 -0.08549686 -0.313254 0.18548433 0.3137283 -0.09273413

autoencoder.encoder.6.weight f4 [2, 8, 2, 2]
00000000: 2d37 693f 882b 193f 9c21 013f aef8 dc3e
00000010: 9844 653e f5af c13e 28c2 d23e 55e7 a13e
00000020: 2871 4abe c653 cdbc 8634 d3be 905c 02bf
00000030: e3d3 04bf 09e6 94bd e961 82bf c11f 05bf
00000040: 326e 17bf cf46 a5be a117 2bbf 6a73 32bf
00000050: 164b 83bf 8eb2 4dbf d239 83be 9a5b 72bf
00000060: 1391 e93e fd8f 8d3f 0d45 333f 0ebf 623e
00000070: ed46 283f cc62 a23e 0ce4 503e 71c6 843d
00000080: cac7 28bf 7a07 28bf 44b5 d7be c71f 04bf
00000090: 0903 eb3e a416 863e aa1c ad3e 83b3 8f3e
000000a0: b23a 973e e080 c53e 0aec b23e 7921 a53e
000000b0: 2ab0 603e 3d85 d93e 8636 503e 7059 4a3e
000000c0: af39 373e 7340 5fbf 4dec 24be 12d5 42bf
000000d0: 7ba2 eb3e 6d2f f3be 483a 4abf f724 713e
000000e0: f5ac 44bf 3135 56bf 1369 29bf b28f 11bf
000000f0: 20d2 7e3e c625 193f d269 2f3f b937 e53e
0.91099817 0.5983205 0.5044191 0.43158478 0.22389448 0.37829557 0.41163754 0.31621805
-0.19769728 -0.02506436 -0.4125101 -0.5092249 -0.51885813 -0.07270438 -1.018613 -0.5200158
-0.5915252 -0.32280585 -0.6683293 -0.6970736 -1.025729 -0.8035058 -0.2563005 -0.9467102
0.45618495 1.1059567 0.7002724 0.22143194 0.65733224 0.31716 0.20399493 0.06483162
-0.65929854 -0.6563641 -0.42130482 -0.5161099 0.45900753 0.26189148 0.3381093 0.28066644
0.29536968 0.38574886 0.3494571 0.322521 0.21942201 0.42484465 0.20333299 0.1976068
0.17893098 -0.87207717 -0.16105767 -0.7610637 0.460224 -0.4749712 -0.7899518 0.23549257
-0.7682641 -0.83674914 -0.66175956 -0.56859887 0.24884844 0.5982326 0.68520844 0.44769076

autoencoder.encoder.6.bias f4 [2]
00000000: b53b 173d adc4 583c
0.036922175 0.013230485

autoencoder.decoder.0.weight f4 [2, 8, 2, 2]
00000000: 4d45 843c 4750 4b3f ff6a e23c 9b2d 223f
00000010: 4ed0 45be c4e3 05be 921f f63e 70a4 20bf
00000020: 4328 41be 2f28 3c3f e3f4 bf3e e13f 883f
00000030: c3b9 fabd 1a9a 1e3e 1d15 67bf 26d5 7fbf
00000040: 73dc fb3e 0e17 313f c148 b2bc 3aad 553f
00000050: 2e41 93be c54a 39bf 93d5 f0bc c084 acbd
00000060: 9795 9dbd b4c9 0abd 47db 983e 6df9 733d
00000070: f73f 83be d07c 213f 50b6 c63e 4bb0 2c3e
00000080: b314 aebd d6e5 ca3d c546 b63e 0edf a13e
00000090: 4989 003f 24db bf3e c63c a33e f202 233f
000000a0: 4f43 9d3e bda5 54be 42fb b53c aec4 90bc
000000b0: 6bac ac3e 465c 16be 0a16 4a3f 0071 cabe
000000c0: f867 d33e 37e9 82be 89fd 903e ca69 c9be
000000d0: a8e0 63be a760 91be 45ad ecbd 9ac5 ea3e
000000e0: 21c9 48be b928 233f c588 a9be f056 523d
000000f0: d723 65be 22bf a6be 337c 483f 952d 68be
0.016146326 0.7941937 0.02763891 0.6335084 -0.19317743 -0.13075167 0.4807096 -0.6275091
-0.18863015 0.73498815 0.3749152 1.0644494 -0.122424625 0.15488473 -0.9026659 -0.99934614
0.49191627 0.69175804 -0.021763207 0.8346745 -0.28760666 -0.72379714 -0.029398715 -0.084237576
-0.076945476 -0.033883765 0.29854795 0.059564043 -0.2563474 0.63081074 0.38810968 0.16864125
-0.08500042 0.09907119 0.35600868 0.3161549 0.5020948 0.3747188 0.31882304 0.6367637
0.30715415 -0.20766349 0.022214536 -0.01767191 0.33725294 -0.14683637 0.7893988 -0.39539337
0.4129026 -0.25568554 0.28318432 -0.39338523 -0.22253668 -0.28394052 -0.11556486 0.45853883
-0.19607975 0.6373401 -0.3311216 0.05135244 -0.22376953 -0.32567698 0.7831451 -0.22673638

autoencoder.decoder.0.bias f4 [8]
00000000: 9877 143f c8df 1a3e 114a 4dbf 10a0 e4be
00000010: 636b 95bc 3130 273f b9d5 75bf f931 57be
0.57994986 0.15124428 -0.8019114 -0.44653368 -0.018239683 0.6530791 -0.9602924 -0.21015157

autoencoder.decoder.2.weight f4 [8, 16, 3, 3]
00000000: 7dcf 913e dcbc a13d 09b0 693e 15b1 0bbd
00000010: 7869 a13d e4bf 383e 2e0f 1f3d fd18 1c3d
00000020: 2666 4d3e 0e89 d83d 88e2 313e 3edc e9bd
00000030: 7e3d b2be 8d07 be3d 1317 b7bb c14b e8bd
00000040: 51ef a9be c976 3f3e 2029 0e3e 21ce af3d
00000050: 0fd0 f9bd 9c29 16be 45a5 633e 9fbe bebd
00000060: ee8c 833e b192 cb3e a90c 9dbe 7792 81be
00000070: 9581 2dbd b736 e53d 194b 6b3d 0016 0bbc
00000080: 66af c13d 2701 c73a a482 d53e e0fe c33d
00000090: 9e5b 00be 32c7 5abe d670 98be 7462 edbd
000000a0: 098e 133d cd35 3d3e b3ec f8bd 674d f6bd
000000b0: 57bb b13d 6633 99bc 8105 4b3e 9c40 043e
000000c0: 8ab3 af3e a822 093e 0375 a13c 8401 0abe
000000d0: 0540 953e 0493 193e 456e 03bd 8c4a acbd
000000e0: e891 d5bd 7458 d5be e868 a6bd 553d 03bd
000000f0: 5ea2 263e 8196 df3d 531c fbbe eb0e 1cbd
00000100: bcb4 bcbd 2b68 8ebe 3de3 d33c 6d7f 883d
00000110: f30c 8d3d 3e91 5fbe 91e8 c8bc 3e99 8cbd
00000120: bf45 ecbd 05c8 633d 8ce4 4bbe 8d40 4dbd
00000130: 2057 823d 2eaa 0d3e a35b 7dbc f16d 5cbd
00000140: 540a 37be 9ab2 02bd 6f9f 27be 5a06 cabd
00000150: d4d9 39be cd28 b5bd f65a 4a3e 0ea0 89be
00000160: abe2 103d 121f bbbd 2a65 07be 877b 92be
00000170: 13df 823c 3435 15be fb5a 25be c1e9 8f3d
00000180: 530e 1c3e f171 bbbb b5ee 973e 1cbb 1d3d
00000190: fd9e f43d 2a6c 8f3d 5e5f 91be f6d8 7dbe
000001a0: 9e42 ed3d a557 9ebd b5a9 cabc 956e 34be
000001b0: f3f3 573d 2fbe bd3d 0ab9 acbd beba 9a3e
000001c0: 0c81 9e3e 53cf 96be 5072 be3e 5127 65be
000001d0: 23f7 e13e b902 973e 2646 933d d476 15bc
000001e0: 4771 94bc c84e 523e 330b a13e 1dc7 ea3d
000001f0: b9cc 6f3c 6b7b aa3e 51e8 a1be 7467 c4bb
00000200: 9059 603d e437 87be 5e24 e1bb cbca 02be
00000210: 9e88 66bd f3b2 d5bc 0232 1a3e 1dd5 99be
00000220: 2a82 bfbd 7cad 9dbe c62a efbc 9d44 37be
00000230: e928 0a3e b8bd 6d3e 7491 36bd 5229 293e
00000240: 31a4 0a3e b46d c93d 13c9 483c 6438 003e
00000250: 4b42 4c3e b0c3 0f3e 03e8 a13d 00ad 60be
00000260: 6ece 98bd 1264 b33d 3d45 8e3d 317e b5bd
00000270: 556d 8cbe 72ec 413e 91d2 6bbd cfc4 b43d
00000280: e6bf 25be 16d7 453c e7ce ddbd a1e3 413e
00000290: 79be 0e3d b826 8a3d 5874 543e d974 4b3e
000002a0: 9a13 84bd d668 933d 29e7 883c c127 88be
000002b0: 39ab 06bc 244c 50be 5aed b9bd db0d 3d3e
000002c0: f1c3 2bbe d14f 7fbd 78c9 9cbd f14b 92be
000002d0: 33d0 0fbe fd1b 83bd 2fa7 f1bc 25e2 143e
000002e0: c04a 4f3d f374 00be ee84 0fbe 11bb 47be
000002f0: 6169 5dbd 2e79 133e 5a0c 943e 931c 933d
00000300: e18f fbbd 359c 093e eec3 1b3c b893 8c3e
00000310: 66e7 133c 75f5 c93d 5db3 bbbd f39a 3dbe
00000320: 8380 943d 066f 113e 648e 83bc dfc0 a43e
00000330: b67e 05bf 5ceb bdbe 586f fe3d 4fce e2bd
00000340: c5d6 023e 6a59 78bd 1633 0f3e 3b3e 21bf
00000350: a88e 8cbd 4266 943d 57f8 26bd d465 29be
00000360: cbdf 753c 77da 9f3c 4ce4 9e3d 512c dfbc
00000370: 4400 afbe a603 d93d fc03 f3bd 061a c2be
00000380: 2098 533d 4dc5 333d 6d9d 92bd 5569 f0bc
00000390: 8256 bebd 14f6 aa3d 24e6 bd3b 15ad e93d
000003a0: 6997 d03d 88b4 cfbd 7953 903d 6753 563e
000003b0: ae91 053c 9185 2e3e d432 153e 0e6d 3e3e
000003c0: 544c 2ebb ba21 323e 7758 c73d b181 123e
000003d0: 39f4 ee3d 9c9b b0bd db4b c6be ac8d acbe
000003e0: ce00 6abd 9995 32be 78fb 5d3e 093b 4dbe
000003f0: d33b b63d e1a1 493e 764b 60bd fa09 0cbd
0.28478613 0.0789735 0.22821058 -0.034104425 0.07881445 0.1804195 0.038832836 0.03810977
0.20058498 0.10573016 0.17371571 -0.11418961 -0.3481254 0.09278784 -0.0055874675 -0.11342574
-0.33190396 0.18697657 0.13882875 0.08584238 -0.12197887 -0.1466431 0.22231014 -0.09313702
0.25693458 0.39760354 -0.3067372 -0.25307056 -0.042359907 0.11192077 0.057444666 -0.008489132
0.09457283 0.0015182839 0.41701233 0.09570098 -0.12534949 -0.2136505 -0.29773587 -0.11591044
0.036024127 0.18477555 -0.12154522 -0.12026482 0.0867831 -0.018701266 0.19826318 0.12915272
0.34316665 0.13392127 0.019709116 -0.1347714 0.29150406 0.14997488 -0.032087583 -0.08412656
-0.1042822 -0.41669047 -0.08125478 -0.032040913 0.16272876 0.10917378 -0.49045047 -0.038100164
-0.0921416 -0.2781385 0.025865192 0.066649295 0.068872355 -0.21832749 -0.024524959 -0.06865166
-0.115367405 0.055610675 -0.19911402 -0.05011039 0.06364274 0.1383445 -0.015463742 -0.053815786
-0.17875034 -0.03190861 -0.16369413 -0.09864493 -0.18149501 -0.08845673 0.19761261 -0.26879925
0.035372417 -0.091367856 -0.13222185 -0.2860987 0.01597551 -0.14571077 -0.16147988 0.07027007
0.1523984 -0.00572037 0.29674307 0.03850852 0.11944387 0.070030525 -0.28393072 -0.24789795
0.11584972 -0.077315606 -0.024739126 -0.17620309 0.052722882 0.0926479 -0.08433731 0.30220598
0.3095783 -0.2945505 0.3719659 -0.2237828 0.44133863 0.29494265 0.07191114 -0.009122569
-0.018120421 0.20537865 0.31453857 0.11463759 0.014636212 0.33297285 -0.31622556 -0.005993778
0.054772913 -0.2640983 -0.0068707904 -0.12772672 -0.056282632 -0.026086306 0.15058139 -0.30045405
-0.09350999 -0.3079642 -0.0291952 -0.17897268 0.13492168 0.23216903 -0.04457231 0.16519669
0.13539197 0.09835377 0.012254971 0.12521511 0.19947164 0.14039493 0.07905581 -0.21940994
-0.07461248 0.08759321 0.069468 -0.0886196 -0.27427164 0.18937853 -0.05757386 0.08826601
-0.16186485 0.012075206 -0.10830479 0.1893449 0.034849618 0.06745666 0.20747507 0.19868793
-0.06449051 0.0719773 0.016711788 -0.2659283 -0.008219534 -0.20341545 -0.09078474 0.18462317
-0.16773964 -0.06233198 -0.076556146 -0.28573564 -0.14044265 -0.06401823 -0.029498665 0.14539392
0.050608397 -0.12544613 -0.14015552 -0.19504954 -0.054055575 0.14401695 0.28915673 0.071831845
-0.12283302 0.13438495 0.0095071625 0.2745645 0.009027338 0.0986127 -0.0916507 -0.1851614
0.07251074 0.14202508 -0.016059108 0.321784 -0.5214647 -0.37093627 0.12423581 -0.110745065
0.1277724 -0.060632147 0.13984331 -0.6298558 -0.06863147 0.07246067 -0.04076418 -0.1654275
0.01500697 0.019513352 0.07758388 -0.027242811 -0.3417989 0.10596399 -0.11865994 -0.3791048
0.05165875 0.043889333 -0.07158933 -0.029347101 -0.09293844 0.08347717 0.005795257 0.11409966
0.10185129 -0.101418555 0.07047171 0.20930253 0.0081524085 0.17043139 0.1457017 0.18596289
-0.0026595788 0.17395678 0.0973367 0.14307286 0.116676755 -0.0862343 -0.38729748 -0.33701837
-0.057129674 -0.1743988 0.21677959 -0.20042051 0.08898129 0.19690658 -0.054759465 -0.034189202

autoencoder.decoder.2.bias f4 [16]
00000000: 9532 36be 85dc 35be 6e42 6ebd d7aa 4abf
00000010: b0ba adbe 0914 5e3d 528e 51bf b693 2bbf
00000020: a99f 66bf fd1c 2dbf 1abe 7dbd 2060 40be
00000030: 949a 67be af29 4d3e 0810 73bf bc41 c3be
-0.17792733 -0.17759903 -0.05816882 -0.7916693 -0.33931494 0.054218326 -0.8185779 -0.67022264
-0.9008737 -0.6762236 -0.061948873 -0.18786669 -0.2261756 0.20035432 -0.94946337 -0.3813609

autoencoder.decoder.4.weight f4 [16, 8, 5, 5]
00000000: 9fb0 823d 457d 70bc 8dae 273b 2596 163c
00000010: d65e d53c 4b34 6cbd d547 c9bc ffde e43c
00000020: 4b2b d03c da2c e93c a06c c63d 34c8 27be
00000030: a3a0 213c 5568 903d a087 aabb dc47 203e
00000040: cb08 30bd 8aa6 04be 15c9 913c 2ca2 8c3d
00000050: 0c55 d93d 21a2 b43d d3b7 3bbe 8412 b73c
00000060: 7e3c a9bd 36c8 cd3c 34c6 64bc cc52 673d
00000070: e0f0 c7bc 30af 653e df7c 1d3c c8e0 c03b
00000080: ac6f 323d 7313 d5bc 528f 1c3e 6268 02bd
00000090: 631e c03c f44b 6b3d 1d86 0abe 139b 103e
000000a0: 226a d53d 4492 053e 4a6a 8c3c 6181 36bd
000000b0: 8a7e 313d fadc a53c f7e0 e1bd 4acf b33c
000000c0: 32af 42bd f7fd 823d a2ca 653d 39f5 583c
000000d0: 005f d63d cc6c 293c 3866 733d 7f4c 36bd
000000e0: dcba bd3d 770d e03b 5359 1c3e 7df2 1c3e
000000f0: 6b48 5a3d e5da d63d b514 ef3d 5844 8c3e
00000100: c907 88bc ac09 913d 574f 643d 96fc c23d
00000110: 5466 093e 8397 b13d d01b 60be cfbd 133e
00000120: 90ca aa3a e559 633d 9c4d d0bc 13ed d2bc
00000130: 3d4e 8fbb 964b 03bd 0971 5b3e a27a a73d
00000140: c437 ecbc 1d6b 41bc bb22 983c ed43 aa3d
00000150: f3e7 7e3b f158 6abd 871e 753c 028b 33bd
00000160: 5d0e 973d affd 09bd 2d3c cd3d 0a03 083e
00000170: bb24 80bd dcba 623e 7014 1abd e0ae 813c
00000180: 6bd9 24bc cf81 70bd 166b 0d3e a077 abbd
00000190: d4dd bcbd 4f7b d0bd f858 1ebe d1b6 a83d
000001a0: e0f0 e13d 5a77 673d d788 a7bd 1be1 cdbc
000001b0: 36ce 5dbd aefa 553d dd00 733e c93e 303d
000001c0: 5d3b cfbc 5349 303d 5eec 7ebc 92e7 553d
000001d0: 9abf 213d 3515 013b a2db 21bd a78e 90bd
000001e0: 436c 8c3d 901b 41be 521f 6dbd d60e 3ebd
000001f0: 0978 39bd 21be 36bd 8e4a a3bd dc30 3ebe
00000200: 7863 b93d c8f5 ed3d 5f8c e83c 7e59 cbbd
00000210: e5a3 8ebd e5bc 23bd 741d 1b3d b159 0e3e
00000220: 9a0f e7ba 9038 ddbd 1c4f 63bc e865 d5bd
00000230: 8f26 43bd f420 71bd f790 04bc a0d6 87bd
00000240: df7d a9bd e836 683d 3298 e1bd 624d 943d
00000250: 033f 12ba 6c78 a63c d2e7 d33d 829e 2c3d
00000260: 314b ed3d 079b 093d ebc7 f83d 97f5 993d
00000270: 1e98 8b3d b57e 223e dc65 83bc 5a39 cb3d
00000280: a8d6 583e be8f 593e f0c8 2b3e 2427 e13c
00000290: b4c2 92bc f9c7 853e 4f45 8a3e 63ce 6b3e
000002a0: 91d3 2e3d cfcb 4c3d f520 793d 47d5 233e
000002b0: 4af9 103e a6dd 413d 95f3 10bc 8c70 3abe
000002c0: 4064 90be 598d b0bc bff2 52be 4898 d1bd
000002d0: b231 033d e9b2 2fbd b488 a3bc 9b92 8fbd
000002e0: a289 30bd 49cd 83bd bc6f 98bd 8013 0c3e
000002f0: 397c 2fbb b40f eabd 21f5 47bd 8b7b cebd
00000300: 9ad6 133e f95d 2bbe f510 84bd 2862 dbbc
00000310: 346a f0bd 2085 3d3d a329 8ebd ac0b c93b
00000320: 27f9 1ebe ab7f 673d 040d ba3d 2e58 cbbd
00000330: 4968 523e ab20 783d b257 983d 6f49 e43c
00000340: 2a9a 143e 4ad8 e13d 74e6 a2bd b0d1 9d3c
00000350: dbbd 203d 0521 343d 2feb 103e 7cac 9abc
00000360: 630e b83c dfb9 53bb 48a3 313d 5733 1c3d
00000370: 2fe2 e2bb 87e5 813d 5d89 49bc 27b9 6b3e
00000380: 8a64 b63d 1cfb 02be eb0e 5f3d 83a9 ff3c
00000390: 9bb3 a7bd fa46 89bd 9a62 53be 10d3 94bd
000003a0: 69cf 0f3c 19d6 77bd 821a a6bc 3093 8d3d
000003b0: 1ffe af3d 1cf9 ac3d c270 973c e315 a03d
000003c0: 2524 17be a1e3 41bc 3271 8f3d 40a3 413c
000003d0: b138 163d ef8f d6bc a392 4d3d d2b6 83bd
000003e0: 4778 313e 7f7c 273e a219 31be 9d11 afbd
000003f0: 28af 24be 1775 fc3d 706e 89bc 1c30 b8bd
0.06381344 -0.014678304 0.0025586218 0.009191071 0.026046198 -0.057667058 -0.024570385 0.027938364
0.025411269 0.02846377 0.09688687 -0.16384965 0.009864959 0.0705115 -0.005204156 0.15652412
-0.042977136 -0.12954155 0.017796079 0.06866869 0.106119245 0.08819986 -0.18331842 0.022347696
-0.08263491 0.025119882 -0.013963271 0.056475446 -0.02440685 0.2243011 0.009612291 0.005886171
0.04356353 -0.02601025 0.15289047 -0.03183783 0.02345199 0.05744548 -0.13527723 0.14121656
0.10420634 0.13044077 0.017140526 -0.04455698 0.043333568 0.020246971 -0.11029237 0.021949429
-0.04753036 0.06396096 0.05610145 0.013242059 0.104673386 0.010340881 0.059423655 -0.044506546
0.09264156 0.0068375426 0.1526845 0.15326877 0.05329172 0.104909696 0.116738714 0.27395892
-0.016605275 0.07081923 0.055739727 0.09520833 0.13417941 0.08671477 -0.2188561 0.14427875
0.0013030339 0.055505652 -0.025427632 -0.025747811 -0.0043733404 -0.032054506 0.21429838 0.08177687
-0.028835185 -0.011805323 0.018571248 0.08313737 0.0038895577 -0.057213727 0.014960892 -0.04383374
0.073757865 -0.033689197 0.10021243 0.1328241 -0.06257006 0.22141594 -0.037617147 0.015830457
-0.010061602 -0.058717545 0.13810381 -0.08372426 -0.09221998 -0.10179769 -0.15463626 0.082379945
0.110322714 0.056510307 -0.08180397 -0.025131753 -0.054151736 0.05224102 0.23730798 0.043028627
-0.025296861 0.043038677 -0.015559284 0.052222796 0.039489366 0.0019696478 -0.0395161 -0.07058459
0.06856587 -0.1885817 -0.057891198 -0.046400867 -0.04528049 -0.044614915 -0.079732046 -0.18573326
0.09052175 0.11619145 0.028387247 -0.09929179 -0.06964854 -0.039975066 0.037869886 0.13901402
-0.0017628551 -0.10801804 -0.013873842 -0.10419828 -0.047644194 -0.058869317 -0.008091203 -0.06632733
-0.08275961 0.056692988 -0.11015357 0.07241322 -0.00055788475 0.020321093 0.103469506 0.042143352
0.11586607 0.03359511 0.12147506 0.07517546 0.068161234 0.15868647 -0.016039781 0.09923048
0.21175635 0.2124624 0.1677587 0.027484484 -0.017915107 0.2612913 0.27006003 0.23027949
0.042682234 0.049999055 0.060822446 0.15999328 0.14157596 0.04733052 -0.008847137 -0.18206996
-0.28201485 -0.021551775 -0.20600413 -0.102341235 0.032029815 -0.04289523 -0.019962646 -0.07010385
-0.043100007 -0.064356394 -0.07443187 0.13679314 -0.0026776923 -0.114287764 -0.048817758 -0.10082158
0.14437333 -0.16735066 -0.06448547 -0.026780203 -0.11739007 0.046269536 -0.06941535 0.0061354246
-0.15524732 0.056518238 0.09084514 -0.09928928 0.20547594 0.06057803 0.074386016 0.027867047
0.14511934 0.11027582 -0.07954112 0.019265026 0.03924356 0.043976802 0.14152215 -0.018881075
0.022467798 -0.0032306833 0.043368608 0.0381349 -0.006923936 0.06342607 -0.012300816 0.23019849
0.08905895 -0.12791103 0.054457586 0.03120876 -0.08188554 -0.06702991 -0.20643082 -0.072668195
0.008777478 -0.060506914 -0.020276312 0.069128394 0.085933916 0.08445951 0.018486384 0.078166746
-0.14759882 -0.011834056 0.07004012 0.011818707 0.03667516 -0.02619168 0.05018867 -0.064313546
0.17331038 0.16356085 -0.17294934 -0.08548281 -0.16082442 0.123270206 -0.016776294 -0.08993551

autoencoder.decoder.4.bias f4 [8]
00000000: cc04 64bf 3f06 0abf 9940 dabe 5e6f ffbe
00000010: 230e cabe f900 b5be b5db 6abe c60e 99bf
-0.8906982 -0.5391578 -0.4262741 -0.49889654 -0.3946391 -0.35352305 -0.22935374 -1.1957633

autoencoder.decoder.6.weight f4 [8, 1, 2, 2]
00000000: 0d71 ffbe 9c27 efbe 4114 fbbe cede eabe
00000010: 9204 02bf 3200 e83c 4c38 08bf 0119 393c
00000020: 9c13 b4be f996 c2be f147 b1be c393 bfbe
00000030: 4b5f 283e eab0 d8be d597 2a3e fd26 dbbe
00000040: d604 d5be d056 b2be 05f0 7fbd e292 913c
00000050: ed9f b63d e88d a43d cfb6 83be dbae 8ebe
00000060: 6a91 da3e b83a e33e 4f9a da3e f13a e33e
00000070: 223d 3c3f 4350 323f 2b4b 373f d4a5 2c3f
-0.49890938 -0.46709907 -0.4903889 -0.4587311 -0.50788224 0.028320406 -0.532109 0.011297465
-0.3517121 -0.38005808 -0.346252 -0.3741742 0.16442601 -0.42322475 0.16659482 -0.42803183
-0.41605252 -0.34831858 -0.06248476 0.017770234 0.08917222 0.08034879 -0.2572541 -0.2786778
0.42689067 0.44380736 0.42695853 0.44380906 0.7353078 0.6965372 0.7159907 0.67440534
