save_config_3/3/model_state.pth (torch, 28664 bytes, 13 tensors)

autoencoder.encoder.0.weight f4 [16, 1, 3, 3]
0.10021851 -0.22067606 0.16732648 0.30531663 -0.081530005 0.124800324 1.0966568 0.14977084
0.118429914 0.91707885 -0.15068686 -0.1315627 0.072533034 -0.28012145 -0.4400934 -0.2710165
-0.46967125 0.08987676 -0.09190177 0.7235361 0.18584909 0.037279483 0.07607627 -0.4520994
0.21407768 0.48047835 -0.11739844 -0.0043676468 0.2994155 0.74720293 -0.7090725 -0.12225212
-0.14116497 -0.33357596 -0.29925752 -0.66904944 -0.004770327 -0.5420581 -0.63173175 0.268114
-0.23300745 -0.3332571 0.9968201 0.43898275 0.04733569 0.7790918 -0.1608725 0.09530542
0.4305556 -0.039289173 0.10664179 0.17957152 -0.24303642 0.020236224 0.26287374 0.15056056
-0.41131157 0.1856527 0.3359939 -0.08954118 -0.45482036 0.26367822 0.31459978 0.015024569
0.19650897 0.44561416 0.05686372 -0.018010048 0.32077277 -0.03575756 -0.19460282 0.22615108
-0.104038365 0.31361303 0.33459643 0.39046556 0.19248919 0.073121436 -0.22173303 -0.5229356
-0.45754343 -0.69114894 -0.36770216 -0.59686583 -0.25589266 0.06672317 -0.16521892 -0.44494322
0.02134255 0.8328998 -0.002657909 -0.027372656 -0.025251403 0.07820349 -0.04863292 0.13394888
-0.12701656 0.3643981 1.0912472 -0.406607 -0.37997955 -0.02372252 -0.09862026 -0.050239436
0.18768409 0.43625632 0.3601316 0.13740699 -0.009653774 -0.38509983 0.54772997 -0.116770014
-0.26491356 0.4352582 -0.17800857 -0.3437958 0.42309022 -1.1510152 -0.5591024 -0.62666607
-0.039538186 -0.114743695 -0.33122385 -0.2787526 -0.08381421 -0.96395344 -0.2958022 0.41428664
0.16962963 -0.35698798 0.37553418 0.16184738 -0.03232221 0.39096257 -0.32140988 0.35134545
-0.24253465 -0.43641052 0.43914515 -0.11623671 -0.46394485 1.1434643 -0.06253676 -0.14540675
00000000: 5d3f cd3d e8f8 61be a257 2b3e 7652 9c3e
00000010: 34f9 a6bd 5097 ff3d 405f 8c3f 875d 193e
00000020: 628b f23d aec5 6a3f a84d 1abe 5fb8 06be
00000030: 338c 943d 146c 8fbe ec53 e1be adc2 8abe
00000040: c078 f0be 4f11 b83d ff36 bcbd a939 393f
00000050: 394f 3e3e 5fb2 183d e0cd 9b3d 9379 e7be
00000060: 2e37 5b3e 4201 f63e 986e f0bd 7a1e 8fbb
00000070: fd4c 993e b148 3f3f c685 35bf 525f fabd
00000080: 8d8d 10be 78ca aabe 4838 99be d346 2bbf
00000090: 6750 9cbb 52c4 0abf 2cb9 21bf 3d46 893e
000000a0: 8199 6ebe ada0 aabe 9a2f 7f3f 59c2 e03e
000000b0: 12e3 413d 8f72 473f c3bb 24be 7d2f c33d
000000c0: c971 dc3e afed 20bd 0367 da3d 99e1 373e
000000d0: 8ade 78be 70c6 a53c 6397 863e 8c2c 1a3e
000000e0: 6e97 d2be be1b 3e3e 6407 ac3e 5e61 b7bd
000000f0: 37de e8be d500 873e 3913 a13e 9c29 763c
00000100: a639 493e 8a27 e43e efe9 683d cf89 93bc
00000110: 543c a43e 8576 12bd f645 47be 2694 673e
00000120: 1112 d5bd e391 a03e 3950 ab3e 1aeb c73e
00000130: e31b 453e b1c0 953d fc0d 63be 1cdf 05bf
00000140: 2243 eabe 23ef 30bf 7543 bcbe 33cc 18bf
00000150: 5d04 83be 28a6 883d 262f 29be 99cf e3be
00000160: 92d6 ae3c ec38 553f 5030 2ebb 9f3c e0bc
00000170: 08dc cebc 2729 a03d 5033 47bd e529 093e
00000180: a110 02be 6392 ba3e fdad 8b3f cb2e d0be
00000190: ae8c c2be bb55 c2bc 6bf9 c9bd dec7 4dbd
000001a0: 4230 403e fd5c df3e 2b63 b83e 6bb4 0c3e
000001b0: dd2a 1ebc ce2b c5be 0838 0c3f 1e25 efbd
000001c0: c0a2 87be 2ada de3e e147 36be 0106 b0be
000001d0: 489f d83e 7754 93bf 5621 0fbf 306d 20bf
000001e0: cbf2 21bd befe eabd 2c96 a9be a9b8 8ebe
000001f0: c9a6 abbd a7c5 76bf 6373 97be 611d d43e
00000200: 64b3 2d3e 21c7 b6be 0446 c03e 52bb 253e
00000210: 4b64 04bd 3f2c c83e d68f a4be 8de3 b33e
00000220: 015b 78be 3371 dfbe a2d7 e03e 830d eebd
00000230: 2e8a edbe 0a5d 923f 4613 80bd 82e5 14be

autoencoder.encoder.0.bias f4 [16]
0.020557353 -0.041095983 0.5409026 -0.1901028 -0.28284243 -0.16513412 0.71404034 0.9143059
-0.25708723 0.013494055 -0.30007073 1.0333239 -0.02790277 0.42376313 -0.29935881 0.33272994
00000000: e567 a83c 4354 28bd 9878 0a3f 4faa 42be
00000010: b9d0 90be eb18 29be 59cb 363f f40f 6a3f
00000020: f0a0 83be 2b16 5d3c dfa2 99be f543 843f
00000030: 5a94 e4bc 7bf7 d83e 8f45 99be 945b aa3e

autoencoder.encoder.3.weight f4 [8, 16, 3, 3]
0.03369047 0.023231886 0.09519091 0.09005948 -0.06840304 0.17154633 0.10336608 0.037986424
0.34101632 0.10849646 -0.072593346 -0.1066991 0.18169771 0.030949045 -0.19666427 0.004915133
0.0022148818 0.052217238 0.117941745 0.017294083 -0.016131865 0.25952518 0.15028477 -0.11233759
0.14686479 -0.07772167 0.21100518 -0.19729823 -0.13794272 0.018951409 -0.17871629 -0.056922942
0.0769341 -0.19424523 -0.13101476 -0.048099414 -0.11755242 -0.10084873 -0.024638262 -0.050444517
-0.11391225 -0.12781927 0.0010865271 0.04655294 -0.0896277 0.099923104 -0.011338899 -0.13169275
0.11988351 0.004623999 -0.06895762 0.14662947 0.19569477 0.15089767 -0.11853023 -0.07575362
0.058133174 0.18667102 -0.42331997 -0.118303426 0.15941516 -0.09117176 -0.0062291417 -0.008823343
-0.13666297 0.14308949 0.12764974 -0.34901908 0.012285032 0.13286467 -0.0066584027 0.01917994
-0.03382199 -0.23702772 0.09930585 0.041574836 -0.08069207 0.22789721 0.04953427 -0.05464521
0.30274907 0.088807516 0.13218695 -0.107009456 -0.21680324 0.1054627 0.10205833 -0.13282982
0.047330767 0.35839653 -0.09137854 -0.1365108 -0.08630004 0.15551578 -0.22758608 0.27083367
0.2612126 0.00911995 0.19952796 0.15078622 0.25021508 0.11186518 0.15031284 -0.24400683
0.061139718 0.076481506 0.017951932 0.34605232 -0.039575353 -0.16997586 0.05518793 -0.07044167
0.086470604 0.17723459 -0.066655956 -0.20017383 0.12065888 -0.065464765 0.031338863 -0.3038273
-0.17676648 0.15456347 0.0034553315 -0.017658591 0.13130003 0.072072536 0.031082682 -0.25013962
-0.122411154 0.21642314 0.09211959 0.35573262 0.16073672 -0.0036078675 0.12113743 0.04740691
0.006785488 -0.08772277 0.18358994 0.1538554 -0.24684468 0.123340726 -0.06881363 -0.170027
0.04641739 0.046038076 0.12940405 0.10006415 0.1094524 0.15107332 0.16880594 0.012473673
-0.14453638 -0.143438 -0.055282112 -0.047999967 -0.11582303 0.14472473 0.0031637694 0.045698237
0.16464616 -0.0337699 0.14656006 0.087130055 0.08157408 -0.023646954 0.031044664 0.15411045
-0.51054806 -0.16651058 0.012289426 -0.00874826 -0.019279364 -0.10554118 -0.00027335083 0.11089582
-0.13045241 0.27928272 -0.22194646 0.31377253 0.13832052 0.25340518 0.02839803 -0.057740416
0.03992912 -0.15290432 -0.21539529 -0.3238892 -0.039001003 0.07455611 0.117772736 0.17127882
0.057553295 -0.16127785 -0.05566848 -0.20224234 0.2603932 -0.18705152 0.14408349 0.041115608
0.026533699 -0.20275572 -0.025604326 0.012798969 -0.54651517 -0.34305596 -0.21561298 -0.0077458657
0.0912392 0.13707499 -0.10027702 -0.026171265 -0.02479282 -0.17198396 -0.27033833 0.0072194147
-0.13720253 0.06728577 0.05766302 0.08230769 0.052534666 0.04345644 0.2087382 0.10301944
0.22529559 0.009980632 -0.06322443 0.1870681 0.026891945 0.039062977 -0.20112215 0.45400864
-0.04283078 0.047319144 0.025412794 0.08280751 0.111302525 0.033883274 0.077174716 0.25124717
0.51063156 0.2964632 -0.2252597 -0.073644884 -0.09659298 0.18075663 -0.07483832 -0.096899316
0.07274302 0.008485189 0.44823563 -0.25345036 0.028788798 -0.0528336 0.012028713 0.03808009
00000000: 05ff 093d cc50 be3c 74f3 c23d 1b71 b83d
00000010: e516 8cbd d7a9 2f3e 98b1 d33d a797 1b3d
00000020: b199 ae3e 6433 de3d d2ab 94bd 0f85 dabd
00000030: f70e 3a3e da88 fd3c 5c62 49be 200f a13b
00000040: 8d27 113b bee1 553d 718b f13d 52ac 8d3c
00000050: f926 84bc 7ce0 843e 40e4 193e 4011 e6bd
00000060: b963 163e 8a2c 9fbd be11 583e 8c08 4abe
00000070: db40 0dbe fc3f 9b3c 6701 37be 0828 69bd
00000080: a08f 9d3d 39e8 46be bc28 06be e403 45bd
00000090: 53bf f0bd c789 cebd 2ed6 c9bc e99e 4ebd
000000a0: d34a e9bd 0ee3 02be cd69 8e3a 4cae 3e3d
000000b0: ba8e b7bd 7ca4 cc3d cac6 39bc 77da 06be
000000c0: 7c85 f53d ea84 973b a739 8dbd 0926 163e
000000d0: 3664 483e eb84 1a3e fabf f2bd b724 9bbd
000000e0: 0d1d 6e3d b026 3f3e 65bd d8be 1149 f2bd
000000f0: ba3d 233e 42b8 babd d41d ccbb c88f 10bc
00000100: 61f1 0bbe 0d86 123e 9db6 023e a1b2 b2be
00000110: 2947 493c ad0d 083e bb2e dabb 401f 9d3c
00000120: ed88 0abd 65b7 72be de60 cb3d 604a 2a3d
00000130: e241 a5bd e35d 693e 72e4 4a3d a8d3 5fbd
00000140: ed01 9b3e b7e0 b53d 045c 073e c627 dbbd
00000150: ab01 5ebe d4fc d73d f503 d13d 8a04 08be
00000160: e8dd 413d c07f b73e ac24 bbbd 7dc9 0bbe
00000170: 13be b0bd 873f 1f3e 530c 69be b6aa 8a3e
00000180: a8bd 853e d86b 153c 0f51 4c3e b467 1a3e
00000190: 311c 803e 9219 e53d 9ceb 193e eddc 79be
000001a0: a46d 7a3d 56a2 9c3d ee0f 933c c52d b13e
000001b0: c419 22bd 270e 2ebe bd0c 623d b943 90bd
000001c0: 8017 b13d fc7c 353e eb82 88bd 5efa 4cbe
000001d0: 011c f73d 6412 86bd 2e5d 003d 408f 9bbe
000001e0: 4602 35be e345 1e3e d872 623b c0a8 90bc
000001f0: 8473 063e c49a 933d 1ca1 fe3c 4d12 80be
00000200: b3b2 fabd 079e 5d3e 32a9 bc3d 9622 b63e
00000210: 2b98 243e f971 6cbb e716 f83d c02d 423d
00000220: cd58 de3b ffa7 b3bd 00ff 3b3e 458c 1d3e
00000230: dac4 7cbe 109a fc3d 29ee 8cbd 8f1b 2ebe
00000240: 2920 3e3d 6c92 3c3d 7f82 043e 6fee cc3d
00000250: 9428 e03d f7b2 1a3e 77db 2c3e 605e 4c3c
00000260: 5801 14be 69e1 12be 7f6f 62bd 9d9b 44bd
00000270: a034 edbd b832 143e 3e57 4f3b 132e 3b3d
00000280: 0199 283e 4f52 0abd d713 163e 3e71 b23d
00000290: 5010 a73d 42b7 c1bc 6151 fe3c 21cf 1d3e
000002a0: 47b3 02bf c081 2abe 9759 493c dd54 0fbc
000002b0: c2ef 9dbc f925 d8bd 8750 8fb9 591d e33d
000002c0: 5195 05be 25fe 8e3e ef45 63be cba6 a03e
000002d0: e5a3 0d3e 53be 813e fca2 e83c 3781 6cbd
000002e0: b88c 233d f392 1cbe 9590 5cbe ced4 a5be
000002f0: 84bf 1fbd e0b0 983d d532 f13d b763 2f3e
00000300: 01bd 6b3d 0526 25be a204 64bd 9e18 4fbe
00000310: 4252 853e 6f8a 3fbe 9f8a 133e d768 283d
00000320: 335d d93c 329f 4fbe 2ac0 d1bc c4b2 513c
00000330: 6be8 0bbf 08a5 afbe a6c9 5cbe 08d1 fdbb
00000340: 9edb ba3d 635d 0c3e 0a5e cdbd 1f65 d6bc
00000350: 501a cbbc 901c 30be c969 8abe d790 ec3b
00000360: d27e 0cbe 1fcd 893d 0f30 6c3d ef90 a83d
00000370: 972e 573d 61ff 313d 77bf 553e dbfb d23d
00000380: e3b3 663e ce85 233c cf7b 81bd c88e 3f3e
00000390: 7f4c dc3c 8000 203d f7f2 4dbe d273 e83e
000003a0: 546f 2fbd b8d1 413d 7e2e d03c fc96 a93d
000003b0: 94f2 e33d 30c9 0a3d c70d 9e3d 78a3 803e
000003c0: c0b8 023f 06ca 973e 7baa 66be 21d3 96bd
000003d0: 8ad2 c5bd 4418 393e d544 99bd 2673 c6bd
000003e0: 4bfa 943d 7605 0b3c 247f e53e 3fc4 81be
000003f0: 7cd6 eb3c 0c68 58bd 1414 453c def9 1b3d

autoencoder.encoder.3.bias f4 [8]
-0.20000987 -0.05155933 -0.16737863 -0.23026708 0.06098204 0.061025277 -0.09903272 0.08100881
00000000: 63cf 4cbe e02f 53bd 4e65 2bbe 22cb 6bbe
00000010: 4ec8 793d a4f5 793d abd1 cabd f2e7 a53d

autoencoder.encoder.6.weight f4 [2, 8, 2, 2]
0.3367633 0.092081346 -0.16128181 0.3589629 -0.25735104 0.09376083 -0.04546444 -1.1318356
0.12071884 0.2441131 0.3538584 0.4157265 -0.34284446 -0.24516547 -0.34434503 -0.23071845
0.1884142 0.3451366 0.7371308 -0.5951993 0.9395912 0.86070937 0.16180484 -0.100545965
-0.07739344 -0.0830745 -1.0365872 -0.9447176 0.36125422 0.7620663 -0.854648 -0.68010867
-0.2820282 -0.44105086 -0.5679794 -0.824563 -0.5287644 0.6732616 0.3785128 0.18377386
-0.35302168 -0.22203821 -0.20775358 -0.15540422 -0.33583072 -0.15359738 -0.43659973 -0.38151404
0.62619245 0.49994078 0.51027197 -0.86680955 0.1865583 0.019964192 0.30282226 0.35013944
0.26769367 0.06266615 -0.380659 -0.36186084 -0.18327412 -0.34894812 0.43538794 0.16005634
00000000: 3d6c ac3e 2595 bc3d 0f27 25be fcc9 b73e
00000010: 84c3 83be ae05 c03d ec38 3abd fddf 90bf
00000020: 703b f73d c9f8 793e ee2c b53e 1bda d43e
00000030: 4f89 afbe a80c 7bbe fe4d b0be 7541 6cbe
00000040: a7ef 403e bfb5 b03e 9bb4 3c3f fb5e 18bf
00000050: 0d89 703f 7357 5c3f 2bb0 253e 0beb cdbd
00000060: 7480 9ebd f722 aabd e4ae 84bf 03d9 71bf
00000070: 50f6 b83e c716 433f 36ca 5abf 9a1b 2ebf
00000080: 0066 90be 6bd1 e1be 1967 11bf 9016 53bf
00000090: 1b5d 07bf df5a 2c3f 6ecc c13e 372f 3c3e
000000a0: 42bf b4be fc5d 63be 5bbd 54be 4922 1fbe
000000b0: 01f2 abbe a248 1dbe 008a dfbe cf55 c3be
000000c0: 264e 203f 3df8 ff3e 2fa1 023f 3be7 5dbf
000000d0: 2409 3f3e f28b a33c 850b 9b3e 7a45 b33e
000000e0: 250f 893e 1c57 803d bde5 c2be d345 b9be
000000f0: 36ac 3bbe 54a9 b2be 2beb de3e cfe5 233e

autoencoder.encoder.6.bias f4 [2]
-0.051526457 0.26330099
00000000: 680d 53bd 63cf 863e

autoencoder.decoder.0.weight f4 [2, 8, 2, 2]
0.09199211 0.6563793 -1.7364451 -0.0870391 -0.54596615 0.12120903 0.41999194 1.9068483
0.12389954 1.1006504 0.6732517 0.5801936 -0.25146773 -0.8877947 0.38434574 0.12818336
-0.21299301 0.18062139 -0.5944992 -0.3350305 -0.81485516 -0.9034719 -0.30000687 -0.078813344
0.14135346 0.25302148 0.7701962 0.048573904 0.20277531 0.19190572 -0.8035381 0.89184946
-0.28406197 0.33492535 0.33910906 0.6320262 -0.80861664 -0.023911586 -0.13862057 0.4969802
-0.41703677 0.102896124 -0.21646355 -0.6090851 -0.1468394 -0.015608141 0.024163311 -0.17168346
-0.070382096 -0.98024744 0.46563187 0.23624809 -0.4895492 -0.106456034 0.48339853 -0.39753827
-0.064738974 0.7075938 -0.4219366 0.49001157 0.2540974 -0.055084985 0.01154541 0.22757854
00000000: 5c66 bc3d 7908 283f d543 debf 8e41 b2bd
00000010: 70c4 0bbf 713c f83d 2f09 d73e 9b13 f43f
00000020: 0bbf fd3d 1de2 8c3f 395a 2c3f 9187 143f
00000030: 61c0 80be 8346 63bf f7c8 c43e 8042 033e
00000040: d71a 5abe d0f4 383e 1931 18bf 1e89 abbe
00000050: 599a 50bf ef49 67bf 809a 99be e468 a1bd
00000060: f6be 103e 088c 813e 942b 453f 6ef5 463d
00000070: 55a4 4f3e ef82 443e acb4 4dbf 3f50 643f
00000080: 9270 91be 567b ab3e b49f ad3e 78cc 213f
00000090: 8001 4fbf 3be2 c3bc 8df2 0dbe 3074 fe3e
000000a0: d885 d5be 34bb d23d 9fa8 5dbe 00ed 1bbf
000000b0: 115d 16be 4ab9 7fbc 23f2 c53c cacd 2fbe
000000c0: 7d24 90bd 7ff1 7abf 4d67 ee3e 05eb 713e
000000d0: 31a6 fabe 9f05 dabd 0380 f73e 238a cbbe
000000e0: de95 84bd de24 353f 1308 d8be cce2 fa3e
000000f0: 0e19 823e cba0 61bd f628 3d3c 590a 693e

autoencoder.decoder.0.bias f4 [8]
0.23817486 -0.5368225 -1.593752 1.6179719 -0.4829965 -0.43612495 -0.7084454 1.2089036
00000000: 1ce4 733e 336d 09bf 1100 ccbf b419 cf3f
00000010: 514b f7be c54b dfbe ae5c 35bf 5abd 9a3f

autoencoder.decoder.2.weight f4 [8, 16, 3, 3]
0.18768935 -0.15787351 -0.09896026 -0.4008014 0.05178476 -0.009659929 -0.25367296 0.16867751
-0.17260769 -0.4785569 -0.021161627 -0.022528274 -0.09788169 0.24347411 0.3266933 0.19092701
-0.01876989 -0.42848194 -0.14486419 -0.3265976 -0.06201545 -0.5148899 -0.15065725 0.24036635
-0.06541025 -0.40123653 0.0050051548 -0.06981331 -0.035671607 0.19700783 -0.043290082 0.12071486
0.2332711 -0.023699246 0.009971626 -0.41052583 0.058393676 -0.03916678 -0.15154597 0.34198272
0.27323374 -0.04456765 0.11867156 -0.33328828 -0.52215254 -0.08551047 -0.08630286 -0.16133365
-0.1785273 0.24940468 -0.12809375 -0.0208985 -0.03226593 -0.13557005 -0.076982014 -0.2902369
0.17616287 0.04766696 -0.00434222 -0.41100007 -0.042968057 0.02032996 -0.26511332 -0.1618545
-0.20125435 -0.089293994 -0.43129316 -0.031312607 0.39952958 -0.22749817 0.12878859 -0.029564323
-0.22933526 0.18072057 -0.100777514 -0.31186846 0.19391522 -0.05740948 -0.12635851 0.18051295
-0.14267944 -0.18047117 0.052573435 -0.07956664 -0.75177383 -0.22605899 -0.010680899 -0.15449198
-0.0653604 0.06269775 -0.11784181 -0.16004376 -0.082981005 -0.21675526 0.12656495 0.07706824
-0.026599063 -0.18480746 0.014602519 -0.0019680772 -0.30925864 -0.25282356 -0.5066461 -0.07564964
0.013284678 -0.13731301 0.21114643 -0.037034363 -0.14182897 0.20114098 0.14978044 -0.294849
0.08892118 0.070347056 -0.04406998 0.057920687 -0.028548937 -0.29653373 -0.056633364 0.021433266
-0.0027931689 0.19881213 0.24580836 0.018410316 0.4287517 -0.27866682 0.044879265 -0.09915281
-0.17389916 -0.39970472 -0.31430885 -0.23009568 0.046111505 -0.08719237 0.12759648 -0.107313365
-0.13765886 0.03600763 0.014448147 0.47330314 -0.1481629 -0.09312489 0.008554754 -0.004705552
-0.2876244 0.17955722 0.060271546 -0.05519168 0.21380563 0.08301434 -0.55465496 0.094538145
-0.066876814 -0.049325038 -0.087030105 0.22246428 -0.2999786 0.10594566 -0.23807672 -0.78177774
0.06791478 -0.18234128 -0.041364145 0.041472103 -0.12479144 -0.10795916 -0.10696019 0.14671493
-0.14937004 0.070509546 -0.16292542 0.2363243 -0.11727752 0.05444369 -0.13758816 -0.5247359
-0.00090257317 -0.013449122 0.05868866 -0.42355627 -0.07857997 -0.12577917 0.14521044 -0.21248817
0.120898195 0.24873872 -0.051526144 0.249338 0.1530165 -0.08727106 -0.15523969 -0.026946083
-0.26388842 -0.3170919 -0.21759142 -0.54079044 0.053908493 -0.06294948 0.011011954 0.12354071
-0.019264476 -0.1325033 -0.39383528 -0.47237402 0.0019137854 -0.10720213 -0.09778956 -0.23503862
0.13589633 0.09618605 0.9043499 0.09549799 0.11079961 -0.18152596 0.2565238 -0.071412295
-0.13133264 -0.122480005 0.18437658 -0.5397415 -0.30169222 -0.117004335 -0.27891037 0.090304606
-0.0015010709 -0.09938427 -0.19952159 -0.02822408 0.124742314 -0.33002514 0.43553013 -0.19457056
0.11422119 0.01582992 -0.02888378 0.068006314 -0.11424252 0.1389356 -0.26641086 -0.39240804
-0.16205639 0.12047038 0.17410287 0.045885116 -0.18326195 0.0610143 0.0004292429 -0.51387215
-0.48624128 -0.33600342 0.2827027 -0.2169578 0.078436635 -0.18554488 -0.18480815 -0.2886245
00000000: a331 403e 98a9 21be adab cabd d735 cdbe
00000010: 421c 543d ae44 1ebc 6ce1 81be ccb9 2c3e
00000020: 12c0 30be 6905 f5be 265b adbc 378d b8bc
00000030: 3276 c8bd 4751 793e 5844 a73e 5f82 433e
00000040: 50c3 99bc fc61 dbbe 4757 14be cd37 a7be
00000050: ea03 7ebd d3cf 03bf e545 1abe 9922 763e
00000060: cff5 85bd e06e cdbe 4802 a43b 48fa 8ebd
00000070: 641c 12bd 6cbc 493e f150 31bd 5a39 f73d
00000080: 9fde 6e3e ec24 c2bc 0860 233c 7130 d2be
00000090: 352e 6f3d 586d 20bd de2e 1bbe 5c18 af3e
000000a0: 4be5 8b3e 918c 36bd 130a f33d c3a4 aabe
000000b0: caab 05bf 1d20 afbd 8ebf b0bd a634 25be
000000c0: dccf 36be f163 7f3e 022b 03be 5533 abbc
000000d0: 4829 04bd e0d2 0abe bfa8 9dbd ee99 94be
000000e0: 0a64 343e 6e3e 433d 2e49 8ebb 9a6e d2be
000000f0: 46ff 2fbd 048b a63c efbc 87be 30bd 25be
00000100: 9f15 4ebe c5df b6bd 75d2 dcbe a641 00bd
00000110: 248f cc3e 48f5 68be 28e1 033e e130 f2bc
00000120: ddd6 6abe d00e 393e 7164 cebd 39ad 9fbe
00000130: b691 463e 3426 6bbd 2064 01be 63d8 383e
00000140: 8f1a 12be 6fcd 38be 3e57 573d d6f3 a2bd
00000150: 4074 40bf 027c 67be f0fe 2ebc 2533 1ebe
00000160: acdb 85bd ae67 803d 0c57 f1bd 83e2 23be
00000170: f2f1 a9bd 17f5 5dbe 3e9a 013e f4d5 9d3d
00000180: 47e6 d9bc 2b3e 3dbe 673f 6f3c dbfa 00bb
00000190: 2657 9ebe 1772 81be 8fb3 01bf 33ee 9abd
000001a0: faa7 593c c89b 0cbe c536 583e 58b1 17bd
000001b0: 9d3b 11be e7f7 4d3e 0b60 193e 73f6 96be
000001c0: 4f1c b63d 1e12 903d b982 34bd 3e3e 6d3d
000001d0: 76df e9bc 45d3 97be 63f8 67bd d194 af3c
000001e0: 990d 37bb 6895 4b3e 30b5 7b3e 3bd1 963c
000001f0: 5885 db3e 6bad 8ebe 52d3 373d a110 cbbd
00000200: 9f12 32be 19a6 ccbe 17ed a0be 349e 6bbe
00000210: 6bdf 3c3d ea91 b2bd a7a8 023e 1cc7 dbbd
00000220: 72f6 0cbe bd7c 133d ecb7 6c3c ca54 f23e
00000230: 04b8 17be 43b8 bebd 3d29 0c3c 0831 9abb
00000240: 8143 93be d9dd 373e 4cdf 763d ac10 62bd
00000250: ddef 5a3e 6c03 aa3d defd 0dbf 379d c13d
00000260: b6f6 88bd 0d09 4abd d73c b2bd adcd 633e
00000270: cc96 99be 0afa d83d 62ca 73be 9622 48bf
00000280: e716 8b3d acb7 3abe 736d 29bd a7de 293d
00000290: a892 ffbd b119 ddbd f20d dbbd 703c 163e
000002a0: 76f4 18be 4f67 903d ecd5 26be fffe 713e
000002b0: 322f f0bd 5900 5f3d e9e3 0cbe 1855 06bf
000002c0: a99a 6cba b559 5cbc 8563 703d 5edc d8be
000002d0: 89ee a0bd 41cc 00be 0cb2 143e 8096 59be
000002e0: 7999 f73d 5db5 7e3e 140d 53bd 7652 7f3e
000002f0: 5bb0 1c3e 2bbb b2bd 27f7 1ebe 08be dcbc
00000300: 621c 87be df59 a2be 49d0 5ebe 3e71 0abf
00000310: 27cf 5c3d a8eb 80bd 7c6b 343c e902 fd3d
00000320: 89d0 9dbc f2ae 07be c7a4 c9be 02db f1be
00000330: fbd7 fa3a ca8c dbbd e545 c8bd f7ad 70be
00000340: 6828 0b3e 31fd c43d 7a83 673f 7394 c33d
00000350: e8ea e23d f1e1 39be 1657 833e 9c40 92bd
00000360: 107c 06be ccd6 fabd 37cd 3c3e 802c 0abf
00000370: 6777 9abe f89f efbd 57cd 8ebe 9ff1 b83d
00000380: 95bf c4ba fb89 cbbd 634f 4cbe 3036 e7bc
00000390: e678 ff3d 0ef9 a8be cefd de3e 813d 47be
000003a0: cdec e93d c0ad 813c ad9d ecbc e546 8b3d
000003b0: fbf7 e9bd 2245 0e3e 0167 88be b5e9 c8be
000003c0: 1cf2 25be 2db9 f63d 0648 323e 08f2 3b3d
000003d0: 05a9 3bbe 21ea 793d 020c e139 208d 03bf
000003e0: 9ef4 f8be a408 acbe 69be 903e 2f2a 5ebe
000003f0: 63a3 a03d 7aff 3dbe 593e 3dbe 97c6 93be

autoencoder.decoder.2.bias f4 [16]
0.12337565 0.36506006 0.10304854 -0.6437879 1.3054122 -0.05889656 -1.2592348 0.28245646
0.09061428 -0.46937156 -0.14597392 -0.9414491 -0.53356814 -1.1061777 0.28951064 -0.1830583
00000000: 5fac fc3d 27e9 ba3e 1d0b d33d 49cf 24bf
00000010: bf17 a73f 853d 71bd 9b2e a1bf 229e 903e
00000020: fb93 b93d 7851 f0be 307a 15be cf02 71bf
00000030: ec97 08bf 3b97 8dbf bd3a 943e a373 3bbe

autoencoder.decoder.4.weight f4 [16, 8, 5, 5]
-0.010592825 0.058180712 -0.07687764 -0.04650354 -0.09096685 0.05207958 0.021602746 0.12779722
0.068383746 0.05201047 0.044802416 -0.105901934 -0.10080869 0.098128624 -0.027839812 -0.118727125
-0.09284638 0.008964631 0.199988 0.0037533229 -0.009533408 0.015266112 -0.059216578 -0.009205988
0.0972479 0.09555428 0.16436699 -0.14120145 -0.2378028 0.028123507 0.1654163 0.13378637
-0.33619368 0.016789932 0.07802522 0.35840324 0.11223291 -0.2695571 0.21254149 0.19083665
-0.05149076 -0.12958373 -0.33571306 -0.10778185 0.010063899 -0.17926756 -0.31533816 -0.37104297
0.028552586 -0.07430423 0.095275514 -0.08781858 0.06471051 -0.08387519 -0.08271598 0.0071779303
0.021692004 0.13829917 0.0016907868 -0.068907775 0.04828908 -0.08736374 -0.076303646 -0.10936836
0.04160981 -0.11620306 -0.04926561 -0.13910636 -0.03828495 0.080380745 0.024005715 -0.039156795
-0.18397461 -0.058408275 -0.079181045 0.16130234 0.0007771259 -0.28264263 0.102005094 0.111551344
0.13118677 -0.24091464 -0.07281903 0.17669031 0.35552925 -0.12977217 -0.14852203 -0.107696235
0.16186537 0.08412068 -0.21943009 -0.248935 0.13546886 -0.058222998 -0.11730468 -0.3528955
-0.15714851 0.29087436 -0.051768202 -0.11977605 -0.019309243 -0.026716119 0.10828434 0.056845125
-0.16575558 -0.1172386 -0.039428044 0.13474132 -0.054066602 -0.057066005 -0.022798853 0.109320685
0.21179421 -0.16988297 -0.13767968 0.11374268 -0.034714554 0.029855514 -0.076838836 0.013476352
-0.0015667052 0.009773605 -0.09381352 -0.08535161 0.0076726554 -0.0045485427 0.17140932 0.06007268
0.12584862 -0.14228632 0.045757093 0.023152474 0.4133744 -0.02647549 0.26473686 0.02182173
-0.038978823 0.033609625 0.05643575 -0.04075071 0.046446506 -0.2507704 0.05849782 -0.07405726
0.017328352 0.0933232 0.019377567 0.18190631 0.023337651 0.19857961 0.06601732 0.02925668
0.043619845 -0.11844281 -0.05887175 -0.011394132 -0.10099062 -0.015261267 -0.13676515 0.08927668
0.030263191 -0.09328619 -0.06377238 0.048390124 0.155193 -0.044860642 -0.0772304 -0.018590908
0.0029895692 -0.022464423 -0.113214016 -0.21963808 -0.054457262 0.044711147 -0.008850176 0.015321378
-0.077670924 0.04135742 -0.23100835 -0.031361338 0.06307029 0.044448733 0.14559554 -0.13499352
0.14563817 0.012293059 -0.06851109 -0.17615534 -0.021202497 0.108644724 -0.14133239 -0.10693349
-0.20338243 0.26372397 -0.074859664 -0.08605515 -0.1330989 -0.12174469 0.06731475 0.08798007
0.10587365 -0.026673513 -0.28135642 0.33552355 0.1241261 0.036888797 -0.11440486 -0.053350486
0.18937261 0.08894047 0.09843884 -0.026741328 -0.06006328 0.06267721 0.0969558 0.043134045
0.17784247 -0.06609159 -0.17752686 -0.12735799 0.24501891 0.001503652 -0.22261581 -0.17377372
-0.03326663 -0.2055966 -0.127415 -0.14669608 -0.25154334 -0.2299948 -0.24197085 -0.20566449
-0.016375363 -0.15503617 -0.07915568 -0.13607307 -0.13788122 0.099668026 -0.17599179 0.0044886386
-0.056291826 -0.17330585 -0.039662115 -0.110861294 -0.052774128 0.019678926 -0.11239199 0.10246067
0.15771988 -0.12923239 -0.022362245 -0.18396193 -0.013783226 -0.15731296 -0.041511063 0.07354573
00000000: 878d 2dbc e64e 6e3d 0672 9dbd 7f7a 3ebd
00000010: d44c babd 6651 553d 3ef8 b03c 46dd 023e
00000020: c70c 8c3d ee08 553d bd82 373d 1de3 d8bd
00000030: c974 cebd a9f7 c83d 5110 e4bc 3527 f3bd
00000040: 3e26 bebd 63e0 123c a7c9 4c3e 4ffa 753b
00000050: 0332 1cbc b71e 7a3c 158d 72bd b6d4 16bc
00000060: e829 c73d f6b1 c33d d24f 283e 1d97 10be
00000070: 9482 73be 4563 e63c e462 293e 4bff 083e
00000080: 9421 acbe 0a8b 893c b0cb 9f3d a180 b73e
00000090: 5eda e53d 6303 8abe 7aa4 593e af6a 433e
000000a0: fae7 52bd 99b1 04be 95e2 abbe bbbc dcbd
000000b0: 0de3 243c ea91 37be 0174 a1be 58f9 bdbe
000000c0: 1de7 e93c d12c 98bd cf1f c33d 3ada b3bd
000000d0: f286 843d c1c6 abbd ff66 a9bd d834 eb3b
000000e0: 6eb3 b13c 4c9e 0d3e 649d dd3a 851f 8dbd
000000f0: c5ca 453d c3eb b2bd 1645 9cbd 85fc dfbd
00000100: 0c6f 2a3d dffb edbd bcca 49bd e671 0ebe
00000110: aed0 1cbd a99e a43d a2a7 c43c e062 20bd
00000120: d763 3cbe 843d 6fbd ac29 a2bd 712c 253e
00000130: 09b8 4b3a 89b6 90be 0ce8 d03d 0875 e43d
00000140: d355 063e 54b2 76be 2522 95bd 4eee 343e
00000150: ee07 b63e ffe2 04be 2916 18be d88f dcbd
00000160: 09c0 253e 7747 ac3d 48b2 60be d1e8 7ebe
00000170: 59b8 0a3e 3d7b 6ebd 703d f0bd b8ae b4be
00000180: 8aeb 20be 7ced 943e e50a 54bd 254d f5bd
00000190: 6b2e 9ebc c3db dabc 2ec4 dd3d 6fd6 683d
000001a0: d5bb 29be cb1a f0bd 4d7f 21bd a1f9 093e
000001b0: f174 5dbd 0bbe 69bd a9c4 babc 86e3 df3d
000001c0: 95e0 583e cdf5 2dbe e7fb 0cbe ecf1 e83d
000001d0: d930 0ebd 8d93 f43c ae5d 9dbd ebcb 5c3c
000001e0: e759 cdba 7821 203c 4e21 c0bd d3cc aebd
000001f0: e66a fb3b f10b 95bb ed85 2f3e c50e 763d
00000200: 76de 003e 81b3 11be ca6b 3b3d 42aa bd3c
00000210: cfa5 d33e 20e3 d8bc 978b 873e 7cc3 b23c
00000220: 42a8 1fbd 3faa 093d 2c29 673d 37ea 26bd
00000230: b13e 3e3d fa64 80be 699b 6f3d 55ab 97bd
00000240: 30f4 8d3c 3c20 bf3d b4bd 9e3c a645 3a3e
00000250: 9a2e bf3c 7458 4b3e 1734 873d b4ab ef3c
00000260: b9aa 323d 2592 f2bd 8123 71bd 74ae 3abc
00000270: 2cd4 cebd 650a 7abc 2a0c 0cbe b1d6 b63d
00000280: 83ea f73c d40c bfbd 189b 82bd b934 463d
00000290: eaea 1e3e cbbf 37bd f92a 9ebd f64b 98bc
000002a0: a6ec 433b 4f07 b8bc c0dc e7bd cee8 60be
000002b0: 940e 5fbd 0923 373d 5400 11bc 8406 7b3c
000002c0: ef11 9fbd 6666 293d 748d 6cbe bf74 00bd
000002d0: ff2a 813d e00f 363d ff16 153e be3b 0abe
000002e0: 2c22 153e d468 493c 8b4f 8cbd 1162 34be
000002f0: dcb0 adbc 2081 de3d 70b9 10be f2ff dabd
00000300: 7c43 50be d406 873e 0650 99bd af3d b0bd
00000310: 144b 08be 4855 f9bd 51dc 893d e52e b43d
00000320: 49d4 d83d 6982 dabc f30d 90be bec9 ab3e
00000330: d335 fe3d b518 173d 184d eabd 0a86 5abd
00000340: e5ea 413e 6c26 b63d 4d9a c93d a110 dbbc
00000350: ea04 76bd e95c 803d c390 c63d 53ad 303d
00000360: 561c 363e 075b 87bd 9ac9 35be 226a 02be
00000370: 3de6 7a3e 3016 c53a 66f5 63be bdf1 31be
00000380: 9742 08bd ea87 52be 1479 02be 7f37 16be
00000390: 4aca 80be c283 6bbe 35c7 77be b699 52be
000003a0: a025 86bc cdc1 1ebe 601c a2bd bd56 0bbe
000003b0: bc30 0dbe c01e cc3d 3137 34be 6e15 933b
000003c0: 4292 66bd 1777 31be be74 22bd 3f0b e3bd
000003d0: af29 58bd b335 a13c c62d e6bd e6d6 d13d
000003e0: 5281 213e 7f55 04be 0731 b7bc 8460 3cbe
000003f0: 0ad3 61bc a616 21be 8107 2abd 259f 963d

autoencoder.decoder.4.bias f4 [8]
-0.37554854 -0.79365087 -0.57529145 -0.60225683 0.17408341 -1.0007246 -0.63980937 -0.67494154
00000000: e647 c0be b42c 4bbf 4d46 13bf 812d 1abf
00000010: ec42 323e be17 80bf 8cca 23bf f8c8 2cbf

autoencoder.decoder.6.weight f4 [8, 1, 2, 2]
0.2683107 0.43986306 0.28370854 0.4440144 0.7191632 0.478858 0.6421601 0.3778029
-0.38620463 0.09231548 -0.063198544 0.4327393 0.21293315 0.6055442 0.5424837 0.9156763
0.29676798 0.27228254 0.2721093 0.23370697 -0.78600466 -0.7376436 -0.7870926 -0.70971286
0.20347261 0.3257065 -0.31485423 -0.19165076 0.41968268 -0.4135698 0.38249108 -0.45877424
00000000: 0560 893e bb35 e13e 3f42 913e db55 e33e
00000010: 141b 383f e02c f53e 9b64 243f 626f c13e
00000020: 9dbc c5be e60f bd3d 3d6e 81bd 0190 dd3e
00000030: 260b 5a3e f204 1b3f 36e0 0a3f c369 6a3f
00000040: f9f1 973e 9e68 8b3e e951 8b3e e150 6f3e
00000050: 9a37 49bf 36d6 3cbf e77e 49bf beaf 35bf
00000060: 205b 503e 01c3 a63e 9334 a1be 1940 44be
00000070: a6e0 d63e 6cbf d3be dfd5 c33e 75e4 eabe
