save_config_2/5/model_state.pth (torch, 28347 bytes, 13 tensors)

autoencoder.encoder.0.weight f4 [16, 1, 3, 3]
0	0xbfaacc1b	-1.3343538
1	0xbeb49dab	-0.3527654
2	0x3d57428e	0.052553706
3	0xbe89e664	-0.26933587
4	0x3dbe954a	0.093058184
5	0xbe9aefa1	-0.30260947
6	0xbf89a7aa	-1.0754292
7	0xbde8334a	-0.113379076
8	0xbec1e850	-0.37872553
9	0xbadc93df	-0.0016828737
10	0xbf20d5a1	-0.6282597
11	0xbf39b0ca	-0.72535384
12	0x3ec678d6	0.38764066
13	0xbec5e7af	-0.38653323
14	0xbf3e46b4	-0.74326634
15	0x3f9cc166	1.224652
16	0x3f47160d	0.7776802
17	0x3dbb4f22	0.09145953
18	0xbe88a911	-0.26691487
19	0xbf0d67d3	-0.5523655
20	0xbeac2716	-0.3362357
21	0xbf054740	-0.52061844
22	0xbe70e60d	-0.23525257
23	0xbd58e1dd	-0.052949775
24	0x3f059c64	0.5219176
25	0x3eb402b1	0.35158303
26	0x3f5ccca7	0.86249775
27	0x3f13fc26	0.57806623
28	0xbe8fc0b9	-0.28076723
29	0xbdca1332	-0.098669425
30	0x3f463be7	0.77435154
31	0xbddc9223	-0.10770061
32	0x3e8b7021	0.27233985
33	0x3ededa9c	0.4352616
34	0xbed21585	-0.41032043
35	0xbe6debe4	-0.23234516
36	0x3f76863b	0.9629857
37	0x3e9aad71	0.3021045
38	0x3dfa4fa0	0.122222185
39	0xbd8b4267	-0.067997746
40	0xbe686b90	-0.22697282
41	0xbe8d3746	-0.27581233
42	0xbf13fb6a	-0.578055
43	0xbed92162	-0.42408282
44	0xbeb0654f	-0.34452292
45	0x3b4fcc4d	0.0031707466
46	0xbf22aac6	-0.6354183
47	0x3ed57acc	0.4169525
48	0x3e7894ec	0.24275559
49	0xbe019528	-0.12654555
50	0x3ed71c61	0.4201384
51	0xbe04ac72	-0.12956408
52	0x3def947e	0.116982445
53	0x3f50f948	0.81630373
54	0x3dd02b99	0.101645656
55	0x3f1c0ba8	0.60955286
56	0x3eae5782	0.34051138
57	0x3da540bf	0.0806899
58	0x3e55ba97	0.2087196
59	0xbeedb06c	-0.46423662
60	0x3e534b72	0.20634249
61	0x3e91232e	0.28347152
62	0xbe5041a7	-0.20337544
63	0xbe673267	-0.2257782
64	0xbe2f674b	-0.17129247
65	0x3f4ba1f0	0.7954397
66	0xbed8fa97	-0.42378685
67	0xbe0587a0	-0.13040018
68	0x3efc0655	0.4922358
69	0xbeceae32	-0.40367275
70	0xbeb39e41	-0.35081676
71	0x3e64e2dc	0.22352165
72	0x3e8fc5ba	0.2808054
73	0x3eee147b	0.465
74	0x3f02ef8a	0.5114676
75	0x3d071d14	0.032986715
76	0x3ba56920	0.0050479323
77	0x3ea5d62b	0.3238996
78	0xbd9a1155	-0.07522837
79	0xbec5d4ce	-0.3863892
80	0x3e08096c	0.13284844
81	0xbeed44b0	-0.46341467
82	0x3eb53d5e	0.35398382
83	0x3eece709	0.46270016
84	0xbe6829eb	-0.2267224
85	0x3eb011d6	0.34388608
86	0xbb38832a	-0.0028154352
87	0x3ecab72c	0.39592874
88	0x3f49ce20	0.78830147
89	0xbe4ff944	-0.20309931
90	0xbbe41c88	-0.006961409
91	0x3d8ef613	0.06980529
92	0xbd0492ba	-0.03236649
93	0xbc56152b	-0.01306657
94	0xbd178c81	-0.03699923
95	0xbd6372a1	-0.05552924
96	0x3ee2edb2	0.44321972
97	0x3db6f9bd	0.089343525
98	0xbd3edc0c	-0.04659657
99	0x3e959f6b	0.2922319
100	0x3e92df7c	0.2868613
101	0xbe4651bb	-0.19367115
102	0x3e18f226	0.14936122
103	0x3e3a7cc9	0.18211664
104	0x3d1e3283	0.03862239
105	0x3f34dd98	0.70650625
106	0x3eedc82c	0.46441782
107	0x3ee73aa1	0.45161918
108	0x3f090788	0.53527117
109	0x3e043d0f	0.12913917
110	0xbe29bd13	-0.16576032
111	0x3d8035b9	0.06260247
112	0xbecffea1	-0.40623954
113	0x3dd34bc3	0.10317185
114	0x3ea89c20	0.32931614
115	0xbe700499	-0.23439254
116	0x3f327e6c	0.69724154
117	0xbef6f8a2	-0.48236567
118	0xbf3dcefb	-0.7414395
119	0xbea3e058	-0.32007098
120	0xbd7f4511	-0.062321726
121	0x3c87d7a8	0.016582325
122	0xbe36f4c8	-0.17866814
123	0x3e50a2bd	0.2037458
124	0xbd762285	-0.060091514
125	0xbf12714d	-0.57204133
126	0x3ecff39e	0.40615553
127	0xbdac4cac	-0.084130615
128	0xbed4b8c5	-0.41547218
129	0x3f0f56a0	0.55991554
130	0xbe22c0ab	-0.1589381
131	0xbf022c70	-0.50849056
132	0x3f5d2039	0.8637729
133	0xbdee61ae	-0.11639725
134	0xbf1fb0cc	-0.62379146
135	0x3e5029e1	0.20328476
136	0x3e6fa297	0.23401867
137	0xbf0fd850	-0.5618944
138	0x3c2f26ee	0.010690434
139	0x3f069b98	0.5258117
140	0x3cc2cb43	0.023778563
141	0xbf036bd7	-0.51336426
142	0x3eeb137b	0.459133
143	0x3de5cfe8	0.112212956

autoencoder.encoder.0.bias f4 [16]
0	0x3eb8ad65	0.3606979
1	0xbdb49cb0	-0.08818948
2	0xbea4e394	-0.32204878
3	0xbd5fc463	-0.05463065
4	0x3e8c34a6	0.27383918
5	0x3e94eed8	0.29088473
6	0x3d5a4764	0.05329074
7	0xbdc52a4e	-0.096272096
8	0x3e6c6c8c	0.23088282
9	0xbf21d0f3	-0.63209456
10	0x3fc741e1	1.556698
11	0xbf3ca9a3	-0.73696345
12	0xbd22a25b	-0.039705615
13	0x3f02dff3	0.5112297
14	0xbd6e8ed6	-0.058241688
15	0x3f0cc922	0.54994404

autoencoder.encoder.3.weight f4 [8, 16, 3, 3]
0	0x3e832909	0.25617245
1	0x3e1e3286	0.1544896
2	0xbd723c2c	-0.059139416
3	0x3ddf392b	0.10899576
4	0xbdfde879	-0.12397856
5	0x3e91b375	0.28457227
6	0xbe3bd2cf	-0.18342136
7	0xbe6bb7b6	-0.23019299
8	0xbdb1334a	-0.08652361
9	0xbe884530	-0.26615286
10	0xbedc6533	-0.4304596
11	0xbc92870b	-0.01788666
12	0xbe5f23d8	-0.21791017
13	0x3e4481b8	0.19190109
14	0x3e67850a	0.22609344
15	0x3ee2a425	0.44265857
16	0x3f24a4f1	0.6431418
17	0xbd7645d3	-0.060125183
18	0xbd8a8985	-0.06764511
19	0xbc2ca32d	-0.010536951
20	0xbf058cae	-0.52167785
21	0x3c9bcc4a	0.019018311
22	0xbdeefabe	-0.11668919
23	0x3e25f2ff	0.16205977
24	0xbe5f6dc3	-0.21819215
25	0x3e8f003f	0.27929875
26	0x3eab285a	0.33429223
27	0xbe71814b	-0.23584478
28	0x3d895e2a	0.067074135
29	0xbe855063	-0.26037893
30	0xbdb52f64	-0.0884693
31	0x3e899d4b	0.26877818
32	0xbe0a2528	-0.13490736
33	0x3e46ea05	0.19425209
34	0xbc8ab0ec	-0.016930066
35	0x3eab4cf4	0.33457148
36	0x3e471f27	0.19445477
37	0x3e513563	0.20430522
38	0x3e85b5d2	0.2611528
39	0xbc0421ab	-0.008064668
40	0xbe82b05e	-0.25525182
41	0x3dce3548	0.10068756
42	0xbea61077	-0.32434437
43	0xbe6d373f	-0.23165606
44	0x3e847f7b	0.2587851
45	0xbd5a9fea	-0.053375162
46	0x3ea3cacc	0.3199066
47	0xbe59faef	-0.2128713
48	0x3d84d5f6	0.06486122
49	0xb9795173	-0.00023776833
50	0xbeb0364c	-0.34416425
51	0x3e01ad98	0.12663877
52	0x3dd8872c	0.10572657
53	0x3e45971e	0.19295928
54	0x3dc04163	0.093874715
55	0x3dd4983e	0.103806004
56	0xbcb5ff0c	-0.022216342
57	0xbe0640a7	-0.131106
58	0x3dd2adf8	0.10287088
59	0xbee42687	-0.44560644
60	0x3e2b9f20	0.1675992
61	0xbde79ba6	-0.113089845
62	0x3e6655c0	0.22493649
63	0x3dbddd73	0.09270754
64	0x3e36f02f	0.1786506
65	0xbc82e886	-0.015980016
66	0xbe8ca2db	-0.27468
67	0x3da6f80a	0.081527784
68	0x3dc6c8a2	0.097062364
69	0x3da0a42a	0.07843812
70	0xbebc504f	-0.3678002
71	0x3d7d9e00	0.06191826
72	0xbe742fd2	-0.23846367
73	0x3e0b2462	0.13588098
74	0x3d893b58	0.06700772
75	0xbebc75c6	-0.36808604
76	0x3de927dc	0.11384556
77	0xbd846305	-0.06464199
78	0x3dfabd56	0.12243144
79	0xbe2e585f	-0.17025898
80	0x3c24aed2	0.010051446
81	0xbd9017af	-0.07035767
82	0x3d000ec1	0.03126407
83	0xbeb5692b	-0.354318
84	0x3c2ffc99	0.010741376
85	0x3e155f97	0.14587246
86	0xbf059d66	-0.52193296
87	0x3e6b3fe0	0.22973585
88	0x3e7defc2	0.24798492
89	0x3e90e425	0.2829906
90	0x3e4595fe	0.19295499
91	0x3e4e2fbb	0.20135395
92	0x3c742bd9	0.014903032
93	0x3cdf1513	0.027231729
94	0x3e0ce933	0.13760833
95	0xbde5805d	-0.11206124
96	0x3e0bf315	0.13666947
97	0x3d801260	0.06253505
98	0xbdea4a51	-0.11439956
99	0xbccd9ec2	-0.025100116
100	0xbc1748d4	-0.009233672
101	0xbe8c63b4	-0.27419817
102	0xbdace349	-0.08441789
103	0x3ec21587	0.3790705
104	0xbe8d2e56	-0.27574414
105	0x3ea2405a	0.3168972
106	0x3ea58f02	0.3233567
107	0x3dc02313	0.0938169
108	0xbea3ee3b	-0.32017693
109	0x3da53aa7	0.08067828
110	0xbc14fa20	-0.009092838
111	0xbe2ed2af	-0.17072557
112	0x3e1f5241	0.15558721
113	0xbd85f741	-0.065413006
114	0x3eb52c0f	0.35385177
115	0x3e4fb772	0.20284823
116	0xbd91324c	-0.070896715
117	0x3e3bd4e9	0.18342938
118	0xbe81cee3	-0.25353155
119	0xbd9ab5ee	-0.075542316
120	0xb9ecfa42	-0.00045199884
121	0xbe4050c9	-0.18780817
122	0x3e6d06e4	0.2314716
123	0xbe9cfd63	-0.3066207
124	0xbe9241c4	-0.285658
125	0xbeb813a9	-0.359525
126	0x3ca847ef	0.020542113
127	0x3e5bb535	0.21455844
128	0xbc026a17	-0.007959864
129	0x3e387fc6	0.18017492
130	0x3e01c99d	0.12674566
131	0xbe9333dd	-0.28750506
132	0x3eeca3b5	0.4621865
133	0xbe40b968	-0.18820727
134	0xbd4bae90	-0.049727023
135	0xbe13cdc9	-0.1443397
136	0x3e4607b9	0.19338883
137	0x3e2d4bfc	0.16923517
138	0xbe3c4b84	-0.18388182
139	0x3e5017ce	0.20321581
140	0x3d3b7279	0.045763467
141	0x3e1a93d9	0.15095462
142	0x3e666102	0.22497943
143	0xbdf3a0b5	-0.11895887
144	0x3e943283	0.28944787
145	0xbeb06a5c	-0.34456146
146	0x3f23b22d	0.6394375
147	0x3da8dc58	0.08245152
148	0xbe37c97c	-0.17947954
149	0x3d835022	0.064117685
150	0xbe4cee78	-0.20012844
151	0x3dc23d34	0.0948433
152	0xbedce70a	-0.4314502
153	0xbf17b9a7	-0.5926766
154	0xbe9b4071	-0.30322602
155	0xbd9e35ef	-0.07725131
156	0xbe86cab6	-0.2632653
157	0x3d1886b6	0.037237845
158	0x3e6baf42	0.23016074
159	0x3eba1ba3	0.3634921
160	0xbc146d16	-0.009059211
161	0x3dccf759	0.10008115
162	0x3ecfe32e	0.40603012
163	0x3d8c0beb	0.06838211
164	0xba55b858	-0.00081527745
165	0xbd9ffa83	-0.07811453
166	0xbe98942d	-0.2980055
167	0x3cb13db7	0.021635873
168	0x3dc3d7cb	0.095626436
169	0xbe1367bf	-0.14395045
170	0x3e3e0a3f	0.18558596
171	0xbeb2699f	-0.34846207
172	0x3ed36f75	0.41295972
173	0x3d31846a	0.04333917
174	0xbc87c88f	-0.016575126
175	0xbd88dc8b	-0.0668269
176	0x3cfd9bb5	0.030958036
177	0x3d454199	0.048158262
178	0xbda483a3	-0.0803292
179	0xbd83b0ad	-0.064301826
180	0x3ec150d5	0.37756982
181	0x3dbf7070	0.093476176
182	0x3e40a58e	0.18813154
183	0xbdbbf136	-0.09176867
184	0x3d7439d7	0.059625473
185	0x3d28e046	0.04122951
186	0xbef46b36	-0.47738045
187	0xbd9f7726	-0.07786398
188	0xbe7a4808	-0.2444154
189	0x3de9b8c9	0.11412198
190	0x3e104d6c	0.14092034
191	0xbd1c47d4	-0.03815444
192	0x3eb6a5ef	0.35673472
193	0xbe6b3295	-0.22968514
194	0xbe314a12	-0.17313412
195	0xbe843bfe	-0.2582702
196	0xbe3789b9	-0.17923631
197	0x3cedf6c3	0.02904833
198	0xbe57805b	-0.21045057
199	0x3cef484d	0.02920928
200	0xbcc61a90	-0.024182588
201	0x3de49797	0.11161726
202	0xbe8b76a8	-0.27238965
203	0xbebd906d	-0.3702425
204	0xbcdc1f78	-0.026870474
205	0xbd40e3e1	-0.047092322
206	0xbd402669	-0.04691163
207	0xbe4b8b96	-0.19877467
208	0xbe15f868	-0.1464554
209	0x3da09703	0.07841303
210	0x3d6e97f4	0.058250383
211	0xbe09d7aa	-0.13461176
212	0xbda1d33e	-0.079016194
213	0xbdf72f37	-0.120695524
214	0x3dd311fb	0.10306164
215	0x3d8754a6	0.06607942
216	0x3d03201d	0.032013047
217	0xbe3e4eb1	-0.18584706
218	0x3d7e71ff	0.062120434
219	0xbd9bcc92	-0.07607378
220	0xbd3427e4	-0.043983355
221	0x3d7cf0fe	0.061753266
222	0xbe5a73f0	-0.21333289
223	0xbc5c79cb	-0.013456772
224	0xbcfb0645	-0.030642638
225	0x3e3c4ebe	0.18389413
226	0xbdf913bf	-0.121619694
227	0xbcf4c2e1	-0.029878082
228	0x3e1bf432	0.15229872
229	0x3d2099c7	0.039209154
230	0xbe405f84	-0.18786436
231	0x3e6cdb32	0.23130491
232	0xbe05d507	-0.13069545
233	0x3d8fafa0	0.0701592
234	0xbeaa9857	-0.3331935
235	0x3e7048b6	0.23465237
236	0xbd05d720	-0.032675862
237	0x3df36143	0.118837856
238	0xbe104050	-0.14087033
239	0x3b280bf0	0.002564188
240	0xbf2f30f7	-0.6843409
241	0xbd063c85	-0.03277256
242	0x3b3f5db2	0.0029200134
243	0x3dde843d	0.10865066
244	0x3cd419a9	0.025891142
245	0x3deae81a	0.11470051
246	0x3e82856f	0.25492427
247	0x3e28c00b	0.16479509
248	0x3d3ab55f	0.045583125
249	0x3ec691db	0.38783154
250	0xbdd38639	-0.10328335
251	0x3b731be3	0.003709548
252	0xbead3ee7	-0.33837053
253	0xbe838f5d	-0.25695315
254	0xbcfc20f1	-0.030777426
255	0xbd07d82d	-0.033165146

autoencoder.encoder.3.bias f4 [8]
0	0xbdbfbae0	-0.093618155
1	0xbd1c09da	-0.038095333
2	0xbe7ae332	-0.2450073
3	0x3e3013d4	0.17195064
4	0xbd408a9e	-0.047007196
5	0x3da2ee48	0.07955605
6	0xbc9f1bd0	-0.019422442
7	0xbd87b925	-0.066271104

autoencoder.encoder.6.weight f4 [2, 8, 2, 2]
0	0xbde130a4	-0.109956056
1	0xbe0be8f1	-0.13663079
2	0xbf81b195	-1.0132319
3	0xbf859973	-1.0437454
4	0x3ed2812d	0.41114178
5	0x3ee4754a	0.44620734
6	0xbfb8dcb9	-1.4442359
7	0xbf34818b	-0.70510167
8	0xbef5c001	-0.4799805
9	0x3f10ea16	0.56607187
10	0xbe0ea0f4	-0.13928586
11	0x3f402af7	0.7506556
12	0x3d3e94cb	0.04652862
13	0x3ea69056	0.32531995
14	0x3f9b02b0	1.2110195
15	0xbf0af411	-0.54278666
16	0xbeade034	-0.33960116
17	0xbe444043	-0.19165139
18	0x3e9a9986	0.30195254
19	0x3ed5ebe7	0.41781542
20	0x3db29712	0.087202206
21	0x3dd64513	0.104623936
22	0x3f98e3ca	1.1944516
23	0x3f7f3880	0.9969559
24	0x3c92f2ef	0.017938105
25	0xbdc56d03	-0.09639933
26	0x3e9371fa	0.28797895
27	0x3e950607	0.2910616
28	0xbe5cc41f	-0.2155919
29	0xbd145227	-0.03621116
30	0xbe1ddd3f	-0.1541643
31	0xbe2b2a1b	-0.1671528
32	0x3ea54e6f	0.32286403
33	0x3a9b33b9	0.0011840976
34	0x3cc520fd	0.024063582
35	0xbee0028f	-0.43751952
36	0x3f4a5f3b	0.7905156
37	0xbe02146f	-0.12703107
38	0xbed3e26d	-0.41383687
39	0x3ebfbf50	0.37450647
40	0xbe4be3ec	-0.19911164
41	0xbf374232	-0.7158538
42	0x3f2c38ed	0.6727436
43	0xbf9cd840	-1.2253494
44	0x3ec80df9	0.3907316
45	0x3f84bc03	1.0369877
46	0x3f858c34	1.0433412
47	0xbf4f76d2	-0.8104068
48	0xbead8321	-0.33889106
49	0xbec084fb	-0.37601456
50	0x3f382837	0.71936363
51	0x3f426361	0.7593289
52	0xbe306b7d	-0.17228504
53	0xbe5b362f	-0.21407388
54	0x3df5c432	0.12000312
55	0xbcedc565	-0.02902479
56	0xbf0d1d5a	-0.5512291
57	0xbf0a6e6e	-0.5407475
58	0xbee2a494	-0.44266188
59	0xbedf08a8	-0.43561292
60	0xbea6aece	-0.3255524
61	0xbe9fa2e6	-0.3117897
62	0xbe926feb	-0.28601012
63	0xbe944ff3	-0.28967246

autoencoder.encoder.6.bias f4 [2]
0	0x3ca3bf3e	0.019988652
1	0xbce02851	-0.027362974

autoencoder.decoder.0.weight f4 [2, 8, 2, 2]
0	0x3d199c3a	0.037502505
1	0x3f8cbfa1	1.099598
2	0xbf3eceaa	-0.74534094
3	0xbedd37cc	-0.43206632
4	0xbf36dd4c	-0.7143142
5	0x3f2a500c	0.6652839
6	0x3ed113f5	0.40835539
7	0x3cb518fe	0.022106644
8	0x3e223eeb	0.15844314
9	0x3eec5320	0.4615717
10	0xbe89324b	-0.26796183
11	0x3f73149e	0.94953334
12	0x3c1c1881	0.009527327
13	0xbeaf135a	-0.34194452
14	0xbea64714	-0.32476103
15	0xbef061bd	-0.46949568
16	0xbf1a449c	-0.6026094
17	0x3e4bdd14	0.19908553
18	0x3fbaf9c6	1.4607475
19	0x3e432be8	0.19059718
20	0xbde71113	-0.112825535
21	0x3e443c7f	0.19163702
22	0x3f397d74	0.7245705
23	0xbdfda5f7	-0.12385171
24	0x3cbcebb4	0.02306161
25	0xbd9457eb	-0.072433315
26	0x3f99b54c	1.2008452
27	0x3e59f17f	0.2128353
28	0xbddd8c96	-0.1081783
29	0x3afa0856	0.0019075971
30	0xbe96f3be	-0.29482836
31	0xbe8da2f2	-0.2766338
32	0x3d6111bf	0.054948565
33	0x3f335fae	0.7006787
34	0xbe364c60	-0.17802572
35	0x3f7ad7d8	0.979856
36	0x3f930ef4	1.1488938
37	0x3d995ed1	0.07488788
38	0x3eb72f35	0.35778204
39	0x3d5eb8b0	0.05437535
40	0x3f59ce15	0.8508008
41	0x3dad2b5c	0.08455536
42	0xbf1e04af	-0.61725897
43	0xbf1b836b	-0.607474
44	0x3f9928de	1.1965597
45	0x3f298d66	0.6623138
46	0xbf36cd1f	-0.7140674
47	0x3e886551	0.26639798
48	0xbf360ccc	-0.71113276
49	0x3717c207	9.045477e-06
50	0x3f4d1315	0.8010724
51	0xbdb5ece4	-0.08883074
52	0x3e64e187	0.22351657
53	0x3f688f19	0.9084335
54	0xbe0ed7d2	-0.13949516
55	0x3f239a29	0.63907105
56	0xbd2a24ff	-0.04153919
57	0xbec48532	-0.3838287
58	0xbe545fb1	-0.20739628
59	0xbe1da894	-0.15396339
60	0x3e51952a	0.20467058
61	0xbf381c98	-0.7191863
62	0xbda59d7e	-0.0808668
63	0x3ea08f3c	0.3135928

autoencoder.decoder.0.bias f4 [8]
0	0x3f81a1d3	1.012751
1	0x3ed5645e	0.41678137
2	0xbf02310d	-0.50856096
3	0x3f4fa221	0.81106764
4	0xbfb67ed2	-1.4257452
5	0xbfc2bab2	-1.5213225
6	0x3e46a84b	0.19400136
7	0xbf88276f	-1.0637034

autoencoder.decoder.2.weight f4 [8, 16, 3, 3]
0	0xbe289204	-0.1646195
1	0x3d4b6bf1	0.049663488
2	0xbdd7dc2d	-0.10540042
3	0xbef7adb2	-0.48374707
4	0x3e14689d	0.14493032
5	0x3dba8126	0.09106664
6	0xbdb6413f	-0.088991635
7	0xbf183395	-0.5945371
8	0x3eb5d327	0.3551266
9	0xbd341680	-0.04396677
10	0xbe812cfa	-0.25229627
11	0x3de0f40f	0.109840505
12	0x3e98ae6f	0.29820582
13	0xbec6bf74	-0.38817942
14	0xbe4a9bde	-0.19786021
15	0x3e567529	0.2094313
16	0x3ea62e87	0.32457373
17	0x3ba76d78	0.0051094852
18	0xbd8aea01	-0.06782914
19	0xbd8583ad	-0.06519256
20	0x3d1172e0	0.035509944
21	0xbd8ce172	-0.06878938
22	0xbdb6284f	-0.08894407
23	0xbe12abbe	-0.14323327
24	0xbe1e58ab	-0.15463512
25	0x3dc3f11b	0.095674716
26	0x3d55611b	0.05209456
27	0xbd82dc75	-0.06389705
28	0xbe87a20e	-0.26490825
29	0x3e0d99a7	0.13828145
30	0xbe93f957	-0.2890117
31	0x3d66ac34	0.05631657
32	0xbdd2f653	-0.10300889
33	0x3e189275	0.14899619
34	0x3e109099	0.1411766
35	0xbc2b5db0	-0.010459349
36	0xbc2dd2d6	-0.010609349
37	0xbdac5269	-0.08414156
38	0xbe72f120	-0.23724794
39	0x3d741dfb	0.059598904
40	0xbe562d4f	-0.20915721
41	0x3e1dcf73	0.15411167
42	0x3e98ec11	0.29867604
43	0x3daab2b7	0.083348684
44	0x3ea8d384	0.32973874
45	0xbe895714	-0.26824248
46	0xbe7a02ad	-0.24415083
47	0xbe47d68f	-0.19515441
48	0xbe32ea70	-0.17472243
49	0x3dad18c1	0.08451987
50	0xbd119c4f	-0.035549458
51	0xbdc0cb92	-0.09413828
52	0xbe2aa86a	-0.16665807
53	0xbda5ee46	-0.08102088
54	0xbd16703c	-0.03672813
55	0xbc2056d1	-0.009786324
56	0xbd62be3d	-0.055357207
57	0x3cdb7022	0.026786868
58	0x3d8a9037	0.06765788
59	0xbe85eabd	-0.26155654
60	0x3d8af866	0.067856595
61	0xbe2df301	-0.1698723
62	0x3e26d4a3	0.16292052
63	0x3e1811fa	0.14850608
64	0xbe2f015a	-0.1709036
65	0x3e7a3cbc	0.24437231
66	0x3e3dad8a	0.18523231
67	0xbf2e694b	-0.68129414
68	0xbde49b55	-0.1116244
69	0xbc48bb6b	-0.012251715
70	0x3e9d0a4e	0.30671924
71	0xbe83ad2b	-0.25718054
72	0x3e5f20c4	0.21789843
73	0xbd7cdb0d	-0.06173234
74	0x3e317a48	0.17331803
75	0x3f436e57	0.7634024
76	0xbd482b9f	-0.048869725
77	0x3cd6dff0	0.026229829
78	0xbea7429d	-0.3266801
79	0xbd7e5a17	-0.062097635
80	0xbd91994b	-0.071093164
81	0xbdba7e18	-0.09106082
82	0x3c6c83b7	0.0144357
83	0xbb807f47	-0.0039214226
84	0xbe0cd4e4	-0.13753086
85	0xbedbb0e6	-0.429084
86	0xbcae50c8	-0.021278754
87	0xbe529674	-0.20565206
88	0xbef2ea59	-0.47444418
89	0xbd8e8dd6	-0.06960647
90	0xbe1d5245	-0.15363415
91	0xbe8ec06d	-0.27881184
92	0xbcc7d325	-0.024392674
93	0xbece7719	-0.4032524
94	0xbe4e70fc	-0.20160288
95	0x3d0a4314	0.033755377
96	0xbea0227a	-0.31276304
97	0xbd811847	-0.06303459
98	0x3e59f4b6	0.21284756
99	0xbe593dd7	-0.21214996
100	0xbe10d8ce	-0.14145204
101	0xbe3749c3	-0.17899232
102	0x3e91ef91	0.28503087
103	0xbd3a5114	-0.04548748
104	0xbd7aefce	-0.06126385
105	0xbdd2dc21	-0.102958925
106	0x3ed7d215	0.42152467
107	0x3eae9f23	0.34105787
108	0xbe5fe9ca	-0.21866527
109	0x3e3de027	0.18542539
110	0x3e4cd2fe	0.20002362
111	0xbe8b2676	-0.2717778
112	0xbf30ea4e	-0.6910752
113	0x3eab9133	0.33509216
114	0x3e8963fd	0.26834098
115	0xbe6ea9c9	-0.23306955
116	0x3df5ee66	0.120083615
117	0xbec7e122	-0.3903895
118	0xbe9b26e4	-0.3030311
119	0xbe884e22	-0.2662211
120	0xbda8f3b9	-0.082496114
121	0x3e80a5b4	0.2512642
122	0xbe1fa431	-0.15589978
123	0xbda97b0b	-0.08275422
124	0xbe78707a	-0.24261656
125	0x3ef6dbe9	0.48214653
126	0xbd60713f	-0.0547955
127	0x3e77921d	0.24176832
128	0x3dfb683d	0.12275741
129	0x3f1fefd0	0.624753
130	0xbe2d8ce1	-0.16948272
131	0xbe721ac1	-0.23643018
132	0xbb3fad9f	-0.0029247773
133	0xbeb1b355	-0.34707132
134	0x3e72d015	0.2371219
135	0x3ed88bb7	0.42294094
136	0xbd19133d	-0.037371863
137	0x3dfddf94	0.1239616
138	0xbfa233d9	-1.2672073
139	0xbdb531ae	-0.08847366
140	0x3f1714f2	0.59016335
141	0x3dcf43b9	0.10120339
142	0x3e389d89	0.18028845
143	0xbe7932d6	-0.24335799
144	0x3db2c5a0	0.087291
145	0xbdb2434c	-0.08704242
146	0xba9111f3	-0.0011067971
147	0x3e987b07	0.29781362
148	0x3e987e93	0.29784068
149	0xbe3d44ba	-0.18483248
150	0xbb975a8c	-0.0046189483
151	0xbdf7ef7f	-0.12106227
152	0xbef9c537	-0.48783275
153	0xbc5abcc7	-0.013350672
154	0x3eb29899	0.34882048
155	0xbd1f9b3b	-0.0389664
156	0xbdad2436	-0.08454172
157	0x3e614f6d	0.22002955
158	0x3ccb50fa	0.024818886
159	0xbdbf941a	-0.0935442
160	0xbecf7663	-0.4052001
161	0x3dcae368	0.099066556
162	0xbc3800a0	-0.011230618
163	0x3d047032	0.03233356
164	0xbb3d0167	-0.0028839947
165	0xbdb0a463	-0.08625104
166	0x3ec33ec2	0.38133818
167	0xbcc131b9	-0.02358328
168	0x3d82e2e9	0.06390936
169	0x3e183e23	0.14867453
170	0xbe03afa5	-0.12859972
171	0x3dcf1e39	0.101131864
172	0x3e657a6a	0.22409979
173	0xbe099da0	-0.13439035
174	0x3e1d9ef7	0.15392672
175	0x39822866	0.0002482563
176	0xbea562bd	-0.32301894
177	0x3c2ad771	0.010427342
178	0x3caf3cf6	0.021391373
179	0xbdcf816b	-0.101321064
180	0xbe02216e	-0.12708065
181	0xbd8e1d14	-0.0693914
182	0x3df12d65	0.117762364
183	0xbf01f4f8	-0.5076442
184	0x3e8c6b18	0.27425456
185	0xbde4b850	-0.11167967
186	0x3e3b178a	0.18270698
187	0xbe3dbda0	-0.18529367
188	0xbe66f2bc	-0.22553533
189	0x3df95436	0.12174265
190	0x3ca0709c	0.019584946
191	0xbbff4527	-0.007790226
192	0xbcf5b362	-0.029992763
193	0x3df3500e	0.118805036
194	0xbf0b5e5d	-0.5444086
195	0xbd775a22	-0.06038869
196	0x3d0eaa5b	0.034830432
197	0xbd08b56d	-0.033376146
198	0x3cc5d3e5	0.02414889
199	0xbdd5a2c5	-0.104314364
200	0x3b1389d0	0.0022512563
201	0x3cc5ac6c	0.024130069
202	0x3e44594d	0.1917469
203	0x3e2822b5	0.1641949
204	0x3cca1edf	0.024672924
205	0xbd79ef98	-0.06101951
206	0xbd06b927	-0.03289142
207	0xbe00ce86	-0.12578782
208	0x3e7b56a1	0.24544765
209	0xbe3b6ccc	-0.18303221
210	0xbbcfda2e	-0.0063431477
211	0x3d1bb19f	0.03801119
212	0x3e22832d	0.15870352
213	0x3d6d2719	0.057898615
214	0xbe4e6858	-0.20156991
215	0x3ecd662c	0.40117013
216	0xbe3bed83	-0.18352322
217	0x3d91cafe	0.07118796
218	0xbe90e422	-0.28299052
219	0xbdd701b6	-0.10498373
220	0x3ca4cbca	0.020116705
221	0x3ccadd72	0.024763796
222	0xbe3ce441	-0.18446447
223	0xbd9e476b	-0.07728466
224	0x3d3d60e9	0.046235
225	0xbe045a94	-0.12925178
226	0xbdfab36e	-0.12241255
227	0xbe263968	-0.16232836
228	0x3cb41db0	0.021986812
229	0x3e887b8a	0.26656753
230	0xbeb5702c	-0.35437143
231	0x3da4d6ce	0.08048783
232	0x3e38b05e	0.18036029
233	0x3cc11c3e	0.023573037
234	0x3d295732	0.04134292
235	0xbcc511f6	-0.024056416
236	0xbe93abe1	-0.2884207
237	0x3d7b54e1	0.061360244
238	0xbda30bb9	-0.0796122
239	0xbe69cfbb	-0.22833149
240	0xbdf0b13b	-0.11752554
241	0xbe0309b1	-0.12796666
242	0xbed06535	-0.40702215
243	0xbe8b1f5c	-0.27172363
244	0xbda7203a	-0.081604436
245	0x3e30e6a7	0.17275487
246	0xbb5283f4	-0.0032122107
247	0xbd395a5c	-0.04525219
248	0x3e7c2ca5	0.24626406
249	0xbd84f11b	-0.064913
250	0xbe759aed	-0.23984881
251	0xbeaa07fa	-0.3320921
252	0x3d022d96	0.031781755
253	0xbe615e93	-0.22008733
254	0xbe981d13	-0.29709682
255	0x3de6f0ce	0.112763986

autoencoder.decoder.2.bias f4 [16]
0	0xbea0350b	-0.3129047
1	0x3f1a4ad8	0.6027045
2	0xbea8f392	-0.3299833
3	0x3dbda010	0.09259045
4	0xbdef4be7	-0.11684399
5	0xbd8cb2a1	-0.06870008
6	0xbda84708	-0.08216673
7	0x3f1de2c9	0.6167417
8	0xbca37680	-0.019953966
9	0xbde32aa6	-0.11092119
10	0x3e9f4f89	0.31115368
11	0xbe24870b	-0.1606714
12	0xbf42b9f5	-0.76065
13	0xbda7a805	-0.08186344
14	0xbe9e9e2a	-0.30980045
15	0x3e792efe	0.24334332

autoencoder.decoder.4.weight f4 [16, 8, 5, 5]
0	0x3e582e0a	0.21111313
1	0x3dbcbb1c	0.09215376
2	0x3cb916c6	0.022593867
3	0x3de82836	0.11335795
4	0xbc15e155	-0.009147962
5	0x3dab4b93	0.08364024
6	0x3e5636a0	0.20919275
7	0x3ea04e27	0.31309626
8	0x3e58c39f	0.21168374
9	0x3ba47214	0.005018482
10	0xbcb72bee	-0.022359814
11	0xbe358f1a	-0.1773037
12	0x3ebef5d4	0.37296927
13	0x3ece8049	0.4033225
14	0x3e0f651c	0.14003414
15	0xbbf0a335	-0.0073436745
16	0xbcd7fa31	-0.026364418
17	0xbd960269	-0.073246785
18	0x3e231be9	0.15928616
19	0x3da4a808	0.08039862
20	0x3ddec8c8	0.1087814
21	0x3ce2c826	0.027683329
22	0xbc008f66	-0.007846689
23	0x3e293c19	0.16526832
24	0x3d4dd986	0.050256275
25	0x3e123873	0.14279346
26	0x3d85da52	0.06535782
27	0xbd848f94	-0.06472698
28	0x3d07e1eb	0.033174437
29	0x3d5b2beb	0.05350868
30	0x3cd7454e	0.026278164
31	0x3e2da1d1	0.1695626
32	0xbd011320	-0.03151238
33	0xbd933ada	-0.071889594
34	0x3db49f51	0.0881945
35	0x3a675549	0.0008824659
36	0xbc780c51	-0.015139655
37	0x3e533869	0.20626988
38	0x3ed29016	0.41125554
39	0x3e6b7027	0.22992001
40	0x3da34614	0.07972351
41	0xbc639df6	-0.013892641
42	0x3a918686	0.0011102713
43	0x3e44e21d	0.1922688
44	0x3de4d6a1	0.1117375
45	0x3d92efc3	0.07174637
46	0xbdc898fb	-0.09794804
47	0xbe5d44d2	-0.21608284
48	0x3ec4acdd	0.38413134
49	0x3e2587f6	0.16165146
50	0xbc71a9a7	-0.014749921
51	0xbdfaff04	-0.122556716
52	0xbd4bc6c9	-0.049750123
53	0x3db895e4	0.09012964
54	0x3cb9452b	0.02261599
55	0xbb943e30	-0.004524015
56	0xbe0784b7	-0.1323422
57	0x3cbd96ab	0.023143133
58	0x3be83054	0.0070858393
59	0x3d130b2c	0.035899326
60	0xbdd3f472	-0.103493586
61	0xbda658d0	-0.081224084
62	0x3d1f5797	0.03890189
63	0x3dac3e38	0.08410305
64	0xbd01317c	-0.031541333
65	0xbd3dbbe5	-0.04632177
66	0x3dace381	0.084418304
67	0x3d5f44b1	0.05450887
68	0xbdbdd6b7	-0.09269469
69	0xbd797614	-0.060903624
70	0x3d000530	0.031254947
71	0xbe0844ea	-0.13307539
72	0x3defd59f	0.11710667
73	0x3c4a2c19	0.012339615
74	0xbb5717c4	-0.0032820562
75	0x3b964692	0.0045860494
76	0x3db12489	0.08649547
77	0xbe24502e	-0.16046211
78	0xbd8c1560	-0.068400145
79	0x3e665814	0.22494537
80	0xbb1bba9d	-0.0023762353
81	0xbdb89864	-0.09013441
82	0xbd6625fa	-0.05618856
83	0x3e512679	0.20424832
84	0x3e2a8324	0.16651589
85	0xbd932933	-0.071855925
86	0x3c6a7352	0.014309721
87	0x3a3cf5e5	0.0007208272
88	0xbe62c611	-0.22145869
89	0xbb1d2522	-0.0023978432
90	0xbdc0d9b4	-0.094165236
91	0xbd24bd00	-0.040219307
92	0xbe9d82e8	-0.30763936
93	0x3e717713	0.2358058
94	0x3e25b86e	0.16183636
95	0xbd8a4682	-0.067517295
96	0x3dfde946	0.12398009
97	0x3da49722	0.08036639
98	0x3da6dff3	0.08148184
99	0xbb4679e0	-0.0030285046
100	0x3db05445	0.08609823
101	0x3e1d4786	0.15359315
102	0x3e4f3a15	0.20237
103	0x3d935923	0.07194736
104	0xbc2590cd	-0.010105324
105	0x3d9f8c0e	0.07790385
106	0x3df02789	0.11726291
107	0x3ee5373b	0.447687
108	0x3ebdd985	0.37080017
109	0x3e24af41	0.16082479
110	0xbe4c2746	-0.19936857
111	0x3e7fe9b3	0.24991493
112	0x3f0c7ff2	0.5488273
113	0x3e7ffaf2	0.24998072
114	0x3db6dae4	0.08928469
115	0xbd02fc6d	-0.031979013
116	0x3d82e7bb	0.06391855
117	0x3e9797a5	0.29607883
118	0x3e8221a1	0.25416282
119	0x3d894d16	0.06704156
120	0x3d467ed8	0.04846081
121	0x3d9b4f66	0.075835034
122	0x3dc968f4	0.09834471
123	0xbd3a47c3	-0.045478594
124	0xbd6af3e5	-0.057361502
125	0xbc8a2c33	-0.016866779
126	0xbd6ebf41	-0.058287863
127	0xbccb4049	-0.024810927
128	0x3e689e8e	0.22716734
129	0xbcec3bf6	-0.028837185
130	0x3d2b257b	0.04178379
131	0x3d886e9d	0.06661723
132	0x3dbb627c	0.09149644
133	0x3e8f37ad	0.27972165
134	0x3c4c03ac	0.012452047
135	0xbdb2214b	-0.086977564
136	0x3d0f2727	0.034949448
137	0x3e5ac0f2	0.21362665
138	0x3eaaa75f	0.3333082
139	0xbc1da7a6	-0.00962249
140	0x3a939fc2	0.0011262821
141	0xbca34573	-0.019930577
142	0x3e3af9f6	0.18259415
143	0x3dd5340e	0.10410319
144	0xbcee69ed	-0.029103244
145	0x3df96833	0.121780775
146	0x3c42f539	0.011899286
147	0x3d234a3d	0.03986572
148	0x3d3ecc5e	0.04658162
149	0xbd5a3b1e	-0.053279035
150	0x3cf6ed45	0.030142436
151	0xbdbdf58f	-0.09275352
152	0x3caaf818	0.020870253
153	0x3caefd92	0.021361146
154	0xbd6d47ea	-0.05792991
155	0x3d0c0718	0.034186453
156	0x3e1b2b78	0.15153301
157	0x3df03a56	0.11729877
158	0xbdac4b82	-0.084128395
159	0xbc94e21a	-0.01817422
160	0x3e063418	0.1310581
161	0x3d8e341a	0.06943531
162	0x3e49b6d6	0.19698653
163	0xbe2a4dcf	-0.16631244
164	0xbd32770d	-0.043570567
165	0xbd6dd9d9	-0.058069084
166	0xbbf7ed5a	-0.0075661363
167	0x3d7efc10	0.062252104
168	0x3d135bac	0.035976097
169	0x3d83a207	0.06427389
170	0xb9e69504	-0.00043980044
171	0xbc82490b	-0.01590397
172	0xbdab18e1	-0.08354355
173	0xbdaaa6d7	-0.083326034
174	0x3d41cdea	0.047315516
175	0x3d6670ae	0.056259803
176	0xbd242dee	-0.040082864
177	0x3e6491b4	0.22321206
178	0x3e854827	0.2603161
179	0xbd397753	-0.045279812
180	0xbd2a22b4	-0.041537
181	0x3dc713cc	0.09720573
182	0x3e8e7cff	0.2782974
183	0x3c6f54b8	0.014607601
184	0xbd960cd0	-0.073266625
185	0x3cc8a756	0.024493854
186	0xbdb972cc	-0.09055099
187	0x3e3acea6	0.18242893
188	0x3c531a53	0.012884694
189	0xbdad5778	-0.08463949
190	0x3d60680a	0.05478672
191	0x3c797457	0.0152254915
192	0xbdd7345e	-0.10508035
193	0xbe366ff6	-0.17816147
194	0xbddf2e78	-0.10897535
195	0x3d699f84	0.05703689
196	0x3c829bab	0.015943369
197	0xbbabc55a	-0.005242032
198	0x3c13ad8a	0.009013543
199	0x3c831a3f	0.016003726
200	0xbba39a67	-0.0049927714
201	0x3cfa443c	0.030550115
202	0x3ded0cd7	0.11574715
203	0xbba2e95d	-0.0049716667
204	0xbddccf1b	-0.1078169
205	0xbdc351c6	-0.095370814
206	0x3cf75614	0.030192412
207	0xbe12f253	-0.14350252
208	0xbe7d23c3	-0.24720673
209	0x3cd8db52	0.026471768
210	0xbd5ae42d	-0.05344026
211	0xbe29a56f	-0.16567014
212	0xbee6908b	-0.45032153
213	0xbecee97d	-0.40412512
214	0xbc9b82eb	-0.018983325
215	0xbe2ea4d0	-0.17055058
216	0xbdf7b7ff	-0.12095641
217	0xbecaf9f9	-0.3964384
218	0xbea977b7	-0.33099148
219	0xbc438a6c	-0.011934858
220	0x3da30771	0.07960404
221	0x3d30cafc	0.04316233
222	0xbe9b7127	-0.30359766
223	0xbe3b7233	-0.18305282
224	0x3c6b786a	0.014371971
225	0xbd3308ab	-0.04370944
226	0xbd822860	-0.06355357
227	0x3dd7c206	0.10535054
228	0x3dce754f	0.100809686
229	0xbdb6ceb1	-0.08926142
230	0xbdf0d80f	-0.1175996
231	0xbd9bb42f	-0.07602727
232	0xbe7fa0e8	-0.24963725
233	0xbd93c296	-0.07214849
234	0xbd56eb51	-0.05247051
235	0xbd741f0a	-0.059599914
236	0xbe214e76	-0.15752587
237	0xbea5212d	-0.32251874
238	0xbf131951	-0.57460505
239	0xbe89d2e3	-0.26918706
240	0xbe8cf528	-0.2753079
241	0xbd69df8a	-0.05709795
242	0xbe903912	-0.2816854
243	0xbe9fe453	-0.31228885
244	0x3c95733e	0.018243428
245	0x3c347764	0.011014793
246	0x3ca09856	0.01960389
247	0xbe15d67a	-0.14632598
248	0xbe2ff087	-0.17181598
249	0x3dc2adb7	0.0950579
250	0x3dddde24	0.108333856
251	0x3c93bae0	0.018033445
252	0x3d8a780c	0.067611784
253	0xbd4b3b74	-0.049617246
254	0xbe080fef	-0.13287328
255	0x3baaa90f	0.0052081416

autoencoder.decoder.4.bias f4 [8]
0	0xbe85cb5d	-0.26131716
1	0xbf39a5c8	-0.7251859
2	0xbe442752	-0.19155625
3	0xbf0989d8	-0.5372596
4	0xbeadf2e6	-0.3397438
5	0xbf4917dc	-0.7855203
6	0xbec52d3e	-0.3851108
7	0xbed3bb1e	-0.41353697

autoencoder.decoder.6.weight f4 [8, 1, 2, 2]
0	0x3f568e83	0.83811206
1	0x3eeba333	0.4602295
2	0x3f14b77a	0.58092463
3	0x3e5042be	0.2033796
4	0xbf419fd9	-0.75634533
5	0xbe9501bf	-0.29102895
6	0xbf0a1f4c	-0.53954005
7	0xbd8693f1	-0.06571186
8	0xbc95af6f	-0.01827213
9	0x3eb7d3d7	0.35903808
10	0xbe840c77	-0.2579076
11	0x3de47fe0	0.11157203
12	0xbefe93b2	-0.49722058
13	0xbf0c9c88	-0.5492635
14	0xbed1de2a	-0.4098981
15	0xbeeb3b4c	-0.45943677
16	0x3ead4ef2	0.33849293
17	0x3f1d5d95	0.6147092
18	0x3ef1d71e	0.47234434
19	0x3f3f97fa	0.7484127
20	0x3dcff973	0.101550005
21	0xbf33269c	-0.6998079
22	0xbe352f58	-0.17693841
23	0xbf7a047c	-0.9766309
24	0x3c450cfa	0.01202702
25	0x3ea56b75	0.32308546
26	0xbec5efac	-0.38659418
27	0xbd997d1c	-0.07494566
28	0xbeba9f8d	-0.36449853
29	0xbe25e92d	-0.16202231
30	0x3e4b8ab2	0.19877127
31	0x3ec3a4cb	0.38211665
