save_config_3/1/model_state.pth (torch, 28664 bytes, 13 tensors)

autoencoder.encoder.0.weight f4 [16, 1, 3, 3]
-0.22315161 0.017052867 0.13373661 -0.42456406 -0.0945527 -0.22758143 0.21559145 0.57313496
0.24062482 0.7337015 -0.073216476 -0.0348059 0.31040347 -0.0032585892 0.080391444 0.23212352
-0.19698343 -0.010866873 0.20948878 0.18654771 -0.33292714 0.058857612 0.35975352 0.39214334
-0.4069857 -0.19706944 0.25074002 0.13118456 -0.27403942 -0.4300211 0.4481218 0.18375102
-0.28519177 -0.21841478 0.3635809 0.6102158 -0.092423014 -0.50377035 -0.44999307 -0.2359765
-0.16976067 0.080045626 -0.41877198 -0.10435929 0.885175 -0.2954992 0.5570531 0.25665745
0.01441141 0.31441516 -0.34895393 0.16701484 0.20600769 -0.09456617 0.15231442 -0.39577958
-0.25736755 0.21498796 -0.20326556 0.07464574 0.61530167 -0.46457905 -0.4838028 0.548109
0.16921143 -0.4639588 0.09150801 -0.014218883 -0.38258004 -0.53750926 -0.3100287 0.052351475
0.19392268 0.05679651 0.2575734 0.11366008 -0.14787006 0.20641395 0.22771168 0.096607216
0.4305051 -0.001499612 0.39613572 0.63792145 -0.11355217 0.046161056 -0.22843486 -0.39296946
-0.38213417 -0.44123453 0.04447691 0.28036824 0.2778608 0.059214134 -0.049726438 -0.092187494
0.01222989 -0.11732382 -0.16260938 -0.62097114 -0.17807817 -0.07471286 -0.120545365 -0.36863902
-0.6056329 0.7553747 0.5360919 0.19287732 -0.115967356 -0.53912234 0.074734695 0.13946581
0.13126151 0.7173015 0.3767541 0.05304377 -0.18424772 -0.1146515 -0.05596612 0.6844221
-0.2453504 -0.10492931 0.32311055 -0.28462103 -0.25224143 0.062375914 -0.053150345 0.253895
-0.08705133 -0.097833075 0.05457384 -0.44538406 0.58935237 0.59298384 -0.3084663 -0.9360765
0.017125515 -0.3034405 -0.4662882 0.10630014 -0.2079079 -0.57812804 -0.05230874 -0.87579465
00000000: db81 64be 74b2 8b3c 40f2 083e 7660 d9be
00000010: d9a4 c1bd 1b0b 69be 01c4 5c3e f9b8 123f
00000020: 5a66 763e ddd3 3b3f 85f2 95bd a290 0ebd
00000030: 34ed 9e3e 0e8e 55bb 45a4 a43d cab1 6d3e
00000040: 06b6 49be f80a 32bc 3a84 563e 5d06 3f3e
00000050: 6d75 aabe ae14 713d 9d31 b83e 03c7 c83e
00000060: 6e60 d0be 92cc 49be ff60 803e 3f55 063e
00000070: e54e 8cbe ba2b dcbe 3870 e53e 3a29 3c3e
00000080: a804 92be 20a8 5fbe 4727 ba3e 1a37 1c3f
00000090: 4748 bdbd 18f7 00bf 7e65 e6be d3a3 71be
000000a0: bed5 2dbe f6ee a33d 4869 d6be 53ba d5bd
000000b0: d49a 623f ac4b 97be 089b 0e3f 9b68 833e
000000c0: d61d 6c3c 06fb a03e 17aa b2be f005 2b3e
000000d0: aef3 523e e8ab c1bd 50f8 1b3e 9fa3 cabe
000000e0: aec5 83be ce25 5c3e d924 50be dedf 983d
000000f0: 6984 1d3f 4edd edbe 00b5 f7be df50 0c3f
00000100: c345 2d3e 028c edbe 8d68 bb3d 51f6 68bc
00000110: 88e1 c3be 359a 09bf 15bc 9ebe 806e 563d
00000120: ab93 463e 75a3 683d a9e0 833e 9ec6 e83d
00000130: 406b 17be 2e5e 533e 402d 693e 01da c53d
00000140: 2a6b dc3e a18e c4ba 4dd2 ca3e d24e 233f
00000150: 0a8e e8bd 6013 3d3d d4ea 69be 4b33 c9be
00000160: 17a7 c3be 7ee9 e1be 6c2d 363d 6d8c 8f3e
00000170: c543 8e3e 858a 723d f3ad 4bbd cccc bcbd
00000180: e05f 483c 7947 f0bd 1383 26be f7f7 1ebf
00000190: 205a 36be 0e03 99bd 7de0 f6bd 41be bcbe
000001a0: c20a 1bbf 3d60 413f 523d 093f a281 453e
000001b0: 4b80 edbd ec03 0abf 810e 993d 20d0 0e3e
000001c0: 6b69 063e 12a1 373f eae5 c03e 6d44 593d
000001d0: 6fab 3cbe 68ce eabd bb3c 65bd 4936 2f3f
000001e0: 233d 7bbe 2ee5 d6bd bf6e a53e d9b9 91be
000001f0: ca25 81be e37d 7f3d 2db4 59bd 87fe 813e
00000200: f847 b2bd b55c c8bd d288 5f3d 6109 e4be
00000210: ccdf 163f cacd 173f 4bef 9dbe b6a2 6fbf
00000220: cf4a 8c3c 8e5c 9bbe 54bd eebe e3b3 d93d
00000230: cfe5 54be 3300 14bf b041 56bd 1434 60bf

autoencoder.encoder.0.bias f4 [16]
0.5647863 -0.11613017 -0.12538789 -0.12949668 -0.24614468 -0.35043842 -0.01816442 -0.16731924
0.30949122 -0.32193667 0.9595058 -0.42900616 -0.2337598 -1.3534118e-05 0.36400652 0.19604525
00000000: d695 103f a8d5 edbd af65 00be c79a 04be
00000010: 5a0d 7cbe aa6c b3be 8dcd 94bc bc55 2bbe
00000020: a275 9e3e e2d4 a4be 2ca2 753f b2a6 dbbe
00000030: bb5e 6fbe 9810 63b7 105f ba3e 16c0 483e

autoencoder.encoder.3.weight f4 [8, 16, 3, 3]
0.35389405 0.021362571 0.061227206 0.037027963 0.06231737 0.15830418 -0.19979614 -0.35903293
0.106390275 0.004547575 -0.06664383 -0.14491257 0.08205003 -0.14814179 0.14203663 0.18642496
-0.13242231 0.027781913 -0.00048548394 -0.0898112 0.075707 0.11351574 -0.1146721 -0.13105096
0.07643322 -0.012362625 -0.13444702 0.0020818166 0.045767654 0.1489042 0.11458696 -0.14267083
-0.09645875 -0.11733743 -0.21313713 -0.08391696 0.115001544 0.0907364 -0.10236018 -0.11985179
0.06400934 0.059985075 -0.47855464 -0.22338521 -0.012928928 -0.056797903 0.014135841 -0.22099636
0.17451559 0.009521575 0.045950387 -0.26190746 -0.04905342 -0.16077617 0.09397865 0.06354205
0.1682494 0.30585518 0.06453113 0.049595833 -0.08638222 -0.07620961 0.01722864 -0.0045427238
0.027119648 -0.2206761 -0.04943466 -0.029982612 -0.14081495 -0.22534794 -0.05301259 -0.07644906
0.018368635 -0.06354217 -0.058302663 0.1178094 0.021598376 0.10193561 -0.006577207 0.023197185
0.11208987 -0.37167594 0.005514183 -0.09347271 -0.20796272 -0.09456307 -0.22877221 0.03582543
0.109185785 -0.056092992 0.29590237 -0.1951001 -0.1296669 0.042089917 0.19821328 0.1423677
0.11549123 -0.05722886 0.27843338 -0.13093626 0.09699857 0.055315215 0.03660755 -0.034456726
-0.29522535 0.04490412 0.0022237396 -0.1664922 0.015610399 -0.059190433 -0.11027188 -0.05939736
-0.018486338 -0.031372055 -0.17298391 -0.26081645 -0.09384015 0.07715593 -0.049109712 0.07327576
0.053295154 0.00075510587 0.06348342 0.22376972 0.14547735 0.048342973 0.19207545 0.010620599
0.23152041 0.19970554 -0.18751404 0.0095881205 -0.10689924 -0.04981324 0.041176815 0.11706686
0.19870669 0.13944444 -0.18456933 0.044634447 -0.15978988 0.27128664 0.27471 0.13250993
0.1207024 0.0129692005 -0.09450872 0.21479346 0.016067559 0.061640307 0.006213606 0.1190943
0.31192556 -0.025381418 0.05070368 -0.047436062 0.072844416 -0.17996985 0.056164924 -0.1659623
-0.35709995 0.20600542 0.02270091 0.03056116 0.026209714 0.22797342 0.25945315 0.06508745
0.11159358 0.05239486 -0.07489548 0.021145014 -0.0011016312 0.084380664 0.15686324 0.029758113
0.1390211 0.11534644 0.02868006 -0.002470583 0.0028781453 0.0977781 -0.11696262 -0.09195865
-0.087809145 -0.06774174 -0.26226908 0.18781608 0.16963074 -0.11276282 0.12960255 -0.19732742
0.057242855 0.10812578 -0.12362093 -0.358144 -0.08943753 -0.11182167 0.10970798 -0.024935175
0.087681726 0.102270454 0.055732273 0.12014524 0.2496278 0.04338767 -0.017849348 -0.021750627
0.07013604 -0.060917813 -0.28584278 0.10569326 -0.1631907 -0.32258204 -0.17134534 -0.035234142
-0.110623725 -0.16073935 -0.059944723 0.17077419 0.15771817 -0.020982802 0.16586265 -0.06898041
0.06496709 -0.025714561 -0.11868583 0.046963986 -0.08085751 0.109955005 0.05346133 -0.26493168
-0.030995477 -0.14377776 0.1845689 0.10677193 -0.034559507 0.12706012 0.05292308 0.10118433
0.17066273 -0.16704716 0.18905695 -0.023407988 0.1598741 0.028373834 0.0939403 0.16422619
-0.010376536 0.0716577 -0.026683068 -0.056506064 0.095385626 0.091747776 0.0009117202 0.23999217
00000000: 9a31 b53e 8f00 af3c 61c9 7a3d a2aa 173d
00000010: 8040 7f3d 7e1a 223e 5c97 4cbe 2ad3 b7be
00000020: 25e3 d93d d303 953b 8f7c 88bd f663 14be
00000030: d909 a83d 7bb2 17be 0d72 113e 2fe6 3e3e
00000040: b799 07be e596 e33c 8d88 feb9 efee b7bd
00000050: 460c 9b3d f17a e83d 35d9 eabd 3932 06be
00000060: 0589 9c3d 9c8c 4abc 7bac 09be 166f 083b
00000070: dd76 3b3d 587a 183e 91ac ea3d 4d18 12be
00000080: 2a8c c5bd 9b4e f0bd 9f40 5abe a8dc abbd
00000090: ee85 eb3d 01d4 b93d 37a2 d1bd db74 f5bd
000000a0: 5417 833d e9b2 753d 1d05 f5be 18bf 64be
000000b0: dbd3 53bc eba4 68bd 049a 673c df4c 62be
000000c0: 37b4 323e 6100 1c3c 7936 3c3d bc18 86be
000000d0: 3dec 48bd 82a2 24be e177 c03d 5622 823d
000000e0: 9249 2c3e 0d99 9c3e e628 843d 0025 4b3d
000000f0: 29e9 b0bd c913 9cbd 1423 8d3c 21db 94bb
00000100: 062a de3c eaf8 61be ff7b 4abd 189e f5bc
00000110: cb31 10be 9cc1 66be bb23 59bd 5391 9cbd
00000120: d279 963c 6622 82bd c6ce 6ebd 0e46 f13d
00000130: 14ef b03c 9ec3 d03d 9c85 d7bb 0608 be3c
00000140: 608f e53d 4f4c bebe 52b0 b43b 9f6e bfbd
00000150: 2ef4 54be 48aa c1bd 4343 6abe b0bd 123d
00000160: cc9c df3d c4c1 65bd 8480 973e 52c8 47be
00000170: 66c7 04be 7a66 2c3d 6cf8 4a3e d7c8 113e
00000180: aa86 ec3d cf68 6abd d28e 8e3e 2814 06be
00000190: 30a7 c63d 3592 623d ccf1 153d 7f22 0dbd
000001a0: c727 97be 62ed 373d 29bc 113b ee7c 2abe
000001b0: c2c2 7f3c ab71 72bd 39d6 e1bd a54a 73bd
000001c0: a970 97bc fc7f 00bd b222 31be bc89 85be
000001d0: 442f c0bd ee03 9e3d 4427 49bd 9a11 963d
000001e0: 054c 5a3d 4cf2 453a 9803 823d e423 653e
000001f0: 04f8 143e 4803 463d 6daf 443e 0502 2e3c
00000200: b013 6d3e 9c7f 4c3e ae03 40be 7e17 1d3c
00000210: fded dabd f808 4cbd 05a9 283d c0c0 ef3d
00000220: c479 4b3e 86ca 0e3e beff 3cbe 9cd2 363d
00000230: f59f 23be 15e6 8a3e caa6 8c3e afb0 073e
00000240: d232 f73d c57c 543c ca8d c1bd d1f2 5b3e
00000250: 1da0 833c 8c7a 7c3d 819b cb3b b6e7 f33d
00000260: b5b4 9f3e b1ec cfbc a9ae 4f3d 514c 42bd
00000270: 742f 953d 044a 38be 310d 663d 05f2 29be
00000280: ced5 b6be 16f3 523e 42f7 b93c 665b fa3c
00000290: c1b5 d63c dd71 693e 0bd7 843e 924c 853d
000002a0: 2d8b e43d fe9b 563d cd62 99bd 4f38 ad3c
000002b0: 9c64 90ba c5cf ac3d c2a0 203e 49c7 f33c
000002c0: 8c5b 0e3e c13a ec3d 72f2 ea3c 81e9 21bb
000002d0: 449f 3c3b e23f c83d 198a efbd d154 bcbd
000002e0: 48d5 b3bd 2ebc 8abd 2248 86be dc52 403e
000002f0: aeb3 2d3e 32f0 e6bd 88b6 043e 3310 4abe
00000300: 7c77 6a3d 0d71 dd3d f82c fdbd a65e b7be
00000310: 062b b7bd c202 e5bd 94ae e03d da44 ccbc
00000320: 7a92 b33d 2c73 d13d 8647 643d b50e f63d
00000330: 6e9e 7f3e 45b7 313d cc38 92bc 5f2e b2bc
00000340: 7ca3 8f3d f584 79bd fc59 92be b575 d83d
00000350: 761b 27be 7929 a5be 2775 2fbe ad51 10bd
00000360: b18e e2bd db98 24be 9988 75bd 6edf 2e3e
00000370: df80 213e 20e4 abbc e6d7 293e 9a45 8dbd
00000380: 770d 853d 58a7 d2bc 8e11 f3bd 4f5d 403d
00000390: 9f98 a5bd 1730 e13d 44fa 5a3d 20a5 87be
000003a0: 3aea fdbc 7a3a 13be a1ff 3c3e 3eab da3d
000003b0: 458e 0dbd 0c1c 023e dfc5 583d bb39 cf3d
000003c0: 36c2 2e3e 690e 2bbe 2598 413e 1cc2 bfbc
000003d0: 09b6 233e 3e70 e83c c663 c03d e92a 283e
000003e0: 5902 2abc 46c1 923d 7396 dabc e772 67bd
000003f0: 8a59 c33d 42e6 bb3d 8200 6f3a 82c0 753e

autoencoder.encoder.3.bias f4 [8]
-0.15308726 -0.08569269 0.080798894 -0.020936774 0.10965763 -0.10592804 -0.116981894 -0.04881643
00000000: e8c2 1cbe a67f afbd e479 a53d 9983 abbc
00000010: 2e94 e03d cdf0 d8bd 3494 efbd bdf3 47bd

autoencoder.encoder.6.weight f4 [2, 8, 2, 2]
0.83575046 0.51700044 0.7049125 0.32180014 -0.32892 -0.12146698 0.25809962 0.18273768
-0.30430943 -0.13023466 -0.5518855 -0.5822102 -0.37034345 -0.43240726 -0.5197476 -0.96716404
-0.50424343 -0.7391903 -0.25708944 -0.47763342 -0.5488702 -0.24594322 0.81745243 0.77080625
0.33557868 0.444254 0.49628666 0.49972755 -0.0707346 -0.15225185 0.5090049 0.6726201
-0.10159066 -0.10212176 -0.15911068 0.022516288 0.50737834 0.27631548 0.57806784 0.434455
0.43076453 0.27325404 0.41370755 0.4891691 0.18461204 0.49632797 0.15772182 0.33826765
-0.12920615 -0.07031541 -0.28984565 -0.37924922 -0.56562793 -0.0017984352 -0.5386007 -1.0727754
0.40769625 0.511577 0.47898743 0.58814013 0.86908317 0.64632004 0.09455028 0.2838245
00000000: bef3 553f 245a 043f 2575 343f fdc2 a43e
00000010: 3468 a8be aec3 f8bd a225 843e 961f 3b3e
00000020: 72ce 9bbe 3c5c 05be 5e48 0dbf ba0b 15bf
00000030: a89d bdbe 7c64 ddbe 2e0e 05bf 1098 77bf
00000040: 1916 01bf 933b 3dbf 3aa1 83be 5e8c f4be
00000050: c282 0cbf 8ad8 7bbe 9044 513f 8f53 453f
00000060: f8d0 ab3e 4375 e33e 4919 fe3e 4adc ff3e
00000070: 4ddd 90bd e9e7 1bbe 254e 023f d530 2c3f
00000080: c40e d0bd 3725 d1bd e9ed 22be 1474 b83c
00000090: 8ce3 013f 3979 8d3e 41fc 133f e370 de3e
000000a0: 2b8d dc3e f4e7 8b3e 7ad1 d33e 5f74 fa3e
000000b0: f00a 3d3e b31e fe3e d481 213e 6b31 ad3e
000000c0: 9e4e 04be 8701 90bd a666 94be f42c c2be
000000d0: fecc 10bf 79b9 ebba bce1 09bf b450 89bf
000000e0: 90bd d03e b6f6 023f d73d f53e 5a90 163f
000000f0: 3c7c 5e3f 3b75 253f 94a3 c13d 7251 913e

autoencoder.encoder.6.bias f4 [2]
-0.043781795 0.0025051595
00000000: 8a54 33bd 9a2d 243b

autoencoder.decoder.0.weight f4 [2, 8, 2, 2]
-0.15704824 0.031061351 0.082548745 0.2628394 0.1655921 0.59751993 -0.20031205 -0.86441106
-0.6861381 0.10451637 0.4718271 -0.3643065 -0.50869656 -0.37692946 -1.1994917 0.22609355
0.16472386 0.6546758 -0.5310403 1.1917311 -0.1304378 -1.1996654 -0.83183104 0.2099242
0.4023344 0.0014472054 -0.20125696 -0.11181621 -0.6952222 -0.18451804 0.7057411 -0.97164226
-0.23337707 0.34217423 0.61786574 0.46636078 0.4589509 0.099301584 0.41369995 0.369749
-0.16031465 -0.3158623 -0.8335089 0.06313846 0.3000444 -0.2973837 0.5440208 -0.3159423
0.2974141 -0.30002508 0.06373129 -0.21456164 -0.03916751 -0.5165388 -0.27263418 0.2205088
-0.066021994 0.50980073 -0.55779046 -0.47513413 0.50525457 -0.982576 0.04367201 -0.34334138
00000000: 41d1 20be 6074 fe3c 510f a93d e392 863e
00000010: fa90 293e 11f7 183f 9a1e 4dbe 0b4a 5dbf
00000020: bfa6 2fbf ae0c d63d 5293 f13e 6286 babe
00000030: f039 02bf e6fc c0be f288 99bf 1185 673e
00000040: 5fad 283e d598 273f 42f2 07bf a58a 983f
00000050: 7d91 05be a38e 99bf e1f2 54bf 5ff6 563e
00000060: c6fe cd3e 28b0 bd3a 4e16 4ebe e6ff e4bd
00000070: 15fa 31bf 4cf2 3cbe 73ab 343f 8cbd 78bf
00000080: 66fa 6ebe 7631 af3e 732c 1e3f d7c6 ee3e
00000090: 9dfb ea3e a15e cb3d 7bd0 d33e be4f bd3e
000000a0: 8629 24be b4b8 a1be d760 55bf bd4e 813d
000000b0: 6b9f 993e ad42 98be f244 0b3f 30c3 a1be
000000c0: a946 983e e39c 99be 8d85 823d 0cb6 5bbe
000000d0: 1c6e 20bd e33b 04bf b596 8bbe 0fcd 613e
000000e0: 8a36 87bd 4d82 023f 5bcb 0ebf c844 f3be
000000f0: 5d58 013f 1a8a 7bbf 6ce1 323d 71ca afbe

autoencoder.decoder.0.bias f4 [8]
-2.1844275 -0.08749675 1.8135197 -1.7226576 0.025554677 0.7502278 -1.264014 0.36496598
00000000: a9cd 0bc0 7f31 b3bd 6a21 e83f 0b80 dcbf
00000010: 0b58 d13c ee0e 403f 36cb a1bf d2dc ba3e

autoencoder.decoder.2.weight f4 [8, 16, 3, 3]
0.07483509 0.20952176 0.36922893 0.4503833 0.074116476 0.24893406 0.14807855 -0.06932451
-0.029800836 -0.13707426 0.32888848 -0.18321577 -0.3579488 -0.065912694 -0.3543676 -0.28125203
0.011667991 -0.17170049 0.31950623 -0.061391156 0.094346955 0.022746226 0.16495991 -0.36617866
-0.6452125 -0.009411563 -0.5159819 -0.35190162 -0.2651729 -0.19106638 -0.084833376 0.14884144
-0.36725503 -0.42357725 0.09864586 -0.6306383 -0.12144048 0.17589681 -0.20825976 -0.11125914
0.34707573 -0.6093841 -0.1907728 -0.12280903 -0.24725936 0.20223513 0.16507392 0.10399405
-0.04760675 0.5027047 -0.13805938 -0.1892901 -0.0010531219 -0.2590466 0.12582655 -0.1250805
-0.052913114 0.07604135 -0.53156394 -0.08179943 -0.09146483 -0.2999951 -0.030431693 -0.568865
-0.13016509 -0.35653308 -0.17367353 -0.019830344 -0.13452685 -0.12044924 0.11032651 -0.039597336
-0.2248309 -0.0035110826 -0.06428932 -0.30262542 0.3509148 0.0070146946 -0.58371603 0.004399042
-0.091291085 -0.31271765 -0.089018285 -0.17256342 -0.53088236 0.16374466 -0.6258382 0.07386168
-0.018334545 -0.076247424 -0.049557514 -0.18481705 0.022070045 -0.30017963 -0.37508267 -0.41380873
-0.13707496 -0.28841117 -0.4298121 -0.43458438 0.15278745 -0.27152625 0.24022369 0.02758717
0.4953362 -0.35707608 0.124261096 -0.16910978 -0.16555656 0.37605885 -0.047213968 0.4901995
0.041874122 0.35955203 0.00850704 0.2645107 -0.30307204 0.15435135 0.15377742 0.12378707
0.1401378 0.7037515 -0.16892548 -0.038178872 -0.2388663 -0.07361494 -0.55083406 -0.011992734
-0.28207454 0.08017077 0.14659415 -0.357998 -0.20852819 -0.0149334865 -0.27200583 -0.079661764
0.121452406 -0.14851351 -0.6202944 0.06931073 -0.2352102 0.17240404 -0.08108514 -0.06381241
0.039626557 -0.21944685 -0.027604982 -0.10145674 -0.123745024 0.03776658 -0.08703128 0.08184284
-0.024865527 0.07377684 -0.28076762 -0.017829774 -0.19994974 0.20648907 -0.054745432 -0.25874376
-0.07092765 -0.16428006 -0.09730519 0.15816604 -0.097519904 0.11491286 0.034546208 -0.07257659
-0.23264906 -0.045504786 -0.14535353 -0.23219225 -0.3322532 -0.10500046 -0.19936627 0.11352019
0.16737388 -0.13551135 0.2444051 0.08132192 -0.4032484 -0.6587617 -0.065314636 -0.0011240037
-0.022907747 -0.008445033 -0.24865477 0.03571943 -0.07218483 0.048737615 -0.081575364 -0.10790557
-0.005371172 0.06941043 0.042278763 -0.5620237 0.05263439 -0.01698926 0.03495547 -0.019639337
-0.058846757 -0.28679284 -0.5901209 0.08918463 -0.10911561 -0.08582545 -0.009234675 0.012342466
0.10715917 -0.08220923 -0.070711225 -0.28075436 0.1525517 -0.20082475 -0.04544596 -0.09977864
-0.052527476 -0.2515251 -0.15517965 -0.26860297 -0.04801922 -0.03645786 -0.25107 -0.1583305
-0.04174835 -0.084348485 -0.12217056 -0.18738386 0.17884864 0.048557963 -0.05710183 -0.46853223
0.02125494 -0.23198788 -0.12704593 0.20336635 -0.065714836 -0.49928987 0.018879162 0.030209374
-0.13224077 -0.11159163 0.012323394 0.005324942 0.050422985 -0.1268084 -0.03248145 0.106567755
-0.06216343 -0.048032507 0.09074166 0.010449483 0.051769517 -0.11349638 -0.10509946 -0.16507314
00000000: 2443 993d df8c 563e 930b bd3e a498 e63e
00000010: 61ca 973d 92e8 7e3e e7a1 173e 02fa 8dbd
00000020: e220 f4bc 325d 0cbe 1264 a83e ea9c 3bbe
00000030: 1145 b7be 3cfd 86bd ac6f b5be 4400 90be
00000040: 1a2b 3f3c 41d2 2fbe 5296 a33e 4b75 7bbd
00000050: fa38 c13d 4b56 ba3c 40eb 283e c57b bbbe
00000060: a52c 25bf f532 1abc 6417 04bf 732c b4be
00000070: bec4 87be e8a6 43be 1fbd adbd e469 183e
00000080: da08 bcbe 1edf d8be d706 ca3d 8371 21bf
00000090: c9b5 f8bd 4b1e 343e 0c42 55be d5db e3bd
000000a0: e9b3 b13e 9900 1cbf f259 43be 4d83 fbbd
000000b0: 8f31 7dbe ba16 4f3e 2309 293e d5fa d43d
000000c0: 4cff 42bd 41b1 003f 705f 0dbe 44d5 41be
000000d0: e808 8aba c2a1 84be add8 003e 1a15 00be
000000e0: 6cbb 58bd 91bb 9b3d 9314 08bf 7686 a7bd
000000f0: ea51 bbbd f598 99be e34b f9bc 23a1 11bf
00000100: ff49 05be 818b b6be 79d7 31be 3f73 a2bc
00000110: 68c1 09be 17ae f6bd def2 e13d d130 22bd
00000120: 123a 66be 311a 66bb 1eaa 83bd b8f1 9abe
00000130: 1bab b33e 86db e53b 6a6e 15bf d725 903b
00000140: d2f6 babd 871c a0be 384f b6bd 77b4 30be
00000150: e8e7 07bf aeac 273e ef36 20bf cb44 973d
00000160: 5432 96bc 9c27 9cbd d2fc 4abd ae40 3dbe
00000170: 3dcc b43c 25b1 99be d60a c0be bdde d3be
00000180: 615d 0cbe a1aa 93be 5510 dcbe d881 debe
00000190: 5074 1c3e 7d05 8bbe 33fd 753e 7dfe e13c
000001a0: b59c fd3e add2 b6be 9a7c fe3d 1d2b 2dbe
000001b0: a987 29be c98a c03e 6f63 41bd 6efb fa3e
000001c0: 3384 2b3d 3417 b83e 1d61 0b3c f26d 873e
000001d0: 422c 9bbe 480e 1e3e d477 1d3e 1384 fd3d
000001e0: 4980 0f3e 0f29 343f cdfa 2cbe 7361 1cbd
000001f0: 5e99 74be 6ec3 96bd 7603 0dbf 2c7d 44bc
00000200: 136c 90be 9330 a43d c71c 163e 844b b7be
00000210: 6a88 55be 95ab 74bc 5944 8bbe b525 a3bd
00000220: 0abc f83d ed13 18be 9dcb 1ebf c9f2 8d3d
00000230: f1da 70be af8a 303e f70f a6bd 15b0 82bd
00000240: 754f 223d adb6 60be d823 e2bc 8dc8 cfbd
00000250: 086e fdbd 21b1 1a3d 753d b2bd 389d a73d
00000260: cab2 cbbc 5018 973d c6c0 8fbe bf0f 92bc
00000270: a0bf 4cbe df71 533e bf3c 60bd 107a 84be
00000280: 8442 91bd 0839 28be f247 c7bd 47f6 213e
00000290: 84b8 c7bd 6f57 eb3d 5380 0d3d 09a3 94bd
000002a0: 8e3b 6ebe 3a63 3abd 8ed7 14be cec3 6dbe
000002b0: 171d aabe 7b0a d7bd ac26 4cbe 467d e83d
000002c0: 0f64 2b3e 7dc3 0abe 5545 7a3e 1b8c a63d
000002d0: 9376 cebe 9ba4 28bf aec3 85bd 4e53 93ba
000002e0: 07a9 bbbc 095d 0abc 5b9f 7ebe 894e 123d
000002f0: a4d5 93bd 18a1 473d fc10 a7bd 98fd dcbd
00000300: a800 b0bb 0e27 8e3d 7f2c 2d3d c9e0 0fbf
00000310: 2897 573d 102d 8bbc 782d 0f3d ade2 a0bc
00000320: 4c09 71bd 83d6 92be 2a12 17bf 6ea6 b63d
00000330: 0178 dfbd 41c5 afbd 094d 17bc 0e38 4a3c
00000340: 4476 db3d 505d a8bd 0cd1 90bd 09bf 8fbe
00000350: 8336 1c3e 01a5 4dbe 8b25 3abd be58 ccbd
00000360: 0d27 57bd e6c7 80be 6ae7 1ebe 5486 89be
00000370: cdaf 44bd d654 15bd 3f8c 80be 6421 22be
00000380: 5100 2bbd e6be acbd 8f34 fabd 8ee1 3fbe
00000390: 1924 373e b7e4 463d 9ce3 69bd 75e3 efbe
000003a0: d71e ae3c 3b8e 6dbe 5418 02be 453f 503e
000003b0: 8095 86bd eca2 ffbe 79a8 9a3c a679 f73c
000003c0: 206a 07be 278a e4bd 10e8 493c da7c ae3b
000003d0: 5588 4e3d 10da 01be 450b 05bd 3240 da3d
000003e0: 159f 7ebd bcbd 44bd c3d6 b93d 4f34 2b3c
000003f0: 460c 543d ca70 e8bd 633e d7bd ef08 29be

autoencoder.decoder.2.bias f4 [16]
-0.40910473 0.13246101 -0.36533493 -0.16625951 -0.37230638 -0.7167532 0.19238915 -0.02621154
-0.213902 -0.040653653 0.35447177 -0.46322516 -1.174356 -0.41881123 0.25857338 -0.3048586
00000000: 2d76 d1be dca3 073e 2e0d bbbe ef3f 2abe
00000010: f19e bebe 237d 37bf a901 453e 95b9 d6bc
00000020: 2009 5bbe 7284 26bd 537d b53e d92b edbe
00000030: 4c51 96bf 6d6e d6be bb63 843e 6d16 9cbe

autoencoder.decoder.4.weight f4 [16, 8, 5, 5]
0.041455403 -0.10488371 -0.15244119 -0.120051235 0.13279763 -0.028660212 0.25711796 -0.123581454
0.06849086 0.21889912 0.10537246 -0.23183692 -0.117138006 0.2313845 0.25985646 -0.22210915
0.094032876 0.25530508 -0.20770481 0.21999359 -0.21163109 0.15431438 0.09200485 -0.064239755
0.25858042 -0.14282906 0.20015772 -0.047215093 0.028585685 0.01686537 0.052454423 -0.038215008
-0.09934514 0.008185042 0.01945676 -0.20450045 0.030475864 0.018003058 0.17007677 -0.08535798
0.018554159 0.10009948 0.1780803 0.16214232 0.13145205 -0.0021444366 0.15610406 0.33657935
0.07132256 0.12870291 0.07194997 -0.016715547 0.053784207 0.14422436 0.32548636 -0.18884128
0.00068240095 0.053572707 -0.059624158 0.075810015 0.0069415895 0.13596049 0.06269897 -0.100973144
0.09079617 0.0949003 0.1520007 -0.18847212 0.075897396 0.005982082 0.020340865 -0.009972037
-0.1951972 -0.11111514 -0.017155515 -0.4655902 -0.21570031 0.042141136 -0.056052737 -0.14090995
0.031311844 0.018438997 -0.026406499 0.19821008 0.027081272 0.029256597 -0.07221998 -0.0074904016
-0.13802576 0.092596196 0.068620905 -0.10245894 0.23633985 0.060862467 -0.24194513 0.032801166
-0.16392589 0.009232637 0.11750057 -0.110459484 -0.1683321 -0.2238948 0.061385304 -0.052867107
-0.16630422 -0.05281511 -0.099695496 0.016504638 0.11996028 0.03979108 -0.0008145963 0.08396938
-0.04247142 -0.11680373 0.09367093 0.017532004 -0.05204704 0.13859962 0.31013793 -0.2355405
0.1436041 -0.057906333 0.10471483 0.038552813 -0.02865227 0.0048654824 -0.060199663 -0.020581052
0.03729829 0.0507008 -0.035235956 0.052821003 -0.085235424 0.015943043 0.091208324 0.06328736
0.11146678 -0.03176559 0.161875 0.143441 0.024651906 0.05141427 0.019524522 0.03733598
0.048774857 -0.0007319356 0.09093937 0.047572587 -0.018929064 0.0053321393 0.038932487 0.032093395
-0.03267266 -0.060581066 -0.07450469 0.08043866 0.21274228 -0.082570486 0.1569911 0.08870511
0.08235997 -0.14424856 -0.25026947 0.04113492 0.20295937 -0.15684624 0.059691202 0.0916278
0.028426588 0.1565631 -0.1680373 0.008142387 0.035706766 -0.005953994 0.043384396 -0.048125226
-0.009279838 -0.032645836 0.0013659311 -0.020581936 -0.05855972 0.18554495 -0.012246197 0.03453537
0.0940863 -0.00017234773 0.10976215 -0.16694434 0.03123698 0.1895979 -0.051590074 0.09873352
0.070392676 0.0027047223 0.110038035 0.019253448 0.037550274 0.08250547 -0.05310755 0.00018340282
0.018731846 -0.19170007 -0.092080116 -0.066614434 -0.18650095 -0.35250428 -0.23717071 -0.003346919
0.067095995 -0.20017923 0.20748998 0.06338523 0.16125599 -0.35417446 -0.644844 0.04448988
0.0822113 -0.13735737 0.14481747 -0.20360127 -0.0855297 -0.011149469 0.18516749 0.12921415
-0.31523737 -0.091660105 0.0061707837 -0.13398401 0.004741655 0.04253888 0.0052589267 0.22604561
-0.028278053 -0.071999855 -0.2709433 0.008525625 -0.06771718 0.008862131 -0.18977436 -0.07418803
-0.2737217 -0.12782934 0.19350511 -0.012284272 -0.09674033 -0.063543074 -0.17250925 0.14862052
-0.06332568 -0.09717042 0.03337135 0.073530525 -0.08577218 -0.092989184 -0.30666962 0.21101129
00000000: 24cd 293d 45cd d6bd 8b19 1cbe 6cdd f5bd
00000010: 1afc 073e d2c8 eabc f7a4 833e 4618 fdbd
00000020: f044 8c3d 1727 603e 84cd d73d a866 6dbe
00000030: 0de6 efbd 0ff0 6c3e e80b 853e 9570 63be
00000040: 4f94 c03d 59b7 823e 92b0 54be 0046 613e
00000050: d2b5 58be 9704 1e3e 0a6d bc3d 2290 83bd
00000060: a764 843e c841 12be 25f6 4c3e 9d64 41bd
00000070: 872c ea3c 3f29 8a3c 73da 563d 5787 1cbd
00000080: 7775 cbbd 8e1a 063c c863 9f3c 9168 51be
00000090: 85a8 f93c 267b 933c 9b28 2e3e 2ad0 aebd
000000a0: e4fe 973c f500 cd3d af5a 363e a308 263e
000000b0: 5e9b 063e ad89 0cbb bed9 1f3e 2154 ac3e
000000c0: 9011 923d b2ca 033e 825a 933d 0bef 88bc
000000d0: d44c 5c3d 8daf 133e 26a6 a63e 9c5f 41be
000000e0: 27e3 323a 0e6f 5b3d 7638 74bd 4842 9b3d
000000f0: 4676 e33b 3a39 0b3e 5168 803d 02cb cebd
00000100: 58f3 b93d 175b c23d 12a6 1b3e d6fe 40be
00000110: 1870 9b3d 5705 c43b e3a1 a63c c161 23bc
00000120: c6e1 47be 5690 e3bd b989 8cbc d761 eebe
00000130: 8be0 5cbe 2f9c 2c3d 8e97 65bd b34a 10be
00000140: d940 003d 610d 973c 7152 d8bc 95f7 4a3e
00000150: 8bd9 dd3c 88ab ef3c 12e8 93bd 0b72 f5bb
00000160: a056 0dbe 13a3 bd3d 1e89 8c3d fed5 d1bd
00000170: 1303 723e ec4a 793d 77c0 77be 845a 063d
00000180: 30dc 27be 7c44 173c 24a4 f03d 9538 e2bd
00000190: 405f 2cbe ae44 65be 286f 7b3d 2e8b 58bd
000001a0: a74b 2abe a854 58bd 272d ccbd bc34 873c
000001b0: bcad f53d f9fb 223d a28a 55ba 23f8 ab3d
000001c0: 83f6 2dbd cb36 efbd 8bd6 bf3d 479f 8f3c
000001d0: 472f 55bd 0fed 0d3e 66ca 9e3e 8731 71be
000001e0: f40c 133e 312f 6dbd bb74 d63d 8ee9 1d3d
000001f0: 2ab8 eabc a06e 9f3b ec93 76bd 9899 a8bc
00000200: 17c6 183d a4ab 4f3d 9453 10bd d65a 583d
00000210: e98f aebd fc9a 823c 6ecb ba3d ce9c 813d
00000220: b248 e43d a31c 02bd 8fc2 253e 33e2 123e
00000230: cbf2 c93c c597 523d e4f1 9f3c 9ded 183d
00000240: 25c8 473d 5edf 3fba 6c3e ba3d 79db 423d
00000250: 2011 9bbc 3ab9 ae3b ac77 1f3d 5d74 033d
00000260: c4d3 05bd da23 78bd ea95 98bd 06bd a43d
00000270: 1dd9 593e b71a a9bd 46c2 203e 06ab b53d
00000280: 58ac a83d e5b5 13be 5223 80be 177d 283d
00000290: 95d4 4f3e 4d9c 20be c37e 743d 5ba7 bb3d
000002a0: e0de e83c 1452 203e f811 2cbe a567 053c
000002b0: 4241 123d b919 c3bb d6b3 313d f51e 45bd
000002c0: 760a 18bc a4b7 05bd 0b09 b33a 739b a8bc
000002d0: 51dc 6fbd 7fff 3d3e 46a4 48bc f674 0d3d
000002e0: 51b0 c03d 3eb8 34b9 faca e03d 75f3 2abe
000002f0: b2e4 ff3c f425 423e 1d50 53bd cd34 ca3d
00000300: 092a 903d b641 313b 9f5b e13d 68b9 9d3c
00000310: 51ce 193d a1f8 a83d 4d87 59bd d24f 4039
00000320: 8773 993c 064d 44be 8094 bcbd 266d 88bd
00000330: 1bfa 3ebe 717b b4be e1dc 72be fc57 5bbb
00000340: a069 893d c9fb 4cbe 4178 543e 1ed0 813d
00000350: 4a20 253e 5b56 b5be 7f14 25bf 053b 363d
00000360: 665e a83d 69a7 0cbe 084b 143e da7c 50be
00000370: 322a afbd 43ac 36bc 8c9c 3d3e b750 043e
00000380: cb66 a1be 4bb8 bbbd 4934 ca3b 1b33 09be
00000390: e35f 9b3b 403d 2e3d 1353 ac3b 8078 673e
000003a0: 60a7 e7bc a974 93bd 15b9 8abe 10af 0b3c
000003b0: 4eaf 8abd 7932 113c 3654 42be e5ef 97bd
000003c0: 4025 8cbe b2e5 02be 3426 463e f943 49bc
000003d0: cb1f c6bd df22 82bd 44a6 30be fa2f 183e
000003e0: e5b0 81bd 4901 c7bd 66b0 083d 2c97 963d
000003f0: 53a9 afbd 1d71 bebd cd03 9dbe 5813 583e

autoencoder.decoder.4.bias f4 [8]
-0.74403375 -0.44387794 0.16313456 -0.63378334 -0.72701824 -0.48724535 -0.4125403 -0.5201246
00000000: ff78 3ebf f843 e3be bf0c 273e a03f 22bf
00000010: de1d 3abf 3978 f9be 7b38 d3be e326 05bf

autoencoder.decoder.6.weight f4 [8, 1, 2, 2]
-0.79784995 -0.6647999 -0.67591035 -0.54626584 -0.37179077 -0.44208905 -0.4228178 -0.48438305
-0.25991583 -0.31335577 -0.29746914 -0.34845847 0.17837219 -0.36057627 -0.19369906 -0.69821066
-0.85381544 -0.2757072 -0.47375444 0.06677691 0.39292184 0.5090435 -0.21622261 -0.11987903
0.29134 0.6898444 0.5711459 0.9706944 0.5113484 -0.20583776 0.6878232 -0.010656124
00000000: e53f 4cbf 5430 2abf 7608 2dbf 14d8 0bbf
00000010: 5c5b bebe 7f59 e2be 937b d8be 0e01 f8be
00000020: b013 85be 2b70 a0be e04d 98be 2669 b2be
00000030: 33a7 363e 749d b8be 0c59 46be efbd 32bf
00000040: a693 5abf 7e29 8dbe f18f f2be 55c2 883d
00000050: 0d2d c93e ad50 023f 7669 5dbe 2383 f5bd
00000060: 842a 953e a599 303f 9e36 123f 6e7f 783f
00000070: bbe7 023f 22c7 52be 2e15 303f 0697 2ebc
