save_config_3/6/model_state.pth (torch, 28664 bytes, 13 tensors)

autoencoder.encoder.0.weight f4 [16, 1, 3, 3]
00000000: 4f2e 7fbe d698 973e 45ac 713d 8a81 54be
00000010: 7362 343e ed21 143e 9104 b1be 1050 ec3d
00000020: 8357 8f3c a617 0c3f 3f8d 763e b500 d63e
00000030: 0fd3 623d ced3 d1bd 3dba da3d a7b5 fbbd
00000040: 65d9 41be 4cd7 283d 21b2 aebd 2370 653d
00000050: 5a2a 1fba bb17 65be fb46 1abd dd4d e9bd
00000060: c711 edbe 5116 fdbe cba8 30bf 4e90 0c3f
00000070: 8940 e83c 6e8b dbbd 36e6 223f a6f4 153e
00000080: 9544 183e af25 273f 4f48 38bd 608b 74bb
00000090: 9547 24bf a519 5bbe 6865 c33d d0d9 05bf
000000a0: 9532 66bc 1c34 4f3e 1bdb f4be e234 f7bb
000000b0: f645 373f def9 c73e cc17 033f 0f27 373e
000000c0: 63ce 343e 7752 a43e 9689 933c ee07 8a3d
000000d0: 1039 bf3e ae88 95bb 9c47 48bf b329 30bf
000000e0: 5069 babe 37fa e5be dff7 21be 9d0c 793d
000000f0: 3bbf 4fbc e3e6 fcbc 79b2 663b a112 01bf
00000100: 0d52 a6bd e306 c5be 7efd f5be 4561 d3be
00000110: 0c74 f6be ec12 10bf b60c eabe 0e8d 20bf
00000120: 0c0d 923e 10c4 7c3e 79dd 06bf 0f23 ab3e
00000130: 414d 233e a9ce eebe f344 c23e 27f0 0d3d
00000140: c5e2 febe b6d4 87bc 42f4 25bf 0287 15bf
00000150: 55cd 533e 58b2 7dbe 1c74 14be ee10 ac3e
00000160: 5e82 56be 1ba7 10be 50ed 3c3d f9b5 4c3e
00000170: 2704 633e 4228 153e 7be2 003e 7b3a e33d
00000180: 7a0b b5bd 246c 1bbd d433 453d b172 a6be
00000190: 9317 fbbe c2ff 0abf 9884 f4bd 35d3 ea3a
000001a0: 1f68 453e e747 ec3e ff1d 023f bc83 8a3e
000001b0: 774f 2abe 24c6 a13d 6d01 393e 4f43 b03e
000001c0: 2e96 ef3e 083d c33e 8e1b b93e 611b 9b3e
000001d0: 30ba a13e 2675 a5bd 6bac 80bd ced1 9d3e
000001e0: e091 34be eff1 a7bd 1488 d83e 8d81 0e3e
000001f0: 9c2c 2d3e 0dba ff3e 66e0 03bd 01e0 003e
00000200: 206f babd d9b9 fabc 9c2f 103d 3c95 fc3a
00000210: 5cfb 843e a321 bd3e 2049 0d3e fdd0 7cbd
00000220: 1543 f4be 4bb2 06bf 1275 a03d 9092 70be
00000230: b296 02bf f27e 60bb d4db 03be 3282 2ebf
-0.24920009 0.29608792 0.05900218 -0.2075254 0.1761568 0.14466067 -0.34573796 0.11538708
0.017497784 0.54723585 0.24077319 0.41797414 0.055377062 -0.10245477 0.106800534 -0.12290507
-0.18930586 0.041220948 -0.08530069 0.056015145 -0.00060716795 -0.22372334 -0.03766535 -0.11391804
-0.46302626 -0.4943109 -0.6900756 0.5490769 0.028351085 -0.107199535 0.63632524 0.14644107
0.14869912 0.65291876 -0.044990834 -0.003731452 -0.64171726 -0.21396501 0.09540826 -0.5228548
-0.014050146 0.20234722 -0.47823414 -0.007544146 0.71591127 0.3905782 0.51208186 0.17885993
0.17656855 0.32094166 0.018009942 0.06739794 0.37348223 -0.0045634126 -0.7823427 -0.6881363
-0.36408472 -0.4491746 -0.15817212 0.060803045 -0.01267987 -0.030871814 0.0035201593 -0.5041905
-0.08121119 -0.38481817 -0.48044962 -0.41285148 -0.48135412 -0.5627887 -0.45712823 -0.6271523
0.2852558 0.24684167 -0.5268169 0.33425185 0.15947439 -0.46642044 0.3794323 0.034652855
-0.49782386 -0.01658092 -0.6482583 -0.5840913 0.20683797 -0.24775064 -0.14497417 0.33606666
-0.20948169 -0.14126246 0.046124756 0.19991292 0.22169553 0.14566138 0.12586395 0.11095139
-0.088400796 -0.037944928 0.04814513 -0.32509378 -0.49041423 -0.54296505 -0.11939353 0.0017915728
0.19278 0.46148607 0.5082702 0.2705363 -0.16631876 0.078991205 0.1806695 0.34426352
0.46794266 0.381325 0.36153835 0.30294326 0.31587362 -0.08078985 -0.06282886 0.3082413
-0.17633772 -0.08200442 0.4229132 0.13916607 0.16911548 0.49946633 -0.032196425 0.1258545
-0.09103227 -0.030606197 0.035201654 0.001927055 0.25973022 0.36939725 0.13797426 -0.061722744
-0.4770743 -0.52615803 0.078348294 -0.23493409 -0.5101119 -0.0034255353 -0.12876827 -0.6816741

autoencoder.encoder.0.bias f4 [16]
00000000: 4e70 443f a15b 6d3e 1ec0 843f a72f ec3d
00000010: 5f1d 1ebe db87 72bf 179a a73f 7a30 873e
00000020: 369b 9e3e e658 47be aaf7 423f 3eb0 eabd
00000030: 7ba6 07be fe4d 82be c125 2a3f 5b05 123f
0.76733863 0.23179485 1.037113 0.115325265 -0.15440892 -0.9473855 1.30939 0.26404172
0.30977792 -0.19467506 0.76159155 -0.11459397 -0.13247101 -0.25450128 0.6646386 0.5703942

autoencoder.encoder.3.weight f4 [8, 16, 3, 3]
00000000: 7241 4d3d 0ba4 e13d 0bb0 8fbd 4d62 fb3c
00000010: 5eed 2bbd 0637 3fbe 34c1 603e d72a 68be
00000020: 7652 d3be 2119 3f3d f006 283e ff82 ed3b
00000030: 30d7 a1bc 7538 bcbd 3d0c 54bd 6821 dcbc
00000040: 1f77 31be 58e0 aebd 15af ae3d a992 3fbe
00000050: 4f9f 2b3e 6132 3b3e 619d 843e 9c1d 1d3f
00000060: 4a04 5b3e 0179 87bd e415 44be 65dd 8abd
00000070: 60eb e23c 7bcc 2fbd 590c 353c 1987 a3bc
00000080: b464 10be 5263 41bd dfad 9f3d fafb d6bd
00000090: 81eb 88be 80a0 773d 61d9 4dbe aebb 013e
000000a0: d099 ad3e c99c 2cbc efb9 bdbb bf6a 843e
000000b0: 8f87 80be 4103 c43c b12e ba3d 7077 db3d
000000c0: 8d98 2dbd eaa5 443e a737 443d 02b2 ae3e
000000d0: a2ba 473e 532a 7d3e 797c fdbd c24c 5dbe
000000e0: d2f7 ca3d 836b 373e bdbb 89be f28d fdbd
000000f0: a10b 123f 6cbe dbbd a81d 30be f171 253e
00000100: 4519 5fbe 6b2d d53d 7c8c bf3c fba1 bfbe
00000110: fb42 3d3d caa0 bf3e 330e 02bd 44db 8b3e
00000120: 698f 8cbd 2579 cebc 5c34 52be b45f 95bd
00000130: 17e4 753c ce8f 803d 8336 cabe 5deb db3d
00000140: 4eeb 76bd 9d29 853d dca8 4dbe a14d 583e
00000150: f76b 413e c312 193e 3861 b43d 3d7e 87bd
00000160: beab 7e3e de63 4e3d 9175 9b3d 887e 1e3d
00000170: 9c46 a73d 862e 74bd ddb5 9ebd 63e6 96bd
00000180: 1d68 7bbd 0cc3 5ebe de60 59bd 002d fabc
00000190: 60bd e93d 3a93 98be de7a b2bd cdf6 5ebd
000001a0: 63eb bebd 1a55 13bf 21e3 c5bd cf1f 423b
000001b0: 13f5 523e 6582 163c 6a73 423d 92ff 2fbc
000001c0: 2ac7 febc 0655 2e3d 58ef 333c a511 883d
000001d0: 7cea 543e 9a1c 2e3e ddbd 803c 5807 64bd
000001e0: 63e9 9d3c b48e 073e 6e83 543d e989 a43d
000001f0: a0da 47be 1dda 2e3e 548e 123e d388 dc3c
00000200: cd9d ae3d bbc7 803d 33f7 75bd 3bc3 f8bc
00000210: ada7 d5bd a928 48bd 8b41 113d 489c 313e
00000220: 900b 57be f52c 883e d013 d3bd e720 09be
00000230: 8532 a83e d4b5 c7bd f37c 86be ad84 883e
00000240: ddfe 03be a07d 6abd 910f 063e dbe7 19bd
00000250: c824 e43c 14da fb3b 98ef 423e 3961 273e
00000260: e9f1 053e 9592 4f3e 6a76 963d a934 6d3e
00000270: 010b 4dbd 0ed5 a4bd 6d3d d03c 20e2 9d3d
00000280: 5b3d 233e 4195 2a3e 5543 1abe 795d de3d
00000290: 295e 76be ac5e 1a3e 2a9d 5b3d d094 abbc
000002a0: d19c b63e 5669 263d a103 8d3e f33a 973e
000002b0: 54b6 51bd 94e9 543e 561e 2ebc f6f6 633d
000002c0: 5e03 8f3d 6adc 853d 3b83 56bc e2e3 09bc
000002d0: 1f0d babe 7cf8 d8bb 016b e9bb 5f67 033d
000002e0: 2a35 453e 3bed 263b 45b7 7dbe 03c7 41be
000002f0: fa0e a4bd b335 653e 5b57 a4bd 5d65 043d
00000300: e173 f8bd fdb8 32bd bfbb dbbd b729 13bd
00000310: 5339 383b e1ce 46bd 3276 e2bd fc14 253e
00000320: 605e 3fbe 9f85 cabe d4f0 09bd bfcb 33be
00000330: 3138 d83d f703 dcbd 1a41 313d 52af ccbd
00000340: e425 c9bd 8393 66be 32dc 873d 5575 933c
00000350: 3ea6 13be c35d 8bbd b72f 0a3d 6ac4 bbbd
00000360: bd49 a0bd 1369 1cbe 6855 85be 3996 8b3d
00000370: 4e45 df3d 2d8f 45bd 47dc 3c3d 633a 40bd
00000380: 7e58 073e 94cb a8bd d2b6 38bd c85a bdbe
00000390: f9a7 91bd 9d3b 893d 1169 e0bd a605 4abe
000003a0: 6f31 88bd 9a95 8e3b dc21 2c3e bf10 313d
000003b0: aad2 723e 6270 013d d1c0 68bd 9ff9 103c
000003c0: 0039 5a3e 213c 293e 066f 063e 8dc4 78bc
000003d0: 7d12 bb3d 628a ba3d e45b 7fbc d3b7 a33d
000003e0: fca5 5fbe 4b9a fbbc 7caf 94bc 5476 b33c
000003f0: adb5 043e 245f d8bc 4380 3d3e f8bc b93d
0.05011124 0.11017617 -0.070159994 0.030686522 -0.041974418 -0.18673334 0.21948701 -0.22672592
-0.4127385 0.046654824 0.16408896 0.007248282 -0.01975593 -0.09190456 -0.051769484 -0.026871398
-0.17330597 -0.08538884 0.08529488 -0.1870829 0.1675999 0.18280937 0.2590132 0.61373305
0.21388355 -0.066148765 -0.19148976 -0.06780509 0.027700126 -0.042919617 0.011050307 -0.01996188
-0.14100915 -0.04721386 0.07796835 -0.104972795 -0.26742175 0.0604558 -0.20102455 0.1266925
0.33906412 -0.010535427 -0.0057899873 0.2586269 -0.25103423 0.023927333 0.09090937 0.1071614
-0.042381812 0.19203916 0.047904637 0.34120184 0.19504789 0.24723177 -0.12377257 -0.21611312
0.09910549 0.17912106 -0.26901045 -0.123805895 0.57048994 -0.107296795 -0.17198813 0.16156746
-0.21786983 0.104090534 0.023382418 -0.3742827 0.046206456 0.3742736 -0.031751823 0.27315724
-0.06863291 -0.02520425 -0.20527786 -0.072936445 0.015007994 0.062774286 -0.39494714 0.10738251
-0.060282998 0.06502078 -0.20083946 0.21123363 0.18888842 0.14948563 0.088076055 -0.06615875
0.24870202 0.05038821 0.075907834 0.03869489 0.081677645 -0.05961468 -0.077495314 -0.073681615
-0.061378587 -0.21754092 -0.053070895 -0.030539036 0.114130735 -0.29799825 -0.08714841 -0.054434586
-0.0932224 -0.5755173 -0.09662462 0.002962101 0.20601301 0.009186362 0.04747335 -0.010742085
-0.031100828 0.042561553 0.010982357 0.066439904 0.20792574 0.17003098 0.015715534 -0.055671066
0.019276327 0.1323803 0.051883154 0.08034117 -0.19516993 0.17075391 0.14312106 0.026920712
0.08526192 0.062880956 -0.0600502 -0.03036653 -0.10432372 -0.0488669 0.035462897 0.17344773
-0.21000504 0.265968 -0.10306513 -0.13391457 0.32851043 -0.09751478 -0.26267204 0.26663724
-0.12890191 -0.05724871 0.13091876 -0.03757463 0.02784957 0.007685909 0.1903671 0.16345681
0.13080563 0.2027076 0.073468044 0.2316462 -0.050059322 -0.080484495 0.025419915 0.077091455
0.15941374 0.16658498 -0.15064748 0.10857672 -0.24059357 0.15075177 0.05361668 -0.020944983
0.35666516 0.0406278 0.2754183 0.29537162 -0.051199272 0.20792228 -0.01062735 0.055655442
0.06983064 0.06536181 -0.013092811 -0.008416148 -0.36338136 -0.0066214185 -0.0071233516 0.032081004
0.19258562 0.002547099 -0.24776943 -0.18923573 -0.08010669 0.22383766 -0.08024474 0.03232323
-0.12131477 -0.04363345 -0.10729169 -0.035928454 0.002811034 -0.04853714 -0.110577 0.16121286
-0.18688345 -0.3955507 -0.033676937 -0.17558192 0.10557593 -0.10742944 0.043274976 -0.09994377
-0.0982168 -0.22517209 0.06633796 0.018000284 -0.14418885 -0.06804993 0.03373691 -0.091683224
-0.078265645 -0.15274458 -0.26041722 0.06815762 0.10901891 -0.048232246 0.04610851 -0.046930682
0.13217351 -0.082419544 -0.045096226 -0.36983323 -0.07112116 0.067008235 -0.1095754 -0.19728717
-0.06650054 0.00435133 0.16809791 0.04322886 0.23713174 0.031601317 -0.05682451 0.008848577
0.21310806 0.16526844 0.1312829 -0.01518358 0.09134386 0.09108426 -0.015585873 0.07994046
-0.21840662 -0.030713221 -0.018150084 0.02190701 0.12959929 -0.026412554 0.18505959 0.09069246

autoencoder.encoder.3.bias f4 [8]
00000000: 5cfd 9dbe b8eb 56bd f06a df3c 0206 abbd
00000010: ac79 94be 79b1 2d3e c8df 9c3e aa40 febd
-0.3085736 -0.052470893 0.027272671 -0.08350755 -0.28999078 0.16962232 0.30639482 -0.124146774

autoencoder.encoder.6.weight f4 [2, 8, 2, 2]
00000000: f8c6 693f 062c 203f b38b f63e fd0f d33e
00000010: e67c 6f3e 687c c73e cc92 ce3e c548 9d3e
00000020: 8036 45be 6da6 b9bc b98e cebe 2a91 ffbe
00000030: fbb0 06bf e0e0 2ebc 3fca 82bf 4a53 07bf
00000040: c088 16bf b2d3 93be 4649 2fbf 857f 20bf
00000050: 0598 87bf a6c2 32bf ae84 51be 3464 7ebf
00000060: 3f3f f93e 9e72 8b3f 1152 353f 94f1 463e
00000070: 28b8 213f 8495 a63e fee6 5f3e 56b9 793d
00000080: 26dd 2cbf e70c 28bf 4f92 ebbe 4798 0dbf
00000090: dd81 f53e a492 8a3e 8a4d ac3e d9b8 933e
000000a0: f67a 993e c5aa ca3e 5a4d b53e cd10 a53e
000000b0: 7b05 5c3e d4c2 f93e 5a98 393e e3a3 303e
000000c0: 2a59 d93d 39ce 62bf a170 97be ec0b 36bf
000000d0: 14dd e13e e2c4 02bf 3ac2 44bf 1782 843e
000000e0: 4673 47bf ef6e 4fbf 26bb 28bf 5f36 17bf
000000f0: 2185 813e 124b 193f cbb7 373f f9e9 ee3e
0.9131923 0.62567174 0.48153457 0.41223136 0.23387489 0.38962102 0.40346372 0.3071958
-0.19259071 -0.022662366 -0.40343264 -0.4991544 -0.526138 -0.010673732 -1.0217971 -0.52861464
-0.58802414 -0.28872448 -0.6847118 -0.6269458 -1.0593268 -0.6982826 -0.2046077 -0.9937165
0.48681065 1.0894353 0.7082835 0.19428092 0.63171625 0.32535946 0.2186546 0.060967766
-0.67524946 -0.6564469 -0.46010062 -0.5531048 0.4795064 0.27065003 0.33652908 0.28851965
0.29976624 0.39583412 0.35410577 0.3223938 0.21486466 0.48781455 0.18124524 0.17250018
0.1061271 -0.8859592 -0.29578117 -0.7111194 0.44113982 -0.5108167 -0.76858866 0.258805
-0.7791027 -0.81028646 -0.65910566 -0.5906734 0.25296882 0.59880173 0.7176482 0.46662882

autoencoder.encoder.6.bias f4 [2]
00000000: 0bfc 983c 3b0f 33bc
0.018674871 -0.010928924

autoencoder.decoder.0.weight f4 [2, 8, 2, 2]
00000000: 3d5b 3f3d b89e 343f f599 3a3d 5469 2a3f
00000010: a040 34be e66a e4bd e5e3 003f 6501 25bf
00000020: 9da4 2abe 28b6 373f 84e4 ba3e e6ce 863f
00000030: 3b14 ccbd e987 423e 181b 5fbf bd3c 83bf
00000040: 2e40 053f 6c3c 2d3f 8319 2bbc f895 413f
00000050: 99d6 8bbe 5d7b 48bf 64bf 99bd 8da3 e3bd
00000060: b884 93bd 2c55 29bd 2955 793e d280 7c3d
00000070: ef5d 84be d245 0d3f b6fb b53e 2dff 2e3e
00000080: ee66 d8bd e098 c23d e00c bd3e 7d12 b13e
00000090: da6f 0d3f 3a42 d43e cac3 993e 6246 273f
000000a0: 9173 9c3e 91da 56be 797b 043c 116a 0cbd
000000b0: 60ca b03e 5d46 37be 432f 4e3f cb00 cdbe
000000c0: fffe de3e 6b24 8cbe 045b 983e 7f0c bdbe
000000d0: d856 38be 8fbf 89be cee3 08be fea8 013f
000000e0: 9ec5 7cbe b7e3 193f 9d49 a1be db31 cf3c
000000f0: 37f8 55be 7add 98be 88b5 493f 48ee 7fbe
0.04671787 0.70554686 0.04555698 0.6656697 -0.17602777 -0.11153202 0.5034774 -0.6445525
-0.16664357 0.71762323 0.3650247 1.053189 -0.09964796 0.18997158 -0.87150717 -1.0252911
0.52051055 0.6767032 -0.010443094 0.7561946 -0.27312163 -0.7831324 -0.07507208 -0.11115179
-0.072030485 -0.04134099 0.24348892 0.06164629 -0.25852916 0.5518466 0.35543603 0.1708953
-0.10566507 0.09501815 0.36923885 0.34584418 0.55248797 0.41456777 0.30032188 0.6534177
0.3055692 -0.20981814 0.008086079 -0.03428084 0.345294 -0.17897935 0.80540866 -0.40039667
0.43553922 -0.27371535 0.2975694 -0.36923596 -0.18001878 -0.2690396 -0.1336815 0.50648487
-0.2468476 0.6011309 -0.31501475 0.025292328 -0.20895468 -0.29856473 0.7879262 -0.24993241

autoencoder.decoder.0.bias f4 [8]
00000000: ee6f 0b3f 4f14 543d 9fbc 51bf 5d8c f4be
00000010: 2cc6 533e 66cc 223f ff91 6cbf 9d27 8ebe
0.54467666 0.05177718 -0.8192844 -0.4776334 0.20681065 0.6359314 -0.9241027 -0.27764598

autoencoder.decoder.2.weight f4 [8, 16, 3, 3]
00000000: 75d1 903e a381 fb3b 00b3 6e3e e534 763d
00000010: bb80 ec3c a029 713e 21a2 a73d bd2d 8e3d
00000020: b5a9 e43d 995b 6a3e a22c 153e 4064 cbbd
00000030: a148 05be ca72 f43d 486a 3a3e c550 e4bd
00000040: f0a3 4dbe f1b9 323e 7ebe 6a3e 681a 223e
00000050: 92d9 e1bd e5a3 5abe 6274 933e f264 353d
00000060: 9e49 a63e ad59 cd3e 0140 99be 3615 38be
00000070: aead 663d 43e2 a23d 06b0 393b e607 0a3d
00000080: f95d cf3d 7b09 933c c320 c53e 7127 563e
00000090: 50e3 37be 3080 0dbe f3be 94be 39fc 1abd
000000a0: 6d9d 153d 3c9c f13d 2a81 52bd 9e1b 093d
000000b0: 45f3 07be d9af 9dbc ef37 083e 99f9 173e
000000c0: 2d5e cc3e 6959 003e e73f 953d b04b 15be
000000d0: 166b bb3e f26c f93d 53fb 2cbc 38e9 10bd
000000e0: afb4 e0bd 5fc7 b6be e3eb 2abe 3546 94bd
000000f0: 8285 553e 5ff8 8a3d d577 e4be 246a 2a3d
00000100: b901 01be 8865 43be 428e 1a3d 3238 da3d
00000110: 029f 0a3c 02e3 4ebe 20a9 3abd db91 df3c
00000120: fab3 14be fe67 ff3d ce4c 83bd 1e2f a8bd
00000130: 831d 323d 63d7 2a3e 3d47 24bd 07de 0abd
00000140: 9f4d aebe 6a5b c93d df48 1cbe ecae 8ebd
00000150: 7bae 5ebe f8a1 33be 7063 353e db0d c8be
00000160: d622 d13d faca 95bd d787 90be 6abb aabe
00000170: b977 103d 5204 8bbd 2de0 85bd 7f31 843d
00000180: 9334 a03e 7b72 f03d 6e28 993e 9f30 2c3c
00000190: bc39 cf3d 52a3 273d d095 90be 9908 b6bd
000001a0: 23fd a2ba cd66 843d 6d21 b5bd 3e51 cdbc
000001b0: 621f 923d 1211 b93d e39a 58bd 4d88 1e3e
000001c0: 4260 943e bcf1 acbe ce16 f13e 227d 76be
000001d0: 3d9b ec3e 9a27 783e 8e14 2a3d e8f5 2d3d
000001e0: 7c1b e63d 235b ef3d 55ee 3f3e caac ca3d
000001f0: a308 a9bc 1f8b 923e af83 8d3d 31c7 bfbc
00000200: 990a 453c 71b6 79be 4814 27bc 3cf0 1fbe
00000210: 271b 10bb 7731 633d 7fa3 283e d551 83be
00000220: e0c3 99bd 07be 95be 9f01 80be f88a 86be
00000230: 8d70 1c3d 36a9 7e3e b27e 95bd 1583 f63d
00000240: 8492 df3d de17 1f3c 48dc a1bd 6683 6c3d
00000250: 6a2e d33c e707 1c3e ed0d 48bd 5077 08be
00000260: 5dcb 6bba 56cf ac3d cbbd 1b3e 6dd7 a6bd
00000270: 894d 93be 1f9b 353e 276a 6dbe 78f3 023e
00000280: 0506 18bd c8ac a6bd 48cf ffbd 6c01 3d3e
00000290: b5e4 2a3d a93c ba3d 53de 603e 500e 253e
000002a0: cde4 88bd 025e 75bd 68c9 f7bc f525 55be
000002b0: dd35 d2bc 511d 78be fd8d eabd 60ca 973d
000002c0: c394 0ebe 0970 afbd c95e e7bd e552 92be
000002d0: 9f5b 2abe 7401 eeba 1d93 a53c 6715 1a3e
000002e0: b7fd 2f3d 4674 09be d376 05be 06c3 fdbd
000002f0: a83a 07bd b9e3 223e 6483 c23e 8342 903d
00000300: d463 9cbd 06a4 043e 1295 5bbd 0c7e 593e
00000310: e1b5 bdbc 06e3 923d 19c3 35be f16c 2ebc
00000320: 6511 dd3d 4a6e 703e 668f 5f3d 3e44 a73e
00000330: 4b4a a6be 1cf5 acbe 8c25 a53d 60de ffbd
00000340: f6c2 183e d544 ebbc 328f 243e d88e 23bf
00000350: acda bcbd 3690 703d 9d14 3e3c 1b94 22be
00000360: 2aff 663d 9f18 9cbd f546 3b3e 4416 29bd
00000370: 0ce5 acbe 367d cd3d 4cc4 c8bd 5501 e0be
00000380: e4ae 3a3e 41ef 943d bb05 a33c 26ea 18bc
00000390: 98c0 b9bc 15b4 a03d 3e3e f63c 2523 263e
000003a0: b880 f23d 0b31 a1bd dd95 7c3d 266a 8d3e
000003b0: 61a6 583c 0eb8 5e3e dfef 1fbd 78ab 703e
000003c0: 8c90 bb3d 2b99 1a3e d2a0 b33d 2b28 d63d
000003d0: f7e1 0d3e 1e69 1abd b8dc dbbe dc33 a6be
000003e0: fcfe bcbd e3ff 68bd 4744 8d3e c21f 3dbe
000003f0: 891e 233d a512 ea3d c7f5 d23c c8e3 47bd
0.28284803 0.007675366 0.2331047 0.060109038 0.028869977 0.23551035 0.081852205 0.06942318
0.111651815 0.22886504 0.14567807 -0.099312305 -0.13015987 0.11935957 0.18204606 -0.11148218
-0.20082068 0.17453744 0.2292423 0.15830386 -0.11027826 -0.21351583 0.2879973 0.044285722
0.3247804 0.4010748 -0.29931644 -0.17976841 0.056317978 0.07953312 0.0028333678 0.03369894
0.10125346 0.017948857 0.38501558 0.20913483 -0.17957807 -0.13818431 -0.29051933 -0.037838195
0.036527086 0.117973775 -0.05139271 0.033473603 -0.13276394 -0.01924889 0.13302587 0.14841308
0.399156 0.12534107 0.07287579 -0.14579654 0.36605138 0.12178983 -0.010557967 -0.035378665
-0.10971963 -0.35698983 -0.16691546 -0.072399534 0.2085171 0.06785654 -0.44622675 0.04160513
-0.12598313 -0.190817 0.037733324 0.1065525 0.008460762 -0.20203784 -0.045571446 0.027291229
-0.1452178 0.12471007 -0.06411134 -0.08212112 0.043485176 0.16683726 -0.040107 -0.033903148
-0.34043595 0.09831889 -0.15262173 -0.069669574 -0.21746247 -0.17542255 0.17713714 -0.3907307
0.102117226 -0.07314105 -0.28228638 -0.3334611 0.035270426 -0.067879334 -0.06536899 0.06454753
0.3129011 0.117405854 0.29913658 0.010509639 0.10118434 0.04092724 -0.28239298 -0.088883586
-0.001243506 0.0646492 -0.08844266 -0.025063153 0.07134892 0.09036459 -0.052882086 0.15481682
0.2897969 -0.3377818 0.4708771 -0.24071172 0.46212187 0.24233857 0.04152351 0.042470843
0.11235711 0.11687305 0.1874326 0.09896238 -0.020634001 0.28621766 0.06909882 -0.023410412
0.012026452 -0.24386002 -0.0101977065 -0.15618986 -0.002198884 0.055467095 0.16468619 -0.2564837
-0.07508063 -0.29246542 -0.25001237 -0.262779 0.038193274 0.24869236 -0.07299556 0.12036721
0.109166175 0.00971028 -0.079033434 0.0577425 0.025778968 0.1523739 -0.048841406 -0.13326764
-0.0008994842 0.08437984 0.15209119 -0.08146558 -0.28770092 0.17734955 -0.23185025 0.12788188
-0.037115116 -0.08138424 -0.12490708 0.18457574 0.04172202 0.09093601 0.2195981 0.16118741
-0.06684265 -0.059904106 -0.030247405 -0.2081526 -0.02566045 -0.24229933 -0.11452863 0.07411647
-0.13923936 -0.08566291 -0.11297376 -0.28578869 -0.16636513 -0.0018158392 0.02021175 0.15047227
0.04296657 -0.13423261 -0.13033609 -0.123907134 -0.033014923 0.15907182 0.37990868 0.07043936
-0.07636228 0.12953195 -0.05360896 0.2123949 -0.023158016 0.071722075 -0.17750205 -0.010646091
0.10794333 0.23479572 0.054580115 0.32669252 -0.32478556 -0.33780754 0.08063802 -0.124935865
0.14918122 -0.028719345 0.1607025 -0.6388984 -0.09221396 0.05873128 0.011601594 -0.1587681
0.056395687 -0.076218836 0.18288787 -0.041281 -0.337685 0.10033648 -0.09803066 -0.43751016
0.18230778 0.072721966 0.019900193 -0.009333169 -0.022674844 0.07846848 0.030058976 0.16224344
0.118409574 -0.07870682 0.06166636 0.27620047 0.013223262 0.21749899 -0.03904712 0.2350291
0.091584295 0.15097491 0.087709084 0.1045688 0.1385573 -0.037697904 -0.42941833 -0.3246144
-0.09228322 -0.056884658 0.27591154 -0.18469146 0.039824042 0.114293374 0.025751961 -0.048801214

autoencoder.decoder.2.bias f4 [16]
00000000: dab6 65be 4322 c4bd 14e9 dd3d 53ba 52bf
00000010: 3a7b 42be 102e 93bd d2ae 53bf 7f31 2bbf
00000020: c35c 7bbf fabb 3dbf 1555 6abd 0a9e 2ebe
00000030: e30b 9ebe 3c09 883d 11e3 68bf 86d9 fcbe
-0.22433034 -0.095768474 0.10835472 -0.8231556 -0.1899232 -0.0718652 -0.8268863 -0.668724
-0.9818842 -0.74114954 -0.057210047 -0.17052475 -0.30868444 0.06642386 -0.90971476 -0.49384707

autoencoder.decoder.4.weight f4 [16, 8, 5, 5]
00000000: 4926 ba3c e0ad e6bd 6418 90bd a856 c63b
00000010: 372b 65bc ca3c 943d 385a 80bd 74a0 0fbb
00000020: eee0 883d 4d30 a33b 0f46 873d d298 f1bd
00000030: 859a 5bbe c895 2f3e d42b 5bbd ff5e e43d
00000040: 9b70 2cbd 94ff fabd 3670 9d3c 89ba c8bd
00000050: 6a0e 763c 97b8 853d ddd8 0bbe 3940 f93c
00000060: 050a 30be 23ad 4b3d a92c 85bd bf91 51bd
00000070: 4f55 2abc a8b3 423e 1ff7 d33c bb55 933b
00000080: 11d5 8e3a e3c1 0b3d 78b6 2a3e 9d63 173d
00000090: 88d0 fa3c 6e9c 9c3c a334 f2bd 660c 2c3e
000000a0: 23b1 443e 09a5 22bd b553 7ebc d82d e4bd
000000b0: 4603 7a3c b72d 123b b993 b0bd 6def c13c
000000c0: 0bb3 b1bd a44d 203e 0627 253d febd e8bc
000000d0: 666e 003e 880f 233d 6d47 e33c 8db9 0ebe
000000e0: b3cb fdbc 4285 72bd 248f 0a3e 453e 2a3e
000000f0: 518c fe3d 3e4a 2e3d 05b6 063e 1d22 813e
00000100: b432 5bbc 5b1a af3c 8c2e b73d 7254 5e3e
00000110: 5e5b 2a3e cabd cf3d 5549 5dbe 76a1 71bd
00000120: 1061 f03c 945d 353d 0dcf b03d 6754 c0bc
00000130: 4ebd 81bc 9906 24be 00da 293e 12a9 733d
00000140: eb76 43bd 3f46 683c 57b9 3dbd 22ad 323e
00000150: 19e4 d73c db89 45bc d500 883d c9dd b9bd
00000160: 6ffa 053e 0338 22bc 6817 24bd 1d60 543d
00000170: 428b 97bd a73e 4c3e b046 86bd 0282 d9bd
00000180: be66 efbb 2470 6bbd 7c69 013e 1bb7 2c3c
00000190: 2719 773d cb4a 1f3d 97bd b03c e786 54bd
000001a0: 1c3f 0b3e 32fe 5f3d 2e51 89bd 887f 8b3c
000001b0: b94e 48be 780d a73b 7590 313e 0b1e 05be
000001c0: 4ecc c93c 36ec 833d 5bc0 2fbd 2ff3 35bd
000001d0: e57e 8b3c 2f18 1b3d 2af8 c9bc 2e58 a2bd
000001e0: 0b2f e13d 9262 3fbe 732e b9bd 75f8 30be
000001f0: 4d4e 86bd 979e e03d f900 203d 06f3 14bc
00000200: 048d 2fbc 470e 0d3e 0a1b 083c 252a d8bd
00000210: 6a07 d9bc 2de8 2ebe 838c 873b b702 e03c
00000220: 7851 3abe 6612 adbd 0c9e 55bd b9ab e3bd
00000230: c4a5 efbd 241c 7ebd 50e4 673d f80b a6bd
00000240: a93b dbbd d2d8 c33d cfec 1bbd a281 9c3d
00000250: ccf1 dcbd 3e22 aa3b 55ef 053e 0c9d 5e3d
00000260: 08c6 053e 621d 543d fc62 293e 4418 e13c
00000270: 49d5 b43c 5935 f73d 07f8 803d 8dc2 d43d
00000280: edd2 793e a506 573e 5d17 4e3e 0b9e 203e
00000290: cb83 2ebd d9ae 873e 69df 573e 23a2 983e
000002a0: a37c 7e3d 0441 283c 319e 213e 5e96 f53d
000002b0: 99da 713e 3146 183d 1c80 3c3d e145 20be
000002c0: eb96 debd 689f 933c ea2f 2ebd a142 07be
000002d0: 34c9 5abd d516 8bbd e65a 6bbd 7478 46bd
000002e0: 9e60 1fbd ef71 833d 0da4 e5bd 6d9d 843d
000002f0: 2f54 96ba 8a0c 03be b934 243d 52d6 8cbd
00000300: ee2c fe3d 8d4e 98bd aa51 3abe dc73 fa3c
00000310: b6e2 eebb 1700 633d a6e3 2bbd 379e 11bd
00000320: 11bd 03be d8ab f73d 45b6 b9bd 52d5 6abd
00000330: 4b7e 103e 2ac9 c4bc c134 a83d f44b 9e3d
00000340: 52d3 e13d e6c4 e93c 5292 12bd af2c 1a3e
00000350: b37c ce3d 7f6e 5c3e 27b6 023e b54b ea3c
00000360: 1963 76bd ce49 e1bc 1edb 663d 0d21 d63b
00000370: c010 d6bc ed9c 0a3e 42cc 3c3d cd59 833e
00000380: ca2b 943d a289 12be d217 dd3d 8f07 093c
00000390: 8f71 e7bd fa20 89bd 53c8 29be 3ffe e7bc
000003a0: 9295 4c3d 44e2 78bd 7a30 90bc ec89 1c3d
000003b0: c857 003e 2828 1d3e 4d97 223e 887e 613d
000003c0: c63b dabd 0d0b 533d a99e f03d 0865 aa3d
000003d0: d1b7 88bd ebbe 003d 53b9 843d 693a a63d
000003e0: 4718 963d d210 263e c65d 84bd fdee 76bd
000003f0: 6b3c 64bc c808 0c3e ba0c 4a3b 4af6 8bbd
0.022723334 -0.11263633 -0.07035902 0.0060528107 -0.013987354 0.07238157 -0.06267208 -0.0021915706
0.06683527 0.004980123 0.066051595 -0.11796726 -0.21445663 0.17146981 -0.053508595 0.111509316
-0.042099576 -0.12255779 0.019218545 -0.09801204 0.015018085 0.06529348 -0.13656946 0.030426132
-0.17191322 0.049725663 -0.06502659 -0.051164385 -0.010396316 0.19013846 0.025874672 0.004496304
0.0010897239 0.03412045 0.16671169 0.036960233 0.030617014 0.01911756 -0.11826446 0.16801605
0.19208197 -0.03970817 -0.015522887 -0.111415565 0.0152595695 0.002230508 -0.08621926 0.023673737
-0.08676728 0.15654618 0.04032042 -0.028410908 0.12542114 0.039809734 0.02774402 -0.1393797
-0.03098092 -0.059209116 0.13531166 0.16625316 0.12429107 0.04255127 0.13155372 0.2522134
-0.013378788 0.021374872 0.08944425 0.21711901 0.16636416 0.10143621 -0.21610005 -0.05899187
0.029343158 0.044278696 0.08633242 -0.023477746 -0.015837338 -0.16018142 0.16587067 0.05948741
-0.04772083 0.014176904 -0.046319332 0.17448857 0.026353883 -0.012056793 0.06640784 -0.09075505
0.13083814 -0.00990105 -0.040061384 0.051849473 -0.07399608 0.19945775 -0.06556451 -0.106205
-0.007305949 -0.057479993 0.12637895 0.010541703 0.06032672 0.038889688 0.021574778 -0.051886465
0.13598293 0.05468578 -0.06704937 0.017028585 -0.1956128 0.005098041 0.17340262 -0.12999742
0.024633553 0.06441538 -0.042908054 -0.04442137 0.017028281 0.03786486 -0.024654467 -0.07926975
0.10995301 -0.18689945 -0.090420626 -0.17282279 -0.065579034 0.109677486 0.039063428 -0.009091144
-0.010714773 0.13774978 0.008307228 -0.105549134 -0.026492793 -0.17080756 0.0041366233 0.027345045
-0.1819514 -0.08450775 -0.05215268 -0.11116738 -0.11701539 -0.062038556 0.05661422 -0.081077516
-0.10704739 0.095628396 -0.038067635 0.07641913 -0.107883066 0.0051920703 0.13079579 0.05434899
0.13063824 0.051785834 0.16541666 0.027477391 0.022074359 0.12070722 0.062973075 0.1038867
0.24396868 0.20998628 0.201261 0.15685289 -0.042606156 0.26500586 0.21081318 0.298112
0.06213058 0.010269407 0.15783001 0.11991571 0.23618545 0.037176315 0.046020612 -0.15651657
-0.10868629 0.018020347 -0.042526163 -0.1320901 -0.05341454 -0.06791464 -0.057459734 -0.048454717
-0.0389105 0.064182155 -0.11212931 0.06475339 -0.001146918 -0.12797752 0.040089343 -0.06876816
0.124109134 -0.07436857 -0.18195215 0.030572824 -0.0072902096 0.055420008 -0.04196515 -0.035551276
-0.12865092 0.120933235 -0.09067968 -0.057332344 0.14110677 -0.024021704 0.08213187 0.07729331
0.11026634 0.028536271 -0.035784073 0.15056108 0.10082378 0.21526526 0.12764798 0.028600553
-0.0601531 -0.027501013 0.05636131 0.0065347017 -0.026131034 0.13536425 0.046093233 0.2565445
0.072349146 -0.14310315 0.10795559 0.0083636185 -0.113009565 -0.06695743 -0.16580324 -0.028319476
0.04994733 -0.06076266 -0.01760124 0.03821747 0.12533486 0.1534735 0.15878029 0.05505231
-0.10655932 0.05152421 0.11749012 0.083200514 -0.06675685 0.031432074 0.0648066 0.081166096
0.07328849 0.16217354 -0.06463198 -0.06028651 -0.01393042 0.13675225 0.003083034 -0.06834085

autoencoder.decoder.4.bias f4 [8]
00000000: e279 73bf 8af3 edbe 5f9e f0be 17fd dcbe
00000010: 3827 ecbe 8ee6 e1be af83 6ebe 28ef 8fbf
-0.95107853 -0.46474868 -0.46995828 -0.43161842 -0.46123672 -0.44121212 -0.23292421 -1.124486

autoencoder.decoder.6.weight f4 [8, 1, 2, 2]
00000000: c567 00bf 8d00 edbe dc99 fdbe 8d23 e9be
00000010: 981d f9be 8ee2 393d 3eab febe 3dd3 313d
00000020: 5670 adbe d8ab c8be 687a aabe a074 c5be
00000030: ad3e 0c3e 99d1 ddbe ecad 083e a63c e3be
00000040: 3a40 d6be 0632 b0be 9932 d6bd c752 cdbc
00000050: ce45 013e 3666 113e 5580 54be e66b 4bbe
00000060: 2c17 cf3e b170 dd3e 6757 cf3e 3bb2 dd3e
00000070: fd39 383f f67f 293f 4789 373f e310 283f
-0.5015834 -0.46289483 -0.49531448 -0.45534936 -0.4865539 0.045382075 -0.49740022 0.043414343
-0.33874768 -0.39193606 -0.33296514 -0.3856554 0.13695784 -0.43323973 0.13347596 -0.4438221
-0.41845876 -0.34413165 -0.104588695 -0.025063885 0.12624285 0.14199147 -0.2075208 -0.19865379
0.40447366 0.4325004 0.4049637 0.43300042 0.71963483 0.6621088 0.71693844 0.6565077
