save_config_2/2/model_state.pth (torch, 28347 bytes, 13 tensors)

autoencoder.encoder.0.weight f4 [16, 1, 3, 3]
00000000: 06bb 47be b02f 283c 9562 343f 5107 19bf
00000010: 72ba d8bd 66d1 c03e f385 70be 3cea 383e
00000020: 20bc 423e 3753 e43e a3ef e5be 1737 cfbe
00000030: 69ff ea3e 83b7 d1be c99e 91be 89dd 763f
00000040: df50 29be ddb0 40bd 05d7 383e d4b5 043f
00000050: 341e 83bd b3f6 90be f7c0 763e a799 17bf
00000060: 9446 d93d c007 283f 0d81 8dbe 8772 f43d
00000070: a9c5 a6be d78b 963d 04f7 6ebe 11b5 02be
00000080: eb3a cf3e 51fd d43e 96b4 1a3f 91d7 ca3e
00000090: 0390 88be 952b 873e ea8f 06be 76db 19be
000000a0: 38e2 103e 382f e0be 1116 fe3e f040 573f
000000b0: 006d 8c3e 12c4 58be 81f3 1cbf 244c e9be
000000c0: c91a c53d 4632 c4be 108e 52bf 6f27 873f
000000d0: 1f19 593f 7063 863e 76b2 3e3f 9b4b c03e
000000e0: cc37 453e d0c4 723b 447c e3bb 01c9 2dbf
000000f0: 22ff 0ebf 4039 01bf b984 03bf fb67 9a3c
00000100: 0185 ad3e e506 633f 55de 1fbf 1f7e 04be
00000110: 4543 093e a33b ebbe 453e 23bf ad2b 23bf
00000120: 48c9 2ebd e9fb cfbe c5b7 c4bd 391f e23e
00000130: e3c4 923a c07d d73e b438 043e 18c9 91bd
00000140: f900 673e b183 c13e bf4b 3c3e 61d5 4e3f
00000150: d495 97bc 0357 0abe b87e 483e c8ab 6e3d
00000160: bbaf 193e fefc d73e 0bc5 fd3e 8567 223e
00000170: 3c5c 7e3e ff21 1d3f 6326 e8bd 6eda e13d
00000180: a676 8e3d 3af7 cfbe 52b0 76be 2d4c cbbf
00000190: 77b4 53bf 2fdc d8be a1b5 9fbe c43a 503c
000001a0: c623 24be 43be 83bf a9c1 38be 01c3 2cbf
000001b0: a357 17be 8afe b1be 880b 73be 7964 08bd
000001c0: dabd 7bbe 4aec 583d 523d b9be a146 89be
000001d0: c834 983f cdf4 a83e 0092 8d3e a8b2 f2be
000001e0: 9759 9a3e dca7 0f3f b6ee 023e 3840 52bf
000001f0: e4ee 15be f080 113f e086 4cbf f507 473e
00000200: fb20 333f 9c0b 423e 106c 1c3f 3eed fe3d
00000210: 1686 f83e 1137 b63c 7324 fbbe 6b5d d7bd
00000220: b885 6fbd d6d2 0c3d 7f69 a73e d9c0 a2bd
00000230: 356d 09be 3e5b cb3f 4b29 f1bd d506 8cbd
-0.19504938 0.010265276 0.70462924 -0.5977679 -0.105824366 0.37659758 -0.23488598 0.18058103
0.19017076 0.44594738 -0.4490939 -0.40471718 0.45897987 -0.4096032 -0.28441456 0.96431786
-0.16534756 -0.04704367 0.18050773 0.5183995 -0.06402245 -0.28313217 0.24097048 -0.5921883
0.10609165 0.65636826 -0.2763752 0.11935907 -0.32572678 0.07350891 -0.23336416 -0.12764384
0.40474638 0.41599515 0.604318 0.3961759 -0.26672372 0.26400438 -0.13140836 -0.15025124
0.14148796 -0.43786025 0.4962621 0.8408346 0.2742691 -0.21168545 -0.6130906 -0.45565903
0.096242495 -0.38319606 -0.8224802 1.0558909 0.84803957 0.2624774 0.7449106 0.37557682
0.19259566 0.003704358 -0.006942304 -0.6788483 -0.5585805 -0.5047798 -0.51374394 0.01884841
0.33890536 0.88682395 -0.62448627 -0.12938736 0.13404568 -0.45943937 -0.6376689 -0.6373852
-0.042672426 -0.4062188 -0.09605364 0.44164446 0.0011197593 0.42088127 0.12912256 -0.07118434
0.22558965 0.37795785 0.1838827 0.8079434 -0.01850406 -0.13509755 0.1957959 0.058269292
0.15008442 0.42185205 0.49564394 0.15859802 0.24839872 0.6138 -0.11335447 0.1102799
0.06956224 -0.40618306 -0.24090698 -1.5882622 -0.8269724 -0.42355487 -0.3119326 0.012709323
-0.16029271 -1.0292438 -0.18042625 -0.6748505 -0.14779525 -0.3476451 -0.23734868 -0.033298943
-0.24584141 0.052959718 -0.36179596 -0.26811698 1.1891108 0.32999268 0.27650452 -0.4740193
0.30146477 0.5611551 0.12786373 -0.8212924 -0.14641911 0.5683737 -0.798933 0.19436629
0.699722 0.18949741 0.6110239 0.12447594 0.485398 0.022243055 -0.49051246 -0.10515865
-0.058477134 0.034380756 0.32697675 -0.07946939 -0.13420565 1.588722 -0.11775454 -0.068372406

autoencoder.encoder.0.bias f4 [16]
00000000: 77f7 013f 4d56 c9bc 3947 013f 48a5 46be
00000010: ecef bd3e 9661 ddbd e5ee 5fbe 3ab6 55be
00000020: 0357 e53e aede cc3e 42d4 d7bd d9f6 0f3f
00000030: cbc7 583b 9b9b 36be 6aa3 3fbe fcc7 103d
0.50768226 -0.024577284 0.504993 -0.19398987 0.37097108 -0.10809629 -0.21868475 -0.20870295
0.44792947 0.4001364 -0.10538532 0.56236035 0.003307807 -0.17832796 -0.18714681 0.03534697

autoencoder.encoder.3.weight f4 [8, 16, 3, 3]
00000000: 2062 163e 36ec fcbd b68a 763e 58bd 5cbe
00000010: bab9 92bd 21bc 81bd c1ec bb3d 918f 5fbd
00000020: 55aa ef3d 9a5c 42bd d522 64be 3bc5 083e
00000030: f011 a8be e111 9a3c 45c4 783e da6b 31bd
00000040: 25ad b03c b2ec a0bc 0833 0abe 27cd 6f3c
00000050: 68e4 d73d 6480 93be da90 cebd 6578 02be
00000060: 9b43 e43d 9098 793d ec49 03bd 7084 4f3e
00000070: 4796 e6bc ca88 903e bf7f 0cbd 8de8 01be
00000080: 7a0f 993d 18c4 0b3e a308 383e 2be5 62bc
00000090: 85c5 5d3e cbc8 bb3a 1745 0f3e 1724 30bc
000000a0: 18da 9a3d 3c75 3dbd b5b7 923e 5172 863e
000000b0: 13d9 a33d 22d9 bcbd 5ab3 9d3e cea4 d03d
000000c0: f049 8b3e 67d0 673d 8969 0dbe 53c8 0b3e
000000d0: 2137 783e d3ca c43e ff8b 3bbe 65d3 98be
000000e0: 14d9 64be 9f87 9bbd c7cc 36bd 77b5 d73d
000000f0: 09cf 1bbc 806d 48bc d591 87be 6e3f 853e
00000100: c10f b53e d103 cbbd 71ab 223e a324 7fbe
00000110: 149f babd d185 93be 7da1 a5bc 0d8c d53d
00000120: cddd df3d dd04 c13d 6fcd 383e 2978 dc3d
00000130: 158e 263d e574 5ebe f0ca 533e a7de 523e
00000140: 486f 413e 7b04 0d3c e4b2 4e3e d3d6 773e
00000150: 8d65 80be 31fd 29bd 1794 01be 6b27 113e
00000160: 299d 513e 643c 193e bd32 d5bd 76ea 12bd
00000170: a9db 293e c4ee f7bd 2c6a 5a3d 0392 e9bd
00000180: 043c b2bd 27df 8b3e a5dd 373d d6a5 e63e
00000190: 166d 84be 2f13 d7be 3bb7 1b3e b02e 143b
000001a0: 994a c43d a75a 1abf e0cc 403e 51e6 afbd
000001b0: 8754 e73d 173d 24be 20f4 4ebd 4bdf 28bd
000001c0: d1e0 e4bd 5b43 89be 31e6 7e3e ca3d 4a3d
000001d0: f5fc 78be 07fb af3d 57ec 9f3e f03f 113e
000001e0: 8735 68bd 05e8 913b 67d7 32be 2e30 dabc
000001f0: 75a9 613d 63bd b23d c6df 0abd 8f6f b53c
00000200: 6149 a33e 129f 85be 188e 83be a48e 853d
00000210: 6756 e43d 7d0e f03d 51bb 86bd 1cfe a53d
00000220: a1bb 85bd 47ae 113e 6890 5b3b add7 383d
00000230: 7558 c93c 4056 a03e 3995 8c3e 7d4a 803c
00000240: e1eb 4f3c e21c c73d f1ca 913d 9992 963d
00000250: b6c8 6abe 33ee 833d 814a fcbc 9d7b 3bbe
00000260: a260 1d3d 120f 173e e217 54bd abac 7e3d
00000270: 755c 9a3d ed80 933d e4ea 3cbe cc36 2e3e
00000280: b31f 89be 1af1 ef3c 6c7c 433e 962d b63c
00000290: 244f 9bbc 82d8 c43d fe46 c8bd 87b3 15be
000002a0: 5133 133e 7b22 88be 4234 e03c 822f 30bd
000002b0: b81f e63d 1f58 173c dd0e 003e 969f 42be
000002c0: ded2 bdb9 5db0 263c c605 403e d142 973e
000002d0: 5d06 f1bd e6e9 0fbd 19d8 7b3d 252e ed3c
000002e0: 8594 35ba 447c efbb 9dcb c03d de34 e13d
000002f0: 8601 08be 1da1 d5bc 77d4 033e 24dd 87bd
00000300: 28d2 90be 4da9 1bbd 2d3f 6d3d 299b 4a3d
00000310: fd3d ab3e d2fd 27bd b52a 86bd 2f2b ddbd
00000320: 07dc 63bd 9570 943b 84de e5bc 9be5 f1bd
00000330: 41e2 4bbe 3d3e 06be c5a8 353d d85d 4f3d
00000340: caff 45bd 5487 01bd 6aa1 81be af75 143e
00000350: 8e00 983e 25f6 edbd 2c98 e4bd 7853 3cbe
00000360: a8dc e13d a99f 823e ae13 e03d 1bde be39
00000370: f0c0 1bbe 182e a13d b55d 513e d910 853d
00000380: a7ae 7f3b a4e3 123d 7472 c93d be85 4cbb
00000390: 3ffd 9f3d 83a9 1dbd d304 ffbd 49aa 4b3e
000003a0: 80a1 16be 9860 05bd 9138 d63d f1c1 ffbc
000003b0: ba63 2b3e 7ba6 413e 2662 ccbd e306 483d
000003c0: bbbd 20be 7b12 4a3d 8c4d 103e 776d a8bd
000003d0: 6c3d d2bd dcad b7be d009 ccbd 8305 ffbc
000003e0: 16d6 b23e c018 c9bd 622d b538 0830 63bd
000003f0: 2ba8 d2bd df39 4cbc 7d74 88be 8461 b03c
0.14685869 -0.12349741 0.24076352 -0.21556604 -0.07164331 -0.06334711 0.091760166 -0.054580275
0.1170241 -0.047451593 -0.22278912 0.13356487 -0.32826185 0.018807353 0.24293621 -0.043315746
0.021566937 -0.019644115 -0.1349603 0.0146363145 0.10541612 -0.28808892 -0.10086222 -0.1274124
0.11145707 0.06093651 -0.03205292 0.20265365 -0.02814783 0.28229362 -0.034301516 -0.12686367
0.07473655 0.13649023 0.17972045 -0.013848583 0.21657379 0.0014326809 0.139912 -0.010750792
0.07561129 -0.04625438 0.28655782 0.26259091 0.08000388 -0.09221102 0.30800897 0.10187684
0.27204847 0.056595232 -0.1380979 0.13650636 0.2423978 0.38435993 -0.18315123 -0.2984878
-0.22348434 -0.07594227 -0.044628885 0.105326585 -0.00950981 -0.012233138 -0.2647845 0.26024956
0.35363582 -0.09912837 0.15885712 -0.2491632 -0.09112373 -0.2881303 -0.020218605 0.10427103
0.10930977 0.09424756 0.18047117 0.10765106 0.040662844 -0.21724279 0.20682883 0.20592748
0.18890107 0.008607025 0.20185429 0.24203043 -0.25077477 -0.041501228 -0.12654148 0.14175193
0.20470108 0.14964443 -0.10410068 -0.03586813 0.165877 -0.12106088 0.05332391 -0.11404803
-0.08702853 0.2731869 0.04488911 0.45048398 -0.25864476 -0.42006823 0.15206616 0.0022610836
0.09584541 -0.60294574 0.18828154 -0.08588851 0.11295419 -0.16038929 -0.050525784 -0.041228574
-0.11175693 -0.268092 0.24892499 0.049375333 -0.24315245 0.085928015 0.31235 0.14184546
-0.056691673 0.0044527077 -0.17464982 -0.026634302 0.055093247 0.08727529 -0.033904813 0.022147922
0.3189192 -0.26097924 -0.25694346 0.06521347 0.111492924 0.117215134 -0.065786965 0.08105108
-0.06529928 0.14226638 0.003350282 0.04512756 0.024578312 0.31315804 0.27457598 0.015660519
0.012690515 0.09722306 0.07118786 0.0735218 -0.22928128 0.06441917 -0.030797245 -0.18308873
0.038422234 0.14751843 -0.05178059 0.062176388 0.07537166 0.07202325 -0.18448979 0.17013091
-0.26781997 0.02928977 0.19090432 0.022238534 -0.018958636 0.09611608 -0.09779166 -0.14619265
0.14375044 -0.26588807 0.027368668 -0.043014057 0.112365186 0.009237318 0.1250567 -0.1900619
-0.00036205997 0.010173884 0.18752202 0.29543164 -0.11768792 -0.035135172 0.061485384 0.028952667
-0.0006926733 -0.007308515 0.09413836 0.10996412 -0.13281831 -0.026077801 0.12874018 -0.06633976
-0.28285336 -0.038003255 0.057921577 0.04946438 0.3344573 -0.041013546 -0.065511145 -0.10799252
-0.055629756 0.0045300224 -0.028060205 -0.11811372 -0.19910528 -0.1310968 0.044350404 0.050626606
-0.048339643 -0.0316232 -0.25318462 0.14498018 0.29687923 -0.11619214 -0.11161837 -0.18391216
0.11028415 0.25512436 0.109412536 0.00036405105 -0.15210319 0.0787012 0.20445903 0.06497354
0.0039014013 0.035861626 0.09836283 -0.0031207646 0.07811975 -0.038491737 -0.12452092 0.19889177
-0.14710045 -0.032562822 0.10460008 -0.031220408 0.16737261 0.18911164 -0.09979658 0.048834693
-0.15697376 0.04933403 0.14092082 -0.08224004 -0.102656215 -0.35874832 -0.09962809 -0.031130558
0.3492896 -0.09819174 8.639206e-05 -0.055465728 -0.10285982 -0.012464969 -0.26651374 0.021530874

autoencoder.encoder.3.bias f4 [8]
00000000: 21f8 413c 8291 f0bd 9a99 9ebd 3ec4 9abd
00000010: 4cf5 d03c e751 6cbd fb22 a0bc 190a e0bd
0.011838944 -0.117465034 -0.07744141 -0.075569615 0.025507592 -0.057695296 -0.01954793 -0.10939426

autoencoder.encoder.6.weight f4 [2, 8, 2, 2]
00000000: c7db 733e 48ac 8f3b aa13 90bd dd0e 97bd
00000010: 0356 fbbe dd2e dfbe 3b35 bdbe 4bfa 31bf
00000020: 8e06 b6be 8ac1 dcbe ec13 c6be 6a74 cbbe
00000030: b541 febe ed67 9fbb 3737 7fbf 186b 51bf
00000040: 82f3 d93e e5fd 9dbe ab1b a53e 219b bd3c
00000050: 1bd9 253f a41b 123d 502f 843f 36c8 723f
00000060: ef69 0ebe 05ee 0abe 05f9 2bbf 1673 18be
00000070: 2f53 b2be a6f3 37bf fb1e 7fbe 3000 36bf
00000080: aee6 653e 1527 aa3e 9fbe 4e3f d392 313f
00000090: fc31 aa3d 5f7b 973d bcd5 9e3c 22ab 81be
000000a0: 2037 c9bd 5ea8 c1bd 4e4b ba3c 3bc0 64be
000000b0: 2270 99be fd30 743d 45d2 363f e840 483f
000000c0: 3f01 b0bd 72b4 2dbd c067 a5bf b479 07bf
000000d0: dc05 2a3d 0543 f3bc 7104 80bf 96a1 60bf
000000e0: 9ffe 8c3e 2fff 973d ef49 833f a874 b13d
000000f0: 3c39 d7bd 9d94 f7be 4ade cbbe f780 edbe
0.23814307 0.004384551 -0.070350006 -0.07375882 -0.4908906 -0.4359044 -0.36954674 -0.6952254
-0.35551876 -0.4311641 -0.38687074 -0.39737254 -0.49659505 -0.004864684 -0.99693626 -0.8180404
0.42568594 -0.3085777 0.3224767 0.02314526 0.647844 0.03567089 1.0326939 0.9483675
-0.13907598 -0.1356736 -0.6717685 -0.14887652 -0.3482909 -0.71856153 -0.24914162 -0.71094036
0.22451279 0.33232942 0.80759615 0.6936466 0.08310315 0.07396578 0.019389026 -0.25325876
-0.098249674 -0.094559416 0.022740986 -0.22338955 -0.29968363 0.05961703 0.71414596 0.7822404
-0.08593988 -0.042408414 -1.2922287 -0.5292008 0.041509494 -0.029695043 -1.0001355 -0.8774656
0.2753801 0.07421719 1.0256938 0.086648285 -0.105089635 -0.4835557 -0.3981803 -0.46387455

autoencoder.encoder.6.bias f4 [2]
00000000: b1ba 643b a5e6 bd3b
0.0034901316 0.0057953172

autoencoder.decoder.0.weight f4 [2, 8, 2, 2]
00000000: 08dd f2bd 8666 bb3e 9e6d 233f be41 a93e
00000010: e192 f0bd c43a 2cbf bed6 833e 268b 96be
00000020: d1df 56bd a7b3 5a3f 5be7 883c 9490 3e3f
00000030: 2a54 69be 8d65 0fbf 8872 933f 63fb a43d
00000040: 00db 4e3d d86d 4abf b17b 0f3f 2a3a 1abf
00000050: 4395 753e 3b86 8ebe a98c aa3e 336e 4bbf
00000060: 57a2 bf3e bda3 ba3e a5d3 d53f 95e1 02bf
00000070: a9d0 b23e c119 04bf 0734 60bf 82ac 05bf
00000080: d953 333f d5b7 093f 5e39 593e 6678 04bf
00000090: 597e 12bf 5a5a 7dbe c219 aa3e afd2 01bf
000000a0: 3b8e a5be 857d 173f 51ad f4bd 588a 513e
000000b0: 4571 c73e c6e6 87be ca47 16bf 0eff 9d3f
000000c0: 274e 04be 1cdd 933f 5494 90bf ed3e 7cbd
000000d0: 51e8 593e 51f0 c2be 374b 96bf 8d96 e93f
000000e0: 1a72 95bf 731b f6be a0a9 20bf 99e3 823f
000000f0: b0f5 24bd 530a 83bd 65d8 5b3e 7645 ab3d
-0.118585646 0.36601657 0.6383914 0.3305797 -0.11746765 -0.6727717 0.25749773 -0.29403037
-0.05245954 0.8543038 0.016711881 0.7443936 -0.22786012 -0.5601433 1.1519327 0.08055761
0.050501823 -0.7907386 0.56048113 -0.60245 0.2398272 -0.27836785 0.3331044 -0.79465026
0.37428543 0.36453047 1.6705214 -0.5112546 0.3492482 -0.516018 -0.8757939 -0.5221635
0.70049816 0.5379613 0.2121329 -0.51746213 -0.5722404 -0.24741498 0.33222777 -0.507121
-0.32335076 0.591759 -0.1194712 0.2046293 0.38953605 -0.26543254 -0.5870329 1.2343462
-0.12920438 1.1551852 -1.1295266 -0.06158345 0.21280028 -0.38073972 -1.1741704 1.824907
-1.1675446 -0.48067817 -0.6275883 1.0225707 -0.04027337 -0.063984536 0.21469267 0.08362858

autoencoder.decoder.0.bias f4 [8]
00000000: 45da 6abe eadf fabe 9cd6 503e ba17 293e
00000010: f2ab 28bf e55a 77bf ce04 35be 2abd f0bf
-0.22934826 -0.48998958 0.20394367 0.16512957 -0.6588737 -0.9662307 -0.17677614 -1.8807728

autoencoder.decoder.2.weight f4 [8, 16, 3, 3]
00000000: 06fa 92be 30a4 cbbe 65e4 09bf 87cc dc3d
00000010: 73aa 0ebe 5675 6ebd 4005 92be dfdc a3bd
00000020: f0ab 6fbe a9ca 9f3b 2667 9dbe bf8a 96bc
00000030: 159a c23e a27a a3be 61b9 313e aeb7 5b3e
00000040: cb69 c3be 0e5e d03d 92e7 ae3d 17f2 813c
00000050: 119b f43d b409 99be a5c3 3ebf 72e3 b63e
00000060: f192 b2bb 0aac fbbe 70f0 aabe a9fa fbbd
00000070: 8dbf d8bd 0ce0 cdbd 756d e63d a169 d83d
00000080: a0d8 14be fd8b 93be 3a1b cdbb 7e65 183d
00000090: bd9f de3d 39b4 ebbc 4777 6c3e 282c 21be
000000a0: 413a 44bf db29 e43c 779d b43d acc8 0a3e
000000b0: 5c22 b73d 0668 a4bd 2d8d d8be 1a7d abbe
000000c0: 1793 cbbd ede1 a83d cb32 693e d44e 8dbe
000000d0: d73c 3fbf 4c66 123d 547e 06be 12f6 663c
000000e0: 4741 38be 1029 8dbe 77e0 d03e 48f3 4dbe
000000f0: e7f5 75be ba1f be3c b4b4 e8bd 3f2e 01bd
00000100: ad46 0e3e d3eb cabe 8282 dbbd 39e3 c3be
00000110: dd1e ad3d dc83 dabd 646c e1be fc39 8a3d
00000120: c933 9b3d e736 f1be e972 88bd e6ca 873c
00000130: b667 dc3c 3e09 9e3d c7de 213d 1bc6 d1bd
00000140: ec43 12bd 293a 9e3d 26f2 763d 6e5a 533e
00000150: c3ee 513d 5eb2 6a3d fbee 843d 8c23 a93d
00000160: 1323 95bc 9d64 21bd 9528 0ebe 25d0 533e
00000170: 1d97 7dbe 253f 0cbe da59 543e 5885 d6be
00000180: e275 51be f048 0c3e 774c 15be 1146 913c
00000190: c1aa 30bc a0cf 11be 1467 d83e 767f 6fbe
000001a0: 2ff7 dc3d 555f 973e 5695 b93e 3a88 bf3c
000001b0: 918d a8bc d8e9 a1be 558d 65be 830b 823e
000001c0: 5c2f 853d 7f58 45bd 41c8 11bc 1ae0 85bd
000001d0: d530 81be 42f6 0fbd 7588 0bbf bf0f 57be
000001e0: 071c 8dbd d7d2 503e c8f9 6fbd de01 053e
000001f0: 4e75 0abf 36c6 ec3d 5c73 7d3e ee3d 953c
00000200: e1d5 fbbd 16dc a53d a319 80bf e6f1 2b3e
00000210: 5203 093e ef73 7fbc 64fd b9ba 6027 e3bd
00000220: a960 8c3d 4e48 65be 292d 9bbe a61d c2be
00000230: 0cc1 a03d 77a9 64be 100e 12be 29fa c9be
00000240: df0d 983d 66db 73bd a10e d13d d9eb 44be
00000250: cc5b 2c3e a846 973c 7a21 143d f763 dfbd
00000260: e5d4 0e3e 4f87 35be fba2 aabd a29c 463c
00000270: 9516 83be a833 2cbe 8b1b e5be f412 99be
00000280: 3686 0a3e 1543 c0bd a210 dbbb 158d b73d
00000290: d911 303d edda 01be d089 47be f8bb 67be
000002a0: c9df 913d 98dd 3a3e df51 96bd 68ce 88be
000002b0: d879 6c3d 2e4b d63c ea35 92bc b0d9 8fbd
000002c0: bc71 54be fb92 44be 7e5d fcbd a7d0 1cbe
000002d0: 522d 37bd fd58 bc3b e815 2abc 921d c23d
000002e0: bd3e 2dbe ee41 eebe 2366 47be be5f d43d
000002f0: ff41 85be 93a8 59be 2366 99be c56e 063e
00000300: 261d 0b3d 868e 0bbe 9177 33bd 063d 3c3d
00000310: 4bf3 713e 4472 0cbe 7f9c 73be 1368 ed3d
00000320: 526a 0dbe faaf 5e3e 1fbe 19be a173 aebd
00000330: 2334 243e 8422 193e 9d7d 2a3d 097c 40be
00000340: 1007 48be cb1d 1fbe 88fd e3be d2f7 a6be
00000350: b15b b5be 1f25 cbbe aca6 503d b69d 97be
00000360: e84e f63c 9583 76be ff43 c03d 2fb1 6b3e
00000370: c446 4fbe 9786 b33c 5503 863d 911b 803d
00000380: 11f3 1e3d cc5d 8c3c e5cf e73b e390 e73b
00000390: 3d7e 72be 7c5a e63d 0b89 5a3e fc2a e6bd
000003a0: c3aa f43c c287 833c 7b39 4bbd d1ab 47bc
000003b0: e295 83be 75a2 b2bd f7e5 493d 256f 6a3b
000003c0: c97b cfbb 37d3 213e 1574 a4bd 39bc 153e
000003d0: 7b32 513d 7aa6 b1bb f03e f6bd 77ae 0bbf
000003e0: e27d baba 8f21 e0bc c9ca c33c e45d 8d3d
000003f0: 06bf 333e a128 36bd 9c46 503c a4a4 953d
-0.28706378 -0.39773703 -0.5386413 0.10781198 -0.13932209 -0.05821737 -0.2851963 -0.08001112
-0.23405433 0.004876454 -0.3074276 -0.018376706 0.3800818 -0.319295 0.17355873 0.21456787
-0.3816665 0.101741895 0.08540262 0.015862508 0.11943639 -0.29890215 -0.7451728 0.35720402
-0.0054496457 -0.49154693 -0.33386564 -0.12303669 -0.105834104 -0.10052499 0.11251346 0.10567022
-0.14535761 -0.2881774 -0.006259349 0.037206165 0.108703114 -0.02877246 0.23092376 -0.157395
-0.7665139 0.02785199 0.088190965 0.13553113 0.089421004 -0.080276534 -0.4229521 -0.33493882
-0.099401645 0.08246217 0.22773282 -0.27599204 -0.7470221 0.03574209 -0.13134128 0.014096754
-0.17993651 -0.2757039 0.40796253 -0.20112336 -0.24019586 0.023208488 -0.113625914 -0.031538244
0.13894148 -0.39633045 -0.10718252 -0.38259295 0.08453152 -0.106696814 -0.44028008 0.06749341
0.075782366 -0.471122 -0.066625424 0.016576242 0.026904922 0.077166066 0.039519098 -0.10242864
-0.035709307 0.07725937 0.060289524 0.20639965 0.05125309 0.05729901 0.064908944 0.08258733
-0.018205201 -0.039402593 -0.13882668 0.2068487 -0.24764676 -0.13695963 0.207374 -0.41898608
-0.20455125 0.13699698 -0.1457995 0.017733606 -0.010782898 -0.14239359 0.42266142 -0.23388466
0.10789334 0.2956492 0.36246747 0.023380388 -0.020575317 -0.3162372 -0.22417195 0.25399408
0.06503174 -0.0481801 -0.008897842 -0.065368846 -0.25232568 -0.03514696 -0.5450509 -0.210021
-0.068901114 0.20392929 -0.05858782 0.12988994 -0.5408524 0.11561243 0.24751037 0.018218007
-0.122966535 0.08098619 -1.0007824 0.16791496 0.13380173 -0.015591606 -0.0014189896 -0.110914946
0.06854374 -0.22390863 -0.30307892 -0.37913245 0.07849321 -0.2233027 -0.14263177 -0.3944867
0.07424521 -0.059535407 0.10207868 -0.19230594 0.16831893 0.018466309 0.03616474 -0.10907739
0.139484 -0.17727397 -0.08331867 0.012122305 -0.25603166 -0.1681658 -0.44747576 -0.29897273
0.1352776 -0.09387795 -0.0066853324 0.08962456 0.04298577 -0.1268117 -0.19486165 -0.22630298
0.07122762 0.18248594 -0.073398344 -0.26719975 0.057733387 0.026158895 -0.017847974 -0.070239425
-0.20746511 -0.19196694 -0.1232252 -0.1531397 -0.044720955 0.005747913 -0.010381199 0.09478296
-0.16918464 -0.46534675 -0.19472556 0.10369824 -0.26026914 -0.21255712 -0.29960737 0.13128193
0.033963345 -0.13628587 -0.0438152 0.045956634 0.23627965 -0.13715464 -0.23790167 0.11592116
-0.13810089 0.21746817 -0.15013932 -0.08518148 0.16035514 0.14954573 0.0416237 -0.18797316
-0.19533944 -0.15538709 -0.44529366 -0.32610947 -0.35421517 -0.3967676 0.0509402 -0.2961251
0.030066922 -0.24073632 0.09387969 0.23016809 -0.20241839 0.021914763 0.06543604 0.06255258
0.038806025 0.01713457 0.0070743435 0.0070668324 -0.23680969 0.11247727 0.2134134 -0.11238667
0.029866582 0.016055945 -0.049615365 -0.01218696 -0.2570029 -0.087223925 0.049291577 0.0035771814
-0.006331895 0.15803228 -0.080299534 0.14622582 0.051073533 -0.005421457 -0.12023723 -0.5456309
-0.001422819 -0.027359752 0.023900406 0.06902674 0.17553338 -0.04447234 0.012712147 0.07306793

autoencoder.decoder.2.bias f4 [16]
00000000: 7657 ffbd 59ef 3e3f 28bc edbc a8c2 943f
00000010: 3911 ddbd 2940 703f 991e 853e 3aa5 13be
00000020: 1750 b03f a207 d0bd 5e5c debe b645 2e3f
00000030: 3837 2c3e 1edd 0f3f 9388 a8be f0de 893f
-0.12467854 0.74583966 -0.029020384 1.1621904 -0.107943006 0.938479 0.25999907 -0.14418498
1.3774441 -0.10157706 -0.43429846 0.6807512 0.1681794 0.56196773 -0.32916698 1.077116

autoencoder.decoder.4.weight f4 [16, 8, 5, 5]
00000000: 90f2 c0bd 991b 5abd cee6 8c3d db35 c73b
00000010: 6ea6 2fbd 1288 d8bd 3933 903d e8d6 9abc
00000020: c29f ce3d 43d0 6e3d c94b dbbd ad78 e63d
00000030: e8cf 3c3d 505a 46be fb9f 0dbe c851 5abd
00000040: 4376 813e be9c 423e 2e81 e2bd a46a 0cbe
00000050: bb7a 2abe 5df5 c8bd b1f9 2dbd b988 8bbc
00000060: 3b28 96bd 6ee8 ecbd b5a5 1fbd d0da 82bd
00000070: 6f11 3ebe 6dae 90be 9cc3 98bc a95e 1a3d
00000080: 3dc8 783e 7ca9 28bd 655d 933d 8f3a b1bd
00000090: 2bee b63d 247a 8dbd e364 c33d 3209 98ba
000000a0: b149 71bb bd8d d8bd db5e 85bd 40ca ee3d
000000b0: 1040 533d dbe8 eabd 17c1 813c 092d 3dbe
000000c0: f4f2 6b3e d26a aabe e8d4 41bc 9789 b2bd
000000d0: 09ea febc e4e2 96bc a5c1 473e 60e5 fabd
000000e0: 13e0 ffbd 53aa aebd ed99 0dbe 6a96 42bd
000000f0: 9449 5dbe 9822 aebe b3f6 84be 1752 acbd
00000100: cc4b f93b fe76 f2bd 039d 11be 543d 0cbd
00000110: 06c3 5c3e 1763 92bd f95c 573d a446 f23d
00000120: 3a21 453e 1d04 9e3d 229c 213d 8a17 63be
00000130: ff42 5bbe 38f6 1abe 8adf 213e 5b1a 8fbc
00000140: 1f7c 9ebe ea3e cdbe 6045 5ebe 3473 bdbd
00000150: e7af fabc a325 a6be 1502 c8be 7bf1 0fbe
00000160: f761 5fbd 86de 87bb 5089 bcbc c14c 063e
00000170: 2156 843e 1250 be3b ca8a b03d 8fc1 843d
00000180: 51bb 393e 6ad4 5e3e 0d8f 9b3d 63b8 ff3c
00000190: 8242 d9bd a844 59be b3d5 54be 3b23 763d
000001a0: e588 543d 9a9c 51be 8f44 9ebe b943 91be
000001b0: d98c 28be 1aca e6bc 8773 77be 082f c2be
000001c0: 38b4 5abe 57c3 adbc fa11 52bd e34d dbbb
000001d0: 9bc9 d93d 6aa1 823e 5710 023e b337 b43d
000001e0: a631 c93c 2bac 083e 6e1e 6a3e d7ab bf3d
000001f0: 295b 6a3d 1f4e ebbd bdff 0f3d 37bf 063e
00000200: 778c 723c 82bb 7dbd 5a8c 56be 1d81 5cbc
00000210: bbfc 8b3b 451e 54be d60b 4dbd 5ef5 f0bc
00000220: 9136 17be 3a60 3e3d 9f94 b1be f956 283e
00000230: f46e 47b9 34de 3d3e e719 8d3c 78ca 59be
00000240: e4b8 78be f6c7 0fbe 19a0 e3bc e382 213e
00000250: de19 5a3e 442f 993d bb0c 46bd cbab 62be
00000260: f9a9 3cbe e56e 4bbd 7c5c 633e e9a7 4ebe
00000270: a548 06be 01ed cdbd 993b 6dbc fe46 3cbd
00000280: be01 60be 81b9 6cbd f4b0 14be dd03 493d
00000290: 446e 22be b894 063c 8845 1b3e ae2b ac3e
000002a0: 6b1f a43e 8a95 42bd 4435 e63d c0f2 cf3d
000002b0: 2d2d ffbc 115d 05be 9d89 b53d 2297 ba3d
000002c0: f617 5d3d b418 1cbd d998 0c3e a8e7 f93d
000002d0: 7a79 8c3d 3244 51bd 073a 213d 9e9b ff3d
000002e0: 9233 0e3e ae82 8a3d e9db 4dbd 33ed 953d
000002f0: 46ab 993e 7e0a 1e3d dbdd 503d 4f7e 27be
00000300: 069a 27bd 219d 57bb 7554 403e 553e 843e
00000310: d88c 27bd 99c1 e9bc 2bc8 3abe f85c c13d
00000320: 9742 2a3e 9ae5 503c 497b 64bd 3e95 093e
00000330: 65a7 073d 162e 4ebd 7a02 f1bc 25d8 d53d
00000340: 1f7a 8d3c 53ef 043e 3491 0ebd f64c 75bd
00000350: f241 fa3d 57f8 bcbd 9fe1 ffbd 8867 f83a
00000360: 3d73 dabd ef7a 0f3d 459b abbd 0491 7ebc
00000370: ae72 143d b928 0a3c ca07 3d3d 663e 82bd
00000380: 76b6 16be 0490 3c3e 665b 0fbe 99e5 403d
00000390: ea88 833d 3f19 ce3d e39d 8c3e da95 d13d
000003a0: 39ab 9abe 702f 613d 964b f83d 3990 dbbd
000003b0: 8f68 00be c59a 05be b3cb 6e3e 86a7 0e3f
000003c0: ec5e b4bd 9e32 adbd 7515 1cbe 9256 3bbd
000003d0: 2b35 44bc e7cd 2b3d 9ff9 c8bc 8ec2 713d
000003e0: 3ab8 dd3d 1fe6 843d 6c17 a5bd 2dfb 9f3d
000003f0: 9b5d aa3d 02e1 19bc d09a 1e3b 781b 083d
-0.09421265 -0.053248975 0.0687996 0.006079418 -0.04288333 -0.10572828 0.0704102 -0.018901303
0.10089065 0.058304083 -0.10707814 0.11253486 0.046096712 -0.19370389 -0.13830559 -0.05330065
0.2528554 0.19005105 -0.11059795 -0.13712555 -0.1664838 -0.09812424 -0.042474452 -0.017032968
-0.07331892 -0.1156777 -0.03897639 -0.063893914 -0.18561338 -0.28258076 -0.018647961 0.03768793
0.24295135 -0.041177258 0.07195548 -0.08653747 0.08932146 -0.06908062 0.09540727 -0.001159942
-0.0036817605 -0.105739094 -0.06512233 0.1165967 0.051574767 -0.11470195 0.015839143 -0.18474211
0.23041898 -0.33284622 -0.011830546 -0.087176494 -0.031117456 -0.018418737 0.19507463 -0.12250781
-0.12493911 -0.085285805 -0.1382825 -0.047506727 -0.21610099 -0.34010768 -0.25969467 -0.08414095
0.0076079126 -0.11839102 -0.14220051 -0.034238175 0.2155877 -0.07147806 0.0525789 0.1182988
0.19250956 0.07715628 0.03945554 -0.22176948 -0.21412276 -0.15132987 0.1580793 -0.017468622
-0.30954072 -0.40087062 -0.21706152 -0.09250489 -0.030601455 -0.3245059 -0.39064088 -0.14056961
-0.054536786 -0.0041464 -0.023014694 0.13115217 0.2584696 0.005807885 0.08620222 0.06482231
0.18137862 0.21760717 0.07595644 0.031215852 -0.106083885 -0.21217597 -0.20784645 0.060092192
0.051888365 -0.20469895 -0.3091168 -0.2837198 -0.16459979 -0.028172541 -0.24165164 -0.37926507
-0.2135781 -0.02121131 -0.051286675 -0.0066926344 0.10634156 0.25513774 0.12701546 0.08799686
0.024559807 0.13346927 0.2286317 0.09358948 0.057215843 -0.1148951 0.035156 0.1315888
0.014803997 -0.0619464 -0.20951977 -0.013458517 0.004272071 -0.20714672 -0.050060116 -0.029413875
-0.14766909 0.046478488 -0.346837 0.16439427 -0.00019019452 0.18541795 0.017224265 -0.21268642
-0.2428928 -0.14041123 -0.027786301 0.15772586 0.2129893 0.07479718 -0.048351984 -0.22135846
-0.18424214 -0.049666304 0.22203249 -0.2018124 -0.13113649 -0.100549705 -0.014479541 -0.04596614
-0.21875665 -0.057794098 -0.14520627 0.04907595 -0.15862375 0.008214168 0.15163243 0.33627075
0.3205522 -0.047505893 0.11240628 0.10153723 -0.031149471 -0.13023783 0.08864138 0.091108575
0.05397793 -0.038109496 0.13730182 0.12202388 0.06859107 -0.051090427 0.03936198 0.124808535
0.1388686 0.067632064 -0.05025855 0.07320633 0.30013484 0.038584225 0.050992828 -0.16356777
-0.040918373 -0.0032900053 0.18782218 0.25828806 -0.040905803 -0.028534697 -0.1824042 0.094415605
0.16626965 0.012750054 -0.055781636 0.13435838 0.033118624 -0.05033692 -0.029420126 0.10441617
0.017270146 0.1298192 -0.034806445 -0.05988785 0.12219609 -0.092270546 -0.12494206 0.0018951753
-0.10666511 0.035029348 -0.08379225 -0.015537504 0.03624218 0.008432561 0.046150006 -0.06359558
-0.14718041 0.18414313 -0.1399971 0.04709396 0.06422599 0.10063409 0.27464208 0.1023366
-0.30208758 0.05497688 0.12123792 -0.10720868 -0.12539886 -0.13047321 0.23319893 0.5572437
-0.088071674 -0.0845692 -0.1524256 -0.045736857 -0.011975567 0.04194441 -0.024533091 0.059023432
0.10826154 0.064892046 -0.08061108 0.0781158 0.08318635 -0.009392025 0.0024201162 0.03322932

autoencoder.decoder.4.bias f4 [8]
00000000: 6c35 d4be 094a 18bf 2a73 f8be dd52 38bf
00000010: f9cb 1fbf 8631 23bf 96e2 ebbe 67ae d0bd
-0.41447008 -0.5948797 -0.48525363 -0.7200144 -0.6242061 -0.6374744 -0.4607131 -0.101895146

autoencoder.decoder.6.weight f4 [8, 1, 2, 2]
00000000: a7ed 083e 1586 6aba 9ed8 8dbe 2116 d1be
00000010: 7948 fdbe cb13 e2be 799a cdbe 78e6 adbe
00000020: 7851 b63e f5b2 9c3e 2044 b6be 32cc c6be
00000030: b3d4 a4bd ec8d 6d3f b077 203e ddf2 923f
00000040: 9f19 8b3f 9c20 933c 3351 7b3f a993 c5bd
00000050: 9dc6 13bf db10 19bf aad6 a5be f0c4 b1be
00000060: 379a 24bf da0d f1be 4061 fabd dd1c 563d
00000070: d9b4 2dbe 6ddb 59be 9464 7dbe e6e4 94be
0.13371907 -0.00089463714 -0.27704328 -0.40837196 -0.49469355 -0.44155726 -0.40156916 -0.33964896
0.3560903 0.30605283 -0.3559885 -0.38827664 -0.08048382 0.9279468 0.15670657 1.1480366
1.0867194 0.017959885 0.98170775 -0.096473046 -0.57724935 -0.59791344 -0.32390338 -0.34720564
-0.64297813 -0.4708088 -0.1222558 0.05227362 -0.16963519 -0.2127511 -0.24745399 -0.29080886
