save_config_2/19/model_state.pth (torch, 28664 bytes, 13 tensors)

autoencoder.encoder.0.weight f4 [16, 1, 3, 3]
00000000: 0cca 85be 96f7 b4bb 1e3e e9bd 3402 063d
00000010: 938f 92be 4ebd 85be a19b 7d3e a44f b7bd
00000020: d557 0abf aa9a 98be 6269 4fbe ca9a c4be
00000030: d446 95bd 4887 ad3e db6c 55be ca67 c43d
00000040: 3556 59bd 58a4 ccbe b0f7 ccbe 4678 213d
00000050: 5f27 afbe 0a56 b6bc 7fd5 25be 1452 24be
00000060: 31b7 0bbe 05ef efbe 5248 553d fef7 ea3e
00000070: 4439 973e 6fca 983e 139c a03e 9b08 0bbe
00000080: 050b 88bc cc45 d43e 140e 273e 31a1 323d
00000090: fe3b 033f 92b0 b23e c1f2 4e3c 3f3c a43e
000000a0: 858c dd3e ad77 7fbe 8f42 8e3e bb91 21be
000000b0: bada 683d 60df cabe 3316 98be 1839 76bd
000000c0: 1fb6 81be 0310 4d3d fe92 b4be 927f eebd
000000d0: d0a3 02be a26f 81be ad36 783e 72f6 e5bd
000000e0: 0cb2 fabd 039e 703f e737 c23e b17d 113f
000000f0: cf31 633f 6607 393f 9408 b83e 7725 2bbe
00000100: 570d 36be aefa c73e 60d0 02bf 98b8 9d3c
00000110: 1a57 f53e bbbf 5fbe 1791 75be 4526 e23e
00000120: 4212 ecbd dd1e 13bf 8908 cabe dc1c 413e
00000130: a0ec 47be 692b 6bbe 8a64 a43e 3cef 0fbe
00000140: c694 65bd 0f88 99bd 8b8a 8abe 38e9 8c3d
00000150: 8f69 68be 0990 adbe a48b 803e 7a80 b5be
00000160: 06c9 a5be 3ae8 a2be 38e9 4f3e b496 163e
00000170: f4b7 ae3e 1850 aa3c bff7 5a3e 7e38 083e
00000180: a732 953e 621c 683e 3825 bc3e 914d 95be
00000190: 7ba8 6c3e 768e 4e3e 08ab 4ebd 0862 2abd
000001a0: d076 adbe b22d 0abf 639f b6be 29ee ffbe
000001b0: d730 dbbd 28ad 9f3d 0b7e 603e 65c8 2c3f
000001c0: c0f9 ec3e 20eb 823e 19cc d83d 272e 923e
000001d0: 1c40 3b3e 5c2d b0be 3a34 93be 2f7c 01bb
000001e0: 139b f7be 3a49 a7be 548d 99be e08a e5be
000001f0: 4494 05bf 9734 55bf 6538 b93e 03bf fb3d
00000200: 29f5 253e 752a e23d 1865 bd3e 9fc2 063f
00000210: 7da1 d33d febd 41be 0121 c93e 7ff9 41bf
00000220: e0cb 19bf 9c7d 95be 9b74 19be fe45 a0bd
00000230: 4408 ac3d 8f80 143e 30f1 473e 4fbe c73e
-0.26130712 -0.0055226786 -0.11388801 0.032716945 -0.28625163 -0.2612099 0.24766399 -0.08950737
-0.5404027 -0.298055 -0.20255044 -0.38399345 -0.072889 0.33892274 -0.20842306 0.09590109
-0.05306073 -0.39969134 -0.4003272 0.039421342 -0.34209725 -0.022257823 -0.16194724 -0.16046935
-0.136441 -0.46862045 0.052070923 0.45892328 0.29535878 0.29841945 0.31369075 -0.13577501
-0.016606817 0.414595 0.16313964 0.043610755 0.51263416 0.34900337 0.012631119 0.32077214
0.4327127 -0.24947996 0.27785155 -0.15778248 0.05684922 -0.39623547 -0.29704437 -0.060113043
-0.2533426 0.050064098 -0.35268396 -0.11645426 -0.12757802 -0.25280482 0.24239607 -0.11228646
-0.12240991 0.93991107 0.37933275 0.56832415 0.88747877 0.72276914 0.35944045 -0.1671351
-0.17778526 0.3905844 -0.51099205 0.01925306 0.47918016 -0.21850483 -0.23981129 0.44169822
-0.1152692 -0.5746897 -0.39459637 0.18858665 -0.19523859 -0.22965778 0.32107955 -0.14056104
-0.056050085 -0.07496654 -0.27058825 0.068804204 -0.22696517 -0.33898953 0.25106537 -0.35449582
-0.3237993 -0.318178 0.2030381 0.14705926 0.3412472 0.020790145 0.2138357 0.133028
0.29140207 0.22667077 0.36747146 -0.2916074 0.23111145 0.20171532 -0.050456077 -0.041597396
-0.3387971 -0.53975976 -0.35668477 -0.4998639 -0.10702675 0.07796699 0.21923082 0.6749328
0.46284294 0.2557001 0.105858035 0.28550836 0.18286175 -0.34409606 -0.28750783 -0.0019757857
-0.483605 -0.32673055 -0.29990637 -0.44832516 -0.5217936 -0.8328337 0.36175838 0.12292292
0.16206802 0.11043254 0.3699119 0.5264072 0.10333536 -0.18920133 0.39282992 -0.75771326
-0.60076714 -0.29197395 -0.14985888 -0.0782585 0.08400014 0.14502166 0.195256 0.3901238

autoencoder.encoder.0.bias f4 [16]
00000000: bc32 aebe fa0e 1c3f 7df3 193e 7529 69be
00000010: 9ab8 fb3c 52f4 6dbe c477 e83c 9f75 83be
00000020: 51cb 843e 91f0 533f 91c4 c1bc 1fbf 9d3e
00000030: c3a4 2cbe 85a0 d83d 7590 813e a6fd 683e
-0.34023082 0.6096035 0.1503429 -0.22769721 0.030727673 -0.23237732 0.028377421 -0.25675675
0.25936368 0.8278895 -0.0236533 0.30809876 -0.16859727 0.10577492 0.25305524 0.22753009

autoencoder.encoder.3.weight f4 [8, 16, 3, 3]
00000000: e3f6 3ebe 78f8 173e 9545 fb3c 742c 25bd
00000010: 343e 643e b147 ee3c f0d8 393e 0ee3 b2be
00000020: ba55 c2be 1837 2ebf 38b0 40be 3ad6 c3be
00000030: 6c88 f53d 526c dd3d 08df 593e 9191 d0bc
00000040: 984c b3bd 6a0d 4dbe 6e3b d1be 1d6e 97bd
00000050: 40c4 dfbd b67c cc3d d973 943e 8320 ea3e
00000060: 48cf 9abd d27b 26bd 3c75 e1be 647e a83e
00000070: ff23 fe3d 7967 2d3d aa64 47bf 488f 82be
00000080: 75e8 84be 06ae 22be cf5d fc3d 6408 983e
00000090: 2b06 4f3e 742f 3fbd edcf cdbd f4d8 3abf
000000a0: 94bb 0dbf 9326 63be 0581 e9bd 80b4 913d
000000b0: 578f 283e 0ce3 78be 562f 853d f7cd ed3c
000000c0: c331 5ebd bc1d 9a3e 2dc1 263e 36cd 2c3e
000000d0: 3672 6cbe 0a32 c0be d283 963e 139e ccbc
000000e0: 24a9 863d ac64 dabf fe9d f3be c6d3 b83d
000000f0: ed94 53be 785b acbb e2c8 783e 9fd3 b2be
00000100: c4e4 54bd 5395 d6bd dc1c 1abe c4d7 023e
00000110: 5a0f fc3b 99b1 97bd fd37 46be 593f 98bd
00000120: 51ca 0cbf 84b8 debd 00bd 7cbe 844c 68bd
00000130: b04e 723e 73e9 703e f964 d03b 7709 80bd
00000140: 1fbc e5be 3a1f 09bf 0d3c 6cbe 872a 96be
00000150: 4066 5e3d 99b0 a03d 4449 783e 6b00 67be
00000160: d979 94bc 92d2 ee3c 925b 803e 1aaa e93c
00000170: 1026 00bd 7e73 3ebf 9767 b7be 90aa 44be
00000180: 3880 05be 36d1 863d 5b00 8d3e 3c53 10bf
00000190: a8fa 8ebe 5075 67be 1bf8 8b3e e56f 363e
000001a0: 2b36 853e fcbd 4ebe 60c1 96be b2f7 a7be
000001b0: d31c 903e 3638 543c 2b22 2c3d 03cc b1bf
000001c0: 9b1c b7be 80be 1ebe 7b1a 71bd f38d d83c
000001d0: 66bf 703e c5e4 babe 0d39 db3c 62a1 febd
000001e0: fe00 003e ee14 ed3e 710c bb3e 1ed0 32be
000001f0: 2a78 10bf 66c5 1bbf a0f8 0a3e f29a 7cbc
00000200: afb3 68bd 57f5 05bf 70bf 6ebe 783e 06be
00000210: da9a 2ebe 07da aa3d 5212 6f3e 896a f2be
00000220: fd7b 78be 3aa9 49be dba0 46be 6a73 093d
00000230: 0def 0c3f 27a3 b7bc a7f3 893e e9ad b2be
00000240: 715b 123d 4c91 ac3d 1efb 073e 069d a3bd
00000250: 9122 48bd fc1e 543d aadc 1fbe 26d8 5ebc
00000260: 7c21 9dbd 43ec aabe 6383 77be a45e b33e
00000270: aaa3 dfbd 7528 fdbd e8c6 d73e 1b4c 2f3e
00000280: e036 df3d e3bb d03e 022e 0c3d 1b50 cabd
00000290: 024d 453e 4770 43be 6e70 f6bd 5498 803e
000002a0: 6f01 f7bd 31fa 85ba 47cc c43d 2c4f 073e
000002b0: 2fc5 873e 4c67 e33d e2b8 dc3c abd7 0bbe
000002c0: cf2d 93be 2372 353d 3990 013b 424e 1dbb
000002d0: 2675 913d af4c 5d3e da23 4d3d 5562 493d
000002e0: e44e 0fbe f6d1 5bbe 0f2e 5e3d 735c bb3d
000002f0: dfa6 7c3d 0594 863d 42cd 863d 9ea5 e33d
00000300: d3cf 1abe ef25 2d3d d74a 033e f5b7 70be
00000310: 45f9 40bc 13f7 f2bc 61be de3c a4f2 bd3d
00000320: 5aec ed3d c17e 20bd 077a 38bd ea2a 40be
00000330: df56 963b 394b 7dbb d5d6 29bc 7610 533e
00000340: f983 d93d f77f aabe 4beb d4bb 85ba a6bd
00000350: 0375 74be efe7 a8bd 4322 59bd 95f7 9fbe
00000360: a616 08be 5a23 11be 970d 1e3e c93e a3be
00000370: 3446 98be 560b af3e 56ca 243e bf9e 1c3d
00000380: 516a eb3d b28c cf3c 341e 1fbe 4512 c73d
00000390: b948 043e 7328 d2bd 1a07 a53e dafa 2f3e
000003a0: 5d3e cabc b365 723e b4eb 513e 03c4 303d
000003b0: 2bad 3a3d f77a 1e3e f601 f9bd 0e1d 82be
000003c0: 7cdc 203e 0411 5ebd eb34 ccbd b184 48bd
000003d0: 7dd0 c3bd 24ca 7a3e 6708 633d 09ec b13d
000003e0: 126d a13e 8b65 6fbe d45b d2bd 7bd1 403d
000003f0: 3b29 3c3e 4210 c33d 4ffb 5b3d 5c11 a6bd
-0.18648867 0.14840877 0.030672828 -0.040325597 0.22289354 0.02908692 0.18149161 -0.34938854
-0.3795603 -0.68052816 -0.18817222 -0.3824938 0.11988911 0.10811676 0.21276486 -0.025460036
-0.087548435 -0.20024648 -0.40865654 -0.07394049 -0.109261036 0.09984724 0.28994635 0.4572793
-0.07559067 -0.040645428 -0.44034755 0.32908928 0.124092095 0.042335007 -0.77887976 -0.2549994
-0.259586 -0.15886697 0.1232258 0.29693902 0.20217197 -0.046676114 -0.10049424 -0.72987294
-0.55364347 -0.22182684 -0.11401562 0.07114506 0.1646093 -0.24305362 0.06503169 0.029028876
-0.054246675 0.3010081 0.16284628 0.16875157 -0.23090443 -0.37538177 0.29397446 -0.02497772
0.0657523 -1.7061973 -0.47581476 0.090247676 -0.2066228 -0.0052599274 0.2429538 -0.3492708
-0.05197598 -0.104777 -0.15050071 0.1277762 0.0076922597 -0.07406921 -0.19357295 -0.074339576
-0.5499621 -0.10875037 -0.24681473 -0.056713596 0.2366283 0.23526554 0.006359693 -0.06251805
-0.44870088 -0.5356327 -0.23069783 -0.2932932 0.054296732 0.07846183 0.24246699 -0.22558753
-0.018124508 0.029153142 0.25069863 0.028523494 -0.0312863 -0.7439498 -0.3582122 -0.1920569
-0.13037193 0.065828726 0.27539334 -0.56377006 -0.2792561 -0.22603345 0.27337727 0.17816122
0.2601789 -0.20189661 -0.29444408 -0.32806164 0.2814699 0.012952855 0.042024773 -1.3890384
-0.35764012 -0.15502357 -0.058863144 0.026434874 0.23510513 -0.36502662 0.026760602 -0.12433125
0.12500378 0.4630503 0.3653293 -0.17462203 -0.56433356 -0.6084808 0.13571405 -0.015417801
-0.056811985 -0.52327484 -0.23315215 -0.13109767 -0.17051259 0.08342367 0.23346832 -0.47346905
-0.24266048 -0.19693461 -0.19397299 0.033557333 0.5505226 -0.022416664 0.26943704 -0.34898308
0.035731737 0.08426151 0.13279387 -0.07988934 -0.04886109 0.05178736 -0.1561152 -0.0136013385
-0.07672402 -0.33383378 -0.24171214 0.35033143 -0.10919888 -0.12361232 0.4214394 0.17118876
0.108991385 0.40768346 0.034223564 -0.0987856 0.19267657 -0.19085799 -0.12033163 0.25116217
-0.1206082 -0.0010221658 0.09609275 0.13213795 0.26517627 0.11103687 0.026943628 -0.1365649
-0.28745887 0.044298302 0.0019769801 -0.0024002944 0.071024224 0.21611284 0.05008302 0.049166042
-0.13994938 -0.21466812 0.054243144 0.09148493 0.06168258 0.06571201 0.065821186 0.11115573
-0.15118341 0.042272504 0.12821518 -0.23507674 -0.0117781805 -0.02965883 0.02719039 0.09274796
0.11617346 -0.039183382 -0.04503825 -0.1876637 0.0045879926 -0.0038649573 -0.010366161 0.20611748
0.10620875 -0.33300754 -0.0064977757 -0.081410445 -0.23872761 -0.08247363 -0.05301119 -0.31243578
-0.1328989 -0.14173642 0.15434872 -0.3188384 -0.2974106 0.34188336 0.1609281 0.03823733
0.114948876 0.025335643 -0.15538865 0.097202815 0.12918366 -0.10261621 0.3223198 0.17185536
-0.02468794 0.23671608 0.2050007 0.04315568 0.045575302 0.15476595 -0.12158577 -0.25412792
0.15709108 -0.054215446 -0.09971031 -0.04895467 -0.0956125 0.24491173 0.055427935 0.08687598
0.31528527 -0.2337858 -0.10271421 0.047074776 0.18375103 0.09524585 0.053706463 -0.0810878

autoencoder.encoder.3.bias f4 [8]
00000000: 67e4 28bd 7032 04be d38c 023e 574f 1bbd
00000010: 3f5e db3c b2da fb3d 2364 1c3e 81fd 7bbe
-0.041233446 -0.12909865 0.12749033 -0.03791746 0.026778338 0.12297572 0.15272574 -0.24608423

autoencoder.encoder.6.weight f4 [2, 8, 2, 2]
00000000: a90b 563d e556 27bf fe05 babf 8422 f8be
00000010: 0bff 40bf 9ba5 243e 9ee1 08bf 14e7 743d
00000020: 1900 9bbe 6102 683e 4e6e 99bf c32b a33e
00000030: 291a 32be 80bd d63d 3f78 af3d ff91 6cbe
00000040: 7735 cc3d 5a93 363e 824d 3d3e 3a19 6b3e
00000050: 743c 0b3e 306a 03be 8e5a 943e c8e1 863e
00000060: 4e94 a53e 54f5 853e b1d2 9b3e a989 263e
00000070: 84c3 fabe 6136 ffbe bb8b ab3d d2d3 12be
00000080: ec97 9b3c ec54 83be 7303 1dbf 965d 21be
00000090: 3054 e6bd 8ed2 fbbe 2c81 513e d562 5b38
000000a0: 87fd ef3e 9ee2 f13e a21d cdbe 4445 8b3e
000000b0: 384a 96be bb35 7dbe d997 a3be 4dde cfbe
000000c0: 7822 03be 249b 413c 47be 54bd 210f 9ebd
000000d0: 9ee6 1abe 4e0c 22bf f58d 523e ae9b 403e
000000e0: e39c ecbd 179b 803d c774 003e 5e4d 4fbd
000000f0: 4029 b0bd 3bf6 22bd 3f59 0bb9 ae52 30be
0.052257214 -0.65366966 -1.4533079 -0.48463833 -0.75389165 0.16078798 -0.53469265 0.059790686
-0.30273512 0.22657157 -1.1986787 0.31869325 -0.17392792 0.10485363 0.08567857 -0.23102568
0.09971135 0.17829648 0.18486598 0.22958842 0.1359728 -0.12833476 0.28975338 0.26344132
0.3233971 0.26163733 0.30434182 0.1626345 -0.48977292 -0.49846175 0.08376261 -0.14338616
0.01899334 -0.25650728 -0.6133339 -0.15758356 -0.11246526 -0.49184078 0.20459431 5.2305713e-05
0.46873114 0.47243208 -0.4006167 0.27201283 -0.293535 -0.24727528 -0.31951788 -0.4059929
-0.12806118 0.011816774 -0.051939275 -0.07717729 -0.15127036 -0.63300025 0.20561965 0.18809387
-0.11553361 0.06279581 0.12544547 -0.050610892 -0.08601618 -0.039785605 -0.0001328932 -0.1721904

autoencoder.encoder.6.bias f4 [2]
00000000: a1b6 713d 827f 24be
0.05901206 -0.16064265

autoencoder.decoder.0.weight f4 [2, 8, 2, 2]
00000000: 0140 9fbd b6c3 b73d 26aa 9c3e 0936 653e
00000010: a5b1 81be bec3 443d 15f7 b9be 0184 823e
00000020: 0724 91bd 3296 b7be da19 293e 6af0 673b
00000030: 147f 9c3e d129 323e 0581 703e 68e1 a73e
00000040: 2615 3cbe d8cb 52be b054 983c 1401 123e
00000050: 70bb d0bd e18f 47bd dbd0 d7be 1d86 2bbe
00000060: a468 543e ccad 173d b002 c2bd fa5f 9bbe
00000070: ecd0 d63e 62a1 df3e c21e 003f 74a5 b33e
00000080: 022f f03d beb1 a5be e798 5b3d 5df4 4f3e
00000090: 8593 bf3d f740 9fbe 9291 d3bd 4f60 d13c
000000a0: c7fa 0b3e e22d c13b e0b2 ab3e 5646 ff3c
000000b0: 61a6 243e eac3 14bd bf00 103e 3f8c 573b
000000c0: e1e9 da3d 557a 2cbb 53e6 07be 0ab1 50be
000000d0: cbe2 383e 98e2 3e3e 0d9e 443e 7592 8abe
000000e0: d4f3 93be 84a8 033e a734 b4bd 0f39 31bd
000000f0: ad33 0e3e 6edf 5b3e 6b94 463e 7f34 4d3e
-0.0777588 0.08972876 0.30598563 0.22383894 -0.25330845 0.048038237 -0.3632132 0.25491336
-0.0708695 -0.35856777 0.16513768 0.00353911 0.30565703 0.17398764 0.23486717 0.3278916
-0.18367442 -0.20585573 0.01859507 0.14258224 -0.10192001 -0.048721198 -0.42151532 -0.16750379
0.20743042 0.03703098 -0.09473169 -0.30346662 0.4195627 0.43677813 0.5004693 0.35087168
0.11727716 -0.3236217 0.053612616 0.20308061 0.09354309 -0.31104252 -0.103305 0.025558619
0.13669883 0.0058953622 0.33534908 0.031161468 0.16079094 -0.03631965 0.14062785 0.003288999
0.1068914 -0.0026318033 -0.13271455 -0.20380035 0.18055265 0.18641126 0.19200917 -0.27064863
-0.28896964 0.12857252 -0.08799105 -0.043267306 0.138869 0.2147195 0.19392554 0.20039557

autoencoder.decoder.0.bias f4 [8]
00000000: 1a99 603d 5af3 69be 9a25 0e3e 2257 b63d
00000010: 7906 ab3e eec2 463e 06db 8f3e 7bdf 073e
0.05483351 -0.22846738 0.13881531 0.08903338 0.33403376 0.19410297 0.2809679 0.13268845

autoencoder.decoder.2.weight f4 [8, 16, 3, 3]
00000000: 3bdc 33bd d826 fe3d 9f5d e2bd 461c be3c
00000010: 4870 033e 7ff5 adbe e132 c0bd 19f0 a43d
00000020: 13eb ef3d 4262 50bd f37c 5f3e 06a8 c63d
00000030: ab45 9bbd b08e 403e 2b0b 72be a860 7ebc
00000040: 5a4f 993d c224 a93d f732 933d 03ea 9f3e
00000050: 949c 363e 1ff3 14bd c4bb 313e aa02 0a3e
00000060: 651b babd 60d4 3ebd 3853 0abd ff57 d9ba
00000070: c389 673d e7f2 fd3c f7c6 023d 03c0 de3d
00000080: bd67 423e 6440 3f3c f2f2 16be 12db 1b3e
00000090: 9294 b33d dd7a e73b 9190 efbc dbef e23d
000000a0: e136 9d3e 2d2a 38bd dc1a ae3c 493a 453e
000000b0: b530 22bd 8ab5 f63d 1b32 69bd 63e4 803d
000000c0: a76f b13d 37bf 1d3e 2424 893e fcc9 0fbe
000000d0: 4099 09bc 8a95 523e 8ae0 c7bd b4f9 f23d
000000e0: bd5b 563e 86d1 4fbe 76e5 473e 6e6f 7d3d
000000f0: c721 57be e7e8 ac3d 1015 5e3e 86c5 5d3d
00000100: e511 913c 9e4f 01bd 801e 363d 76de 31be
00000110: 13ef 17be 502a 593e 4162 7a3d cc1b ffbd
00000120: 8b8b d0bd 4571 3f3d 1896 843c 3b8a 883d
00000130: fd07 0e3e e67c 923e d12b 99bd e7d9 293e
00000140: a4e0 f23d 7c47 a2bc b391 a93c b4ab 1bbe
00000150: 6a34 923d 1e65 783e 770c 04bd 7edd fa3c
00000160: 02c4 8e3c cd59 623d ceab 15bd cad1 683e
00000170: 4f6e adbd bd05 773d 8474 17bc d7a0 0d3e
00000180: 6ba2 91bd 516c 06bd 162d 633d ee93 0e3d
00000190: 7815 163e 44e4 acbc 0956 883d f0e1 303e
000001a0: 4393 af3d 5540 27bd afe5 91bb 9218 7a3a
000001b0: 20d0 003e c67f 2d3e c20f 933c 8433 183d
000001c0: bd18 e53d 0db2 183e f225 d93c a4ff 9bbc
000001d0: a8ca b53d 2355 903c 676b 323e 561e 0dbe
000001e0: 8900 a93d 0e1c 053e 20e3 033e 2ea6 3a3d
000001f0: 74d2 0abd 569a 253d 17eb 81bc 4015 45bd
00000200: 5d78 90bd f3ff 633e 68c5 2fbd b0ea 8d3d
00000210: 5892 d83d 111a 61be e3ec 5fbc 89ae 92bd
00000220: 8c25 c4bd 1f7a b13c 346c 10be 928b 81be
00000230: 7b02 9abe cd0c bcbe 9144 1cbe 2f02 01be
00000240: da12 75be c601 c8bd 0a92 ba3d 7be3 b63c
00000250: 81a7 bd3d a2c7 e43d a390 fa3d b8f3 c9bd
00000260: e33d e63c e487 bbbd 47ad a13c 528f 1f3e
00000270: dbd4 35bd 4f2b 323d 14e2 22be 6288 1ebd
00000280: 36b4 c3bc 6800 0a3d 07c1 633b 14f5 b33d
00000290: 240f de3d 43ef 133e 49ed 963c a214 f2bc
000002a0: 88e1 763d 6db9 17be 1b26 6cbd a823 0a3d
000002b0: cf0a 45bd 7ed8 2ebe 808e f4bd 68b7 123e
000002c0: 646a 633d 0f51 313d 9d3b 913d c540 89bd
000002d0: 7650 6bbd ce89 08bc 9447 8b3d a1ba 083c
000002e0: 3939 f0bc 1293 0d3d c307 8ebd a9c2 cebd
000002f0: 5255 133e 7839 833d 3bbd b1be 28bf d5bd
00000300: cff2 8d3d 88ea f6bc 223b 84bc d806 a03d
00000310: 1a82 90bd 057a 90be 8aa1 19bd b7a8 a93d
00000320: 0b58 bb3d 6f05 b03d 6643 97bd abe7 b83d
00000330: 53ec e93d 08c6 d8bd 6bd6 753c b241 7ebd
00000340: 963e 6bbd dd57 083d 7b51 87be 5784 053e
00000350: d9c4 4fbd afa2 0f3d 0687 a5bd a840 6d3d
00000360: 1b36 913d d795 33be 929b 283d 86cc 613d
00000370: cb38 3b3a 95bc a93b 2327 e53d af6b 7a3d
00000380: 3266 9b3a 18d4 ff3d b067 01bc 5273 7bbe
00000390: ebdc 293e 28a0 303e 6aca 4abe 1d7c dfbc
000003a0: 493b e23d d33f d7bd c0df ad3d edf2 073e
000003b0: 633b 43be 0d87 733c e84f 8f3e 179c 6a3d
000003c0: a2be 25bd 88e3 0c3d 09c9 b6bd e88b a13d
000003d0: f2f9 c7bc 77ff 0cbe 27d5 d7bd ae58 973e
000003e0: 30b2 203e a0bc dd3c 7207 a63d db0e 753c
000003f0: a89e 5fbd f7bf 873d 4e58 423d 1ba3 6b3e
-0.0439112 0.124097526 -0.11053013 0.023206841 0.128358 -0.3397636 -0.093847044 0.080536075
0.11714759 -0.050874956 0.21825008 0.09700017 -0.075816475 0.18804431 -0.23637073 -0.015525974
0.07485838 0.08258964 0.07187455 0.31233224 0.17833167 -0.03636467 0.17356783 0.13477579
-0.09087256 -0.046589255 -0.03377077 -0.0016582011 0.056527864 0.030999614 0.03192803 0.10876467
0.18984886 0.011673067 -0.14741114 0.15220287 0.08768572 0.007064207 -0.02924374 0.11080905
0.30705932 -0.044962097 0.021253042 0.19260515 -0.039597232 0.120463446 -0.05693255 0.06293561
0.08663874 0.15404974 0.26785386 -0.14041895 -0.008398354 0.20564857 -0.09759624 0.11864033
0.20933433 -0.2029477 0.19521126 0.061873846 -0.21008979 0.0844286 0.21687722 0.05414345
0.017708728 -0.03157007 0.04446268 -0.17370018 -0.14837293 0.21207547 0.06112886 -0.12456474
-0.10182866 0.04673888 0.016184852 0.0666699 0.13870235 0.28610915 -0.074790604 0.1658703
0.11859253 -0.019809477 0.020699358 -0.15202218 0.071389034 0.24257323 -0.03223845 0.030623194
0.017427448 0.055261422 -0.0365408 0.22736278 -0.08468305 0.060308207 -0.009244088 0.13830887
-0.07111057 -0.032818142 0.05546292 0.034809045 0.14656627 -0.02110494 0.06657035 0.17273688
0.0857301 -0.040832836 -0.0044524292 0.00095404044 0.12579393 0.16943273 0.01795185 0.037158504
0.11186359 0.14911671 0.026507352 -0.019042797 0.08876544 0.017618721 0.17423783 -0.13781103
0.08252055 0.12998983 0.1287961 0.045568638 -0.03389211 0.04043039 -0.01585917 -0.04811597
-0.070542075 0.22265606 -0.04291287 0.06929529 0.10574788 -0.219826 -0.013667318 -0.07162196
-0.09577474 0.021664677 -0.14103776 -0.25301796 -0.30080017 -0.36728516 -0.15260531 -0.12598489
-0.23932973 -0.09765963 0.09109886 0.022325268 0.092604645 0.111708894 0.122346185 -0.09860939
0.028105682 -0.091567785 0.019735945 0.15582016 -0.044392448 0.043498334 -0.15906554 -0.038704284
-0.023889642 0.033691794 0.0034752504 0.08786979 0.108427316 0.1444674 0.018423693 -0.029550854
0.060273677 -0.14816828 -0.057653528 0.03372541 -0.04810601 -0.17074773 -0.11941242 0.14327776
0.055521384 0.043290194 0.070914485 -0.06701807 -0.05744978 -0.008333636 0.06800762 0.008345277
-0.02932416 0.034564085 -0.06935074 -0.10095722 0.14388016 0.06407446 -0.34714684 -0.10436851
0.06931078 -0.03014113 -0.016141478 0.07813805 -0.07056065 -0.28218094 -0.03750757 0.08284133
0.09147652 0.085947864 -0.07385902 0.09028562 0.114220284 -0.105846465 0.0150047345 -0.06207437
-0.057432733 0.033286918 -0.26429352 0.13038765 -0.050724838 0.035067257 -0.08082394 0.05792299
0.07090398 -0.17537628 0.04116399 0.05512669 0.00071419467 0.0051799514 0.11189105 0.06113785
0.0011856018 0.124916255 -0.007898256 -0.2455571 0.1658818 0.17248595 -0.19803777 -0.027280862
0.11046464 -0.105102204 0.084899426 0.13276263 -0.19065623 0.014863742 0.2799065 0.057277765
-0.040465005 0.03439668 -0.08925063 0.07888013 -0.024411175 -0.13769327 -0.105387025 0.29559845
0.15692973 0.027067482 0.08106889 0.014957155 -0.054594666 0.06628411 0.047447495 0.23011439

autoencoder.decoder.2.bias f4 [16]
00000000: a072 afbe 6f43 a0bd 0ec1 03be f86c 41be
00000010: f6f6 0a3e 00ef 0bbe a1dc bdbd ac6d 8e3d
00000020: 250e a1bd af03 afbd ae9b f5bd 16a2 62bd
00000030: e27f debe 31c6 9bbd 4fa0 e03d d5fb 173e
-0.3426714 -0.07825362 -0.12866613 -0.18889225 0.1357077 -0.1366539 -0.09270597 0.06954512
-0.07864026 -0.085456245 -0.11992584 -0.05533036 -0.43456942 -0.076061614 0.109680764 0.1484216

autoencoder.decoder.4.weight f4 [16, 8, 5, 5]
00000000: ac3f 013d 9a59 133d 40aa e7bb 2d1e e13d
00000010: 41e6 963a acfd e23c 226b 693d 3ab3 963c
00000020: 3040 fa3d 674b 0c3d 3635 cd3d aaf6 433e
00000030: bb99 2c3e 1fea f93d 0cc4 0bbd 1ee6 023e
00000040: 4885 733e ddcf 5d3e 2205 a43d bc02 b6bc
00000050: 8f99 273e 877a 713e 7adf 143e e222 b53d
00000060: 151c 2d3b 45b0 f1bd 9a17 083e e19b 0e3e
00000070: 136d 7e3e 52e5 4c3e 24f8 78bd f4ae 393e
00000080: 1de7 943e 1adf a93e 7d28 3c3e 4e11 c33d
00000090: d38e ab3e d842 c73e f588 b13e 8263 533e
000000a0: 5be0 643d 5b6f 743e 9bfb b73e 2e91 7e3e
000000b0: aa81 da3d 8cc0 e9bc b321 093e 3762 383e
000000c0: 4bfc cf3d e261 ccbd 01ee c03c da2d 423d
000000d0: 39d7 333b 7fda 20bd 4bc8 e43c 1a74 23bd
000000e0: b706 0dbd ce97 2ebc 4932 e3bd a45f 1abe
000000f0: a6f5 dd3c 4436 81bd a60f 23be 7290 29be
00000100: bcbb aabd d7f7 d23d 5b2f 08be a30d 173c
00000110: a45b febc 4f38 f13c 14fa 5f3d a20d f73c
00000120: c245 093c 646f 70bd d0ea 65bc 7c91 3bbe
00000130: 7bb7 5fbe e948 cdbd aeda 11be 64a1 8a3d
00000140: 02af 82be b201 a1be 64ba d2bd 2895 1dbe
00000150: 96ed 1bbd 9693 5bbe 726d 98be 1d0e 69be
00000160: 500d 39be c6f9 f3bc f72f d7bd 266f d1bd
00000170: 5795 b0bd 73ed b8bd e589 a9bd 5b77 0ebd
00000180: 9b68 e4bc 744a ee3c 6482 0abe a9d3 b1bd
00000190: 0401 8bbc dc08 1e3e 1472 163e e4a7 813e
000001a0: 2ee9 1b3e 7134 383c 76c4 833e 6e59 b43e
000001b0: 1845 913e f59c f73d d9fa 1e3e 9bfe c63e
000001c0: ecb8 b73e f931 9e3e 162c de3d e878 143d
000001d0: 2b56 853e 1dc0 713e d6a0 673e 90fb 05bd
000001e0: 8eb2 bbbd 83cc fc3d 1cbd 783d 1945 b8bc
000001f0: 83ac 00be 8f25 9cbc 622f 8a3d 0bad 2e3e
00000200: 2a4f 253d 4d7e 5bbd d3a6 cb3d 59e9 4f3e
00000210: 900a 5a3e 4a8c 4d3d fdf7 9abc b749 be3d
00000220: be87 253e 9c71 c83d a36e 7aba 555b d5bd
00000230: cffd bf3d fd5d 003d f57e 483c 2400 56bd
00000240: 38de 0abd a13d 1a3d e424 f0bd 2321 6fbd
00000250: 93a4 e6bd 4476 babd 46e8 873c e603 d6bc
00000260: 3a88 9abd 57f6 27be e0d5 02be 1a01 d4bd
00000270: 0344 f8bd ac2e 07be c80f 2ebe 7c6f b3bd
00000280: 7c53 0cbd 6668 77bd b8ed dcbd a0cb 84bd
00000290: ffc4 71bd 636a 2fbd 181f 11be 98d8 21bd
000002a0: 49a3 cc3c 5b6f c03d b9a2 e03c 66ea 4cbd
000002b0: e7f7 583d b2f9 5dbc 7616 1abd 0f87 97bc
000002c0: 7ccf 59bc 8b4e 06bd c500 96bd ca85 8d3c
000002d0: 9826 dfbc 1c6d 7cbd 60a3 56bd 2cc7 9fbd
000002e0: 78cd fcbc 8182 07be 3eb7 13be f483 34be
000002f0: 97d9 1abe 2660 183d 2021 0cbe 0305 40be
00000300: 2635 bdbd 9d81 6abd a691 243a 2420 91bd
00000310: 3c97 40be 00d5 a0bd 42ee 86bd e351 8bbd
00000320: a227 1b3d c84e 50bc f04a 4ebd 73c7 54bd
00000330: 249a 1bbd 55ac ce3d 9a37 0c3d c7ca ecbc
00000340: 4ed3 c43c a7fa c43c 3fd0 203e 616c 623d
00000350: f0e2 95bc bd71 7a3d 9fc7 663d 8339 92bc
00000360: 893f 833b d42c cbbc 9200 af3d 85f9 8bbb
00000370: d1d0 f63d a423 cb3d 58b6 d43c e2e1 a93d
00000380: b7bb b73b 1f06 873d f96e 4c3d e96c a93d
00000390: 9fd6 2e3d 5d08 8fbc 6c87 a23d 098a 0d3e
000003a0: 8dbd 0b3e 9a84 c23d 1d28 1a3d a87f cd3d
000003b0: 9924 3c3e 2516 6b3e 15eb 0b3e 0a0d 1c3d
000003c0: 2b76 663d 0e83 873d 2c4b 1c3e b7a0 d03d
000003d0: fa91 c03d 0469 003e 3305 053e 4504 013e
000003e0: 441d f33d 4908 cc3d e92a e1bc 672d 8ebc
000003f0: c182 b03d 0b1e 213e e477 febb a4b0 bdbd
0.031554863 0.035974123 -0.007069856 0.10992084 0.0011512713 0.02770885 0.056986935 0.018396009
0.12219274 0.034251597 0.10019915 0.19137064 0.16855519 0.12202858 -0.03412251 0.12783095
0.23781312 0.21661325 0.080087915 -0.0222181 0.16367172 0.23581897 0.14538375 0.08844544
0.0026414443 -0.11801199 0.13290253 0.1392665 0.24846296 0.20009354 -0.06078352 0.18133146
0.29082575 0.33178025 0.1837482 0.09524785 0.33507404 0.38918185 0.34674802 0.20643428
0.055878025 0.23870604 0.35934147 0.24860069 0.10669263 -0.028534196 0.13391761 0.18006216
0.10155543 -0.09979607 0.02355099 0.04740701 0.0027441515 -0.039270874 0.027927538 -0.039905645
-0.034430232 -0.01065631 -0.110935755 -0.15075547 0.027094673 -0.063091785 -0.15923938 -0.16559008
-0.08336589 0.10301178 -0.13299315 0.00921956 -0.031049557 0.029445795 0.054681852 0.030157868
0.008378448 -0.05869998 -0.014033034 -0.18317217 -0.21847336 -0.10023672 -0.14243576 0.06769064
-0.25524145 -0.31446606 -0.102894574 -0.1538893 -0.038068376 -0.21443018 -0.29771 -0.2275929
-0.18071485 -0.029782187 -0.105071954 -0.10226278 -0.08622234 -0.09029665 -0.082782544 -0.034781795
-0.027881911 0.029088236 -0.13526303 -0.08682949 -0.016968258 0.15433067 0.14691955 0.25323403
0.1522567 0.011242972 0.25735825 0.3522448 0.28373027 0.12090484 0.15525378 0.38866124
0.35883272 0.308975 0.108482525 0.036248118 0.26042303 0.23608442 0.22619948 -0.03271061
-0.09164916 0.12343695 0.060727224 -0.022493886 -0.12565808 -0.019060878 0.06747319 0.17058198
0.0403587 -0.053587247 0.099439286 0.20303859 0.21293092 0.05018262 -0.018917078 0.09291404
0.16165063 0.09787294 -0.00095532293 -0.10417811 0.09374582 0.031339634 0.0122373 -0.052246228
-0.03390333 0.03765643 -0.11725786 -0.05838121 -0.11261859 -0.09104589 0.016590249 -0.026124906
-0.075455144 -0.16402565 -0.127769 -0.103517726 -0.12122347 -0.13201398 -0.16998208 -0.08761498
-0.034259304 -0.060402296 -0.10787529 -0.06484151 -0.05902576 -0.042826068 -0.14172018 -0.0395132
0.024980204 0.09396239 0.027421342 -0.050028227 0.052970793 -0.0135483015 -0.037619077 -0.018497018
-0.013294097 -0.03278975 -0.073243655 0.01727571 -0.027240083 -0.061627492 -0.0524019 -0.07801661
-0.030859694 -0.13233377 -0.1442537 -0.17628461 -0.15122066 0.03720107 -0.13684511 -0.18751912
-0.09238653 -0.057252515 0.0006277807 -0.070862085 -0.18807691 -0.078531265 -0.06588413 -0.06802728
0.037879594 -0.012714095 -0.050364435 -0.051948022 -0.037988797 0.100914635 0.034232713 -0.028905286
0.02402654 0.024045302 0.1570444 0.05527914 -0.018296689 0.061143626 0.056342717 -0.01784969
0.0040053767 -0.02480165 0.08545031 -0.0042716884 0.12051547 0.09918907 0.025965855 0.08295037
0.005607094 0.065929644 0.04991052 0.08272726 0.042685147 -0.017460043 0.07935986 0.13822187
0.13646527 0.09497948 0.03763591 0.10034114 0.18373336 0.22957666 0.13663895 0.038098373
0.056265038 0.066167936 0.15263051 0.10186904 0.09402843 0.1254006 0.12990265 0.12599285
0.11870816 0.09962518 -0.027486281 -0.017355634 0.08618689 0.15734117 -0.007765757 -0.09262207

autoencoder.decoder.4.bias f4 [8]
00000000: 5a27 a0bd c345 97bd 8094 14bd 47ce 4b3e
00000010: cd0f f2bd 79e4 6dbb 5a26 68bd da86 48bd
-0.07820006 -0.07386353 -0.036274433 0.19902907 -0.1181942 -0.003629951 -0.0566772 -0.04895673

autoencoder.decoder.6.weight f4 [8, 1, 2, 2]
00000000: f804 393e 34bf 353f 849f db3e 2d23 ac3e
00000010: 21c1 363f 41e6 9d3e 602e 903e d344 c73e
00000020: dd04 8bbe 1e32 38be af2c f3be c747 06be
00000030: 456c ba3e f310 173f 43b2 073f 7b66 de3e
00000040: 2c2c 6b3e ad5b f53e ad21 2b3f e8c4 b83e
00000050: 7005 eebe 63ea 223e 469e 35be eee0 c73e
00000060: 5e0b babb 0571 74bd e2ae 1cbf d13b d3be
00000070: 198b e3be 5d7d e4be ebfe 623e b10c 01bf
0.18068302 0.7099488 0.42895138 0.33620587 0.7138844 0.30839732 0.2816038 0.38919696
-0.27152148 -0.17987868 -0.47495028 -0.13113318 0.36410728 0.5901024 0.5300638 0.4343756
0.22966069 0.47921506 0.6684826 0.36087728 -0.46488523 0.15909724 -0.17736158 0.39038795
-0.0056776246 -0.059678096 -0.6120435 -0.41256574 -0.4444206 -0.44626895 0.22167556 -0.5040999
