save_config_2/19/model_state.pth (torch, 28664 bytes, 13 tensors)

autoencoder.encoder.0.weight f4 [16, 1, 3, 3]
-0.064323045 -0.07067689 -0.19229782 0.0075504542 -0.2282114 -0.2851765 0.069200926 -0.39203745
-0.18661885 -0.04803916 -0.25286105 -0.60325575 -0.044865638 -0.016102912 -0.38168606 0.117816545
-0.0045584464 -0.5399079 -0.8558626 -0.44992283 -0.13567145 -0.7027829 -0.18411948 -0.014752345
-0.41700578 0.003277823 0.007110663 0.829384 0.75684136 0.47427976 -0.091937155 -0.06390831
-0.08548708 0.19264859 0.13729951 0.050871916 0.15674601 0.16026731 -0.3187093 0.31308246
0.18065132 -0.31796044 0.31402355 0.07698946 -0.5362828 -0.28961176 -0.04264509 -0.12513591
-0.14150287 -0.05896728 -0.2853595 -0.2685865 -0.23459016 -0.009377808 0.08846855 -0.12594281
0.05930744 2.0866103 1.1790068 0.9187649 0.6817199 0.066387475 0.076080844 -0.6523867
-0.05830148 0.329688 -0.33997142 0.049952146 0.39193624 -0.47669417 -0.10273837 0.47432804
-0.27000794 -0.5142106 -0.76398706 0.10029276 -0.3899985 -0.7013785 0.074643075 -0.32712546
-0.7232752 -0.30281076 -0.12574951 -0.037285227 -0.08753023 -0.1213597 -0.12071582 -0.3247853
-0.24384527 -0.12335036 -0.25181785 0.18225423 0.14537111 -0.22492963 0.03715752 0.124308996
0.44824994 0.6469089 0.5435115 0.08777128 0.06177243 0.07193637 -0.014044824 -0.056982543
0.00795326 -1.0459193 -0.23037691 -0.4405071 -0.018143218 0.13288449 -0.07740728 1.4979614
1.2243962 0.8521371 -0.10668598 -0.07106741 0.16064744 -0.06139013 -0.057176314 -0.08362019
-0.1003176 0.033568807 0.0522328 -0.65940356 -0.5871016 -0.61693513 0.09977269 -0.1769776
0.34819323 0.22481292 0.033090286 0.6094489 -0.21750274 -0.28583318 0.47941568 -0.58322597
-0.6594841 -0.49139795 0.15840049 -0.09808011 0.020032318 0.5220237 0.33110425 0.47926086
00000000: cdbb 83bd 0cbf 90bd b8e9 44be cd69 f73b
00000010: 40b0 69be a702 92be 37b9 8d3d 22b9 c8be
00000020: 0319 3fbe b6c4 44bd 0177 81be f86e 1abf
00000030: 08c5 37bd 41ea 83bc 5b6c c3be cd49 f13d
00000040: 055f 95bb 6737 0abf d019 5bbf 495c e6be
00000050: 75ed 0abe 95e9 33bf d189 3cbe d2b3 71bc
00000060: c881 d5be bfd0 563b 9100 e93b 8352 543f
00000070: 5bc0 413f ccd4 f23e 8c49 bcbd 5ce2 82bd
00000080: da13 afbd ac45 453e 3e98 0c3e 125f 503d
00000090: 0782 203e 1d1d 243e de2d a3be 584c a03e
000000a0: a9fc 383e b6cb a2be b2c7 a03e a6ac 9d3d
000000b0: d449 09bf fe47 94be 9eac 2ebd a123 00be
000000c0: 21e6 10be ad87 71bd a41a 92be 2b84 89be
000000d0: 6738 70be 61a5 19bc 002f b53d 27f7 00be
000000e0: 5cec 723d 068b 0540 b2e9 963f 2d34 6b3f
000000f0: 3285 2e3f 28f6 873d 46d0 9b3d d102 27bf
00000100: 88cd 6ebd decc a83e bc10 aebe 9f9a 4c3d
00000110: deab c83e 4211 f4be 7f68 d2bd 20db f23e
00000120: 7b3e 8abe 4ea3 03bf a894 43bf 4a66 cd3d
00000130: e2ad c7be 8b8d 33bf 78de 983d fd7c a7be
00000140: 9028 39bf 030a 9bbe 7bc4 00be 65b8 18bd
00000150: 0d43 b3bd 6f8b f8bd db39 f7bd 424a a6be
00000160: 93b2 79be 1d9f fcbd 45ee 80be daa0 3a3e
00000170: 2adc 143e f453 66be 7c32 183d b795 fe3d
00000180: 0481 e53e d29b 253f 9223 0b3f 6ec1 b33d
00000190: 1605 7d3d 6053 933d 431c 66bc 8766 69bd
000001a0: 644e 023c afe0 85bf ede7 6bbe 268a e1be
000001b0: 16a1 94bc df12 083e b587 9ebd 33bd bf3f
000001c0: 04b9 9c3f a825 5a3f 2e7e dabd ca8b 91bd
000001d0: c380 243e 3874 7bbd b631 6abd 1041 abbd
000001e0: 5073 cdbd 727f 093d 0ff2 553d acce 28bf
000001f0: 4a4c 16bf 76ef 1dbf a055 cc3d 9e39 35be
00000200: 6246 b23e 5c35 663e ae89 073d d804 1c3f
00000210: 0ab9 5ebe ba58 92be f975 f53e 4c4e 15bf
00000220: f3d3 28bf 8398 fbbe bd33 223e 3ade c8bd
00000230: d11a a43c 58a3 053f 7f86 a93e ae61 f53e

autoencoder.encoder.0.bias f4 [16]
-0.6676589 1.0233865 0.32674518 -0.07765781 0.12377991 -0.540573 -0.037773643 -0.36068034
0.49477798 1.6639113 0.38883522 0.49746048 -0.10608489 0.089607954 0.24571677 -0.045759164
00000000: b2eb 2abf 54fe 823f 254b a73e 0f0b 9fbd
00000010: 5280 fd3d fe62 0abf 89b8 1abd 18ab b8be
00000020: 8a53 fd3e 0cfb d43f 6915 c73e 24b3 fe3e
00000030: 0943 d9bd 6084 b73d 2d9d 7b3e f66d 3bbd

autoencoder.encoder.3.weight f4 [8, 16, 3, 3]
-0.3504163 0.13814172 0.067976125 -0.06361884 0.33201241 0.33729264 0.12308027 -0.40861985
-0.3494941 -0.20356429 -0.21221602 -0.10391984 0.15619038 0.029363012 0.35145637 -0.43810233
0.013830862 -0.065727614 -0.27137017 0.079753995 0.09001944 0.0072281514 0.3317001 0.29018956
-0.22102663 -0.12578449 -0.35362986 0.29290953 -0.06482379 0.024287904 0.26016757 -0.099837065
-0.022681864 -0.029734945 0.12360664 0.24517256 0.055731077 0.0069223433 -0.10040418 -0.38689432
-0.26696205 -0.14192076 -0.05566834 0.014620755 0.07317638 -0.29045042 0.16665101 0.14047773
-0.049169227 0.4037699 0.3544757 0.094212376 -0.34371138 -0.35097346 0.27702865 -0.021225005
0.055462472 -2.5661497 -0.29260597 0.01788115 -0.3031255 -0.036899082 0.1706227 -0.34553877
-0.30341092 -0.12045858 -0.2213041 -0.11155071 0.029869106 0.22631764 0.07203457 -0.23314297
-0.15337496 -0.04571578 0.016679853 0.035817496 0.2866433 0.17750727 -0.261882 -0.07998652
-0.20951572 -0.17012231 -0.26235798 0.009799224 0.1607094 -0.08338826 0.19528073 -0.6126238
0.09361003 -0.06639296 0.36761254 -0.08574056 0.047702484 -0.19341756 -0.32459447 -0.1303143
-0.31477305 0.0026214526 0.26898378 -0.22869994 -0.113479465 -0.08764698 0.31563425 0.115394436
0.0628378 -0.087185696 -0.059438284 -0.21862282 0.077728346 -0.033825718 -0.007132974 -2.0763152
0.1310912 -0.10622761 0.049578264 0.05765713 0.1387592 -0.15379252 0.20689382 0.10154881
-0.019894522 0.19647235 0.40189055 0.009263881 0.024828529 -0.24473564 0.18774742 0.07887139
-0.080454476 -0.5412912 0.016377058 -0.032777146 0.1170404 0.028015856 0.22023113 -0.2674668
-0.0037258223 0.002299708 -0.04967439 0.1746174 0.3089137 -0.10389931 0.07719048 -0.11332777
-0.06814983 0.10230584 0.09879441 -0.597825 0.062061593 -0.22253941 -0.437951 0.025529899
0.121677645 0.1605719 0.022572795 0.5034703 0.0016146998 0.13387884 0.46113962 0.22516371
-0.0966759 -0.010346432 -0.24310593 0.11976689 -0.19584167 0.050000723 0.016461793 -0.09510121
-0.2559596 0.015678793 -0.03559707 0.07330921 0.075886436 -0.0661927 -0.23915347 -0.07466033
-0.3218049 -0.0870581 -0.20515086 -0.24915063 -0.05478586 -0.018498614 0.040019073 -0.11159007
-0.05518275 -0.1660606 0.15698321 0.0019401065 0.0513539 -0.09740718 0.17888136 0.12945922
-0.4985456 0.10604956 -0.21973653 -0.5200723 0.08908947 0.12837163 0.071934596 -0.02213933
-0.006847184 -0.04441954 -0.032911222 -0.10841371 0.092131615 -0.054617506 0.018058144 -0.08534134
-0.052894253 -0.042472385 -0.09601165 -0.070135005 -0.09479661 -0.15883675 0.108196735 0.124690555
-0.13098055 -0.2385042 -0.39008 0.17500314 0.056155145 -0.07143773 0.1225282 -0.338322
-0.13430934 0.43546307 0.028318651 0.228499 0.5467152 0.1712768 0.67898566 0.45290956
0.1405199 0.032283943 0.12635678 0.07732451 -0.030278828 0.059232306 -0.36477745 -0.026827198
0.16154933 -0.23415938 -0.121637665 0.0030734655 -0.09305018 0.00047784418 -0.35223967 0.098208435
0.26985505 -0.08817341 0.01525413 0.1596643 0.051422548 0.03554836 -0.004439717 -0.10375373
00000000: c469 b3be 0675 0d3e 1137 8b3d 984a 82bd
00000010: 88fd a93e 9fb1 ac3e 8211 fc3d 9f36 d1be
00000020: e4f0 b2be 2873 50be 284f 59be edd3 d4bd
00000030: 5ff0 1f3e b38a f03c 17f2 b33e f34e e0be
00000040: d79a 623c 339c 86bd 08f1 8abe 1056 a33d
00000050: 1d5c b83d 21da ec3b 98d4 a93e ba93 943e
00000060: ce54 62be a6cd 00be f90e b5be 3df8 953e
00000070: 56c2 84bd 6df7 c63c af34 853e 6077 ccbd
00000080: 51cf b9bc b396 f3bc 7a25 fd3d 840e 7b3e
00000090: 4546 643d d3d4 e23b b5a0 cdbd 0317 c6be
000000a0: 40af 88be ad53 11be 7c04 64bd e48b 6f3c
000000b0: 7fdd 953d ebb5 94be 90a6 2a3e 65d9 0f3e
000000c0: ac65 49bd eeba ce3e d77d b53e 6bf2 c03d
000000d0: f0fa afbe cbb2 b3be b3d6 8d3e 10e0 adbc
000000e0: 9e2c 633d cc3b 24c0 73d0 95be 7d7b 923c
000000f0: 4433 9bbe 7e23 17bd b8b7 2e3e 75ea b0be
00000100: ad58 9bbe fdb2 f6bd 8b9d 62be b374 e4bd
00000110: 0eb0 f43c d0bf 673e dc86 933d 08bd 6ebe
00000120: 530e 1dbe 7840 3bbd 30a4 883c 5eb5 123d
00000130: e9c2 923e 77c4 353e 6615 86be f9cf a3bd
00000140: 4a8b 56be 8b34 2ebe c953 86be ed8c 203c
00000150: 0191 243e 77c7 aabd acf7 473e ead4 1cbf
00000160: 9eb6 bf3d 08f9 87bd b637 bc3e bf98 afbd
00000170: ae63 433d 410f 46be 3f31 a6be 1d71 05be
00000180: ef29 a1be adcc 2b3b 3eb8 893e 5130 6abe
00000190: ec67 e8bd 4380 b3bd d09a a13e eb53 ec3d
000001a0: 1bb1 803d 6a8e b2bd 8f75 73bd a9de 5fbe
000001b0: 0a30 9f3d d68c 0abd b9bb e9bb 59e2 04c0
000001c0: c63c 063e dc8d d9bd 9412 4b3d e229 6c3d
000001d0: e416 0e3e c97b 1dbe f9db 533e d3f8 cf3d
000001e0: d6f9 a2bc 0c30 493e 99c4 cd3e 88c7 173c
000001f0: 3365 cb3c fb9b 7abe dc40 403e 5387 a13d
00000200: 51c5 a4bd 0f92 0abf 2e29 863c 5441 06bd
00000210: e1b2 ef3d 8281 e53c 4584 613e 69f1 88be
00000220: ed2c 74bb b3b6 163b 6077 4bbd e7ce 323e
00000230: f029 9e3e 29c9 d4bd 0b16 9e3d 6418 e8bd
00000240: 2392 8bbd b985 d13d b954 ca3d 0f0b 19bf
00000250: 4c34 7e3d 5fe1 63be 1d3b e0be 1424 d13c
00000260: 2132 f93d f66c 243e 95ea b83c 6ee3 003f
00000270: 56a4 d33a 8917 093e 7e1a ec3e 5191 663e
00000280: 04fe c5bd 1584 29bc c3f0 78be 5848 f53d
00000290: b88a 48be 8fcd 4c3d e2da 863c 6cc4 c2bd
000002a0: 230d 83be d070 803c 3cce 11bd 2423 963d
000002b0: 596a 9b3d 0a90 87bd a6e4 74be 84e7 98bd
000002c0: 9dc3 a4be 844b b2bd 1113 52be 5821 7fbe
000002d0: 2367 60bd 688a 97bc 0aeb 233d 5689 e4bd
000002e0: 4f07 62bd ca0b 2abe 35c0 203e 2c4b fe3a
000002f0: 7858 523d 6a7d c7bd ad2c 373e f590 043e
00000300: 5e41 ffbe 8330 d93d 9d02 61be 7523 05bf
00000310: 8a74 b63d da73 033e 7252 933d 8a5d b5bc
00000320: 585e e0bb 43f1 35bd ebcd 06bd 0208 debd
00000330: 80af bc3d 9bb6 5fbd acee 933c 71c7 aebd
00000340: a5a7 58bd 86f7 2dbd c2a1 c4bd f1a2 8fbd
00000350: ba24 c2bd 1aa6 22be 4096 dd3d c35d ff3d
00000360: c41f 06be 723a 74be 91b8 c7be 0634 333e
00000370: f002 663d f24d 92bd 11f0 fa3d 8b38 adbe
00000380: 6388 09be 04f5 de3e 84fc e73c a4fb 693e
00000390: 87f5 0b3f 2f63 2f3e 01d2 2d3f c3e3 e73e
000003a0: 73e4 0f3e 2b3c 043d ac63 013e 505c 9e3d
000003b0: 4e0b f8bc 939d 723d 1cc4 babe b6c4 dbbc
000003c0: 306d 253e 7ac7 6fbe 2b1d f9bd 326c 493b
000003d0: 1891 bebd 2987 fa39 c258 b4be 8121 c93d
000003e0: 712a 8a3e 4394 b4bd 75ec 793c 0a7f 233e
000003f0: 73a0 523d 289b 113d 0c7b 91bb d67c d4bd

autoencoder.encoder.3.bias f4 [8]
-0.20308523 -0.08603582 0.017648024 0.11431025 0.17729603 -0.022051126 0.076497465 -0.1493963
00000000: 93f5 4fbe 8c33 b0bd 9792 903c 7e1b ea3d
00000010: 178d 353e 90a4 b4bc b4aa 9c3d 58fb 18be

autoencoder.encoder.6.weight f4 [2, 8, 2, 2]
0.14830638 -0.52952 -3.3524387 -0.23929314 -0.4971944 0.37933847 -0.23542681 -0.45623106
-0.56741786 -0.005942872 -1.667913 0.5247324 0.1404748 0.18318123 -0.0275462 -0.40604717
0.3065677 0.35324457 0.4617179 0.45769206 0.10809165 -0.31405568 0.13006817 0.12651995
0.5954156 0.33280927 0.44031093 0.18465784 -1.1325446 0.03361634 -0.09294836 0.118886575
-0.22874539 -0.16035442 -0.64905125 -0.19647495 0.76745826 -0.92564267 0.9422363 -0.45407212
0.7921288 0.29917046 -1.129157 0.37871847 -0.58475465 -0.2882173 -0.58311933 -0.561046
-0.1688549 -0.07910565 -0.035247266 -0.08601638 0.06767376 -1.2266626 0.3268863 0.7544662
0.11635803 0.19677277 0.30996758 0.022755537 -0.43364048 0.48574233 -0.1703931 0.21699783
00000000: a1dd 173e 9f8e 07bf 5b8e 56c0 4309 75be
00000010: 4490 febe a738 c23e ba13 71be 1e97 e9be
00000020: 4c42 11bf 6cbc c2bb 2c7e d5bf dd54 063f
00000030: a0d8 0f3e dc93 3b3e 92a8 e1bc 6ae5 cfbe
00000040: 71f6 9c3e 79dc b43e 4a66 ec3e 9d56 ea3e
00000050: 285f dd3d e8cb a0be 9730 053e 728e 013e
00000060: 286d 183f fa65 aa3e 6f70 e13e f216 3d3e
00000070: 39f7 90bf 4ab1 093d b65b bebd ce7a f33d
00000080: 3b3c 6abe f333 24be 3928 26bf bb30 49be
00000090: 2578 443f ebf6 6cbf 6636 713f 247c e8be
000000a0: f4c8 4a3f df2c 993e 3788 90bf 63e7 c13e
000000b0: 7bb2 15bf 3891 93be 4f47 15bf b6a0 0fbf
000000c0: 4de8 2cbe 2502 a2bd 705f 10bd 5b29 b0bd
000000d0: 8a98 8a3d 4803 9dbf a45d a73e b224 413f
000000e0: 1e4d ee3d cd7e 493e 12b4 9e3e d269 ba3c
000000f0: 2006 debe 38b3 f83e 877b 2ebe ae34 5e3e

autoencoder.encoder.6.bias f4 [2]
0.12004059 -0.2614181
00000000: d7d7 f53d 98d8 85be

autoencoder.decoder.0.weight f4 [2, 8, 2, 2]
-0.06065895 0.2469471 0.7237592 0.7253909 -0.6101128 -0.100306414 -1.3504547 0.45344222
-0.17053775 -1.1909193 0.44895536 0.09918107 1.0216693 0.82176644 0.60904 0.9576835
-0.20921843 -0.9913417 0.16626252 0.35706484 -0.08129594 -0.26349506 -1.5317613 -0.22493298
0.50033236 0.34739092 -0.30545864 -0.7529893 1.0573452 1.0262835 1.0694485 0.7500184
0.24073742 -0.8700297 -0.07113132 0.7372648 0.17516495 -0.8001599 -0.18830301 0.12035014
0.37906608 -0.16969281 1.2098532 0.47516757 0.60233593 0.12781166 0.53908724 -0.13895985
0.20777388 -0.09553593 -0.56827736 -0.62975526 0.28902972 0.5527187 0.7620208 -0.7504511
-0.8779546 0.6339591 -0.5433661 -0.2046035 0.40326306 0.47295523 0.42997482 0.44803798
00000000: 8575 78bd b3df 7c3e 4848 393f 38b3 393f
00000010: 5a30 1cbf 736d cdbd b3db acbf 9429 e83e
00000020: 73a1 2ebe 0b70 98bf 7add e53e 721f cb3d
00000030: 0fc6 823f 495f 523f 0cea 1b3f bf2a 753f
00000040: 5b3d 56be 92c8 7dbf b940 2a3e 34d1 b63e
00000050: 7c7e a6bd d3e8 86be c110 c4bf d554 66be
00000060: c815 003f 39dd b13e 1365 9cbe e8c3 40bf
00000070: 1657 873f 425d 833f b0e3 883f 3501 403f
00000080: df83 763e 44ba 5ebf 4cad 91bd 63bd 3c3f
00000090: 715e 333e 47d7 4cbf 81d2 40be 227a f63d
000000a0: f314 c23e f4c3 2dbe 78dc 9a3f 2a49 f33e
000000b0: b032 1a3f 0fe1 023e 9f01 0a3f 7e4b 0ebe
000000c0: adc2 543e 57a8 c3bd a07a 11bf a437 21bf
000000d0: b4fb 933e f97e 0d3f cc13 433f 901d 40bf
000000e0: a2c1 60bf 254b 223f 0a1a 0bbf 9483 51be
000000f0: 7f78 ce3e 3027 f23e a925 dc3e 3c65 e53e

autoencoder.decoder.0.bias f4 [8]
-0.23782389 -0.2875082 0.8064025 -0.13580139 0.35479727 0.61597216 -0.09666777 0.22729586
00000000: 1b88 73be 4634 93be 6570 4e3f 850f 0bbe
00000010: fda7 b53e 5ab0 1d3f c0f9 c5bd 3fc0 683e

autoencoder.decoder.2.weight f4 [8, 16, 3, 3]
-0.1170135 0.15115356 -0.40437564 0.3173705 -0.3918466 -0.10671674 -0.19210842 0.024398189
0.22928664 0.060731422 0.17052123 -0.09472009 0.071772106 0.042416006 -0.041935608 -0.06653738
0.06966121 0.07936636 -0.0054405443 0.2781766 0.22869118 -0.031084789 0.03568051 0.23433694
-0.05670323 -0.50300556 0.03778743 0.16381231 0.1365978 0.08292023 -0.31044358 0.116251856
0.052635122 0.13351178 0.105561934 0.21790424 0.083659135 -0.113046154 -0.026257386 0.09199302
0.4065389 0.3018913 0.040095795 0.23793228 -0.08869103 0.10475576 -0.15782605 0.07983196
-0.18387192 0.3654213 0.34649193 -0.08887056 -0.014497907 0.05007787 0.12507404 -0.09181998
0.0288252 -0.056217242 0.13465744 0.3018979 0.116339505 -0.14154468 0.0682751 0.08104026
0.28113458 0.24862505 0.04049542 -0.24069808 -0.53811175 0.06944082 0.27019432 -0.5061049
0.06294759 0.06521962 -0.19154203 0.22896585 0.27763358 0.16053037 0.023021832 0.032172363
0.1384257 0.03400514 -0.040233724 -0.23516528 -0.117793694 -0.15095875 0.12400495 0.37315044
-0.043140158 0.12640801 0.047483437 0.22053568 0.029454298 0.11219175 -0.20255172 0.16984525
-0.17491476 -0.0069539333 0.24386084 0.09345384 0.13731611 0.042930618 0.14309765 0.39072022
0.14889622 0.05694336 0.1509678 -0.058829952 0.01964328 0.09876801 0.12722474 0.012376902
0.12140094 0.33007678 0.056001678 0.44802874 0.3406212 0.04505467 0.0853967 0.03694251
0.062369015 0.27178308 0.011696174 0.21084559 -0.022139415 -0.2321052 0.024018362 -0.007557768
-0.3572024 0.38714427 0.04602393 0.6045336 -0.0937065 -0.06003061 -0.047427483 0.13852882
-0.17553169 0.16777097 -0.20872633 -0.32641095 -0.18097569 -0.40437654 -0.33795038 -0.031650756
-0.33555654 -0.14432722 -0.12590533 -0.25884974 0.109930426 -0.03561574 -0.020351376 -0.16892016
-0.10079739 -0.36126068 -0.01626803 0.2654476 0.14228998 -0.0046134717 0.1053333 -0.1263794
-0.018460538 -0.22327629 -0.15174209 0.2879224 0.14460483 -0.03230187 -0.49032152 -0.30366054
0.08652892 -0.2174214 -0.074803144 -0.19682553 -0.13542424 -0.15550607 -0.25945443 0.28956357
0.010017249 -0.24257192 -0.2564297 0.14266352 -0.042115923 0.1423874 0.0060567195 0.017892765
0.13385452 -0.050427135 0.019345704 0.05000836 -0.019018127 0.1256504 0.032007534 -0.14800294
0.3653689 0.16134478 0.22580129 0.021547545 -0.37694272 -0.14666902 0.01505163 0.13498148
0.06846526 0.04056921 -0.11739818 0.19396627 0.047120214 -0.052441373 0.019811183 -0.08775353
0.08395184 0.1885191 -0.4537168 0.030014124 -0.34485605 -0.05610722 -0.5542194 -0.09325586
0.10938947 -0.2796383 0.057316143 -0.01569107 -0.06304482 0.019191254 0.22340068 0.067928694
0.072388634 0.17026718 0.09358049 -0.3582065 0.10897871 0.08802341 -0.27068838 0.17028217
0.13682057 -0.1781779 -0.009922525 -0.095629856 -0.24781634 -0.33460605 0.16282518 -0.049029432
-0.117586024 -0.18904643 -0.058165736 0.2751524 0.030575462 -0.2720926 -0.367971 0.3311047
0.31613937 0.21006371 0.08478391 0.06384827 0.002154416 0.4092596 -0.024311764 -0.010526278
00000000: c6a4 efbd 00c8 1a3e 530a cfbe 637e a23e
00000010: 1ea0 c8be 4e8e dabd 12b8 44be b6de c73c
00000020: 1eca 6a3e 83c1 783d 1e9d 2e3e 9bfc c1bd
00000030: 41fd 923d 68bc 2d3d acc4 2bbd c044 88bd
00000040: 89aa 8e3d d58a a23d 9846 b2bb 2a6d 8e3e
00000050: 052e 6a3e 87a5 febc ba25 123d 06f6 6f3e
00000060: a541 68bd f9c4 00bf fec6 1a3d 6abe 273e
00000070: 4be0 0b3e 15d2 a93d 76f2 9ebe 7415 ee3d
00000080: ed97 573d 50b7 083e db30 d83d 4a22 5f3e
00000090: 7b55 ab3d be84 e7bd bb19 d7bc d666 bc3d
000000a0: de25 d03e 7f91 9a3e 7d3b 243d 85a4 733e
000000b0: a5a3 b5bd 308a d63d 279d 21be f07e a33d
000000c0: ec48 3cbe 8018 bb3e 6467 b13e c501 b6bd
000000d0: a188 6dbc 741e 4d3d 6913 003e 1d0c bcbd
000000e0: d322 ec3c 0d44 66bd a4e3 093e 5d92 9a3e
000000f0: 6843 ee3d 17f1 10be d1d3 8b3d 70f8 a53d
00000100: dff0 8f3e 9197 7e3e 87de 253d 8f79 76be
00000110: b1c1 09bf fd36 8e3d e956 8a3e 1790 01bf
00000120: abea 803d dd91 853d 9823 44be 0676 6a3e
00000130: fd25 8e3e 1362 243e 4898 bc3c 2bc7 033d
00000140: 77bf 0d3e f948 0b3d 1ecc 24bd 2bcf 70be
00000150: d23d f1bd ee94 1abe 4ff6 fd3d 930d bf3e
00000160: bcb3 30bd 1a71 013e fe7d 423d 1bd4 613e
00000170: 244a f13c cac4 e53d b869 4fbe eaeb 2d3e
00000180: db1c 33be d2dd e3bb a8b6 793e ba64 bf3d
00000190: 989c 0c3e 04d8 2f3d 3188 123e 7b0c c83e
000001a0: 4078 183e 713d 693d 4e97 1a3e adf7 70bd
000001b0: f2ea a03c e246 ca3d 3447 023e 7dc8 4a3c
000001c0: 0ea1 f83d d3ff a83e 0462 653d 0664 e53e
000001d0: e765 ae3e 3f8b 383d 77e4 ae3d 0851 173d
000001e0: a776 7f3d 2727 8b3e 4fa1 3f3c e8e7 573e
000001f0: b85d b5bc fcac 6dbe 28c2 c43c 27a7 f7bb
00000200: 3ce3 b6be c637 c63e 9783 3c3d b7c2 1a3f
00000210: 32e9 bfbd a8e2 75bd 5243 42bd 80da 0d3e
00000220: 94be 33be 27cc 2b3e 5bbc 55be 561f a7be
00000230: b151 39be 710a cfbe d507 adbe 39a4 01bd
00000240: 11ce abbe 84ca 13be 54ed 00be f487 84be
00000250: 3423 e13d cfe1 11bd eeb7 a6bc 68f9 2cbe
00000260: dd6e cebd 29f7 b8be 8844 85bc bfe8 873e
00000270: 77b4 113e 9b2c 97bb fcb8 d73d 9a69 01be
00000280: 8e3a 97bc 8aa2 64be 4762 1bbe 916a 933e
00000290: 4a13 143e f74e 04bd 6c0b fbbe 6579 9bbe
000002a0: 1336 b13d b7a3 5ebe 6432 99bd a28c 49be
000002b0: a7ac 0abe fc3c 1fbe 36d7 84be ad41 943e
000002c0: 631f 243c c664 78be c14a 83be 6316 123e
000002d0: bf81 2cbd 01ce 113e 7277 c63b d993 923c
000002e0: 2911 093e af8c 4ebd e27a 9e3c 91d5 4c3d
000002f0: e7cb 9bbc 80aa 003e 551a 033d 158e 17be
00000300: a211 bb3e 9137 253e 7438 673e 7a84 b03c
00000310: a3fe c0be 6730 16be 1d9b 763c 9638 0a3e
00000320: 8437 8c3d e62b 263d 756e f0bd 189f 463e
00000330: 2001 413d c4cc 56bd 104b a23c 1fb8 b3bd
00000340: f1ee ab3d 270b 413e 924d e8be 2ee0 f53c
00000350: f990 b0be afd0 65bd 53e1 0dbf eefc bebd
00000360: 9607 e03d c02c 8fbe 55c4 6a3d 8f8a 80bc
00000370: a51d 81bd fa36 9d3c 26c3 643e 331e 8b3d
00000380: 7e40 943d 855a 2e3e 21a7 bf3d d866 b7be
00000390: 3b30 df3d 9e45 b43d ab97 8abe 735e 2e3e
000003a0: b11a 0c3e 4474 36be 1692 22bc 96d9 c3bd
000003b0: 91c3 7dbe 7c51 abbe a5bb 263e 16d3 48bd
000003c0: f1d0 f0bd 6395 41be 323f 6ebd c6e0 8c3e
000003d0: 6479 fa3c b94f 8bbe b266 bcbe 8e86 a93e
000003e0: 05dd a13e f11a 573e 30a3 ad3d e2c2 823d
000003f0: 1a31 0d3b 798a d13e 7729 c7bc 6976 2cbc

autoencoder.decoder.2.bias f4 [16]
-0.52501035 -0.0036199214 -0.3045487 -0.69538563 0.21618019 -0.5593716 -0.059440322 0.057860218
0.051380802 0.12272422 0.07673254 -0.00024856057 -3.0308776 -0.41914693 0.22055201 0.14460382
00000000: 1467 06bf 343c 6dbb cfed 9bbe cb04 32bf
00000010: 575e 5d3e fa32 0fbf b277 73bd d6fe 6c3d
00000020: ad74 523d d656 fb3d f325 9d3d 3c51 82b9
00000030: e6f9 41c0 6d9a d6be 63d8 613e 0613 143e

autoencoder.decoder.4.weight f4 [16, 8, 5, 5]
0.038599025 -0.02158654 -0.09086936 0.01208679 -0.038534913 0.038882904 0.03623836 0.102984555
0.07656433 0.19193421 0.07412095 0.13628732 0.14297631 0.12390463 0.11709259 0.07997892
0.12868847 -0.031787448 0.046234034 0.0034797622 0.026339397 0.046547864 -0.04436808 0.12715474
-0.01840739 -0.049805347 0.015379639 0.09579643 0.1592557 -0.008938134 -0.020074552 0.14986767
0.13387905 0.3537217 0.12586197 -0.1553995 0.14382495 0.17597625 0.35553613 0.11357933
-0.12534681 0.027211644 0.17012677 0.28817528 0.06359483 -0.106305845 -0.03831144 0.013383371
0.17143671 -0.032157503 -0.17254451 0.055238325 -0.12242123 0.077222034 -0.0470502 -0.11142169
0.15559278 -0.082860745 0.09652143 -0.14127974 0.10496361 0.0031908245 -0.06991659 0.05582236
-0.025338689 -0.19662678 0.0164381 0.02439344 0.03577128 -0.07184766 -0.053935315 0.054593462
0.024013983 -0.15493567 -0.10200909 0.005850372 0.023640387 0.02612956 -0.015935646 0.11909331
-0.06506158 -0.12965778 -0.13223131 -0.11788079 -0.08105373 -0.06664919 -0.121374905 -0.15705524
-0.13109602 -0.0512857 -0.0813219 -0.095129415 -0.027935904 0.0071110297 -0.023227908 -0.05529178
-0.03624979 0.03827156 -0.07580561 0.02239587 -0.09821701 0.07873332 0.07197965 0.21001309
0.056923803 -0.0127878785 0.20908391 0.40937018 0.25807256 -0.0520144 0.13138238 0.2527856
0.34993976 0.28317198 -0.09805093 -0.026247704 0.24995607 0.2661368 0.104410715 -0.009715856
-0.005130132 0.12639202 0.15195058 -0.020320535 -0.042776488 -0.0369289 0.017546533 0.13837595
0.1252791 -0.028305613 0.03565169 0.14053531 0.20324406 0.25397512 -0.025683366 -0.02364091
0.16193978 0.24162218 0.19724888 -0.049953748 -0.011566715 0.087327935 0.21307403 0.1624738
-0.061453495 0.0045679803 0.025074566 0.07961676 0.04184262 -0.12303716 -0.044372622 -0.10843256
-0.025525264 0.0146524105 0.039345782 -0.10797759 -0.13403858 0.14832823 0.06075502 -0.022374352
-0.074155234 -0.060339887 0.096024156 0.038044237 -0.05706639 0.009136451 0.03417117 0.24088179
0.1764381 0.11595152 0.0032727157 0.019016331 0.15318775 0.080202885 0.06102144 -0.0064423573
-0.09225218 0.085486576 0.14130521 0.107928485 -0.08563479 -0.09877683 0.25718912 0.16345951
0.009412395 -0.12978992 -0.04653409 0.07950453 -0.030578045 -0.08344626 -0.051006917 -0.06105122
0.06323381 0.075623825 0.021948142 0.011564646 -0.1327504 -0.01272135 0.002932853 0.036161944
0.04943136 -0.057721045 -0.04970847 -0.039666537 0.01587109 0.1718688 0.103348665 -0.14630327
0.12643519 -0.03837305 0.12516603 0.00040202102 -0.026974449 0.0841337 -0.021663452 -0.0028363739
-0.0026659688 -0.015156669 0.030409886 -0.077139474 0.051618252 0.2630472 0.061934546 0.0741559
-0.02380175 -0.030426096 0.023157315 0.06176204 0.039819796 0.020177107 0.061374493 0.07488017
0.28986079 0.1348015 0.15438074 0.22375917 0.2917316 0.45049807 0.31778625 0.20064649
0.037414644 0.20636015 0.2874354 0.1920526 0.09668649 0.12999149 0.04586154 0.11176229
0.048716884 0.13643049 -0.1898538 0.011065026 -0.08392197 0.23670773 0.08929807 -0.109055355
00000000: 031a 1e3d 41d6 b0bc b719 babd ac07 463c
00000010: c9d6 1dbd ae43 1f3d ad6e 143d 91e9 d23d
00000020: c2cd 9c3d 678a 443e bacc 973d e78e 0b3e
00000030: 6268 123e b6c1 fd3d 3dce ef3d fdcb a33d
00000040: e9c6 033e 8e33 02bd e65f 3d3d b90c 643b
00000050: b8c5 d73c f9a8 3e3d 4ebb 35bd da34 023e
00000060: 18cb 96bc b100 4cbd e2fa 7b3c eb30 c43d
00000070: ed13 233e 4071 12bc 6373 a4bc e976 193e
00000080: 9717 093e 031b b53e f6e1 003e 0c21 1fbe
00000090: d946 133e 1e33 343e d508 b63e 489c e83d
000000a0: ea5a 00be f4ea de3c b635 2e3e b68b 933e
000000b0: 023e 823d e1b6 d9bd 75ec 1cbd ed45 5b3c
000000c0: 1b8d 2f3e 96b7 03bd 82af 30be 9541 623d
000000d0: fbb7 fabd 9626 9e3d b6b7 40bd 0e31 e4bd
000000e0: b753 1f3e e5b2 a9bd 07ad c53d a3ab 10be
000000f0: 29f7 d63d 271d 513b 6e30 8fbd fda5 643d
00000100: 1593 cfbc 8858 49be 32a9 863c c0d4 c73c
00000110: e884 123d de24 93bd 47eb 5cbd 659d 5f3d
00000120: f9b8 c43c 75a7 1ebe 24ea d0bd 7ab4 bf3b
00000130: 7ca9 c13c a90d d63c 798b 82bc 31e7 f33d
00000140: 013f 85bd 02c5 04be a567 07be 7c6b f1bd
00000150: 7fff a5bd 5f7f 88bd 6893 f8bd 17d3 20be
00000160: 093e 06be f410 52bd 198c a6bd 36d3 c2bd
00000170: d6d9 e4bc a403 e93b 7448 bebc a279 62bd
00000180: a97a 14bd a4c2 1c3d f93f 9bbd 8b77 b73c
00000190: 0026 c9bd ef3e a13d 116a 933d ac0d 573e
000001a0: ef28 693d 4084 51bc 181a 563e f898 d13e
000001b0: 1622 843e 0d0d 55bd 1a89 063e 1d6d 813e
000001c0: 4e2b b33e ebfb 903e edce c8bd 6d05 d7bc
000001d0: 7cf4 7f3e 1543 883e 49d5 d53d 412f 1fbc
000001e0: ab1a a8bb e96c 013e ef98 1b3e 4077 a6bc
000001f0: 6636 2fbd c242 17bd bfbd 8f3c 6db2 0d3e
00000200: 2a49 003e 2ce1 e7bc 8207 123d 7de8 0f3e
00000210: 361f 503e 0709 823e ec65 d2bc 95aa c1bc
00000220: 8bd3 253e ce6b 773e 9cfb 493e 4d9c 4cbd
00000230: 5282 3dbc fdd8 b23d 1430 5a3e 885f 263e
00000240: a9b6 7bbd ffae 953b 2d69 cd3c 1d0e a33d
00000250: 2b63 2b3d e8fa fbbd 11c0 35bd e411 debd
00000260: 5c1a d1bc aa10 703c 0b29 213d 5b23 ddbd
00000270: 6941 09be 5be3 173e 41da 783d 6b4a b7bc
00000280: b3de 97bd f526 77bd 50a8 c43d 46d4 1b3d
00000290: 72be 69bd 0eb1 153c 12f7 0b3d b7a9 763e
000002a0: 30ac 343e fe77 ed3d 0f7b 563b 23c8 9b3c
000002b0: 40dd 1c3e 6941 a43d 9ef1 793d 691a d3bb
000002c0: b6ee bcbd 9613 af3d 50b2 103e 9c09 dd3d
000002d0: 4b61 afbd 824b cabd 4bae 833e ee61 273e
000002e0: 7236 1a3c a6e7 04be 889a 3ebd 45d3 a23d
000002f0: cf7e fabc dfe5 aabd a1ec 50bd d810 7abd
00000300: ba80 813d aae0 9a3d 97cc b33c a479 3d3c
00000310: b9ef 07be 366d 50bc 1c35 403b 8c1e 143d
00000320: 8a78 4a3d e76c 6cbd 1c9b 4bbd 6179 22bd
00000330: 1704 823c 60fe 2f3e 77a8 d33d 86d0 15be
00000340: 3a78 013e 0f2d 1dbd 862b 003e 59c6 d239
00000350: 85f9 dcbc 4a4e ac3d 8d77 b1bc 75e2 39bb
00000360: 89b7 2ebb ad53 78bc 271e f93c 4dfb 9dbd
00000370: a96d 533d 1fae 863e 14af 7d3d 0cdf 973d
00000380: e3fb c2bc 2640 f9bc 69b4 bd3c 31fa 7c3d
00000390: 151a 233d 764a a53c d263 7b3d c65a 993d
000003a0: a268 943e 6809 0a3e fc15 1e3e 2021 653e
000003b0: d85d 953e afa7 e63e e1b4 a23e 4676 4d3e
000003c0: 1940 193d 1350 533e bc2a 933e 70a9 443e
000003d0: 9103 c63d 7d1c 053e 4fd9 3b3d a1e3 e43d
000003e0: 5b8b 473d 6fb4 0b3e 0969 42be 154a 353c
000003f0: 48df abbd 8363 723e e8e1 b63d 6a58 dfbd

autoencoder.decoder.4.bias f4 [8]
-0.14886384 -0.30494452 -0.348786 0.5432928 -0.26879257 -0.32264897 -0.5019154 -0.48268718
00000000: c36f 18be b021 9cbe 1494 b2be 3d15 0b3f
00000010: 2e9f 89be 3f32 a5be 877d 00bf c622 f7be

autoencoder.decoder.6.weight f4 [8, 1, 2, 2]
0.33540973 0.35398233 0.3371906 0.35320574 0.74591273 0.2191768 0.7322208 0.19587871
-0.33188096 -0.33412597 -0.3339397 -0.33867234 0.31683284 0.32372946 0.312878 0.31923035
0.46515393 0.47532126 0.5144108 0.52305186 -0.21367103 0.42216626 -0.17595553 0.4734547
-0.017855937 -0.056078427 -0.35577157 -0.3957781 -0.44658208 -0.5142068 -0.18192975 -0.24858116
00000000: d3ba ab3e 2c3d b53e 3fa4 ac3e 62d7 b43e
00000010: 23f4 3e3f e26f 603e d372 3b3f 6e94 483e
00000020: 4dec a9be 8f12 abbe 25fa aabe 7666 adbe
00000030: ea37 a23e debf a53e 8c31 a03e 2972 a33e
00000040: a828 ee3e 4f5d f33e 6db0 033f bae6 053f
00000050: 94cc 5abe 2d26 d83e b02d 34be a868 f23e
00000060: 9d46 92bc 7eb2 65bd b127 b6be 6da3 cabe
00000070: 68a6 e4be 0fa3 03bf cb4b 3abe 0f8c 7ebe
