save_config_2/19/model_state.pth (torch, 28664 bytes, 13 tensors)

autoencoder.encoder.0.weight f4 [16, 1, 3, 3]
000000 cc 11 80 be a6 ac 19 ba 2f 85 f0 bd 2f 1e 1c 3d
       -0.25013578 -0.00058622134 -0.11744153 0.038114723
000010 d0 54 82 be e3 9f 87 be e1 3f 77 3e 1a 83 eb bd
       -0.25455332 -0.2648917 0.24145462 -0.11499615
000020 d7 9c 11 bf 88 b4 a7 be 83 ec 5a be 40 7e d1 be
       -0.56879944 -0.32754922 -0.21379285 -0.40916634
000030 c0 6b 91 bd f4 75 a7 3e 61 3a 5b be 9c bf ca 3d
       -0.0710063 0.3270718 -0.21408989 0.09899828
000040 37 80 31 bd 48 6f c9 be ec 21 cf be fb bd 36 3b
       -0.043335166 -0.39342713 -0.40455568 0.0027884233
000050 ea aa c5 be 6a 69 e2 bc 43 ae 20 be 4a da 3a be
       -0.3860696 -0.027638156 -0.15691476 -0.18247333
000060 68 e2 f8 bd 5e 8e ec be 8a 4b d8 3c 1f ee ee 3e
       -0.121525586 -0.46202368 0.026403207 0.46666047
000070 83 8f a0 3e 54 78 9e 3e c5 31 ac 3e 7a 7b d0 bd
       0.3135949 0.30951178 0.3363172 -0.10179801
000080 67 df d3 3c 10 42 b2 3e ba 6e 14 3e ea 4d db 3c
       0.025863362 0.34816027 0.14495364 0.02677055
000090 9f 78 f7 3e 25 72 ac 3e 60 93 97 bc d6 4e be 3e
       0.48334214 0.33680835 -0.018502891 0.37169522
0000a0 33 78 ea 3e 8f 8b 7b be af 44 81 3e 67 23 1c be
       0.4579483 -0.24564956 0.25247714 -0.1524788
0000b0 9d a0 f2 3c aa da d0 be 2b ce 98 be d8 c2 c4 bd
       0.029617602 -0.40791827 -0.29844794 -0.09607476
0000c0 8d ac 7d be 4e f4 4f 3d ac b8 b4 be 71 3b f6 bd
       -0.24772854 0.050770096 -0.35297143 -0.12023056
0000d0 6a a9 13 be 77 3b 9d be e6 3d 57 3e e7 b6 d7 bd
       -0.14420095 -0.3070943 0.21019706 -0.10532933
0000e0 58 71 bc bd 39 c2 8e 3f 61 83 0f 3f eb 12 2a 3f
       -0.09201306 1.1153022 0.56059843 0.66435117
0000f0 1a fb 79 3f ce a2 42 3f 9f 5a c2 3e 44 90 7d be
       0.97648776 0.7602967 0.37959763 -0.24762064
000100 c6 86 2e be 44 10 d0 3e 88 c7 09 bf 2d a4 31 3d
       -0.170436 0.4063741 -0.53820086 0.04336946
000110 90 61 07 3f 0a f4 89 be ba 94 5c be e3 d6 ee 3e
       0.52883244 -0.26944 -0.2154111 0.4664832
000120 3b c0 ca bd 67 58 1e bf 90 17 ed be 02 58 7f 3e
       -0.09899946 -0.6185364 -0.4630704 0.24935916
000130 a9 e0 52 be 95 c1 82 be 12 ed a9 3e a5 e2 20 be
       -0.20593514 -0.25538316 0.33188683 -0.15711458
000140 c4 e1 bd bd ef 35 ec bd 1b 4c 93 be cd a1 b5 3c
       -0.09271577 -0.115337245 -0.28769 0.02217188
000150 03 22 2b be d0 31 ad be f7 9a 64 3e e6 00 9f be
       -0.16712193 -0.33827066 0.2232474 -0.31055373
000160 48 a5 b6 be 6f 40 a1 be ea e2 09 3e 1a 6a d5 3d
       -0.35672975 -0.3149447 0.13465467 0.10420628
000170 db 06 a2 3e 76 76 45 3d 8a 13 6e 3e 9e 65 3b 3e
       0.31645855 0.048208676 0.23249641 0.18300483
000180 4a 24 92 3e 23 da 74 3e 95 20 c0 3e b1 85 85 be
       0.2854331 0.23911338 0.37524858 -0.2607856
000190 26 26 56 3e f7 48 5a 3e d1 13 bf bd df c0 49 bd
       0.2091299 0.21316896 -0.093299516 -0.0492562
0001a0 b9 36 a5 be a5 de 0c bf ac 53 ae be f8 5c 0d bf
       -0.32268313 -0.5502723 -0.34048212 -0.55219984
0001b0 0b 1a df bd d1 33 38 3d 01 68 3e 3e bd fd 47 3f
       -0.10893639 0.04497129 0.18594362 0.7812155
0001c0 77 59 0d 3f d5 fd b3 3e 12 bc e6 3d fc 52 87 3e
       0.5521464 0.35154596 0.1126634 0.264305
0001d0 f7 91 34 3e 36 7b cd be 37 13 93 be e3 1f 76 bb
       0.17633806 -0.40133065 -0.28725597 -0.0037555627
0001e0 d1 ec f6 be 7d c1 93 be 32 1f a2 be bd 29 d9 be
       -0.48227552 -0.28858557 -0.31664425 -0.42414656
0001f0 48 a4 f3 be 50 b6 7e bf 32 e0 a0 3e f7 bd c6 3d
       -0.47586274 -0.99496937 0.31421047 0.09704202
000200 93 8f 19 3e 8b 61 2b 3e e3 6d cb 3e 9c 0a 11 3f
       0.14996175 0.16736428 0.39732274 0.56656814
000210 ce 70 30 3d 75 4b 59 be a1 5d c4 3e cc 43 4e bf
       0.04307633 -0.21220191 0.38352683 -0.805722
000220 77 20 2c bf ff f8 a3 be 7d fc 23 be 83 6f c4 bd
       -0.6723704 -0.32025906 -0.16014285 -0.09591582
000230 21 84 d7 3d ed 1f 33 3e f6 79 3e 3e 28 26 e3 3e
       0.105232485 0.17492647 0.18601212 0.44365048

autoencoder.encoder.0.bias f4 [16]
000000 62 a4 be be da 6e 28 3f ed 2b 17 3e 60 a7 76 be
       -0.3723479 0.65794146 0.1476285 -0.24087286
000010 9d 65 1f 3d 73 59 81 be 4e 1b 06 3d c1 68 7a be
       0.038915265 -0.25263557 0.032740884 -0.24454023
000020 d7 f2 91 3e 7a 45 76 3f 2f 45 15 bc 4d 62 b3 3e
       0.28505585 0.9619976 -0.009110733 0.35035935
000030 f1 7c 2b be c7 15 df 3d 56 ee 84 3e 20 d9 77 3e
       -0.1674688 0.108928256 0.25963086 0.2420392

autoencoder.encoder.3.weight f4 [8, 16, 3, 3]
000000 00 2c 5e be eb 11 0f 3e c0 cd 2e 3d f3 59 67 bd
       -0.21696472 0.13971679 0.042676687 -0.056482267
000010 28 e9 82 3e d4 4c 55 3d dd bd 39 3e f6 ac c3 be
       0.2556851 0.052075222 0.18138833 -0.38217896
000020 ae 80 c5 be ae 52 31 bf c7 b6 6b be 8d c1 b0 be
       -0.38574737 -0.69266784 -0.23018943 -0.34522668
000030 0f 0e 0a 3e 41 87 de 3d 83 fc 65 3e c3 30 a5 bd
       0.13481925 0.108656414 0.22459607 -0.08065941
000040 cd 74 a7 bd 5a 60 2b be 13 c9 d9 be f5 44 f1 bd
       -0.08176575 -0.16735974 -0.4253622 -0.11780731
000050 1c d5 9f bd 7e c4 da 3d 22 15 a4 3e 2d da f6 3e
       -0.07804319 0.10682009 0.32047373 0.4821333
000060 d1 74 03 be 53 88 67 bd c3 e1 e1 be ef d5 a4 3e
       -0.1283753 -0.056526493 -0.44117555 0.32194468
000070 5b dc b7 3d ca ef 36 3d 12 58 2a bf aa 38 36 be
       0.08977576 0.044662274 -0.66540635 -0.17795053
000080 34 cd 89 be 07 f9 08 be 95 6a eb 3d 85 ad 90 3e
       -0.2691437 -0.13376246 0.11494938 0.28257385
000090 00 c3 42 3e 8c 91 b9 bd 9f 54 c9 bd 2f 9d 2c bf
       0.19019699 -0.09060964 -0.09830593 -0.67427343
0000a0 b1 6e 04 bf b6 cf 7b be 4f 7f dc bd ad dd 3f 3d
       -0.517314 -0.24590954 -0.1076647 0.046842266
0000b0 ed 3c 1e 3e da af 87 be 7b 2e 79 3d 9d 3d 34 3d
       0.15452929 -0.26501352 0.060835343 0.04400407
0000c0 41 c5 83 bd 9a ff b0 3e 32 18 39 3e 23 64 19 3e
       -0.064341076 0.3457001 0.18075636 0.14979605
0000d0 81 55 8a be 67 9f c8 be 15 36 94 3e 18 7d 4a bd
       -0.2701836 -0.39184114 0.2894751 -0.049435705
0000e0 5e 46 9d 3d 8b d6 00 c0 41 0f e6 be d6 89 b9 3d
       0.07679437 -2.0130947 -0.44933513 0.09059493
0000f0 2b 8c 52 be 44 6b 6c bd 16 01 73 3e ae 96 d9 be
       -0.20561282 -0.057719484 0.23730883 -0.42497772
000100 60 86 07 be cc 3f 91 bd 68 1a 32 be dd 95 39 3e
       -0.13234854 -0.070922464 -0.17392886 0.18123575
000110 2c 13 31 3c 57 e6 db bd 97 7e 26 be fb 74 e5 bd
       0.010807794 -0.10737293 -0.16259228 -0.11203953
000120 e2 82 10 bf 9b d2 27 be 8d 69 5e be 06 f3 41 bd
       -0.5644971 -0.16388933 -0.21719952 -0.047350906
000130 9b 89 82 3e 97 19 71 3e 59 27 6e bd f2 30 a3 bd
       0.2549561 0.23544918 -0.058142994 -0.0796832
000140 77 59 ed be 74 12 0a bf 2d dd 8b be 5f 44 80 be
       -0.4635732 -0.5393441 -0.2731718 -0.25052163
000150 a0 f5 96 3d 1f 44 84 3d fb f4 78 3e dc cd 9c be
       0.07371068 0.064583056 0.24312203 -0.30625808
000160 4e 51 f8 bb aa 55 e5 3c a5 03 82 3e d1 89 85 3c
       -0.0075780516 0.02799495 0.25393406 0.016301068
000170 3b 21 9f bc 07 da 33 bf e6 35 88 be 95 55 37 be
       -0.019425025 -0.7025456 -0.2660362 -0.1790374
000180 c4 d7 f6 bd aa cb 79 3d ea 07 8d 3e 26 70 0c bf
       -0.12052873 0.060985245 0.275451 -0.54858625
000190 5f fb 97 be f8 fa 22 be e2 c2 a8 3e 16 29 3a 3e
       -0.29683968 -0.1591605 0.32961184 0.18179736
0001a0 55 94 87 3e 56 32 81 be a3 05 92 be 4b fa aa be
       0.26480356 -0.25233716 -0.28519925 -0.33394083
0001b0 a7 dd 82 3e b0 d9 a4 bc 0c 43 6b 3d 24 ab cd bf
       0.25559732 -0.020123333 0.057436988 -1.6067853
0001c0 59 24 9d be 27 18 13 be 87 87 0c bd e2 ca 86 bc
       -0.30691794 -0.14364682 -0.034308936 -0.016454164
0001d0 04 b9 68 3e 17 55 ac be 9a 70 e0 3c 35 03 c0 bd
       0.22726828 -0.33658668 0.027397443 -0.09375612
0001e0 e2 90 03 3e 3e 80 16 3f 0d cc c4 3e 85 64 3b be
       0.12848237 0.5878943 0.38436928 -0.18300064
0001f0 0f 67 1a bf d6 d7 1c bf 9e c9 09 3e 70 a8 ae bc
       -0.60313505 -0.6126684 0.13455817 -0.021320552
000200 98 b5 1a bd 96 19 0b bf f2 a7 31 be aa e8 04 be
       -0.037770838 -0.54335916 -0.17349222 -0.1297938
000210 d5 f9 1c be 7f f8 b8 3d bd 31 78 3e 55 bb 02 bf
       -0.15329678 0.09031772 0.24237724 -0.51067096
000220 57 bf 63 be 06 d3 f3 bd fd 8a 43 be 0b 89 36 3d
       -0.22240959 -0.11905484 -0.19095989 0.044564288
000230 2c ea 16 3f 6d fe b1 bd 46 d0 6c 3e ad e7 b4 be
       0.5895107 -0.08691106 0.23126325 -0.35333005
000240 2f b0 26 3d 2e 98 c7 3d 70 f5 02 3e 2b 67 0f be
       0.040695366 0.09745823 0.1278894 -0.14004199
000250 d1 11 79 bd 04 c2 23 3d f1 e4 2a be 8f 4e a8 bc
       -0.060808007 0.03997995 -0.16688897 -0.020545272
000260 d6 83 95 bd d8 be 87 be 82 3f 80 be fe b5 ab 3e
       -0.07300536 -0.2651279 -0.25048453 0.33537287
000270 c5 e6 a6 bd e3 62 e0 bd f8 cf db 3e 33 d4 48 3e
       -0.081494845 -0.10956361 0.42932105 0.19612198
000280 99 5e 0b 3d 5c 4c c6 3e 5b 85 f9 3c 1d 1f 9e bd
       0.034025762 0.38730133 0.030459097 -0.07720778
000290 59 de 21 3e 55 6a 67 be 21 be c3 bd bd e4 6d 3e
       0.15807475 -0.22599156 -0.095577486 0.23231788
0002a0 a6 e8 d7 bd 02 72 2f bc cb 90 a7 3d 36 50 0e 3e
       -0.10542421 -0.010708334 0.08181914 0.13897786
0002b0 44 de 89 3e 89 0d d7 3d 7c d2 f3 3c 94 32 0d be
       0.26927388 0.105006285 0.029763453 -0.13788825
0002c0 4f 82 93 be f3 cd 04 3d 49 c1 d3 bb 54 99 64 bc
       -0.28810355 0.03242297 -0.0064622504 -0.013952572
0002d0 49 a4 a2 3d 67 5a 5e 3e 06 9e 64 3d c0 ff 86 3d
       0.07941491 0.21714173 0.055814765 0.06591749
0002e0 95 26 11 be a8 44 55 be 9d 7d 4e 3d d8 42 a5 3d
       -0.14174874 -0.20826972 0.050412763 0.0806939
0002f0 59 2e 62 3d bf 9a 6e 3d 54 2a b3 3d 9c 9d ce 3d
       0.05521998 0.058253046 0.08748308 0.10088655
000300 be d7 63 be 97 ca 36 3d 19 49 e4 3d d7 31 7a be
       -0.22250268 0.0446268 0.11146755 -0.24433075
000310 0c 33 58 bc 6f fd 05 bd 23 14 c2 3c 31 6d c0 3d
       -0.013195764 -0.032712396 0.023691243 0.093958266
000320 ec 2f d5 3d f2 81 28 bd 07 11 5b bd 1c d9 3c be
       0.10409531 -0.04113955 -0.053483035 -0.18442196
000330 c7 c7 cf 3b c2 6b 9b bc cd c3 e5 bc fa c9 23 3e
       0.006340954 -0.018972281 -0.028047467 0.15995017
000340 e7 3d cd 3d 16 dc c2 be da 81 ea bc 9a 4d 97 bd
       0.100215726 -0.38058537 -0.028626371 -0.07387848
000350 91 8b 40 be 72 04 ac bd 68 9c 9a bd 64 11 98 be
       -0.1880324 -0.083992854 -0.075493634 -0.29700768
000360 30 57 e9 bd ab 27 0c be 45 a3 0d 3e 07 cd a8 be
       -0.11393583 -0.13687007 0.13831814 -0.32968923
000370 45 e9 98 be 4a 8a 9e 3e c3 1a 38 3e 7d 78 20 bd
       -0.2986547 0.3096488 0.17978959 -0.039177407
000380 8b 69 b2 3d 73 99 84 3d dc e5 33 be f7 45 51 3d
       0.08711537 0.064745806 -0.17568153 0.051092114
000390 ff df 4c 3e b7 d2 09 bd 8f f4 ad 3e 35 f6 48 3e
       0.20007323 -0.03364822 0.33975646 0.1962517
0003a0 e8 8b 6a bd 00 e7 59 3e 71 5d 4d 3e 51 6c 4b 3d
       -0.05726233 0.21279526 0.20055176 0.049663845
0003b0 ec ea c3 3c c4 b0 1a 3e fb 2c f2 bd 41 75 7d be
       0.02391573 0.15106493 -0.118249856 -0.2475176
0003c0 99 20 17 3e 00 ca 78 bd af 4f e5 bd 07 b1 1f bd
       0.14758529 -0.060739517 -0.11196839 -0.038987186
0003d0 29 89 af bd ea d0 3e 3e 00 26 83 3d d5 bb ff 3d
       -0.08571083 0.18634382 0.06403732 0.12486998
0003e0 6b 20 ae 3e 5e b2 6d be fa 98 0b be f0 a6 a9 3c
       0.34009108 -0.23212573 -0.13632575 0.020709485
0003f0 f9 af 31 3e 52 f7 ce 3d 6a cf 18 3d e0 26 be bd
       0.17352284 0.10105766 0.03730718 -0.092847586

autoencoder.encoder.3.bias f4 [8]
000000 ce 0f 6b bd 3d 09 f2 bd b3 ca 04 3e ca 89 8e bc
       -0.05738812 -0.11818168 0.12967949 -0.017399687
000010 d6 4d 02 3d 4b 80 08 3e 41 5d 1a 3e 4e 93 7d be
       0.03181251 0.1333019 0.15074636 -0.24763224

autoencoder.encoder.6.weight f4 [2, 8, 2, 2]
000000 e5 a3 97 3d 70 ce 2b bf 70 a3 cf bf 71 4f e7 be
       0.07404307 -0.67111874 -1.6221752 -0.45177796
000010 31 9e 45 bf 38 9b 30 3e d7 60 01 bf 87 83 63 3d
       -0.77194506 0.17246711 -0.5053839 0.055545356
000020 74 87 a1 be 6c 40 35 3e 19 5b a3 bf 32 1e ac 3e
       -0.31548655 0.17700356 -1.2762176 0.33616787
000030 56 b4 2c be 2b f9 d2 3d aa c7 bd 3d 3e f0 6c be
       -0.16865668 0.10301431 0.092665985 -0.2313852
000040 55 fe e6 3d 42 e5 43 3e ed 6c 4c 3e b7 fb 79 3e
       0.11278979 0.19130424 0.19963427 0.24412428
000050 a1 e0 fd 3d ee bc 29 be dd 74 94 3e 83 9d 79 3e
       0.1239636 -0.16575977 0.2899541 0.24376492
000060 8f 82 ae 3e 6e 6d 8f 3e de f2 a4 3e 1d 2e 39 3e
       0.34083983 0.28013176 0.32216543 0.18083997
000070 1c 23 08 bf 29 e4 f8 be b0 fb 5c 3d f6 8c 0a be
       -0.5317857 -0.48611572 0.053950965 -0.13530335
000080 67 74 26 3d a8 0a 68 be 88 55 14 bf 16 6c 8c be
       0.040638354 -0.22660315 -0.5794301 -0.27426213
000090 65 8f af bd 78 df 06 bf 36 b3 89 3e bf da b2 bc
       -0.08572272 -0.52684736 0.2689454 -0.021832822
0000a0 21 c4 f0 3e 83 51 00 3f 85 0e da be 7c 1c a4 3e
       0.47024634 0.50124377 -0.42589203 0.32052982
0000b0 16 12 97 be 67 ff 84 be f3 1d a9 be e8 25 da be
       -0.29505986 -0.25976107 -0.33030662 -0.42607045
0000c0 3c 84 13 be 18 ac e3 bb 99 28 80 bd 64 d6 b4 bd
       -0.14405912 -0.0069480054 -0.062577434 -0.08829954
0000d0 07 af 24 be 39 c8 36 bf 06 81 85 3e 53 ae 73 3e
       -0.16082393 -0.71399266 0.26075 0.23796968
0000e0 16 be b2 bd 8f 51 a9 3d 96 4c 09 3e 0c 50 2a bd
       -0.08727662 0.08267509 0.13408121 -0.041580245
0000f0 e6 b5 ac bd b1 20 1e 3d 81 ea ca 3c 77 06 4b be
       -0.08433132 0.038605396 0.024770023 -0.19826685

autoencoder.encoder.6.bias f4 [2]
000000 ec 5b 76 3d a0 88 36 be
       0.060146257 -0.17825556

autoencoder.decoder.0.weight f4 [2, 8, 2, 2]
000000 66 4b ba bd 66 d7 d1 3d 7a 66 a0 3e 81 d7 70 3e
       -0.09096412 0.10246162 0.31328183 0.23519708
000010 d6 f6 90 be 80 c3 3e 3d 37 7e e2 be 87 6f 8f 3e
       -0.2831332 0.046573162 -0.4423692 0.28014776
000020 2c 25 e3 bd 0e 47 cf be ce 02 46 3e 72 cc 9e 3c
       -0.11091074 -0.40483898 0.19337007 0.019384596
000030 05 af b1 3e 3a 61 4f 3e c8 59 80 3e 71 4a b7 3e
       0.34703842 0.20251933 0.25068498 0.35798982
000040 58 ae 32 be 9a 6f 61 be c2 d4 55 3c 06 46 17 3e
       -0.1744932 -0.22015229 0.013051214 0.14772806
000050 00 eb f5 bd 2d c4 91 bd 88 0d 08 bf da 96 31 be
       -0.12007713 -0.07117496 -0.5314565 -0.17342702
000060 cd e3 69 3e 16 fc 7d 3d be 8b ab bd 38 90 ad be
       0.22840805 0.062007986 -0.08376263 -0.33899093
000070 2b 4b e5 3e 36 cf f6 3e 83 ba 03 3f 15 9c bc 3e
       0.4478391 0.48204964 0.5145647 0.3683783
000080 b3 b6 da 3d 63 9b a7 be ea b8 65 3d f2 e2 68 3e
       0.10679378 -0.32735738 0.05608455 0.22742823
000090 00 06 bf 3d c9 89 a5 be 4b 2f aa bd 04 96 d3 3c
       0.09327316 -0.32331684 -0.08309802 0.025828369
0000a0 87 49 1d 3e d7 4a 66 bc 5c 42 d0 3e ab 95 94 3d
       0.1536008 -0.014055929 0.40675628 0.072551094
0000b0 0a a3 3b 3e 36 39 32 bc 99 6e 2d 3e 4a dd 8f ba
       0.18323913 -0.010877898 0.16936721 -0.0010975983
0000c0 03 08 db 3d 82 3c 0c bc 27 34 12 be 98 b3 68 be
       0.106948875 -0.008559348 -0.14277707 -0.2272476
0000d0 3b 25 49 3e 16 a1 66 3e 45 1e 73 3e 13 68 92 be
       0.19643109 0.22522387 0.23742016 -0.28595027
0000e0 f7 4f 96 be d4 0d 0f 3e 35 6b bb bd 87 7a 8e bd
       -0.29357883 0.13970119 -0.091513075 -0.06956964
0000f0 60 81 1e 3e 29 37 72 3e 1b 72 4e 3e 8a 3d 56 3e
       0.1547904 0.23653854 0.20160715 0.20921913

autoencoder.decoder.0.bias f4 [8]
000000 7d 6c 49 3d 3e a9 9e be bb 38 63 3e 27 fb 56 3d
       0.049175728 -0.30988497 0.2218961 0.05248561
000010 93 47 b5 3e e4 bf 6f 3e f3 23 85 3e 6b 44 02 3e
       0.3540617 0.23413044 0.2600399 0.12721412

autoencoder.decoder.2.weight f4 [8, 16, 3, 3]
000000 9b 45 d0 bc 6b 3b 32 3e b0 8e b7 bd 00 e2 56 3d
       -0.025423815 0.17405479 -0.08962762 0.052461624
000010 08 e0 c8 3d 5f e8 d1 be 4a e7 bf bd a0 bf 90 3d
       0.098083556 -0.40997598 -0.09370287 0.070677996
000020 53 42 da 3d 26 70 f8 bc f7 44 50 3e 65 1c c3 3d
       0.106571816 -0.030326914 0.20338808 0.095269
000030 8f 29 36 bd 50 00 42 3e dc 29 99 be bc 30 72 bd
       -0.044473227 0.18945432 -0.2991475 -0.059128508
000040 c6 14 30 3d ef 56 d6 3d cd 31 59 3d e0 d4 94 3e
       0.04298856 0.104658 0.05302601 0.2906866
000050 23 b1 48 3e 3b 9b 84 bd 63 a4 38 3e 6a f1 ec 3d
       0.19598822 -0.0647492 0.18031459 0.115694836
000060 75 d6 e5 bd 4f 9c c9 bd 81 4a 0d bd 6a ec 3e 3b
       -0.11222545 -0.098442666 -0.03449488 0.0029132613
000070 36 b5 65 3d 81 7f ec 3c 9d f8 73 3c 4d e5 a9 3d
       0.05608102 0.028869392 0.014890817 0.08295689
000080 3c 3f 1f 3e cd e9 4d 3c de e0 14 be 13 64 29 3e
       0.15551466 0.0125679495 -0.14538905 0.16542082
000090 17 04 38 3d 03 48 c6 bc 37 8f df bc 36 b5 0b 3e
       0.044925775 -0.02420426 -0.02728997 0.13643345
0000a0 e2 4a a1 3e 3e 38 1e bd c4 73 85 3c 48 1b 2a 3e
       0.31502444 -0.038627855 0.016290553 0.1661197
0000b0 46 67 aa bc d1 45 0b 3e ae e3 d9 bd cc d6 09 3e
       -0.020801198 0.13600852 -0.106391296 0.13460845
0000c0 c3 42 82 3d a3 a8 25 3e 40 6e 95 3e 91 ec 2c be
       0.0636039 0.16177611 0.29185677 -0.16887118
0000d0 e0 fe bd bd 47 c1 61 3e a7 79 74 bd b4 8d d8 3d
       -0.09277129 0.22046386 -0.05968633 0.10573903
0000e0 f0 43 53 3e 44 09 3f be a7 8b 2d 3e 91 18 7b 3d
       0.20631385 -0.18655878 0.16947804 0.061302725
0000f0 29 73 33 be 4b 65 90 3d 30 52 4c 3e 4d ba 86 3d
       -0.17524399 0.0705057 0.19953227 0.06578503
000100 67 a2 78 3d 07 b8 26 bc d8 94 46 3d e4 08 2d be
       0.060701754 -0.0101757115 0.048481792 -0.16897923
000110 ee b9 29 be 15 7d 57 3e 84 6b 8d 3d b8 96 1e be
       -0.16574833 0.21043809 0.069052726 -0.15487182
000120 c5 b0 ca bd 0c bd a7 3d a9 6a 41 bb c0 b8 7c 3d
       -0.09896997 0.08190355 -0.0029513037 0.06169963
000130 f6 ac 19 3e 68 e0 8e 3e 3b 9b d9 bd f2 c1 2b 3e
       0.15007386 0.27905583 -0.10625311 0.16773203
000140 d0 72 02 3e 16 fa 5c bc e0 63 f9 3b 2f cf 3e be
       0.1273911 -0.0134873595 0.007610783 -0.18633722
000150 91 60 8d 3d 0a 28 77 3e 15 e7 1a bc 54 e7 f0 3a
       0.06903184 0.24136367 -0.009454508 0.0018379488
000160 77 84 96 bb 42 13 32 3d 67 37 1d bd a6 a1 5d 3e
       -0.0045934278 0.043475397 -0.038382914 0.21643695
000170 f9 79 c0 bd cb 48 b9 3c e0 f9 0c bd 42 91 0e 3e
       -0.093982644 0.022617718 -0.034417987 0.13922599
000180 b7 01 77 bd f2 88 a4 bc 23 5a 62 3d ac 5a 24 3d
       -0.06030437 -0.020084832 0.055261742 0.040125534
000190 ea 26 16 3e 67 3d df bc 03 8c 99 3d 30 d2 36 3e
       0.14663282 -0.027250959 0.07497408 0.17853618
0001a0 38 ed 8a 3d 3d f2 49 bd 1f 87 84 bb f8 35 29 bc
       0.06783527 -0.049303282 -0.004044428 -0.010327809
0001b0 66 e1 cc 3d d6 1e 3e 3e 47 e3 f8 3c 81 09 d8 3c
       0.10003929 0.1856645 0.030381812 0.02637172
0001c0 f2 b2 f5 3d 57 44 39 3e 87 c4 fe 3c 4e 7c 05 ba
       0.11997022 0.18092476 0.03109957 -0.000509207
0001d0 fd c0 e9 3d d0 18 0a 3c 98 be 1d 3e 35 b3 1b be
       0.11413763 0.008428767 0.15404737 -0.15205081
0001e0 a2 9a d2 3d c6 d9 fa 3d 31 ea ce 3d 7d a0 27 3d
       0.102834 0.12248568 0.10103262 0.040924538
0001f0 32 c5 21 bd 26 2e 01 3d e6 f1 20 bd 97 3a 65 bd
       -0.0394947 0.03153815 -0.039293192 -0.05596408
000200 ec 0e ca bd 05 e2 7f 3e fc 17 fa bc 9e 06 c6 3d
       -0.09866127 0.24988563 -0.030529015 0.09669231
000210 75 22 b1 3d b3 94 35 be 12 a1 c1 3b 8b db aa bd
       0.0864915 -0.17732506 0.0059090937 -0.08342656
000220 f5 d1 e6 bd ea 92 51 3c 5e aa 21 be 53 cf 8b be
       -0.11270515 0.012791375 -0.15787646 -0.27306613
000230 59 75 a0 be 6e db dc be a7 99 18 be 8a e9 08 be
       -0.3133953 -0.43136162 -0.14902364 -0.13370338
000240 7b ed 99 be e8 8c 86 bd 27 5c d4 3d 12 b8 96 3c
       -0.30063996 -0.065698445 0.10369139 0.018398318
000250 15 15 c5 3d e1 eb 26 3e 36 a0 ea 3d 95 b7 c8 bd
       0.09623162 0.16300918 0.11456339 -0.098006405
000260 e8 76 ec 3c ba 1e e8 bd e5 b0 a6 3c 6b 71 29 3e
       0.028865293 -0.113339856 0.020348022 0.16547172
000270 78 65 1d bd 04 9e 34 3d 6a d4 d3 bd 8d 02 97 bd
       -0.038426846 0.044096008 -0.10343249 -0.073735334
000280 1c 5f 45 bd 27 0b 2c 3d 53 51 0c bd 8b 14 9d 3d
       -0.048186406 0.042002823 -0.034257244 0.07669934
000290 8b 8b ad 3d 04 cf 0c 3e e6 8f c7 bb 64 ed 63 bc
       0.08473881 0.13750845 -0.006090152 -0.013911579
0002a0 84 6f 42 3d 1e cc 55 be 9a d2 08 bd f6 cc a1 bb
       0.04746963 -0.20878646 -0.03340397 -0.0049377633
0002b0 4c c1 30 bd 73 73 4a be b8 c9 37 be 88 16 0f 3e
       -0.043153092 -0.19770603 -0.17948043 0.13973439
0002c0 53 29 a9 3d 4b fa 46 3c cf cd 0b 3c 33 d7 91 bd
       0.08259835 0.012144635 0.008532955 -0.07121124
0002d0 50 b2 c4 bd 4c e9 05 bc ce 45 64 3d 52 6b 03 bb
       -0.09604323 -0.008173298 0.055730633 -0.0020052982
0002e0 e3 b8 bf 3a 73 bf 9b 3c 39 56 77 bd bd f0 ee bd
       0.0014627244 0.019012189 -0.060384963 -0.11667011
0002f0 db 9b 09 3e c0 e5 ac 3d 81 94 ae be af db 05 be
       0.1343836 0.08442259 -0.34097674 -0.13072084
000300 13 7f 55 3d 4e f0 15 bd 8d 29 88 3b 71 2b 8d 3d
       0.05212314 -0.036606126 0.004155344 0.068930514
000310 d7 16 a2 bd a6 13 9d be ea 9a 74 bd 8b 84 64 3d
       -0.079145126 -0.30679053 -0.05971805 0.055790465
000320 cc a8 dd 3d 5f 38 c9 3d a5 dc bd bd e5 09 03 3e
       0.10823211 0.09825205 -0.092706 0.12796743
000330 75 d2 a5 3d bc 0a f8 bd 6c 8c 05 3c 9a 94 79 bd
       0.08096782 -0.121114224 0.008151155 -0.060932733
000340 1c a3 30 bd f7 1b 26 3d 57 c9 8a be 37 2b 1a 3e
       -0.043124303 0.040554013 -0.27106735 0.15055548
000350 90 bf 8b bd c5 c8 a5 3c 2d b8 e8 bd 22 5b 28 3d
       -0.06823647 0.020237336 -0.11363254 0.041102536
000360 5e ce ca 3d 3d 1a 86 be cc ca 2b 3d 8f 2b 40 3d
       0.09902643 -0.26191893 0.04194145 0.04691654
000370 1a aa 48 3b c3 63 9e bc 1d 04 ff 3d e8 d1 a3 3d
       0.0030618967 -0.01933468 0.124519564 0.07999021
000380 0d 0e e1 3c e0 03 17 3e 71 3f d7 3b ff f9 54 be
       0.02747252 0.14747572 0.006568842 -0.20798491
000390 cd 4b 20 3e 21 43 3b 3e 4b 0b 47 be d1 1b 21 bc
       0.15653916 0.18287326 -0.19437902 -0.009833292
0003a0 c0 57 fb 3d d4 2a b0 bd 3f f6 ba 3d cb 6f ef 3d
       0.12272596 -0.08601919 0.09128999 0.11691245
0003b0 fa 45 68 be 2b 26 a6 bc 56 6a 9a 3e ab 57 aa 3d
       -0.22682944 -0.020281872 0.30159253 0.083175026
0003c0 a8 7e 30 bd b6 07 da 3c d2 51 cb bd f1 83 05 3e
       -0.04308954 0.026615005 -0.09927715 0.13038613
0003d0 f0 80 e6 bc 9a 4c 13 be 2e cc fb bd 17 3b 9e 3e
       -0.028137654 -0.1438469 -0.122948036 0.30904457
0003e0 1d d3 33 3e 8d af 05 3d c5 b6 c4 3d e5 ce ff 3c
       0.17561002 0.03263812 0.09605173 0.031226585
0003f0 fd 21 81 bd 5b 3f 95 3d 4c 4c 00 3d 2e d3 75 3e
       -0.06305311 0.07287475 0.031322762 0.2400634

autoencoder.decoder.2.bias f4 [16]
000000 fd 18 b3 be 59 15 c7 bd 00 da 31 be 67 9d 6b be
       -0.34980002 -0.097208686 -0.17368317 -0.23009263
000010 ca b0 19 3e a0 12 3c be 88 d2 e7 bd bc 04 9d 3d
       0.15008846 -0.1836648 -0.113194525 0.07666919
000020 27 c4 8d bd 04 4d de bd 58 28 f1 bd e3 f4 47 bd
       -0.06922179 -0.10854533 -0.11775273 -0.048817527
000030 f3 fd 0a bf 88 ea d1 bd 02 5e ee 3d 23 7b 09 3e
       -0.54293746 -0.102498114 0.11639024 0.13425879

autoencoder.decoder.4.weight f4 [16, 8, 5, 5]
000000 70 94 29 3d bb 9f 30 3d c9 47 45 bc 0e c2 e8 3d
       0.041401327 0.04312108 -0.012041041 0.11365138
000010 85 a6 79 3c 73 d9 32 3d bc 19 98 3d 8b 66 6f 3c
       0.015237455 0.043664407 0.074267834 0.0146118505
000020 59 96 e0 3d 28 90 52 3d 0b 21 ba 3d 22 11 4f 3e
       0.109661765 0.05140701 0.09088334 0.2022138
000030 f4 91 1f 3e ce 40 25 3e b0 aa a9 bc b1 cb f3 3d
       0.1558302 0.16138002 -0.020711273 0.119040854
000040 1e e7 7a 3e fb 6f 74 3e 3b 98 ce 3d ae 8b 26 bc
       0.24502227 0.23870842 0.100876294 -0.010165138
000050 51 23 16 3e bf fd 70 3e de 73 12 3e 5a b0 dd 3d
       0.1466191 0.23534296 0.14302012 0.10824652
000060 44 2e 8f bc 57 23 12 be 39 34 e8 3d f0 02 02 3e
       -0.017478116 -0.14271294 0.11338086 0.12696433
000070 a7 c4 78 3e 86 7f 55 3e db d4 a2 bd 7a 6c 34 3e
       0.24293767 0.20849428 -0.07950755 0.17619506
000080 15 51 8e 3e c4 50 af 3e 6e c8 3e 3e 28 20 18 3d
       0.27796236 0.34241307 0.18631145 0.03714004
000090 d8 51 97 3e 23 13 c8 3e ab 91 bc 3e 47 56 5f 3e
       0.2955463 0.390771 0.36829886 0.21810256
0000a0 a7 bb 0a 3d e7 6a 63 3e 1a e6 a7 3e fc 21 80 3e
       0.033870365 0.22208749 0.3279274 0.25025928
0000b0 54 c4 dc 3d 63 0d 33 bd 99 20 04 3e ee ec 1f 3e
       0.10779634 -0.04371394 0.1290306 0.15617725
0000c0 5b de 00 3e 63 6d c5 bd af 20 17 3d f0 f8 82 3d
       0.12584822 -0.096400045 0.036896404 0.06395137
0000d0 40 6c 8c 3b 63 14 37 bc 0e 37 07 3d 43 2d a6 bd
       0.0042853653 -0.011174294 0.03301149 -0.08114102
0000e0 1c 71 3e bd 03 08 bf bb c3 a0 c7 bd d0 41 1d be
       -0.04649459 -0.0058298125 -0.0974746 -0.15357137
0000f0 f9 96 9f 3c 21 a6 a0 bd e1 e4 13 be 6c 65 1f be
       0.019481169 -0.078441866 -0.14442779 -0.15566033
000100 2c ed 80 bd 8c e4 ae 3d cf b5 de bd 95 12 c8 3c
       -0.06295237 0.085396856 -0.10874521 0.024422923
000110 f2 fd 38 3c b1 87 2d 3d ac e3 b9 3b 36 61 2a 3d
       0.011291014 0.042365734 0.0056728926 0.041596614
000120 15 89 24 3b 8d 1e 95 bd 74 92 c5 bb 08 97 1d be
       0.0025106121 -0.07281218 -0.0060294215 -0.15389645
000130 bc 69 52 be da 73 b0 bd 01 7b d6 bd 57 89 d3 3d
       -0.20548147 -0.08615847 -0.1047268 0.1032893
000140 0b c2 75 be 14 07 a4 be 28 1c b3 bd 33 98 27 be
       -0.23999803 -0.3203665 -0.08745605 -0.16366653
000150 7b c4 28 bd 4f 00 72 be 0d f7 83 be 24 0d 5c be
       -0.041203003 -0.2363293 -0.25774422 -0.21489388
000160 23 b2 21 be df f5 b2 bc f7 f1 08 be 3a 89 11 be
       -0.1579061 -0.021845756 -0.13373552 -0.14212504
000170 2b 76 be bd 03 dc b2 bd 0a 54 c7 bd 61 2c 0c bd
       -0.092998825 -0.0873337 -0.09732826 -0.03422201
000180 26 20 57 bd e8 70 22 3d 54 95 1f be 12 52 75 bd
       -0.052520894 0.039658457 -0.15584308 -0.05989272
000190 05 f8 d4 bc 30 c6 12 3e 2c 54 1a 3e ef 03 78 3e
       -0.025997171 0.14333415 0.15071172 0.2422025
0001a0 1e e5 1a 3e d1 94 e2 3a 65 e9 80 3e 93 72 b7 3e
       0.15126464 0.0017286782 0.25178066 0.358296
0001b0 0f f6 9e 3e 51 bd 03 3e 32 a2 0e 3e e3 97 ba 3e
       0.31047103 0.12865187 0.1392906 0.36444005
0001c0 d5 fc c5 3e 21 1f 8f 3e d1 c9 d6 3d 02 b8 e6 3c
       0.38669458 0.27953437 0.10487712 0.028163914
0001d0 14 7b 87 3e a0 80 66 3e 2e 68 70 3e 00 1a 54 bc
       0.2646109 0.22510004 0.23477241 -0.012945652
0001e0 e7 ef c5 bd 2a 87 04 3e cf bf f3 3c b4 12 21 bc
       -0.09664898 0.12942186 0.029754547 -0.009831119
0001f0 9f c1 0b be 53 be 76 bd 6b 65 a3 3d d2 d6 32 3e
       -0.1364808 -0.0602401 0.07978328 0.1746476
000200 65 be 55 3d 1e 24 39 bd af fd c6 3d 63 28 7a 3e
       0.052183527 -0.04520046 0.09716355 0.24429469
000210 95 da 74 3e 4f 56 b1 3d 4d 2d 02 bd ea c7 d3 3d
       0.23911507 0.0865904 -0.031781483 0.10340865
000220 34 ef 32 3e 85 d0 13 3e bb 2e 8f 3c f3 78 c1 bd
       0.17474061 0.14435013 0.017478338 -0.09446897
000230 c7 a9 8f 3d b2 9d 29 3d 7c 5f c8 3c 8a 46 17 bd
       0.07014804 0.041410156 0.024459593 -0.036932506
000240 30 fb 23 bd 0d 7d 89 3d 69 b0 d7 bd d1 64 3d bd
       -0.040034473 0.06713305 -0.105316944 -0.046238724
000250 fd b9 f1 bd 48 8a da bd 74 1e 3c bc a7 52 51 bc
       -0.118030526 -0.10670906 -0.01148187 -0.0127760535
000260 5d 43 81 bd 7a 35 17 be 7a 04 e1 bd b6 f2 b0 bd
       -0.06311677 -0.14766493 -0.10987182 -0.086400434
000270 41 22 b0 bd 0d 48 cb bd a5 49 fb bd c9 fb c3 bd
       -0.086002834 -0.09925852 -0.12269906 -0.095695086
000280 f9 a1 2a bd 89 98 7f bd 7a 49 79 bd 37 45 89 bd
       -0.041658375 -0.06240133 -0.06086109 -0.06702655
000290 39 f1 5e bd e6 12 78 bd cb 36 09 be 9f d5 8a bc
       -0.054429267 -0.060564898 -0.13399808 -0.016947566
0002a0 55 55 af 3c 13 79 ce 3d ea a9 25 3d cb 55 15 bd
       0.021402994 0.10081687 0.040445246 -0.03645877
0002b0 99 d9 88 3d 01 57 82 bc 20 15 19 bd 68 be ee bc
       0.066821285 -0.015910627 -0.037373662 -0.029143527
0002c0 cb fe 87 bc 85 b1 c7 bc 8e cc 85 bd 70 d2 b6 3c
       -0.016600987 -0.02437664 -0.06533156 0.022317141
0002d0 c9 12 36 bd ac 5a 40 bd 58 e5 0b bd d9 7d 81 bd
       -0.04445151 -0.04696147 -0.034154266 -0.06322832
0002e0 e1 3a 15 bd bc a9 2d be c6 ac 10 be ea 28 06 be
       -0.036433104 -0.1695928 -0.14128408 -0.13101545
0002f0 f6 96 e8 bd 6e 8f 4d 3d 17 78 11 be 14 69 13 be
       -0.113569185 0.050185613 -0.14205967 -0.14395553
000300 45 c9 77 bd 39 3b 8f bc e7 e3 72 3b f0 6b a1 bd
       -0.06049468 -0.017484294 0.003706211 -0.078819156
000310 d3 38 2c be d8 4d 5d bd ee 9c 5e bd 25 b1 4c bd
       -0.16818552 -0.054029316 -0.05434888 -0.049973626
000320 b8 fe 63 3d 58 b8 74 bc 17 79 35 bd 62 13 9d bd
       0.05566284 -0.014936529 -0.044304933 -0.076697126
000330 70 3b 23 bd 6e ec 07 3e 89 6d 75 3d 45 52 2a 3c
       -0.039851606 0.13273785 0.059918914 0.010395591
000340 6b 86 92 3c 89 f0 9c 3c f5 24 25 3e 46 f5 97 3d
       0.017886361 0.019157665 0.16127379 0.07419829
000350 6a 8e 72 bc 17 b9 87 3d 3b 7e ae 3d a9 0b 87 bc
       -0.014804462 0.066271 0.0852017 -0.016485052
000360 1b 15 16 3c e9 12 5c 3c 24 69 89 3d ae e3 db 3b
       0.009160305 0.013432243 0.06709507 0.006710491
000370 da 35 14 3e 09 eb e8 3d 18 98 3e 3d ec fd 99 3d
       0.14473668 0.113729544 0.046531767 0.07519135
000380 76 56 d0 3c f4 06 79 3d 10 05 27 3d f2 13 9c 3d
       0.025431853 0.060797647 0.040776312 0.07620992
000390 ba c6 7f 3c fb 9c 42 bc c3 74 a6 3d 7c d8 13 3e
       0.015611345 -0.011878247 0.08127739 0.14438051
0003a0 5a 73 04 3e c1 09 55 3d f6 2c 21 3c 56 43 ab 3d
       0.12934628 0.052011255 0.00983738 0.08362453
0003b0 4a a7 54 3e 78 c9 82 3e 8e c8 ed 3d 8d 4e 23 3d
       0.2076694 0.25544333 0.116105184 0.039869834
0003c0 21 1f 8b 3d 9d 68 d5 3d d1 c1 4c 3e a8 f3 c6 3d
       0.06793047 0.10420344 0.1999581 0.097144425
0003d0 ce 50 b4 3d 4c 0f 00 3e 2b 82 14 3e 02 c7 13 3e
       0.08804475 0.12505835 0.1450278 0.14431384
0003e0 0c d3 da 3d 5d a8 bb 3d 78 28 4e bd c2 36 b4 bc
       0.10684785 0.09162972 -0.050331563 -0.021998767
0003f0 b0 5a 91 3d 5f f6 55 3e bc 84 19 bd 7e 5a c6 bd
       0.070973754 0.20894764 -0.0374801 -0.09685229

autoencoder.decoder.4.bias f4 [8]
000000 e4 c4 d1 bd d9 90 b0 bd 94 19 f4 bc 22 0b 7e 3e
       -0.10242632 -0.086213775 -0.029797353 0.24808934
000010 eb a0 03 be 3f 49 15 bd d2 4f 83 bd 4b 6a 85 bd
       -0.12854354 -0.036446806 -0.06411709 -0.065144144

autoencoder.decoder.6.weight f4 [8, 1, 2, 2]
000000 df 8c 8d 3e b1 ed 2d 3f 2c 70 d9 3e 7c ae e1 3e
       0.2764654 0.67940813 0.42468393 0.44078434
000010 6f 09 3c 3f ab 79 b0 3e d3 e4 a8 3e 36 29 c1 3e
       0.73451895 0.34467825 0.3298708 0.37726754
000020 1f 5d 8e be 4d 3f 40 be 8f fb e2 be 4c a1 3e be
       -0.2780542 -0.18774147 -0.4433255 -0.18616217
000030 b2 76 c8 3e fc c2 18 3f 8f 3c 04 3f 36 32 02 3f
       0.39153057 0.5967252 0.51654905 0.50857866
000040 28 a7 96 3e 85 f0 fb 3e 94 0e 2b 3f 2f e1 d5 3e
       0.29424405 0.4920694 0.6681912 0.41773364
000050 6c e3 e5 be f6 19 25 3e 94 85 48 be 32 b8 ce 3e
       -0.44900072 0.16123185 -0.19582206 0.40374905
000060 6a 11 a8 3b 78 62 06 bd f2 26 1c bf 3e f5 d7 be
       0.005129029 -0.03280875 -0.60996926 -0.42179292
000070 e3 19 b9 be 61 e1 02 bf ca 08 58 3e 0f 7d e3 be
       -0.36152562 -0.5112515 0.21097103 -0.4443135
